SuperGo-master/saved_models/1586433406/1-extractor.pth.tar (torch_old, 103299 bytes, 105 tensors)

conv1.weight f4 [10, 17, 3, 3]
0	0x3d46f8d0	0.04857713
1	0x3cd77318	0.026299998
2	0x3d1482c8	0.036257535
3	0xbc9ef7f6	-0.019405346
4	0x3cf1903c	0.029487722
5	0xbd48514c	-0.048905656
6	0x3c9ec12c	0.01937922
7	0xbc883180	-0.016625166
8	0xbd9a42e2	-0.07532288
9	0x3d98e7c8	0.07466084
10	0x3d468a40	0.04847169
11	0xbc776540	-0.0150998235
12	0x3d69d9d8	0.057092518
13	0xbcd2e570	-0.02574417
14	0xbce1a93c	-0.027546518
15	0x3d4bbe48	0.049742013
16	0x39932500	0.00028065592
17	0xbda36fec	-0.07980332
18	0xbcb3a68e	-0.021930005
19	0xbd43df86	-0.04782059
20	0x3d0fadb8	0.03507778
21	0xbbc15d40	-0.005901009
22	0x3d3b546c	0.045734808
23	0xbd983c8e	-0.07433425
24	0xbb2db040	-0.0026502758
25	0xbd9384ca	-0.07203062
26	0x3d2ae772	0.04172463
27	0x3d03d95e	0.03218972
28	0xbd84432e	-0.06458126
29	0x3d801dc8	0.0625568
30	0x3d782404	0.060581222
31	0x3d8c86f2	0.06861676
32	0x3d2fea2a	0.042947926
33	0xbcf278ee	-0.02959868
34	0xbd89a1c3	-0.06720307
35	0xbda222d4	-0.07916799
36	0x3d57e414	0.052707747
37	0x3c06ebf0	0.008234963
38	0x3d26fc88	0.040768176
39	0x3d05b95e	0.032647483
40	0xbd45d0a1	-0.048294667
41	0x3d849c7a	0.06475158
42	0xba492280	-0.00076726824
43	0x3d1c41c8	0.03814867
44	0x3cd87b8c	0.0264261
45	0x3c9a36ac	0.018824898
46	0xbd1d418c	-0.03839259
47	0x3d7cfc18	0.061763853
48	0xbcf6c18e	-0.030121591
49	0xbb76ac00	-0.003763914
50	0xbd0e1929	-0.034691963
51	0xbac4b400	-0.0015007257
52	0x3d90113e	0.07034539
53	0x3d1c9e90	0.038237154
54	0x3cf136d8	0.029445097
55	0xbafa53c0	-0.0019098446
56	0x3cd43200	0.025902748
57	0x3d5521dc	0.052034244
58	0x3d126eb0	0.03575009
59	0xbd6d2cb8	-0.057903975
60	0xbd8c4c3b	-0.06850477
61	0xbc061c78	-0.008185498
62	0x3d87c76e	0.06629835
63	0xbc8466ac	-0.016162239
64	0xbc0be338	-0.00853806
65	0x3d9e5bcc	0.077323526
66	0x3d78f9b4	0.06078501
67	0x3d3bcae8	0.045847803
68	0x3d68db7c	0.05684994
69	0xbda23321	-0.07919908
70	0x3b043d20	0.0020178035
71	0xbce391ec	-0.027779542
72	0xbca8a9a0	-0.020588696
73	0x3d577894	0.052605227
74	0x3d600954	0.054696396
75	0x3d3e4e9c	0.046461686
76	0xbd7fd9ce	-0.062463574
77	0xbc9e9e4e	-0.019362595
78	0x3d0a2324	0.03372492
79	0x3c1fbc00	0.009749413
80	0x3c515d08	0.012778528
81	0x3be60630	0.0070197806
82	0xbc53a5a8	-0.0129179135
83	0x3da1efce	0.07907067
84	0xbc862e4c	-0.016379498
85	0xbc911200	-0.017708778
86	0x3b9296e0	0.004473552
87	0xbc057678	-0.008145921
88	0xbd090ce4	-0.03345956
89	0xbc3baa38	-0.0114541575
90	0xbc9f3906	-0.01943637
91	0xbd43323e	-0.047655337
92	0x3d9fbbfe	0.077995285
93	0xbd362767	-0.04447117
94	0xbcf0b502	-0.029383186
95	0xbd3fb410	-0.04680258
96	0xbcae7206	-0.021294605
97	0x3b2be480	0.0026228726
98	0x3d6051fc	0.054765686
99	0x3c8fb898	0.017544076
100	0xbd27079b	-0.040778738
101	0xbcf1f9e2	-0.029538099
102	0xbca7ceb2	-0.020484302
103	0xbbf78050	-0.007553138
104	0x3d827e9c	0.06371805
105	0x3ca06f10	0.019584209
106	0x3cecd950	0.028912216
107	0xbb4feda0	-0.003172733
108	0x3d3ab0bc	0.045578703
109	0xbc851344	-0.016244538
110	0xbd6909a8	-0.056893975
111	0xbd93e424	-0.07221249
112	0x3d9729d8	0.07381028
113	0x3d9fb342	0.077978626
114	0xbb205ba0	-0.0024468675
115	0x3d972aca	0.07381208
116	0x3d349830	0.04409045
117	0x3d8204f2	0.063485995
118	0xbd4b8548	-0.049687654
119	0xbd82a62c	-0.06379351
120	0xbc023540	-0.007947266
121	0x3d8a75ca	0.06760748
122	0xbc537f70	-0.012908801
123	0x3d0103ea	0.031497873
124	0x3c0f50d8	0.008747302
125	0x3da0cfc8	0.07852131
126	0xbd3f9e68	-0.046781927
127	0x3d470eb0	0.04859799
128	0xbc652150	-0.013984993
129	0xbda54e0b	-0.08071526
130	0xbd316bfd	-0.043315876
131	0x3c5a5ac0	0.013327301
132	0xbd270924	-0.0407802
133	0xbd033221	-0.03203023
134	0x3da34680	0.07972431
135	0xbc88fa48	-0.016720906
136	0xbcf4e956	-0.02989642
137	0x3d28f32a	0.041247524
138	0xbd30552d	-0.04304998
139	0x3d0b3980	0.033990383
140	0x3d5dc194	0.05413969
141	0x3d7f0a54	0.06226571
142	0xbcd748d4	-0.026279844
143	0x3ce23058	0.027610943
144	0xbd66b39c	-0.056323633
145	0x38ec7400	0.000112749636
146	0xbcb0a9a4	-0.021565266
147	0x3cb31840	0.02186215
148	0x3d886154	0.06659189
149	0xbd028a15	-0.031869967
150	0xbd87ed15	-0.06637017
151	0x3d75a868	0.059975058
152	0xbcdbc760	-0.026828468
153	0xbd0ce161	-0.034394626
154	0xba334800	-0.0006839037
155	0xbb610d80	-0.0034340322
156	0x3be0ddb0	0.0068623647
157	0x3ceff508	0.029291645
158	0xbd9c7b70	-0.07640731
159	0xbc8b56d0	-0.017009169
160	0x3d8d33f0	0.06894672
161	0xbc542bf8	-0.012949936
162	0xbda0620c	-0.07831201
163	0xbd68aa34	-0.056802943
164	0xbb7d4960	-0.0038648471
165	0x3d5dde6c	0.054167196
166	0xbd894104	-0.06701854
167	0x3cb28f28	0.021796778
168	0xbd70a8d4	-0.058754757
169	0xbd926680	-0.071484566
170	0xbd7ba3ed	-0.06143563
171	0x3c109c58	0.008826338
172	0x3cb1e160	0.021713912
173	0x3d2deac8	0.042460233
174	0xbd5ef262	-0.054430373
175	0x3da4d466	0.08048324
176	0xbc89f164	-0.016838737
177	0x3d29a77a	0.041419484
178	0x3d2447aa	0.040107407
179	0xbd902160	-0.07037616
180	0xbd5eb7ae	-0.05437439
181	0x3d894594	0.06702724
182	0xbcaf7bfc	-0.021421425
183	0xbceea490	-0.029131204
184	0xbd867b23	-0.06566455
185	0xbd86c68b	-0.06580838
186	0x3d72a6e8	0.059241205
187	0x3c6a73b0	0.014309809
188	0xbd95bdaa	-0.07311566
189	0x3d51e2d0	0.051241696
190	0x3d897690	0.06712067
191	0x3d3320fa	0.04373262
192	0x3cd89260	0.026436985
193	0xbd986844	-0.07441762
194	0xbd49b4c3	-0.049244653
195	0xbd889a94	-0.066701084
196	0xbda44b2f	-0.08022153
197	0xbc1c2150	-0.009529427
198	0x3c94e740	0.018176675
199	0x3d12c3c2	0.03583122
200	0x3d3e2e90	0.046431124
201	0x3cf2747c	0.02959656
202	0x3cfde968	0.030995086
203	0x3d3c7d70	0.046018064
204	0xbd27a928	-0.040932804
205	0xbd919345	-0.071081676
206	0xbcca058c	-0.024660848
207	0xbd8b5de6	-0.06805019
208	0x3da398c0	0.07988119
209	0x3cfbf010	0.03075412
210	0x3d67c390	0.056582987
211	0x3da25540	0.079264164
212	0xbc9f2610	-0.01942733
213	0x3d636f5c	0.055526122
214	0x3c84ecd8	0.016226217
215	0x3d12e9ba	0.03586743
216	0xbd9d7de2	-0.07690026
217	0x3c1e3b68	0.009657718
218	0xbd727bb6	-0.05920001
219	0x3d3d5adc	0.04622923
220	0x3cac7cd4	0.021055616
221	0xbd60a454	-0.054844216
222	0x3d7061c8	0.058687
223	0xbce5cf70	-0.028053015
224	0x3c980138	0.018555269
225	0xbd5056e8	-0.05086413
226	0x3d2702be	0.0407741
227	0xbd94814b	-0.07251223
228	0x3d48dfb0	0.04904145
229	0xbcf2fd02	-0.02966166
230	0x3d1d22ce	0.03836327
231	0x3cd70e64	0.02625198
232	0xbd32feb0	-0.04369992
233	0x3cbbe00c	0.022933982
234	0x3ccc12a8	0.02491124
235	0xbd9c805a	-0.076416686
236	0x3d8a26d0	0.06745684
237	0x3c88a928	0.016682222
238	0x3d07889e	0.033089273
239	0xbd4ba582	-0.049718387
240	0xbd838f3e	-0.06423806
241	0x3d0ef126	0.034897946
242	0x3c4a39d8	0.012342893
243	0x3cc56984	0.024098165
244	0xbd7a8a96	-0.061167322
245	0x3d5cd31c	0.053912267
246	0x3b0e3680	0.0021699965
247	0xbd3b5606	-0.045736335
248	0xbcec047a	-0.028810728
249	0xbd77cf22	-0.06050027
250	0xbca61f44	-0.02027858
251	0x3d20e69a	0.03928242
252	0x3d12e676	0.035864316
253	0x3ce9c2a8	0.028535202
254	0x3d07b95c	0.033135757
255	0x3d93b96a	0.07213099

bn1.weight f4 [10]
0	0x3f800000	1.0
1	0x3f800000	1.0
2	0x3f800000	1.0
3	0x3f800000	1.0
4	0x3f800000	1.0
5	0x3f800000	1.0
6	0x3f800000	1.0
7	0x3f800000	1.0
8	0x3f800000	1.0
9	0x3f800000	1.0

bn1.bias f4 [10]
0	0x00000000	0.0
1	0x00000000	0.0
2	0x00000000	0.0
3	0x00000000	0.0
4	0x00000000	0.0
5	0x00000000	0.0
6	0x00000000	0.0
7	0x00000000	0.0
8	0x00000000	0.0
9	0x00000000	0.0

bn1.running_mean f4 [10]
0	0x00000000	0.0
1	0x00000000	0.0
2	0x00000000	0.0
3	0x00000000	0.0
4	0x00000000	0.0
5	0x00000000	0.0
6	0x00000000	0.0
7	0x00000000	0.0
8	0x00000000	0.0
9	0x00000000	0.0

bn1.running_var f4 [10]
0	0x3f800000	1.0
1	0x3f800000	1.0
2	0x3f800000	1.0
3	0x3f800000	1.0
4	0x3f800000	1.0
5	0x3f800000	1.0
6	0x3f800000	1.0
7	0x3f800000	1.0
8	0x3f800000	1.0
9	0x3f800000	1.0

res0.conv1.weight f4 [10, 10, 3, 3]
0	0xbcacf808	-0.021114364
1	0x3d7d97c6	0.06191232
2	0xbd7fa6c3	-0.062414896
3	0x3d0ad20a	0.033891715
4	0x3d812ba9	0.06307156
5	0xba22af80	-0.0006205961
6	0xbd9c95e8	-0.0764578
7	0xbdbd361c	-0.09238836
8	0xbd218588	-0.039433986
9	0x3d6e37c6	0.05815866
10	0xbdbf98f2	-0.09355344
11	0xbda4ccaf	-0.08046853
12	0x3d9d19fb	0.07670971
13	0xbd3322fc	-0.043734536
14	0x3da87f39	0.08227391
15	0x3dd17c0d	0.10228739
16	0xbd9be310	-0.07611668
17	0x3ba11310	0.0049156025
18	0xbdcfe352	-0.1015078
19	0x3db6ba4d	0.08922253
20	0x3cdc720c	0.02690985
21	0xbd059f62	-0.032622702
22	0xbd8c2ee6	-0.06844883
23	0x3d8771e3	0.06613519
24	0x3c29e110	0.0103686005
25	0x3cbb1944	0.022839196
26	0x3dc407bd	0.095717885
27	0xbdb64a7c	-0.089009255
28	0x3d17f99e	0.037103288
29	0xbd06e324	-0.032931462
30	0x3cfc57a4	0.030803509
31	0xbd1b00e8	-0.03784266
32	0x3da6325d	0.08115075
33	0x3d5cd446	0.053913377
34	0x3d166f0e	0.036727004
35	0xbd478b87	-0.048717048
36	0x3db09113	0.08621421
37	0x3d176056	0.036957107
38	0x3d8bf3b5	0.06833593
39	0x3cc1999c	0.023632817
40	0x3c289290	0.0102888495
41	0xbccec9f4	-0.025242783
42	0x3dcf7949	0.10130555
43	0xbd909de8	-0.07061368
44	0xbd33342a	-0.04375092
45	0x3dcf87fd	0.101333596
46	0x3cae1184	0.021248586
47	0xbdcbe291	-0.099553235
48	0x3ceb02c4	0.028687842
49	0xbd2da00e	-0.04238897
50	0xbd606a16	-0.05478867
51	0xbd939346	-0.072058246
52	0x3d45c8e2	0.04828728
53	0xbdae8a98	-0.085225284
54	0xbd6cf1d9	-0.05784783
55	0x3da035f9	0.078227945
56	0xbd99697c	-0.07490823
57	0xbd837af1	-0.064199336
58	0x3d5fc106	0.05462744
59	0xbdab2a32	-0.083576575
60	0xbd21a9a6	-0.03946843
61	0xbdc4d4b2	-0.09610881
62	0x3dd0c391	0.10193551
63	0xbd94515d	-0.07242081
64	0x3dce0c33	0.100609206
65	0x3d6aa7b2	0.057288833
66	0xbd1da5c8	-0.03848818
67	0xbd8e02f6	-0.069341585
68	0x3dcf14fb	0.101114236
69	0xbd60212f	-0.054719146
70	0x3dbc606d	0.09198079
71	0x3cd0cf34	0.025489427
72	0xbd8a322c	-0.06747851
73	0x3d25927e	0.04042291
74	0xbba3bcf0	-0.0049968883
75	0xbcd898e0	-0.026440084
76	0x3d905873	0.0704812
77	0x3dca617f	0.09881877
78	0xbb85cdb0	-0.0040833578
79	0xbc1061a8	-0.008812346
80	0xbdaa2b86	-0.08309083
81	0xbd19ff54	-0.037597016
82	0xbd1a335c	-0.037646636
83	0x3db7c135	0.08972398
84	0x3d7a046e	0.06103938
85	0x3d9f75c1	0.07786132
86	0x3d8789c7	0.06618076
87	0x3da2a8bd	0.079423405
88	0xbdce0b35	-0.10060731
89	0x3d27ed22	0.04099763
90	0x3da94369	0.082648106
91	0xbd00a54a	-0.031407632
92	0x3d4af82a	0.049553074
93	0x3cb58834	0.022159673
94	0xbca3e010	-0.020004302
95	0xbd0f9a88	-0.03505948
96	0xbc439a90	-0.011938706
97	0xbd7f04db	-0.06226049
98	0xbd301d73	-0.042996835
99	0x3d7b23ce	0.061313443
100	0xbd749d55	-0.059720356
101	0xbd879b18	-0.06621379
102	0x3cb9889c	0.022648148
103	0xbdbc946d	-0.092079975
104	0xbd897705	-0.06712154
105	0xbd7dad10	-0.061932623
106	0xbd16da7a	-0.03682945
107	0xbba927a0	-0.0051621944
108	0xbd4c6ec3	-0.049910318
109	0xbd81e583	-0.06342604
110	0xbd910241	-0.07080508
111	0xbdadef86	-0.08492951
112	0xbc0aeff8	-0.008480065
113	0xbc8fbf38	-0.017547235
114	0xbd191ec0	-0.03738284
115	0xbd5b5101	-0.05354405
116	0x3d130dea	0.03590194
117	0xbd9967a8	-0.07490474
118	0xbd7a3b8d	-0.06109195
119	0x3d259106	0.04042151
120	0x3da0c0bf	0.078492634
121	0xbda91443	-0.08255818
122	0xbdb33b13	-0.08751502
123	0xbc60c798	-0.013719462
124	0xbd02ed48	-0.03196457
125	0xbaaa1fc0	-0.0012979433
126	0xbb9f9b80	-0.004870832
127	0xbd122d90	-0.035687983
128	0x3d7da652	0.061926194
129	0xbdc376cc	-0.09544143
130	0xbd71578e	-0.05892139
131	0x3dd15933	0.102220915
132	0x3c483d50	0.012221649
133	0x3dcc2283	0.0996752
134	0xbd2e9a88	-0.04262784
135	0xbd9a4e7b	-0.075345
136	0x3d85a8e3	0.06526353
137	0xbdbba9f8	-0.09163278
138	0xbc764de8	-0.015033223
139	0x3dd24f9b	0.1026909
140	0x3d033a66	0.032038115
141	0xbdb08cea	-0.08620627
142	0x3d4c6e46	0.049909852
143	0x3c8c2d28	0.017111376
144	0x3d87f817	0.06639116
145	0xbdbef1d3	-0.09323468
146	0x3da0ee8d	0.07858
147	0x3d85abd9	0.06526918
148	0xbd80d4d1	-0.062905915
149	0xbdd44458	-0.10364598
150	0xbca19d00	-0.019728184
151	0xbc9e6df4	-0.01933954
152	0xbaaf18c0	-0.0013358817
153	0xbdbf9211	-0.09354032
154	0x3d5639be	0.05230116
155	0x3d99d575	0.07511417
156	0xbd0f71d4	-0.035020664
157	0x3da3cb2f	0.079977386
158	0x3dc9d401	0.0985489
159	0xbdb26259	-0.087101646
160	0xbcb39138	-0.021919832
161	0x3daf5fc3	0.08563187
162	0xbcfca440	-0.03084004
163	0x3d810a85	0.063008346
164	0xbd0eb6f4	-0.034842446
165	0x3c82ead4	0.015981115
166	0x3d9b0963	0.0757015
167	0xbdba5541	-0.09098292
168	0x3d2e6eaa	0.042586006
169	0x3dbc0e11	0.091823705
170	0x3d654a66	0.055979155
171	0x3db403c5	0.087897815
172	0x3d4cd42a	0.050007023
173	0x3dbf79a9	0.09349377
174	0xbcce09a8	-0.025151089
175	0xbc841d04	-0.016127117
176	0xbda810d0	-0.08206332
177	0x3db7be2d	0.0897182
178	0x3cb616dc	0.022227697
179	0x3dc06503	0.093942665
180	0xbd2ee864	-0.042702094
181	0x3da3b17d	0.079928376
182	0xbd78aa60	-0.060709357
183	0xbc2e8120	-0.010650903
184	0x3cb5df34	0.022201158
185	0x3d4127b6	0.047157012
186	0x3d63edca	0.055646695
187	0x3d50265a	0.050817825
188	0xbdba1b3b	-0.09087225
189	0x3d3a1c6a	0.045437254
190	0x3c5dc8c0	0.013536632
191	0xbd8bae15	-0.06820313
192	0xbc879624	-0.016551085
193	0x3d98db9d	0.07463763
194	0x3d9972e9	0.074926205
195	0xbd82a11e	-0.06378387
196	0x3dcbed6b	0.09957393
197	0x3ceadc8c	0.028669618
198	0x3d99947b	0.074990235
199	0xbcdb7bc4	-0.026792414
200	0xbbdeda90	-0.006800957
201	0x3d3bf91a	0.04589186
202	0xbdcdf4fb	-0.10056492
203	0x3c2cfec0	0.010558784
204	0xbda32f00	-0.07967949
205	0x3db33c7d	0.087517716
206	0xbd5a32b6	-0.053271018
207	0x3db12ecb	0.08651503
208	0xbd1962aa	-0.03744761
209	0x3d01cf62	0.031691916
210	0x3dad42b1	0.08459986
211	0xbdb8b919	-0.090196796
212	0x3a9e6700	0.001208514
213	0xbdd3bd7e	-0.10338877
214	0xbd0aa0d2	-0.033844776
215	0xbd9a3ad9	-0.075307555
216	0xbd9a7892	-0.07542528
217	0x3da3205f	0.07965159
218	0xbdc3d2b5	-0.095616736
219	0xbd4ae6bb	-0.049536448
220	0x3d25f00a	0.040512122
221	0xbd5cdacc	-0.0539196
222	0xbd8b6664	-0.06806639
223	0x3da6cc8b	0.08144482
224	0x3bd1cdd0	0.0064027086
225	0xbda65f03	-0.08123591
226	0xbd346c63	-0.044048678
227	0xbd5216a6	-0.05129113
228	0x3d88e01f	0.06683373
229	0xbd56c7e1	-0.052436713
230	0x3dac798b	0.0842162
231	0x3dc71893	0.09721484
232	0xbd77bd1d	-0.060483087
233	0xbd986952	-0.07441963
234	0xbc2bf988	-0.010496505
235	0x3da8d2a1	0.08243299
236	0xbd5c367e	-0.053762905
237	0x3cefa1e4	0.029252
238	0xbd347b97	-0.044063177
239	0xbda2d6a0	-0.07951093
240	0x3d8939eb	0.067005
241	0x3db5966d	0.08866582
242	0x3dab9279	0.08377547
243	0x3da31dd3	0.07964673
244	0xbc25b050	-0.010112837
245	0xbbfa8100	-0.0076447725
246	0x3d735046	0.059402727
247	0xbd96f455	-0.073708214
248	0xbda10d18	-0.078638256
249	0x3db6ee15	0.08932129
250	0xbd61061b	-0.054937463
251	0x3d00233e	0.03128361
252	0x3d8b729b	0.06808969
253	0x3cc701a4	0.024292774
254	0x3d910a85	0.070820846
255	0xbd22e62e	-0.039770298

res0.bn1.weight f4 [10]
0	0x3f800000	1.0
1	0x3f800000	1.0
2	0x3f800000	1.0
3	0x3f800000	1.0
4	0x3f800000	1.0
5	0x3f800000	1.0
6	0x3f800000	1.0
7	0x3f800000	1.0
8	0x3f800000	1.0
9	0x3f800000	1.0

res0.bn1.bias f4 [10]
0	0x00000000	0.0
1	0x00000000	0.0
2	0x00000000	0.0
3	0x00000000	0.0
4	0x00000000	0.0
5	0x00000000	0.0
6	0x00000000	0.0
7	0x00000000	0.0
8	0x00000000	0.0
9	0x00000000	0.0

res0.bn1.running_mean f4 [10]
0	0x00000000	0.0
1	0x00000000	0.0
2	0x00000000	0.0
3	0x00000000	0.0
4	0x00000000	0.0
5	0x00000000	0.0
6	0x00000000	0.0
7	0x00000000	0.0
8	0x00000000	0.0
9	0x00000000	0.0

res0.bn1.running_var f4 [10]
0	0x3f800000	1.0
1	0x3f800000	1.0
2	0x3f800000	1.0
3	0x3f800000	1.0
4	0x3f800000	1.0
5	0x3f800000	1.0
6	0x3f800000	1.0
7	0x3f800000	1.0
8	0x3f800000	1.0
9	0x3f800000	1.0

res0.conv2.weight f4 [10, 10, 3, 3]
0	0x3d9e272d	0.07722316
1	0xbbb31a50	-0.005465783
2	0xbca00478	-0.01953338
3	0xbc08c650	-0.008348063
4	0x3d54d7a2	0.051963456
5	0xbd547af9	-0.05187509
6	0xbd96cfc6	-0.073638484
7	0xbcfab788	-0.030605093
8	0xbbad1ee0	-0.0052832216
9	0xbdb56e6e	-0.088589534
10	0x3d90379b	0.07041856
11	0x3c3be830	0.011468932
12	0xbd5a87e5	-0.053352255
13	0xbd925c7a	-0.07146545
14	0x3d8e0715	0.069349445
15	0xbcabe700	-0.020984173
16	0xbdc0bd25	-0.094110765
17	0x3d2d1306	0.04225447
18	0x3d8deb41	0.06929637
19	0x3af53640	0.0018708184
20	0xbd4a255f	-0.049352046
21	0xbdca1c55	-0.09868685
22	0xbdd1cb86	-0.10243897
23	0x3dd25d11	0.10271657
24	0x3d8329e1	0.06404472
25	0x3d9a976f	0.07548415
26	0x39fd7a00	0.00048346817
27	0xbdc89d24	-0.09795597
28	0xbd339b12	-0.04384906
29	0x3d906de1	0.07052208
30	0x3d02a426	0.031894825
31	0x3c556490	0.013024464
32	0xbd8a3164	-0.06747702
33	0x3d969b3b	0.073538266
34	0x3c5f7520	0.013638765
35	0xbdae7426	-0.08518247
36	0xbdb1034a	-0.086432055
37	0xbce9d7bc	-0.028545253
38	0xbd226eb0	-0.03965634
39	0xbd33351d	-0.043751825
40	0x36798000	3.7178397e-06
41	0x3dce5fcb	0.10076865
42	0x3cc229cc	0.02370157
43	0xbdd711da	-0.10501452
44	0xbc8b66a4	-0.017016716
45	0x3db982ff	0.09058189
46	0xbd82923c	-0.06375548
47	0x3c68e650	0.014215067
48	0xbdbd6ea1	-0.092496164
49	0xbd139386	-0.03602936
50	0x3d927611	0.07151426
51	0xbaa2d000	-0.0012421608
52	0xbb78e160	-0.003797613
53	0xbc89b110	-0.016808063
54	0x3d9b0735	0.07569734
55	0x3c9dbc3c	0.019254796
56	0xbd60f820	-0.05492413
57	0x3b693fe0	0.003559105
58	0x3d3987d2	0.045295544
59	0xbd0afe52	-0.033933945
60	0xbda43e7e	-0.08019732
61	0x3d1b23ca	0.037875928
62	0xbdc2bac0	-0.09508276
63	0xbdd427f3	-0.10359182
64	0xbd2590c6	-0.04042127
65	0x3d396db2	0.04527063
66	0x3d8d128f	0.068883054
67	0xbdc59a42	-0.09648563
68	0x3cff15e4	0.031138368
69	0xbdb2b7fc	-0.087264985
70	0xbd0c518e	-0.034257464
71	0x3d23b642	0.039968736
72	0x3d042f1a	0.032271482
73	0x3d265d02	0.040616043
74	0x3db3c74f	0.087782495
75	0x3d42aa52	0.04752571
76	0x3d9e0fe3	0.07717874
77	0x3dcae643	0.099072
78	0x3d8db659	0.06919546
79	0x3d4628e2	0.048378833
80	0x3da55de7	0.08074551
81	0x3d31a77a	0.04337261
82	0xbd4638ea	-0.04839412
83	0xbc1cfc58	-0.009581648
84	0xbd024704	-0.031806007
85	0x3d65e0f6	0.056122743
86	0xbcb3fcc8	-0.021971121
87	0x3dd0cc23	0.10195186
88	0xbd3e73bc	-0.04649709
89	0xbd61275a	-0.05496917
90	0x3db750bb	0.08950945
91	0x3dba6e55	0.091030754
92	0xbd31e495	-0.043430883
93	0x3c28cc10	0.010302559
94	0x3c36f1e8	0.011166073
95	0xbd2fb560	-0.042897582
96	0x3cbc9834	0.023021795
97	0x3d9ffe49	0.07812173
98	0x3d7c7116	0.061631285
99	0x3d1687c6	0.036750577
100	0xbccf6224	-0.025315352
101	0x3bd41d40	0.0064732134
102	0x3da8656f	0.08222472
103	0xbd0e8aca	-0.03480033
104	0x3d8e8331	0.069586165
105	0x3d85e233	0.06537285
106	0x3c9f5560	0.01944989
107	0xbd87ddfe	-0.066341385
108	0xbd812bcc	-0.06307182
109	0x3daee331	0.08539427
110	0x3d2fce7a	0.04292152
111	0xbd78ffae	-0.06079071
112	0xbd1f7ac6	-0.038935445
113	0xbd84501b	-0.064605914
114	0xbd8bd3c6	-0.06827502
115	0xbd5c8865	-0.053841013
116	0x3d9ea867	0.07746964
117	0x389c6800	7.458031e-05
118	0xbcfbdf08	-0.030745998
119	0x3d9a8531	0.075449355
120	0xbd97b656	-0.07407825
121	0x3c597778	0.0132731125
122	0x3dd0dc1d	0.10198233
123	0x3bb84bd0	0.005624272
124	0x3a8e7cc0	0.0010870919
125	0x3dbec563	0.09314992
126	0xbda0bc5e	-0.07848428
127	0xbbc9c420	-0.006157413
128	0xbdcf0040	-0.101074696
129	0xbc347348	-0.011013813
130	0xbdb8e19f	-0.09027409
131	0xbdae1722	-0.08500506
132	0x3d2d0ec6	0.042250417
133	0x3dc5d971	0.09660614
134	0xbd429c76	-0.047512494
135	0x3dcaabdd	0.098960616
136	0x3cfe4874	0.031040408
137	0x3d2cb45e	0.0421642
138	0xbbff4440	-0.0077901185
139	0xbd03a944	-0.032143846
140	0x3c939ca4	0.018019028
141	0xbdcc02ea	-0.09961493
142	0x3cadb8e4	0.021206327
143	0x3db7431b	0.08948346
144	0x3d40d8a2	0.047081597
145	0x3cc2d60c	0.023783706
146	0xbd5b93df	-0.053607818
147	0xbd3101b0	-0.0432145
148	0x3cfc99f4	0.03083513
149	0xbcdb7430	-0.026788801
150	0xbc65fd48	-0.014037438
151	0x3d9023d3	0.07038083
152	0x3d84e7ef	0.0648955
153	0xbc57af48	-0.013164349
154	0x3d05994a	0.03261689
155	0x3c3d6cf0	0.011561617
156	0xbdc0e5df	-0.094188444
157	0x3cc2947c	0.023752443
158	0xbcfe90c4	-0.031074889
159	0xbaf37880	-0.001857534
160	0xbd972685	-0.07380394
161	0x3d9eda09	0.07756431
162	0x3dca1ce9	0.098687954
163	0x3dad7f17	0.08471506
164	0xbdb27840	-0.08714342
165	0x3d3d1a82	0.046167858
166	0x3ca4f574	0.020136572
167	0xbd8a9f1e	-0.067686304
168	0x3d20acfe	0.03922748
169	0x3c1947a8	0.009355463
170	0x3d4e5d86	0.05038216
171	0x3dc681b5	0.096927084
172	0xbd82d91e	-0.06389068
173	0x3db2a511	0.0872289
174	0x3cc77c84	0.024351366
175	0x3d9154c1	0.07096244
176	0xbdbe145a	-0.092812255
177	0x3dcf5999	0.10124511
178	0xbc902b80	-0.017598867
179	0x3d743482	0.059620388
180	0x3c5ceb80	0.013483882
181	0x3d56020a	0.05224804
182	0xbdc888fc	-0.09791753
183	0x3dc0956f	0.09403502
184	0xbd692d65	-0.056928057
185	0xbcacb834	-0.021083929
186	0x3c662658	0.014047228
187	0x3ca0676c	0.019580565
188	0xbc005988	-0.007833846
189	0x3c996e20	0.01872927
190	0x3dae655f	0.08515429
191	0x3d83a5ed	0.06428132
192	0x3d3848a2	0.044991143
193	0x3ba4e170	0.005031757
194	0x3d10d2a6	0.03535714
195	0x3c4ba288	0.012428887
196	0xbd2101de	-0.03930842
197	0xbdc356a9	-0.095380135
198	0xbbd0dcc0	-0.0063739717
199	0xba81bf40	-0.0009898916
200	0x3ceda53c	0.029009454
201	0x3d06aa62	0.032877333
202	0x3cc4e96c	0.024037085
203	0xbc4aa010	-0.012367263
204	0xbc45f6c8	-0.012082763
205	0xbdd20a3b	-0.102558576
206	0xbd9681b6	-0.07348959
207	0x3ca2730c	0.01983025
208	0xbdbfef46	-0.0937181
209	0xbd71a685	-0.058996696
210	0x3dd22cbb	0.10262438
211	0x3da89d59	0.08233137
212	0xbd0b7a8e	-0.034052424
213	0x3cad3c2c	0.021146856
214	0xbd98495d	-0.07435868
215	0xbdc8c286	-0.098027274
216	0x3d81aabf	0.06331395
217	0x3c8382d8	0.016053602
218	0x3d034bc2	0.03205467
219	0x3d12e8f2	0.035866685
220	0xbd585226	-0.052812718
221	0xbd51d2f7	-0.051226582
222	0xbd917b40	-0.07103586
223	0xbd4f288f	-0.05057579
224	0xbd9c2c99	-0.07625694
225	0xbd82532a	-0.063635185
226	0xbce05f40	-0.027389169
227	0x3cc152b4	0.023599006
228	0xbb7bb080	-0.0038404763
229	0x3cf74e84	0.030188806
230	0x3d26465e	0.04059445
231	0xbd4ca5a0	-0.04996264
232	0x3dc88d65	0.09792594
233	0x3d45f692	0.04833085
234	0x3d39cba2	0.045360215
235	0x3d7d1c4a	0.061794557
236	0x3c932908	0.017963901
237	0xbdcceee3	-0.100065015
238	0x3d9fe673	0.078076266
239	0xbd65d8b0	-0.056114852
240	0xbd9b2e8b	-0.07577237
241	0x3d80b907	0.06285291
242	0x3db80b63	0.08986547
243	0xbd0d7fcc	-0.034545705
244	0xbd6a17b5	-0.057151515
245	0xbc9f6644	-0.019457944
246	0x3d145be6	0.036220454
247	0xbd7cf8ae	-0.061760597
248	0x3da3da99	0.080006786
249	0x3bde66d0	0.0067871585
250	0xbc365260	-0.011128038
251	0xbd943cc6	-0.07238154
252	0xbdbac61f	-0.0911982
253	0x3cbebc3c	0.023283117
254	0x3dbe52c7	0.09293132
255	0xbdc30636	-0.09522669

res0.bn2.weight f4 [10]
0	0x3f800000	1.0
1	0x3f800000	1.0
2	0x3f800000	1.0
3	0x3f800000	1.0
4	0x3f800000	1.0
5	0x3f800000	1.0
6	0x3f800000	1.0
7	0x3f800000	1.0
8	0x3f800000	1.0
9	0x3f800000	1.0

res0.bn2.bias f4 [10]
0	0x00000000	0.0
1	0x00000000	0.0
2	0x00000000	0.0
3	0x00000000	0.0
4	0x00000000	0.0
5	0x00000000	0.0
6	0x00000000	0.0
7	0x00000000	0.0
8	0x00000000	0.0
9	0x00000000	0.0

res0.bn2.running_mean f4 [10]
0	0x00000000	0.0
1	0x00000000	0.0
2	0x00000000	0.0
3	0x00000000	0.0
4	0x00000000	0.0
5	0x00000000	0.0
6	0x00000000	0.0
7	0x00000000	0.0
8	0x00000000	0.0
9	0x00000000	0.0

res0.bn2.running_var f4 [10]
0	0x3f800000	1.0
1	0x3f800000	1.0
2	0x3f800000	1.0
3	0x3f800000	1.0
4	0x3f800000	1.0
5	0x3f800000	1.0
6	0x3f800000	1.0
7	0x3f800000	1.0
8	0x3f800000	1.0
9	0x3f800000	1.0

res1.conv1.weight f4 [10, 10, 3, 3]
0	0x3d410546	0.04712417
1	0xbcfad43c	-0.03061878
2	0xbd8e0070	-0.06933677
3	0xbd781acf	-0.06057244
4	0x3dbff753	0.09373345
5	0xbdcea892	-0.10090746
6	0x3bd72a40	0.006566316
7	0x3d01ff76	0.031737767
8	0xbda0c5de	-0.0785024
9	0xbdca530c	-0.09879121
10	0xbce49714	-0.02790407
11	0xbc511458	-0.012761198
12	0x3dc2005b	0.09472724
13	0x3d9faca1	0.07796598
14	0xbc4200c8	-0.011841007
15	0x3d84b9c5	0.06480745
16	0x3dac52d5	0.084142365
17	0x3c6dc450	0.014512137
18	0x3d1a8c12	0.037731238
19	0x3b0efc40	0.0021817833
20	0xbdcf5dc0	-0.10125303
21	0xbdc7e729	-0.09760887
22	0xbb8cd540	-0.0042978823
23	0x3d0bd7c2	0.03414131
24	0x3c5e3f30	0.01356487
25	0xbd1e7c2c	-0.03869264
26	0xbdb9c2bc	-0.09070346
27	0xbdd014ae	-0.10160194
28	0xbd1a5ef6	-0.037688218
29	0x3d9205f5	0.071300425
30	0x3db60555	0.08887736
31	0xbdb50096	-0.088380024
32	0x3d3c3dfe	0.045957558
33	0x3d3f15a6	0.046651505
34	0x3d8180ef	0.0632342
35	0xbd0c7f4c	-0.034301087
36	0x3cb647cc	0.022251032
37	0xbd46cac9	-0.048533235
38	0x3c52d9d0	0.012869313
39	0x3d24e47a	0.040256955
40	0xbac58a40	-0.0015071109
41	0x3db540b3	0.08850231
42	0xbd3b7a56	-0.045770966
43	0x3cc81ddc	0.0244283
44	0xbd77a33c	-0.060458407
45	0xbc533998	-0.012892149
46	0x3dadfbdd	0.08495305
47	0x3dc7ab6b	0.09749492
48	0x3c34f338	0.011044316
49	0x3dc7c139	0.09753651
50	0x3d0df62e	0.034658603
51	0xbab5c240	-0.0013867095
52	0xbcefbd38	-0.029265031
53	0x3db28a8b	0.08717831
54	0x3da293b7	0.079383306
55	0xbd9162c5	-0.07098917
56	0xbd030262	-0.031984694
57	0x3d01568a	0.03157667
58	0xbc420a10	-0.011843219
59	0xbd859898	-0.065232456
60	0x3d04e6b6	0.032446586
61	0x3c5c3ca0	0.0134421885
62	0x3d8f02db	0.069829665
63	0x3d24466a	0.040106215
64	0x3d4d11b6	0.05006572
65	0x3da1c681	0.0789919
66	0x3d341032	0.043960758
67	0xbd626def	-0.055280622
68	0xbd87e0a9	-0.066346474
69	0x3bf20000	0.007385254
70	0xbd65ca1d	-0.056100953
71	0xbd2952e8	-0.04133883
72	0xbd875b3e	-0.066092
73	0x3b96e9e0	0.004605517
74	0x3cca38b4	0.024685241
75	0xbd0f50a8	-0.03498903
76	0x3c22ef30	0.009944722
77	0xbd62cdce	-0.055372052
78	0xbd372f54	-0.04472287
79	0xbca1ab64	-0.019735046
80	0xbd57fd45	-0.05273177
81	0x3dbb1b7d	0.09136102
82	0x3dd0cc55	0.10195223
83	0xbd212886	-0.039345287
84	0x3cca2fac	0.024680935
85	0x3dccdc5d	0.100029685
86	0x3d5daa36	0.054117404
87	0x3d82efd5	0.063934006
88	0xbb17c280	-0.0023156703
89	0xbda7d81a	-0.08195515
90	0xbd458c07	-0.048229244
91	0xbd8dc511	-0.06922353
92	0xbd90f89a	-0.07078667
93	0xbcc83754	-0.024440445
94	0x3c798ab0	0.01523082
95	0xbcf88c58	-0.030340359
96	0xbd92d6ab	-0.07169851
97	0xbd87e17a	-0.06634803
98	0xbc786f60	-0.015163273
99	0xbdc97319	-0.09836406
100	0x3d60224e	0.054720215
101	0xba1a7980	-0.00058927387
102	0x3d45203e	0.04812645
103	0x3c783c30	0.015151069
104	0xbd8f856b	-0.07007869
105	0xbdcc0089	-0.099610396
106	0xbdd7c3c1	-0.10535384
107	0x3d7ca97a	0.061685063
108	0x3daba497	0.083810024
109	0x3daa1e4d	0.08306561
110	0xba9d72c0	-0.0012012348
111	0x3dd326e1	0.1031015
112	0xbc6ef350	-0.014584377
113	0xbd9be878	-0.07612699
114	0xbd87af0d	-0.06625185
115	0xbd9dc730	-0.077040076
116	0xbb4da0c0	-0.0031376332
117	0xbda87a84	-0.08226493
118	0xbd17489a	-0.036934473
119	0xbc819888	-0.015819803
120	0x3d188d52	0.03724415
121	0xbc4b59e0	-0.012411565
122	0x3db05fe5	0.086120404
123	0xbcabeaf8	-0.020986065
124	0xbce8d710	-0.028422862
125	0x3db96a71	0.09053505
126	0xbdd613a3	-0.10452964
127	0xbd008682	-0.031378277
128	0x3dbabcf7	0.091180734
129	0xbdbfbe02	-0.09362413
130	0x3dc9534b	0.0983034
131	0xbd39324a	-0.045213975
132	0x3c3da540	0.011575043
133	0x3dbfa45d	0.09357522
134	0x3d67f196	0.05662688
135	0xbd945994	-0.07243648
136	0xbc838f0c	-0.016059421
137	0xbd37eaf8	-0.044901818
138	0x3cd5e65c	0.02611082
139	0xbd9f072c	-0.0776504
140	0xbda74641	-0.08167697
141	0x3d35fc36	0.04442998
142	0xbd977d92	-0.073969975
143	0xbd2d9e62	-0.042387374
144	0xbd74e0ad	-0.05978458
145	0xbab32c40	-0.0013669804
146	0xbcdf6b38	-0.027272806
147	0x3dbd866d	0.09254155
148	0xbdb023cf	-0.0860058
149	0x3bba8850	0.0056925192
150	0xbdac5af2	-0.08415784
151	0xbca2f4ec	-0.019892178
152	0x3d2cc8e2	0.042183764
153	0xbd832fa4	-0.06405571
154	0x3daf34b1	0.08554972
155	0x3d4bb9da	0.04973779
156	0xbdbff6f8	-0.093732774
157	0xbbf144e0	-0.007362947
158	0xbd913705	-0.07090572
159	0x3d145aae	0.03621929
160	0x3d026f52	0.031844445
161	0x3d8dbd7f	0.06920909
162	0x3d745baa	0.05965773
163	0xbd690991	-0.05689389
164	0x3d6a5e9a	0.057219125
165	0x3c282c50	0.010264471
166	0xbc65e950	-0.014032677
167	0xbd1e1e50	-0.038603127
168	0x3d52cb32	0.051463313
169	0x3d705242	0.058672197
170	0x3bfe27a0	0.0077561885
171	0x3c1d0868	0.009584524
172	0x3dd2b0df	0.10287642
173	0xbd7eb2ed	-0.062182356
174	0x3c4d1df0	0.012519345
175	0xbd99f8a8	-0.075181305
176	0xbdd64eba	-0.10464235
177	0x3cf04184	0.029328115
178	0x3da7d491	0.08194841
179	0x3ce4bf94	0.027923383
180	0x3db436a5	0.08799485
181	0xbd0d22c4	-0.034456983
182	0x3d4d27de	0.05008685
183	0xbda31788	-0.079634726
184	0x3d201592	0.03908307
185	0xbc36dac8	-0.01116056
186	0x3cd48bfc	0.025945656
187	0x3cc2b9dc	0.023770265
188	0x3d8743f3	0.06604757
189	0xbcdbbc28	-0.026823118
190	0x3da44173	0.08020296
191	0xbd088586	-0.033330463
192	0x3d5858c2	0.05281902
193	0x3d0fea96	0.035135828
194	0x3dbc4049	0.09191949
195	0x3daf351b	0.08555051
196	0xbd214e50	-0.039381325
197	0x3d908291	0.070561536
198	0xbc891ac8	-0.016736403
199	0xbd997f5f	-0.07494997
200	0x3d2d1a56	0.042261444
201	0x3d9319f9	0.07182688
202	0x3dc8d709	0.0980664
203	0xbd92577c	-0.071455926
204	0xbc3c87c8	-0.011506982
205	0xbc446ed8	-0.011989318
206	0x3d8150b9	0.06314225
207	0xbdd2bd41	-0.102900036
208	0xbcaa5a64	-0.020795055
209	0x3db35ba3	0.08757713
210	0xb9c04300	-0.00036671013
211	0xbd26951c	-0.040669546
212	0x3d27f76a	0.041007437
213	0x3d8e868d	0.06959257
214	0xb8bde000	-9.0539455e-05
215	0x3dacadb5	0.084315695
216	0xbdb07211	-0.086155064
217	0x3d865303	0.06558802
218	0xbd12d772	-0.035849996
219	0xbdb30363	-0.0874088
220	0xbd431445	-0.047626752
221	0xbbb70960	-0.0055858344
222	0x3d6199f2	0.055078454
223	0xbc1f8a48	-0.009737559
224	0xbdb84812	-0.08998121
225	0x3ce23d0c	0.027617
226	0x3dbb88c9	0.09156949
227	0xbca95f50	-0.020675331
228	0x3d10760a	0.03526882
229	0xbdc7335a	-0.097265914
230	0x3d63f5b2	0.055654235
231	0xbc18fb80	-0.009337306
232	0xbd94f724	-0.07273701
233	0xbb7ba620	-0.0038398579
234	0xbdd243cf	-0.1026684
235	0xbdbf33ec	-0.09336075
236	0xbd3cafb0	-0.046065986
237	0x3d359aa2	0.044336922
238	0xbd49593f	-0.049157377
239	0xbd3ebc34	-0.046566203
240	0x3c115e00	0.008872509
241	0x3dc46617	0.095897846
242	0x3d42e31a	0.047579862
243	0x3d67283a	0.056434847
244	0x3dc54fed	0.09634385
245	0xbd892a0a	-0.066974714
246	0x3dc8f995	0.09813229
247	0x3d893d59	0.06701154
248	0xbc353468	-0.011059858
249	0x3dd4598d	0.10368643
250	0xbd0345d4	-0.032049015
251	0x3d8cdd0d	0.068780996
252	0x3d1fa116	0.038971983
253	0xbd84a6fc	-0.06477162
254	0x3d07917e	0.033097737
255	0x3cdf7f5c	0.02728241

res1.bn1.weight f4 [10]
0	0x3f800000	1.0
1	0x3f800000	1.0
2	0x3f800000	1.0
3	0x3f800000	1.0
4	0x3f800000	1.0
5	0x3f800000	1.0
6	0x3f800000	1.0
7	0x3f800000	1.0
8	0x3f800000	1.0
9	0x3f800000	1.0

res1.bn1.bias f4 [10]
0	0x00000000	0.0
1	0x00000000	0.0
2	0x00000000	0.0
3	0x00000000	0.0
4	0x00000000	0.0
5	0x00000000	0.0
6	0x00000000	0.0
7	0x00000000	0.0
8	0x00000000	0.0
9	0x00000000	0.0

res1.bn1.running_mean f4 [10]
0	0x00000000	0.0
1	0x00000000	0.0
2	0x00000000	0.0
3	0x00000000	0.0
4	0x00000000	0.0
5	0x00000000	0.0
6	0x00000000	0.0
7	0x00000000	0.0
8	0x00000000	0.0
9	0x00000000	0.0

res1.bn1.running_var f4 [10]
0	0x3f800000	1.0
1	0x3f800000	1.0
2	0x3f800000	1.0
3	0x3f800000	1.0
4	0x3f800000	1.0
5	0x3f800000	1.0
6	0x3f800000	1.0
7	0x3f800000	1.0
8	0x3f800000	1.0
9	0x3f800000	1.0

res1.conv2.weight f4 [10, 10, 3, 3]
0	0xbdd4dccb	-0.103936754
1	0xbd836d26	-0.06417303
2	0xbd934ed4	-0.0719277
3	0x3d1fd94a	0.039025582
4	0x3dbe1031	0.09280432
5	0x3dd5e557	0.10444134
6	0xbd8fad3e	-0.07015465
7	0x3dbef4f7	0.09324067
8	0x3c21b2c0	0.0098692775
9	0xbd489df2	-0.048978753
10	0x3d8a51ef	0.06753909
11	0xbd227eac	-0.039671585
12	0x3c8322fc	0.016007893
13	0xbcd733e8	-0.026269868
14	0x3daf71c1	0.08566619
15	0xbda4af9b	-0.080413066
16	0x3b7e3a40	0.0038792044
17	0xbc6ec6b8	-0.014573745
18	0x3d8c75e9	0.06858427
19	0x3c000410	0.007813469
20	0xbc3a7100	-0.01137948
21	0x3db917c7	0.09037738
22	0xbd35d7ab	-0.04439513
23	0x3da8103f	0.08206224
24	0xbca99b6c	-0.020703994
25	0xbd497617	-0.049184885
26	0xbdc28928	-0.09498817
27	0x3d83fcc3	0.06444695
28	0x3db0ad3d	0.086267926
29	0x3c5c5580	0.013448119
30	0xbb069380	-0.0020534694
31	0x3dc8100d	0.097686864
32	0xbdb05a7b	-0.08611008
33	0x3d8e3527	0.06943732
34	0x3d0395f6	0.032125436
35	0xbd9ecbc2	-0.077537075
36	0x3dbd7da9	0.092524834
37	0xbcf86e40	-0.030326009
38	0x3c25bad0	0.01011534
39	0x3d482992	0.04886777
40	0x3dc0bcfd	0.09411047
41	0xbda915f6	-0.08256142
42	0xbdc691b0	-0.096957564
43	0x3ceb8e04	0.028754242
44	0x3d4ac182	0.04950095
45	0xbd833954	-0.06407419
46	0xbd6bef1f	-0.05760109
47	0xbd432ab9	-0.047648165
48	0xbd42e0fa	-0.047577836
49	0xbdc21334	-0.09476319
50	0x3cf29604	0.029612549
51	0xbd71fddd	-0.059079994
52	0x3da15b03	0.07878687
53	0x3dab8361	0.08374668
54	0xbd6792f8	-0.056536645
55	0x3dc7d6a9	0.0975774
56	0xbd93e240	-0.07220888
57	0x3d51ae36	0.05119153
58	0x3da96cfb	0.082727395
59	0x3da6b035	0.081390776
60	0xbd2dabac	-0.042400047
61	0xbd923644	-0.071392566
62	0xbd970c1a	-0.07375355
63	0xbd9f8095	-0.07788197
64	0x3dd76695	0.10517613
65	0xbc9a3600	-0.018824577
66	0xbdd6b5d6	-0.10483901
67	0x3d7b1d02	0.06130696
68	0x3d6d62ce	0.057955556
69	0xbdbbfba9	-0.0917886
70	0x3d63eaae	0.05564373
71	0x3db24c55	0.087059654
72	0x3d9eb7bb	0.077498876
73	0x3d8a8c77	0.06765073
74	0xbc005470	-0.0078326315
75	0xbd661828	-0.05617538
76	0xbb3c37e0	-0.0028719828
77	0xbdbbf397	-0.091773205
78	0x3cf42544	0.029802926
79	0x3d41087a	0.047127225
80	0xbc278868	-0.010225393
81	0x3b4e2600	0.0031455755
82	0x3d588172	0.052857824
83	0x3dc524a7	0.096261315
84	0x3d7fb0b2	0.06242437
85	0x3d845d6f	0.064631335
86	0x3dcc61b5	0.09979574
87	0x3c8f8944	0.017521508
88	0x3c526e90	0.012843743
89	0x3b9dafe0	0.0048122257
90	0xbd831000	-0.06399536
91	0xbdc30b4e	-0.095236406
92	0x3dd34007	0.103149466
93	0xbd71dd07	-0.05904868
94	0xbdaa8d60	-0.083277464
95	0xbce39bbc	-0.02778422
96	0x3dccf095	0.10006825
97	0x3d15d4c2	0.036579855
98	0xbd4709dc	-0.048593387
99	0xbd25c368	-0.040469557
100	0x3cf88f4c	0.030341767
101	0xbd462548	-0.048375398
102	0xbd64f4df	-0.05589759
103	0x3d14a076	0.03628584
104	0x3d8dde3b	0.06927153
105	0x3d86a4db	0.065744124
106	0x3d04b2a2	0.03239692
107	0x3d6ea6e6	0.058264636
108	0x3d705a6a	0.058679976
109	0xbcad9dec	-0.021193467
110	0x3bba7580	0.0056902766
111	0x3dc94baf	0.098288886
112	0x3d88b0dd	0.06674359
113	0x3dc83d97	0.09777372
114	0xbd96cc0e	-0.07363139
115	0xbc265148	-0.010151215
116	0x3dbef9ef	0.09325015
117	0x3b7be720	0.0038437322
118	0xbd88ce12	-0.0667993
119	0x3db1830b	0.086675726
120	0xbb54f800	-0.0032496452
121	0x3c91af08	0.017783657
122	0xbd874e15	-0.0660669
123	0xbccbf148	-0.024895325
124	0xbc65a628	-0.0140166655
125	0x3cfa9364	0.03058786
126	0x3d732682	0.059362896
127	0xbdc57f75	-0.09643451
128	0xbdb27f0d	-0.08715639
129	0x3dcad0bb	0.099030934
130	0xbd8d752c	-0.069071144
131	0xbd1d454a	-0.038396157
132	0xbdad2916	-0.08455102
133	0x3b7c5ba0	0.0038506761
134	0xbd0b517c	-0.034013256
135	0xbd8718ae	-0.06596504
136	0x3d5e5eca	0.054289617
137	0x3d583d6a	0.052792944
138	0xbdb1ee3f	-0.0868802
139	0x3cf7181c	0.030162863
140	0x3d750512	0.05981929
141	0xbd9c1d23	-0.07622745
142	0xbbf7c200	-0.0075609684
143	0x3daa16f7	0.083051614
144	0xbdc8c925	-0.0980399
145	0x3d0b9a32	0.0340826
146	0x3d2bcf2e	0.04194563
147	0x3dab8b69	0.083762
148	0xbd69cceb	-0.05708019
149	0x3da6748f	0.081277005
150	0xbdcd808b	-0.10034283
151	0x3d5ad7ce	0.053428464
152	0x3d4cd8ae	0.05001133
153	0x3d997f09	0.07494933
154	0x3dbdf2d1	0.09274829
155	0x3cf746cc	0.030185126
156	0xbd1a3038	-0.03764364
157	0xbdd6144c	-0.1045309
158	0x3cf44744	0.029819138
159	0xbc64d0c8	-0.013965793
160	0xbcbc05c4	-0.022951968
161	0x3ccd7d1c	0.02508407
162	0x3d90a85d	0.07063363
163	0x3d6b4906	0.057442687
164	0xbd9d8026	-0.07690458
165	0xbd09de46	-0.033659242
166	0x3d7ceaee	0.061747484
167	0xbdc1e19c	-0.0946686
168	0xbdb02206	-0.086002395
169	0xbda38709	-0.0798474
170	0xbdc76ded	-0.097377636
171	0xbd8262ce	-0.06366502
172	0x3d8f27b3	0.06989994
173	0x3cc8ed0c	0.024527095
174	0xbd0c4d3e	-0.03425335
175	0xbd9fcc8c	-0.07802686
176	0x3c82786c	0.015926562
177	0x3dafb8b7	0.085801534
178	0x3c88a114	0.01667837
179	0xbd9f0c12	-0.07765974
180	0xbd061e24	-0.032743588
181	0xbd62036e	-0.055179052
182	0xbc9cd0f4	-0.019142605
183	0xbd59e0c5	-0.053192873
184	0xbd84617e	-0.06463908
185	0x3cf90bd4	0.030401148
186	0x3dc4dc17	0.09612291
187	0xbd1fb8a2	-0.03899444
188	0xbd6ef27e	-0.058336727
189	0xbc3f9cb0	-0.011695072
190	0xbd2fb384	-0.04289581
191	0x3d0ca9ee	0.034341745
192	0xbb60c4a0	-0.0034296885
193	0xbd528aea	-0.05140201
194	0xbc2a8d18	-0.010409616
195	0xbd1ce1b0	-0.03830117
196	0xbd5579d3	-0.052118134
197	0x3d83ab67	0.06429177
198	0x3c4a5ff8	0.012351982
199	0x3cefcd8c	0.029272817
200	0xbdd79d10	-0.10528004
201	0x3d402d12	0.046917982
202	0xbd2bfc72	-0.041988797
203	0xbdaab96e	-0.08336149
204	0xbdc17a6a	-0.09447177
205	0xbdaf7858	-0.085678756
206	0xbdbd8c01	-0.09255219
207	0x3d22d292	0.039751597
208	0xbdbc498a	-0.09193714
209	0x3dcc0f89	0.099639006
210	0x3dbcdc53	0.09221711
211	0x3cbf6744	0.02336467
212	0x3dc8f2f9	0.09811968
213	0x3cbaebec	0.022817574
214	0xbd9d7a38	-0.07689327
215	0xbd72cd78	-0.05927798
216	0x3dd77eaf	0.1052221
217	0x3d2a3d8a	0.041562594
218	0xbd6da330	-0.058016956
219	0x3dce52c3	0.10074379
220	0x3cafc304	0.021455295
221	0xbd844ac5	-0.06459574
222	0x3d3524fa	0.044224717
223	0xbca6a50c	-0.020342372
224	0x3d1d5f0e	0.03842073
225	0xbd6c8272	-0.05774159
226	0xbd53b551	-0.05168659
227	0xbd48516b	-0.04890577
228	0x3c826710	0.015918285
229	0xbdb5614c	-0.088564485
230	0xbdb3f3ac	-0.08786711
231	0x3da98ded	0.08279023
232	0xbd063f7a	-0.03277538
233	0xbd2c75fc	-0.042104706
234	0xbdb56ac4	-0.088582546
235	0xbce44318	-0.027864024
236	0xbd352417	-0.04422387
237	0xbdcfb74a	-0.101423815
238	0xbc28a200	-0.01029253
239	0xbdbcb711	-0.09214605
240	0xbc1bdf30	-0.009513661
241	0xbd9ccf2c	-0.076567024
242	0x3d0d0a76	0.034433804
243	0x3d27e9aa	0.040994324
244	0xbd794807	-0.060859706
245	0xbd2d25e6	-0.04227247
246	0x3d8ceddf	0.06881308
247	0x3d168796	0.0367504
248	0xbd26a38c	-0.040683314
249	0xbd56703f	-0.05235314
250	0xbd6bfed1	-0.05761606
251	0x3bf3a360	0.0074352473
252	0xbda5864a	-0.08082254
253	0xbdd0fe84	-0.10204795
254	0x3cc5005c	0.024048023
255	0xbd1f357a	-0.03886936

res1.bn2.weight f4 [10]
0	0x3f800000	1.0
1	0x3f800000	1.0
2	0x3f800000	1.0
3	0x3f800000	1.0
4	0x3f800000	1.0
5	0x3f800000	1.0
6	0x3f800000	1.0
7	0x3f800000	1.0
8	0x3f800000	1.0
9	0x3f800000	1.0

res1.bn2.bias f4 [10]
0	0x00000000	0.0
1	0x00000000	0.0
2	0x00000000	0.0
3	0x00000000	0.0
4	0x00000000	0.0
5	0x00000000	0.0
6	0x00000000	0.0
7	0x00000000	0.0
8	0x00000000	0.0
9	0x00000000	0.0

res1.bn2.running_mean f4 [10]
0	0x00000000	0.0
1	0x00000000	0.0
2	0x00000000	0.0
3	0x00000000	0.0
4	0x00000000	0.0
5	0x00000000	0.0
6	0x00000000	0.0
7	0x00000000	0.0
8	0x00000000	0.0
9	0x00000000	0.0

res1.bn2.running_var f4 [10]
0	0x3f800000	1.0
1	0x3f800000	1.0
2	0x3f800000	1.0
3	0x3f800000	1.0
4	0x3f800000	1.0
5	0x3f800000	1.0
6	0x3f800000	1.0
7	0x3f800000	1.0
8	0x3f800000	1.0
9	0x3f800000	1.0

res2.conv1.weight f4 [10, 10, 3, 3]
0	0xbd59a938	-0.053139895
1	0xbd404e1a	-0.046949483
2	0xbd1f9af6	-0.03896614
3	0xbc447940	-0.011991799
4	0xbdbc6d27	-0.09200507
5	0x3ccf0004	0.025268562
6	0xbd67a047	-0.056549337
7	0xbb1f29c0	-0.002428636
8	0x3d69b2ae	0.057055168
9	0xbdc7ec30	-0.09761846
10	0x3b0a8600	0.0021137
11	0x3d0e9f6a	0.034819998
12	0xbd77f5f1	-0.060537282
13	0xbb02daa0	-0.0019966736
14	0x3d6240c2	0.05523754
15	0xbb063840	-0.0020480305
16	0xbdb7004a	-0.08935602
17	0x3da2c30b	0.07947358
18	0x3d381a0a	0.044946708
19	0x3d80bd7d	0.06286142
20	0xbd411d93	-0.047147345
21	0xbc9f6b10	-0.019460231
22	0x3bc9a410	0.006153591
23	0xbdbdbb5a	-0.0926425
24	0xbdb96946	-0.090532824
25	0xbcef57c4	-0.029216655
26	0x3d8bc261	0.06824184
27	0xbd75d569	-0.060017977
28	0x3daf0a85	0.08546928
29	0xbdb65dc6	-0.089046046
30	0x3dac7eb3	0.084226035
31	0x3db324b3	0.08747234
32	0x3d5b1016	0.053482138
33	0x3d82b95d	0.063830115
34	0xbd5f4d4c	-0.054517075
35	0xbd90d504	-0.070718795
36	0x3ba49f10	0.0050238445
37	0xbc26ffc8	-0.010192819
38	0xbcf609b8	-0.030033931
39	0xbcf6dca0	-0.0301345
40	0xbd16b0a6	-0.03678956
41	0xbd886456	-0.066597626
42	0xbdd4ea91	-0.103963025
43	0xbd68c38d	-0.056827117
44	0x3d74c56a	0.05975858
45	0x3ab5b600	0.0013863444
46	0xbc8d054c	-0.01721444
47	0xbd8388a8	-0.064225495
48	0xbd8b0ec4	-0.06789926
49	0x3da3c5b3	0.079966925
50	0x3d75040a	0.059818305
51	0x3c77a708	0.015115507
52	0xbdb41524	-0.08793095
53	0x3d8858c5	0.066575564
54	0x3b57d800	0.0032935143
55	0xbd7fbc95	-0.062435705
56	0xbd851a38	-0.064991415
57	0x3dc819c1	0.09770537
58	0x3d8359dd	0.064136244
59	0x3cc34f84	0.023841627
60	0x3cefad7c	0.029257528
61	0xbba91c20	-0.0051608235
62	0x3da108d7	0.07863014
63	0x3db32bdd	0.08748601
64	0x3dc1a0f9	0.09454531
65	0xbd69a66e	-0.057043485
66	0x3dad6ced	0.084680416
67	0x3db620df	0.088929884
68	0x3c5e5600	0.013570309
69	0x3c2e94d8	0.010655604
70	0xbd231662	-0.039816268
71	0x3d8cd9d5	0.06877486
72	0x3d331a86	0.043726467
73	0xbd0ae9ec	-0.03391449
74	0x3d8ea2df	0.06964659
75	0x3dcef2bd	0.101048924
76	0xbb1265a0	-0.0022338405
77	0x3d4fc5a2	0.050725587
78	0xbd2d831a	-0.042361356
79	0x3c2d8ec0	0.010593116
80	0xbd430cf9	-0.047619794
81	0xbd93ea6e	-0.07222448
82	0xbda7465a	-0.08167715
83	0xbdcb1af9	-0.09917254
84	0xbd804916	-0.0626394
85	0xbcd05aa4	-0.025433846
86	0xbdbf090f	-0.093279
87	0xbc9372cc	-0.017999075
88	0xbd37081d	-0.04468547
89	0x3dc6eb17	0.097128086
90	0xbd25d092	-0.04048211
91	0x3d0379be	0.032098524
92	0x3d1457e2	0.036216624
93	0x3cfe8194	0.031067647
94	0xbcefb6ec	-0.029262029
95	0xbd9812dc	-0.07425472
96	0xbdc989b5	-0.09840719
97	0xbd65952f	-0.056050476
98	0xbdcda2d5	-0.10040823
99	0xbdc7ef63	-0.09762456
100	0x3dba4c31	0.090965636
101	0xbd914fc5	-0.07095293
102	0xbd7aac78	-0.061199635
103	0x3dccd527	0.10001593
104	0x3d5114b6	0.051045142
105	0x3d46d63e	0.04854416
106	0x3da4bead	0.08044181
107	0xbd9b6c4c	-0.07589015
108	0xbcd6403c	-0.026153676
109	0x3d7a452e	0.06110113
110	0x3d6f9026	0.05848708
111	0xbc9d73b0	-0.019220203
112	0xbc82e200	-0.015976906
113	0x3dc42d37	0.095789365
114	0x3d6d45ba	0.057927825
115	0x3d52c50e	0.051457457
116	0xbda1d2a9	-0.07901508
117	0x3dca7dc9	0.09887273
118	0x3d8d1891	0.06889451
119	0x3c115330	0.008869931
120	0xbd4d16dd	-0.050070632
121	0xbcf57df8	-0.029967293
122	0xbcb8d438	-0.022562131
123	0x3d54a04e	0.05191069
124	0x3c9f4948	0.019444123
125	0x3d1a1bf2	0.037624307
126	0x3d9debd5	0.07710997
127	0xbd7d3407	-0.061817195
128	0x3c20f448	0.009823866
129	0xbcc5aa00	-0.024128914
130	0x3dc64461	0.09681011
131	0x3c276fc8	0.010219522
132	0x3d07e29e	0.033175103
133	0xbd1f9ea0	-0.038969636
134	0xbcff3db4	-0.031157352
135	0xbd11fc96	-0.035641275
136	0x3d4ab992	0.04949338
137	0x3cfd2d1c	0.030905299
138	0x3c7b38f8	0.015333407
139	0x3cda9c74	0.02668593
140	0xbd47cb5d	-0.048777927
141	0xbcbd70e0	-0.023125112
142	0xbd75363b	-0.05986617
143	0x3d604a82	0.054758556
144	0x3d8de8b1	0.06929148
145	0x3dcca52f	0.09992444
146	0xbcea922c	-0.028634153
147	0x3cc92d94	0.024557866
148	0xbd88e17c	-0.06683633
149	0x3d9f4703	0.07777216
150	0xbc219870	-0.009863004
151	0xbcd3f90c	-0.02587559
152	0xbd61ec34	-0.0551569
153	0xbdae31b9	-0.085055776
154	0x3d8edcdd	0.0697572
155	0xbd9a00ca	-0.07519682
156	0x3dc89f37	0.09795993
157	0xbd1267b6	-0.035743438
158	0x39a59600	0.0003158301
159	0xbab0f7c0	-0.001350157
160	0xbbb1d5f0	-0.0054271147
161	0x3d8f5811	0.06999219
162	0x3c98f6c8	0.018672362
163	0xbd2431e4	-0.040086642
164	0xbb87bb50	-0.0041422024
165	0x3cb0d494	0.02158574
166	0xbd1cad84	-0.038251415
167	0x3d32376a	0.04350988
168	0x3dbbbfdf	0.09167456
169	0x3b1ee8c0	0.0024247617
170	0x3db64d0b	0.089014135
171	0xbdd4e952	-0.10396065
172	0xbcde5684	-0.027140863
173	0x3c357460	0.011075109
174	0xbc0512c8	-0.008122154
175	0xbc111038	-0.0088539645
176	0x3a64ce80	0.00087282807
177	0x3dc719ff	0.09721755
178	0x3d842829	0.064529724
179	0xbd23c0ac	-0.039978668
180	0xbd1fdf1e	-0.03903114
181	0x3ca074d4	0.019586958
182	0xbc6158d0	-0.013754085
183	0xbd1852ee	-0.037188463
184	0xbdb5fef2	-0.088865176
185	0xbda618f4	-0.08110228
186	0xbd005212	-0.03132827
187	0xbb187ca0	-0.0023267642
188	0xbdafc6d6	-0.08582847
189	0xbc5eef10	-0.013606802
190	0x3db01d4d	0.08599339
191	0x3b82a730	0.0039872155
192	0x3d5b7af6	0.05358406
193	0xbdad2b35	-0.08455507
194	0xba89e380	-0.0010520071
195	0x3daaae7f	0.08334064
196	0xbdb44f9a	-0.08804245
197	0x3ce9f394	0.02855853
198	0x3dcff221	0.10153604
199	0xbdc70d4c	-0.09719333
200	0xbbd381e0	-0.0064546913
201	0x3d949c75	0.07256404
202	0x3d8fb86d	0.07017598
203	0x3d50f40e	0.051014
204	0x3d19ee7e	0.03758096
205	0x3db410e1	0.08792282
206	0x3dc3d7a9	0.09562618
207	0xbd37c683	-0.04486705
208	0x3d5c95d2	0.053853817
209	0x3d908e4b	0.0705839
210	0x3d380506	0.044926666
211	0x3d952967	0.072832875
212	0xbdacec78	-0.0844354
213	0x3d7b484e	0.061348252
214	0xbd85a5e7	-0.06525784
215	0xbcbd88ac	-0.02313646
216	0xbd05a9ee	-0.03263276
217	0xbdc5a938	-0.096514165
218	0xbd159b9c	-0.036525354
219	0x3d07c7b2	0.03314943
220	0xbd92c868	-0.07167131
221	0xbd1fc520	-0.039006352
222	0x3cddf16c	0.027092658
223	0x3b628640	0.0034564883
224	0xbdafb922	-0.08580233
225	0x3dd34c49	0.103172846
226	0xbda34c02	-0.07973482
227	0xbcfbdeb0	-0.030745834
228	0xbc8c0994	-0.017094411
229	0x3b872f20	0.004125491
230	0x3db521cb	0.08844336
231	0x3d791afe	0.060816757
232	0x3d211a5e	0.039331786
233	0xbdca942b	-0.09891542
234	0xbdc70c00	-0.09719086
235	0x3c99bd50	0.018767029
236	0xbdae58d8	-0.08513039
237	0x3db9bf39	0.09069676
238	0xbc5513b8	-0.01300519
239	0xbce345f0	-0.02774331
240	0x3c916a3c	0.017750852
241	0x3dd0d1ad	0.101962425
242	0xbc687928	-0.014189042
243	0x3d58eff2	0.052963205
244	0xbdd1c780	-0.1024313
245	0xbdd1fa08	-0.10252768
246	0x3bf54880	0.0074854493
247	0x3d9e83ef	0.07740008
248	0x3c44a840	0.012003005
249	0x3dd55cf1	0.10418118
250	0xbca777e4	-0.02044291
251	0xbc77daf0	-0.015127882
252	0x3c759148	0.014988251
253	0xbd263970	-0.04058212
254	0x3d636fd6	0.055526577
255	0xbd4ae21e	-0.04953205

res2.bn1.weight f4 [10]
0	0x3f800000	1.0
1	0x3f800000	1.0
2	0x3f800000	1.0
3	0x3f800000	1.0
4	0x3f800000	1.0
5	0x3f800000	1.0
6	0x3f800000	1.0
7	0x3f800000	1.0
8	0x3f800000	1.0
9	0x3f800000	1.0

res2.bn1.bias f4 [10]
0	0x00000000	0.0
1	0x00000000	0.0
2	0x00000000	0.0
3	0x00000000	0.0
4	0x00000000	0.0
5	0x00000000	0.0
6	0x00000000	0.0
7	0x00000000	0.0
8	0x00000000	0.0
9	0x00000000	0.0

res2.bn1.running_mean f4 [10]
0	0x00000000	0.0
1	0x00000000	0.0
2	0x00000000	0.0
3	0x00000000	0.0
4	0x00000000	0.0
5	0x00000000	0.0
6	0x00000000	0.0
7	0x00000000	0.0
8	0x00000000	0.0
9	0x00000000	0.0

res2.bn1.running_var f4 [10]
0	0x3f800000	1.0
1	0x3f800000	1.0
2	0x3f800000	1.0
3	0x3f800000	1.0
4	0x3f800000	1.0
5	0x3f800000	1.0
6	0x3f800000	1.0
7	0x3f800000	1.0
8	0x3f800000	1.0
9	0x3f800000	1.0
