SuperGo-master/saved_models/1586433406/1-value_net.pth.tar (torch_old, 41592 bytes, 4 tensors)

conv.weight f4 [1, 10, 1, 1]
0.29271582 -0.13209212 0.22423556 -0.31004417 -0.18652716 0.18909785 -0.23017704 0.016493797
0.25264803 -0.26926947
00000000: d9de 953e 2843 07be 029e 653e 1cbe 9ebe
00000010: fa00 3fbe dea2 413e 88b3 6bbe 001e 873c
00000020: 155b 813e b0dd 89be

fc1.weight f4 [256, 36]
0.092843965 0.14626075 0.16190864 0.12582944 -0.06594326 -0.04944265 -0.13274327 -0.016696155
0.04354395 0.09790127 0.03524278 -0.14898744 -0.06418695 0.045032516 -0.041750632 -0.058372736
0.07540852 0.08972393 0.03778571 0.10421069 -0.06847944 -0.13397238 0.13894667 0.15513904
0.14262952 0.039920747 0.058327034 -0.10959685 -0.0882148 -0.020892754 0.09973855 0.15647893
-0.11336094 -0.15512964 0.020512387 0.14155073 0.044484854 -0.14355181 0.14893244 -0.03503351
-0.0026738793 0.10989691 0.11601044 0.13741829 0.0286334 0.12963463 0.1344165 -0.050305724
-0.15610115 0.11181773 -0.08728807 -0.09756206 0.10867418 -0.078144155 0.018838406 -0.1087271
0.1547872 0.14805295 -0.13589185 -0.01986438 -0.09331004 -0.108088955 0.123554304 0.08843948
0.012952447 -0.08361407 0.101750866 0.051622227 -0.123361014 -0.08998698 -0.068991445 -0.024825439
0.13766278 0.11794825 0.0018233508 -0.13403577 -0.1422688 0.1415476 -0.10454091 0.10233368
-0.066841744 -0.09008696 0.12390877 -0.07351842 0.13127752 -0.081288695 -0.061380506 -0.03400065
0.14412002 -0.16037598 -0.01237528 -0.03403735 -0.107246876 -0.015937045 0.080674246 0.07335459
0.075804606 -0.031839862 -0.14664458 -0.03950815 0.12993939 0.07560754 -0.046770796 0.07668628
0.08053751 0.022346377 -0.14109859 0.082770884 0.013642967 -0.15400468 0.009164095 0.09930907
0.013665974 0.11754407 -0.077738404 -0.138683 -0.036656782 0.09432705 -0.021147192 -0.1639002
-0.061015688 -0.123427056 0.052268013 0.16282259 -0.020490453 0.04445876 0.15040107 0.057447612
0.043924615 -0.09150698 0.004100308 0.15402229 -0.09319719 0.12869419 -0.16353147 0.049094304
-0.086808465 -0.06828513 0.108803615 -0.040534377 0.11389159 -0.012880802 0.008943319 -0.06727575
-0.15797609 -0.08754027 -0.114203915 -0.09716247 -0.10849361 -0.11955643 -0.02637589 0.061738014
-0.010905802 0.1422358 0.010913476 0.12747432 -0.039564565 0.09109734 -0.09107047 -0.1032629
-0.036753222 0.020835996 0.066671774 -0.13943687 -0.15346983 0.08513372 0.041727602 0.0464046
-0.13653372 -0.06900847 -0.015042141 0.013804778 -0.14104661 0.023978904 -0.016923383 -0.067530856
0.061408862 0.15972637 -0.05395685 -0.14520219 -0.0960605 -0.043500945 -0.03268026 0.14022447
0.112048045 -0.07666433 0.04762779 -0.13841139 0.10692288 0.0014694184 -0.13103133 0.0684389
0.12158139 0.08048113 -4.6536326e-05 0.14628948 0.09266387 -0.1608284 -0.07559677 0.07921724
-0.10312939 -0.055547 -0.0051473826 -0.07732217 -0.10588573 0.01896727 -0.014778748 -0.13390903
0.041978598 -0.14172545 0.019145414 0.046375975 0.13445438 0.14805801 -0.009891555 -0.12303339
0.09434201 -0.11355893 -0.021404758 -0.11487868 0.032970294 0.036444426 0.080129325 0.029226482
0.029701412 0.016636178 -0.09367832 0.120596066 -0.0892719 0.124051765 0.03956373 0.15073438
-0.114317834 0.06945114 -0.10075967 0.08696498 0.11549719 0.08130796 0.027642027 -0.0258293
0.012623906 -0.10395509 0.065453514 -0.16240829 0.1263616 0.14372857 -0.083564505 0.0760387
0.046294644 0.035877526 0.07601386 0.13998376 -0.1462597 -0.020895258 0.15457325 -0.16531575
00000000: fa24 be3d 61c5 153e 61cb 253e 6fd9 003e
00000010: 430d 87bd 6084 4abd daed 07be 60c6 88bc
00000020: 245b 323d 7680 c83d bc5a 103d 2a90 18be
00000030: 7374 83bd 0474 383d b602 2bbd 4018 6fbd
00000040: c86f 9a3d 2ec1 b73d 30c5 1a3d 6a6c d53d
00000050: f33e 8cbd 0e30 09be 0948 0e3e c5dc 1e3e
00000060: 790d 123e f083 233d 54e8 6e3d 5074 e0bd
00000070: f6a9 b4bd 4827 abbc ba43 cc3d 033c 203e
00000080: c829 e8bd 4eda 1ebe 9809 a83c adf2 103e
00000090: c035 363d 3fff 12be bf81 183e 4c7f 0fbd
000000a0: 403c 2fbb a211 e13d e296 ed3d 61b7 0c3e
000000b0: 9890 ea3c f1be 043e 7ba4 093e 600d 4ebd
000000c0: fbd8 1fbe b200 e53d 16c4 b2bd 9ece c7bd
000000d0: 9290 de3d 0b0a a0bd 0053 9a3c 50ac debd
000000e0: 8980 1e3e 319b 173e 3c27 0bbe a0ba a2bc
000000f0: 5619 bfbd be5d ddbd 0a0a fd3d c21f b53d
00000100: 8036 543c db3d abbd c262 d03d d471 533d
00000110: b3a4 fcbd 184b b8bd 634b 8dbd b85e cbbc
00000120: 79f7 0c3e da8e f13d 80fd ee3a ac40 09be
00000130: eaae 11be dbf1 103e 8b19 d6bd 5294 d13d
00000140: 53e4 88bd 837f b8bd e2c3 fd3d d390 96bd
00000150: 9d6d 063e b07a a6bd 206a 7bbd 4444 0bbd
00000160: 3394 133e 9a39 24be b0c1 4abc c06a 0bbd
00000170: 40a4 dbbd 688e 82bc 8a38 a53d ee3a 963d
00000180: 723f 9b3d 846a 02bd ff29 16be 4cd3 21bd
00000190: d50e 053e 20d8 9a3d bc92 3fbd b20d 9d3d
000001a0: daf0 a43d c00f b73c 267c 10be c883 a93d
000001b0: c086 5f3c 67b3 1dbe 0025 163c 8e62 cb3d
000001c0: 40e7 5f3c f2ba f03d 5035 9fbd eb02 0ebe
000001d0: 6c25 16bd 8a2e c13d e03c adbc 74d5 27be
000001e0: 96eb 79bd 53c7 fcbd fc16 563d f7ba 263e
000001f0: 98db a7bc 641a 363d bd02 1a3e 304e 6b3d
00000200: 4cea 333d 0368 bbbd e05b 863b 05b8 1d3e
00000210: 2bde bebd 69c8 033e cb74 27be 1c17 493d
00000220: a3c8 b1bd 13d9 8bbd 6ed4 de3d 6007 26bd
00000230: fe3f e93d 000a 53bc 0087 123c dec7 89bd
00000240: 7cc4 21be 5048 b3bd bee3 e9bd 1efd c6bd
00000250: e631 debd 00da f4bd 4012 d8bc 00e1 7c3d
00000260: 40ae 32bc 43a6 113e 70ce 323c a188 023e
00000270: 740e 22bd 3e91 ba3d 2883 babd 807b d3bd
00000280: 8c8a 16bd 40b0 aa3c 368b 883d 8ac8 0ebe
00000290: 3227 1dbe 965a ae3d 90ea 2a3d c012 3e3d
000002a0: 7fcf 0bbe 5054 8dbd 5073 76bc 702d 623c
000002b0: 866e 10be 686f c43c e8a2 8abc 9e4d 8abd
000002c0: dc87 7b3d 4f8f 233e dc01 5dbd e2af 14be
000002d0: 5ebb c4bd 0c2e 32bd bcdb 05bd 0197 0f3e
000002e0: 7279 e53d 3002 9dbd 5c15 433d b7bb 0dbe
000002f0: 62fa da3d 8099 c03a 142d 06be b229 8c3d
00000300: aaff f83d 4ad3 a43d 0030 43b8 e9cc 153e
00000310: 8ec6 bd3d 33b0 24be 7bd2 9abd a63c a23d
00000320: 8035 d3bd 4085 63bd 60ab a8bb 165b 9ebd
00000330: 9eda d8bd 4061 9b3c 9022 72bc 731f 09be
00000340: c0f1 2b3d 7a20 11be d8d6 9c3c bcf4 3d3d
00000350: 69ae 093e 859c 173e 3010 22bc eef8 fbbd
00000360: 6236 c13d 9691 e8bd 0859 afbc 8345 ebbd
00000370: dc0b 073d c046 153d d81a a43d 606c ef3c
00000380: 6050 f33c 9848 883c 6bda bfbd 12fb f63d
00000390: 30d4 b6bd da0e fe3d 940d 223d 1d5a 1a3e
000003a0: 781f eabd 663c 8e3d 165b cebd b21a b23d
000003b0: ca89 ec3d ca84 a63d 8871 e23c f897 d3bc
000003c0: 80d4 4e3c 68e6 d4bd 7e0c 863d 5c4e 26be
000003d0: ef64 013e 952d 133e de23 abbd 2eba 9b3d
000003e0: 749f 3d3d 50f4 123d 28ad 9b3d e757 0f3e
000003f0: 1ac5 15be 882c abbc 7348 1e3e 8848 29be

fc1.bias f4 [256]
-0.06281614 0.10968618 0.054211095 -0.0012235194 0.032876328 0.089577034 0.012674078 0.035856858
0.10144569 0.13798358 -0.13065788 -0.08147466 0.08929138 -0.14556229 0.091768935 0.1142896
0.15564303 -0.113151014 0.0386623 0.049555764 -0.14450449 -0.12650786 -0.15777676 -0.10568988
-0.12358713 -0.012116015 -0.16404204 0.04945934 0.0987698 -0.0015800148 0.16516097 -0.14679538
-0.13278085 0.08262436 -0.13497846 -0.09311545 0.10638507 0.09132995 -0.14928296 -0.03247255
0.0737403 0.10673626 0.020583272 0.011658147 -0.017705575 -0.109502636 0.02337329 0.053712204
-0.047615886 -0.013148084 -0.03533213 -0.023954168 0.13828574 -0.008418903 0.013076827 0.025336668
0.02117306 0.090963736 -0.063001454 -0.084234975 -0.12416051 -0.10495566 -0.04246694 -0.019293293
0.044255868 -0.14832875 0.13364263 -0.0913355 -0.05148053 0.1037962 0.10189675 -0.098068476
0.08338995 0.113392904 0.14529367 0.033490464 0.077207565 0.13980727 -0.004813686 0.1386015
-0.12765032 -0.16469428 0.08381362 0.16128765 -0.041030586 0.06589784 0.10227634 -0.12509754
-0.15467477 0.12579493 0.038141787 0.09434979 0.05318582 0.030968115 0.011416689 -0.090641126
-0.09022778 -0.04782536 0.10890074 0.1215042 -0.1282132 0.11835815 -0.0010900348 0.07610248
-0.03339298 -0.13361734 0.14115827 0.1467041 -0.14455318 0.07465196 0.10013725 0.07107115
-0.029827356 0.021948203 -0.021306291 -0.056756936 0.13534643 -0.087750874 0.13489182 0.071152225
0.13244529 0.051771104 0.030538991 -0.1306651 -0.13812181 0.092491224 0.03700088 0.09149863
-0.06623807 0.050493404 -0.10907676 0.070648566 -0.1493458 -0.0936961 0.16556628 -0.09442942
-0.0028977543 -0.16296302 -0.07229672 0.05379206 -0.12479691 -0.04544419 -0.104154035 0.15316708
0.11040656 0.06309123 0.10647832 -0.15614903 -0.08982333 -0.0099738985 0.008129761 0.042035684
-0.1351773 0.14039047 -0.02294159 0.15633942 0.032388255 0.020689905 0.07103704 0.13073792
0.15211262 0.021018311 0.09230326 -0.0002949834 -0.058666527 -0.042512402 0.048992142 -0.003055796
-0.14257132 -0.12666667 0.1459236 0.0037340373 -0.024112701 -0.12554619 -0.02762492 0.059473634
-0.07496439 0.12224536 -0.053213045 -0.14433667 -0.034564793 -0.08142408 0.10218783 0.010899529
-0.10790329 -0.11473312 0.16349582 -0.07540403 -0.05138938 -0.08827251 -0.1614759 -0.14249349
0.04430355 0.036751106 -0.0965395 -0.13512799 -0.06482985 0.11285411 0.10553242 -0.101387426
0.14595939 -0.06303601 -0.010874629 0.048459545 -0.02875553 -0.031724766 -0.06255418 0.12746914
0.15684907 -0.13138519 0.14130373 -0.15164427 0.038123682 0.112129584 0.14957972 -0.1048141
0.008254871 -0.040888548 -0.11361214 0.037972987 0.05660647 0.06221108 0.08303648 -0.08467945
0.023322344 -0.06480782 0.064792335 -0.076550744 -0.028323814 0.099762365 -0.005056843 0.14004554
0.120962396 0.063645825 0.03710735 0.03708799 0.077347174 -0.10219525 -0.07682973 0.08470835
-0.090197325 0.053769186 0.06187308 -0.12730931 0.15240933 -0.09490232 -0.14540063 -0.03250815
-0.029286996 -0.0029543787 -0.04902105 0.09862943 0.11664362 -0.025251567 -0.07391775 -0.091278575
00000000: c0a5 80bd 26a3 e03d 740c 5e3d 805e a0ba
00000010: 54a9 063d 2a74 b73d f0a6 4f3c a4de 123d
00000020: c2c2 cf3d 914b 0d3e 2ecb 05be 30dc a6bd
00000030: 66de b63d 480e 15be 5af1 bb3d aa10 ea3d
00000040: e360 1f3e b8bb e7bd 5c5c 1e3d fcfa 4a3d
00000050: fcf8 13be 478b 01be 3b90 21be f073 d8bd
00000060: 401b fdbd 4082 46bc a3fa 27be e095 4a3d
00000070: d247 ca3d 8018 cfba f51f 293e 8751 16be
00000080: b4f7 07be f636 a93d cb37 0abe 50b3 bebd
00000090: 6ae0 d93d 320b bb3d a2dd 18be f001 05bd
000000a0: 2805 973d 8a98 da3d 409e a83c d001 3f3c
000000b0: 480b 91bc eb42 e0bd 5879 bf3c 5401 5c3d
000000c0: e008 43bd 106b 57bc 6cb8 10bd 883b c4bc
000000d0: c79a 0d3e 70ef 09bc 3040 563c d88e cf3c
000000e0: 2073 ad3c 324b ba3d e806 81bd 6383 acbd
000000f0: de47 febd fef2 d6bd d0f1 2dbd f80c 9ebc
00000100: a445 353d 7ee3 17be 9dd9 083e 1b0e bbbd
00000110: 40dd 52bd 1a93 d43d 3eaf d03d 20d8 c8bd
00000120: 5ac8 aa3d 8a3a e83d ddc7 143e 4c2d 093d
00000130: 001f 9e3d a329 0f3e 20bc 9dbb 8ded 0d3e
00000140: c4b6 02be 9ea5 28be 7aa6 ab3d 9728 253e
00000150: b00f 28bd 72f5 863d 4276 d13d 9219 00be
00000160: 1063 1ebe 63d0 003e 903a 1c3d 763a c13d
00000170: 60d9 593d d8b0 fd3c 100d 3b3c 0ea2 b9bd
00000180: 58c9 b8bd 86e4 43bd 5a07 df3d 32d7 f83d
00000190: 524a 03be c265 f23d 80df 8eba 9edb 9b3d
000001a0: 14c7 08bd fcd2 08be cb8b 103e 9939 163e
000001b0: c005 14be 20e3 983d c214 cd3d c08d 913d
000001c0: 8058 f4bc b8cc b33c 888a aebc f679 68bd
000001d0: 4198 0a3e bbb6 b3bd 1521 0a3e 42b8 913d
000001e0: bd9f 073e f00d 543d e82c fa3c 12cd 05be
000001f0: ce6f 0dbe 0a6c bd3d 3c8e 173d a263 bb3d
00000200: d3a7 87bd 2cd2 4e3d a363 dfbd 32b0 903d
00000210: 1bee 18be bee3 bfbd 358a 293e 3664 c1bd
00000220: 40e8 3dbb c7df 26be 4e10 94bd 1055 5c3d
00000230: 8695 ffbd b023 3abd b64e d5bd d5d7 1c3e
00000240: d61c e23d fa35 813d 4e11 da3d 88e5 1fbe
00000250: 4bf5 b7bd 9069 23bc b032 053c 9c2d 2c3d
00000260: eb6b 0abe 85c2 0f3e 00f0 bbbc 7117 203e
00000270: 8ca9 043d e07d a93c de7b 913d 29e0 053e
00000280: 69c3 1b3e 982e ac3c 7e09 bd3d 00a8 9ab9
00000290: 504c 70bd 7c21 2ebd fcab 483d c043 48bb
000002a0: 37fe 11be e8b4 01be ff6c 153e c0b6 743b
000002b0: 0088 c5bc 2e8f 00be a84d e2bc a09a 733d
000002c0: ee86 99bd c65b fa3d ecf5 59bd fecc 13be
000002d0: d093 0dbd abc1 a6bd da47 d13d f093 323c
000002e0: 66fc dcbd 33f9 eabd 736b 273e 6e6d 9abd
000002f0: ac7d 52bd 38c8 b4bd f059 25be d0e9 11be
00000300: a477 353d 5488 163d 80b6 c5bd fe5e 0abe
00000310: 83c5 84bd 0e20 e73d 6221 d83d 36a4 cfbd
00000320: 6176 153e 0619 81bd 802b 32bc 847d 463d
00000330: b890 ebbc d4f1 01bd 681c 80bd 4587 023e
00000340: 0b9d 203e d789 06be edb1 103e a348 1bbe
00000350: 9427 1c3d 32a4 e53d 6d2b 193e c6a8 d6bd
00000360: 703f 073c c07a 27bd 7bad e8bd 9089 1b3d
00000370: 30dc 673d 0cd1 7e3d 080f aa3d 6b6c adbd
00000380: 800e bf3c f6b9 84bd d8b1 843d a3c6 9cbd
00000390: 5807 e8bc 3650 cc3d e0b3 a5bb 1968 0f3e
000003a0: 22bb f73d be58 823d e0fd 173d 94e9 173d
000003b0: 3268 9e3d be4b d1bd e858 9dbd 927b ad3d
000003c0: 60b9 b8bd 143d 5c3d a06e 7d3d 5f5d 02be
000003d0: 3111 1c3e 265c c2bd e7e3 14be 4427 05bd
000003e0: 48eb efbc 409e 41bb 4cca 48bd 3afe c93d
000003f0: dae2 ee3d 60dc cebc 3062 97bd 43f0 babd

fc2.weight f4 [1, 256]
0.0058858097 -0.02782064 0.030731514 0.053147748 0.028528161 -0.0034999698 -0.042738214 -0.0010522455
0.061593853 0.03497731 0.044100568 -0.019245185 0.010332696 0.027893603 0.009806037 -0.047074363
-0.008408621 0.025102638 0.058581322 -0.016726404 0.027283639 0.0054593384 -0.025145106 0.054566965
-0.05123172 -0.037595063 0.03884671 0.021113634 -0.038476683 -0.01587893 -0.031971477 -0.029211141
0.045081787 -0.06056107 -0.006649621 -0.0052730516 0.040666007 -0.02084554 -0.014005281 -0.009764701
-0.000665389 0.003935702 -0.004260488 0.031852715 -0.041310646 0.060711972 -0.044175178 0.040208094
-0.05480793 0.018792458 0.05038117 0.005884677 -0.013335928 -0.040866077 0.04154274 0.0006226674
0.03266813 -0.0045749173 -0.023654126 -0.060960233 -0.05248926 -0.04487496 -0.016606055 0.05395513
0.016834363 0.06186787 0.059291378 0.014659546 -0.021430492 -0.017055243 -0.020647213 0.0013881028
-0.04884159 0.05399829 0.019548006 0.014266796 -0.0042205676 -0.06050743 0.024033979 -0.009092197
0.025449857 0.0012689307 0.01546523 0.05363155 -0.06090901 -0.010103025 -0.0017438084 -0.019780613
0.023513049 -0.030754015 0.008806869 0.026313923 -0.048211962 0.009372257 0.009811707 -0.040674627
-0.019678585 0.038374133 -5.9962273e-05 0.0091727525 -0.030510366 -0.04069431 0.013540812 -0.060214043
0.052012667 0.007562205 -0.043499045 0.029453613 0.0034495369 -0.046412393 0.037016086 -0.006539017
-0.02116543 -0.034578554 0.05905158 0.052682072 -0.01428204 -0.004654102 -0.044615462 -0.016350873
0.0606284 0.018248908 0.029986687 0.00994353 0.013092779 -0.05223544 -0.04581029 -0.035344094
-0.051052578 -0.02776938 0.0320317 0.029921941 -0.04463833 0.030316457 -0.00068078935 -0.027420476
-0.05504491 0.032761276 -0.034024253 -0.014958151 -0.002027467 -0.038735665 0.052116826 0.029440574
0.03913498 0.044427782 0.02377116 -0.05158578 0.020512857 0.011504777 0.052915633 -0.020113342
-0.03185565 -0.026725635 -0.061019614 -0.015326902 0.018013328 0.053509876 -0.015707828 0.03946355
0.005110666 -0.01790724 0.011541575 -0.055301234 0.043265365 0.0414299 -0.0084142685 0.022534207
0.024258934 -0.054968633 -0.014938511 0.036085486 0.057324268 -0.022685312 -0.031068377 -0.00973662
0.054848924 -0.0048347935 0.013704978 -0.026629016 -0.029878438 -0.017566256 -0.038490996 0.008003704
0.0078086406 0.04619009 0.0035537183 0.027595364 -0.05976174 -0.057094865 0.017490372 -0.03903593
-0.0033222213 -0.051291965 0.026107877 -0.03313627 0.007595822 0.022686407 -0.016834155 -0.012813635
-0.045936592 -0.036482006 -0.020327553 -0.0074456856 0.05555243 -0.03693232 0.015181847 -0.0379024
0.043120846 -0.046993412 -0.0073481128 0.03878784 -0.024249539 -0.020643547 0.02975598 -0.03018105
0.049119137 -0.030697577 -0.033617094 -0.023286581 0.055392943 -0.023665406 0.05575636 0.01835873
0.05775977 -0.023761652 -0.021164782 -0.05776848 0.05683484 -0.012829311 -0.034539253 0.038969174
-0.04123915 -0.055418476 -0.018693388 0.032502092 -0.014214039 -0.031670325 0.049629718 -0.009492181
-0.010256372 -0.056707166 -0.047298104 0.041980937 -0.028653793 0.04390221 -0.04053127 -0.033783555
-0.018302076 -0.046954997 0.010467015 0.058935456 -0.019567005 -0.05177208 -0.04570534 0.0041402653
00000000: c0dd c03b 1ce8 e3bc a8c0 fb3c 74b1 593d
00000010: e4b3 e93c c05f 65bb 440e 2fbd 80eb 89ba
00000020: d649 7c3d 5e44 0f3d cca2 343d 14a8 9dbc
00000030: 784a 293c 2081 e43c 80a9 203c 0cd1 40bd
00000040: 50c4 09bc 0ca4 cd3c f8f2 6f3d d005 89bc
00000050: f081 df3c 40e4 b23b 1cfd cdbc 9c81 5f3d
00000060: 5ad8 51bd 48fd 19bd ba1d 1f3d 80f6 ac3c
00000070: ba99 1dbd 8814 82bc 86f4 02bd 344c efbc
00000080: aea7 383d e20e 78bd 10e5 d9bb 90c9 acbb
00000090: 6691 263d 44c4 aabc 6876 65bc 20fc 1fbc
000000a0: 806d 2eba 10f7 803b 909b 8bbb fe77 023d
000000b0: 5a35 29bd 1ead 783d 08f1 34bd 3eb1 243d
000000c0: 487e 60bd a4f2 993c 7c5c 4e3d 40d4 c03b
000000d0: f07e 5abc 3063 27bd b828 2a3d 803a 233a
000000e0: 04cf 053d 30e9 95bb 4cc6 c1bc 70b1 79bd
000000f0: fafe 56bd cece 37bd 6c09 88bc 0e00 5d3d
00000100: 38e8 893c 2a69 7d3d 84db 723d 982e 703c
00000110: 008f afbc 70b7 8bbc 5824 a9bc 00f1 b53a
00000120: 1e0e 48bd 502d 5d3d 2423 a03c 48bf 693c
00000130: b04c 8abb a4d6 77bd e8e2 c43c 70f7 14bc
00000140: 387c d03c 4052 a63a e061 7d3c c2ac 5b3d
00000150: ba7b 79bd 2887 25bc 8090 e4ba f40a a2bc
00000160: 709e c03c d8ef fbbc b04a 103c 4c90 d73c
00000170: e879 45bd 188e 193c 48c1 203c 709a 26bd
00000180: fc34 a1bc 322e 1d3d 0080 7bb8 5049 163c
00000190: e0f0 f9bc 14af 26bd 48da 5d3c 00a3 76bd
000001a0: 3c0b 553d 60cc f73b 0e2c 32bd b448 f13c
000001b0: a011 623b ec1a 3ebd 2e9e 173d 4045 d6bb
000001c0: 2063 adbc 3ea2 0dbd 12e0 713d 28c9 573d
000001d0: 38ff 69bc 7081 98bb b4be 36bd 44f2 85bc
000001e0: 7c55 783d bc7e 953c a4a6 f53c 30ea 223c
000001f0: 1883 563c d4f4 55bd 92a3 3bbd f8c4 10bd
00000200: 821c 51bd 9c7c e3bc ac33 033d dc1e f53c
00000210: aed6 36bd 385a f83c 0077 32ba e8a0 e0bc
00000220: c676 61bd b030 063d 045d 0bbd 0813 75bc
00000230: 40df 04bb 4aa9 1ebd 7478 553d 5c2d f13c
00000240: 004c 203d e8f9 353d bcbb c23c 9c4b 53bd
00000250: 940a a83c 887e 3c3c 10be 583d bcc4 a4bc
00000260: 127b 02bd b8ef dabc b4ef 79bd b01d 7bbc
00000270: b090 933c 2c2d 5b3d b4ad 80bc 88a4 213d
00000280: 6077 a73b 34b2 92bc e018 3d3c 8c83 62bd
00000290: 0637 313d 66b2 293d 00dc 09bc a899 b83c
000002a0: acba c63c ca26 61bd a8c0 74bc 60ce 133d
000002b0: dacc 6a3d 8cd6 b9bc 1c83 febc 5886 1fbc
000002c0: 44a9 603d 306d 9ebb d88a 603c 1825 dabc
000002d0: a0c3 f4bc 1ce7 8fbc bca8 1dbd f821 033c
000002e0: a0df ff3b d231 3d3d 80e5 683b ac0f e23c
000002f0: bac8 74bd 4edc 69bd f847 8f3c 24e4 1fbd
00000300: a0b9 59bb 8617 52bd 30e0 d53c e6b9 07bd
00000310: 60e6 f83b d8d8 b93c c8e7 89bc 48f0 51bc
00000320: 0228 3cbd 286e 15bd f885 a6bc f0fa f3bb
00000330: f28a 633d 5846 17bd 48bd 783c 8c3f 1bbd
00000340: 7c9f 303d 2a7c 40bd 70c8 f0bb 00e0 1e3d
00000350: f8a6 c6bc a81c a9bc d0c2 f33c 403e f7bc
00000360: 2631 493d 7c79 fbbc 14b2 09bd 80c3 bebc
00000370: b6e3 623d f4dd c1bc c860 643d 0c65 963c
00000380: 8295 6c3d cca7 c2bc c461 adbc a49e 6cbd
00000390: a6cb 683d 0832 52bc 0879 0dbd 249e 1f3d
000003a0: 62ea 28bd 7cfe 62bd e022 99bc ea20 053d
000003b0: 00e2 68bc beb8 01bd 8848 4b3d 1885 1bbc
000003c0: 580a 28bc c645 68bd a8bb 41bd 34f4 2b3d
000003d0: 5cbb eabc ced2 333d 1e04 26bd a060 0abd
000003e0: 3cee 95bc e253 40bd d87d 2b3c 4e66 713d
000003f0: fc4a a0bc f60e 54bd 8635 3bbd 10ab 873b
