SuperGo-master/saved_models/1586433406/3-extractor.pth.tar (torch_old, 374452 bytes, 245 tensors)

exp_avg f4 [10]
-0.0031620006 -0.0028002732 0.004071528 -0.001811799 0.0017657278 -0.0074707726 0.0033207503 -0.0008582546
0.0027603768 0.0047399118
00000000: 9139 4fbb ca84 37bb 746a 853b e379 edba
00000010: fe6f e73a 62cd f4bb f2a0 593b 7efc 60ba
00000020: 70e7 343b 4351 9b3b

exp_avg_sq f4 [10]
0.0002211965 0.00017630878 0.00029588974 0.0001718113 0.000100088335 0.0002523848 9.402978e-05 0.0001599229
0.00018692782 0.00018820247
00000000: fcf0 6739 87df 3839 a621 9b39 3f28 3439
00000010: 84e6 d138 8452 8439 db31 c538 fab0 2739
00000020: 0e02 4439 3758 4539

exp_avg f4 [10]
0.00234858 0.0031217225 0.001180451 0.0033578614 -0.0015134448 -0.0010491192 0.0017926554 0.0012397862
0.0036719344 -0.0006743679
00000000: a2ea 193b d095 4c3b 5db9 9a3a 910f 5c3b
00000010: c85e c6ba 9982 89ba 89f7 ea3a 5280 a23a
00000020: d6a4 703b 10c8 30ba

exp_avg_sq f4 [10]
0.00012519458 0.00012358921 0.00016845562 0.00020453626 9.017222e-05 0.00011439361 0.00011101532 0.00015025563
9.5158044e-05 9.2400354e-05
00000000: aa46 0339 ba97 0139 76a3 3039 c978 5639
00000010: d81a bd38 9ae6 ef38 e5d0 e838 f08d 1d39
00000020: 968f c738 10c7 c138

exp_avg f4 [10]
0.0015875591 0.0027035715 -0.0003811936 0.0018629663 -0.0008368134 0.00052561006 -0.001085115 0.0006076229
0.0026942575 -0.0022380524
00000000: a515 d03a 672e 313b f0da c7b9 c72e f43a
00000010: 995d 5bba 18c9 093a 6b3a 8eba e248 1f3a
00000020: 2492 303b 4aac 12bb

exp_avg_sq f4 [10]
8.024592e-05 0.00010958846 0.00014603794 0.00015816494 8.40174e-05 7.842475e-05 9.22824e-05 6.545261e-05
0.00010396784 7.776532e-05
00000000: b349 a838 dbd2 e538 c321 1939 14d9 2539
00000010: 8032 b038 f877 a438 bc87 c138 9a43 8938
00000020: 4f09 da38 f015 a338

exp_avg f4 [10]
-0.0021641643 -0.00016935579 0.0007241631 -0.0013375098 0.0029623283 0.0036087122 0.0052347984 0.004827784
-0.0043269587 -0.010471009
00000000: a7d4 0dbb 1995 31b9 c3d5 3d3a 624f afba
00000010: 9f23 423b 2580 6c3b ac88 ab3b 6332 9e3b
00000020: 29c9 8dbb 988e 2bbc

exp_avg_sq f4 [10]
0.00026602196 0.00020982474 0.00023289165 0.00030608042 0.00058536977 0.0001992808 0.00015292177 0.00016765742
0.00026949757 0.0006202224
00000000: dd78 8b39 6604 5c39 6034 7439 6b79 a039
00000010: 8073 193a 08f6 5039 a059 2039 32cd 2f39
00000020: 5a4b 8d39 6c96 223a

exp_avg f4 [10]
0.0017186275 0.0009005303 0.00036480924 -0.00030836082 0.00057376386 -0.0004821781 -0.00067717733 0.000194217
0.00087365427 -0.00013898482
00000000: 9243 e13a 9111 6c3a de43 bf39 7dab a1b9
00000010: a468 163a d9cc fcb9 9a84 31ba bba6 4b39
00000020: f205 653a 74bc 11b9

exp_avg_sq f4 [10]
3.9183087e-05 8.382491e-06 3.080668e-06 5.4997245e-06 8.684581e-06 3.1091786e-06 1.1386794e-05 5.33207e-06
5.7626376e-06 1.0265598e-05
00000000: 8558 2438 86a2 0c37 79bd 4e36 468a b836
00000010: feb3 1137 48a7 5036 e809 3f37 22ea b236
00000020: ae5c c136 683a 2c37

exp_avg f4 [10]
-0.00013388135 -0.0046356167 0.0032574546 -0.0050262064 -0.0021187265 -0.0015281558 0.003346695 -0.0024611892
-0.0014869078 0.0032940265
00000000: 8062 0cb9 5fe6 97bb 057b 553b e0b2 a4bb
00000010: 55da 0abb 664c c8ba 3a54 5b3b e74b 21bb
00000020: 59e4 c2ba 98e0 573b

exp_avg_sq f4 [10]
9.229291e-05 0.00021178485 7.5434e-05 6.164124e-05 9.942098e-05 0.00016559286 7.440611e-05 9.932753e-05
9.0074e-05 0.00013852825
00000000: 618d c138 9012 5e39 5232 9e38 6445 8138
00000010: 3b80 d038 ffa2 2d39 7a0a 9c38 104e d038
00000020: 1ce6 bc38 e541 1139

exp_avg f4 [10]
-0.004002859 0.0031476656 -0.00040020302 0.0008361738 0.0012985148 0.001622023 -0.0010337813 0.0026969505
-0.0021148478 -0.001612046
00000000: 6a2a 83bb 1149 4e3b 57d2 d1b9 ac32 5b3a
00000010: ed32 aa3a 0f9a d43a f27f 87ba 52bf 303b
00000020: 4299 0abb 4a4b d3ba

exp_avg_sq f4 [10]
7.488779e-05 0.00020680552 0.0002393429 0.00013398849 0.00013017059 0.00012393392 7.373649e-05 9.78815e-05
9.55537e-05 0.000105293744
00000000: 130d 9d38 efd9 5839 1ff8 7a39 437f 0c39
00000010: 677e 0839 42f4 0139 faa2 9a38 bb45 cd38
00000020: 0164 c838 26d1 dc38

exp_avg f4 [10]
-0.00013364416 -5.4998192e-05 0.000114996816 0.0001226672 2.3517325e-05 0.0003288964 0.0002819464 -0.0015614079
0.0011505303 0.0021683509
00000000: d522 0cb9 dcad 66b8 722a f138 3aa0 0039
00000010: 1247 c537 ba6f ac39 35d2 9339 28a8 ccba
00000020: 64cd 963a e41a 0e3b

exp_avg_sq f4 [10]
3.4526667e-05 2.227275e-05 3.292924e-05 7.8101184e-05 3.4843106e-05 5.008549e-05 4.0301133e-05 3.5946545e-05
7.49046e-05 3.1026964e-05
00000000: bad0 1038 5ed6 ba37 811d 0a38 41ca a338
00000010: 8024 1238 e312 5238 0309 2938 4fc5 1638
00000020: 1a16 9d38 f322 0238

exp_avg f4 [10, 10, 3, 3]
0.001871359 -0.0010933374 -0.00036299828 0.002516849 -0.00063409307 -0.002602829 -0.00045002412 -0.002393133
-0.00014751045 0.00059855275 0.0030741787 -0.0008642128 5.1214483e-06 0.0018165892 -5.1597112e-06 0.0007948456
0.0011027895 0.00069428637 -0.00013439335 0.0020237702 0.0003810239 -0.00051672076 -0.0015848114 0.00040944724
0.002482808 0.00032524843 -0.0006553565 0.00011072395 -0.00014410634 -0.00082905573 -0.0017770152 -0.00062486506
-0.0015635286 -0.001646874 -0.001180046 -0.0006321 -0.0006341964 0.000121047175 -0.0004054009 -0.00017107578
0.0014053382 -0.0028775197 -0.00054568157 -0.000476784 -0.0022919138 -0.00027310298 0.0008121688 -0.000120824385
-0.0019076081 -0.0018281054 -0.0011056572 -0.0003358701 -0.0030423563 -0.0010864884 -0.001961178 0.001308858
-0.0005671118 0.0009727958 -0.0017358254 -0.00078594085 0.0007331505 0.0009382443 -0.00013280357 0.0025033345
0.0013536506 -0.00043228938 -0.0016463313 0.000578187 -0.0018247382 -0.00025022557 -0.00036932642 -0.0005815174
0.0017686868 0.0018726743 0.0029621825 0.0012130165 0.0017661147 -0.00034201797 -0.0006492228 0.001837408
-0.00072623324 -0.0014955724 0.0014259137 -0.0005477348 -0.0013250903 0.0012631885 -0.00041480368 -0.0010925218
0.00053567626 -0.00037526153 0.0018281995 0.0021401593 0.000420213 0.001572198 -0.0038562824 -0.0037382129
0.00346293 0.0016261936 -0.003116183 0.0005309029 -0.005949214 0.002670812 0.0017912869 0.00049444806
0.001599021 0.00091500155 -0.0007331442 -0.0014537845 0.0025738222 0.00135588 0.0016221903 -0.0014909488
-0.0018541834 -0.00025759832 0.00028810374 0.005281491 -0.0018285847 -0.0005301197 -0.0011569037 -0.0023834559
-0.0017363591 0.00058874214 -0.0008698449 -0.0013669246 0.00011971272 -0.0010724645 -0.0018365494 -0.00052225596
0.002207875 -0.0038325347 -0.00534874 0.0018680128 0.0002526338 -0.0026810572 -0.0040526353 0.00071873
-0.0024283326 0.002440379 -0.0013837052 0.0051139267 -0.0038828838 4.1450465e-05 -0.004479643 -0.0010827818
-0.004504365 0.0033216942 -0.0008190562 -0.004832767 -0.0008328449 -0.00043973987 -0.0006794616 0.003893158
-0.0006560988 -0.00043219965 -0.003682357 0.0027923612 -0.0003776018 -0.00045280397 -0.0018716516 0.001696419
0.00089230016 0.0037409377 0.003667385 0.00426197 0.0022533115 0.0028702705 0.0014293271 0.00054676004
-0.00018261129 0.0008827594 -0.0016343081 0.0007384732 -8.703078e-05 -0.00025751148 -0.0021125071 0.0015702804
0.0009064984 0.0011039813 0.000691349 0.00042907745 -0.0039027773 0.00029146255 -0.0022778793 -0.0036471866
-0.00016021974 0.0005938162 -0.00023822632 0.0006237698 -0.0033127293 -0.0005877102 -0.0015379646 -0.0006408128
-0.00046876722 -0.0009875662 -0.0034329954 -0.0020188102 -0.00022988503 -0.002575449 -0.0019350419 -0.00061518094
-3.5762027e-05 -0.001980047 0.001121585 -0.0032116114 -0.00041272305 -0.0008761921 -0.00031523826 0.0011804317
1.9691795e-05 -0.00066219625 0.00033070866 -0.00053948443 -0.0014896842 -2.454735e-05 -0.001196781 -0.0017252159
0.0007648794 -0.0026506241 -0.0009582432 0.00091798155 -0.0004729468 0.00074877834 0.0019731943 -0.0012933161
-0.00067353336 0.00025630114 0.00089316705 -0.0007418475 0.00057851936 -0.00024042584 0.0027984553 -0.0011133021
-0.00029743958 0.00039428423 0.0033376496 0.0010792944 0.0009708436 0.004227521 0.0023685428 0.00034177589
0.0058590854 -0.00060675654 0.0007728656 0.00012877517 -0.0010961063 0.0007904667 0.001381684 -0.0018898679
0.00095535256 0.0010112586 -0.000522014 -0.0017070385 -0.002187564 -0.0007051138 -0.0018791055 -0.0023882003
00000000: 6348 f53a 514e 8fba ce50 beb9 b8f1 243b
00000010: 4439 26ba 3994 2abb 37f1 ebb9 1cd6 1cbb
00000020: 09ad 1ab9 32e8 1c3a 2978 493b 578c 62ba
00000030: e8d8 ab36 9e1a ee3a 9521 adb6 2f5d 503a
00000040: 7a8b 903a c500 363a f1eb 0cb9 3ba1 043b
00000050: 2ac4 c739 8b74 07ba 72b9 cfba 14ab d639
00000060: 9bb6 223b 1b86 aa39 3bcc 2bba 7834 e838
00000070: 401b 17b9 fd54 59ba bcea e8ba fccd 23ba
00000080: 50ef ccba ecdb d7ba c6ab 9aba 83b3 25ba
00000090: 3340 26ba b5da fd38 fd8b d4b9 ce62 33b9
000000a0: 5333 b83a c594 3cbb 120c 0fba ddf8 f9b9
000000b0: ef33 16bb 432f 8fb9 bae7 543a 1963 fdb8
000000c0: b508 faba 0a9d efba b3eb 90ba b917 b0b9
000000d0: 4562 47bb 8068 8eba 1b87 00bb fd8d ab3a
000000e0: 3baa 14ba 3903 7f3a a384 e3ba 9907 4eba
000000f0: e630 403a 82f4 753a 3041 0bb9 fc0e 243b
00000100: fa6c b13a e6a4 e2b9 b6c9 d7ba 7991 173a
00000110: 0e2c efba b530 83b9 27a2 c1b9 f970 18ba
00000120: 48d3 e73a 8674 f53a 2d21 423b 14fe 9e3a
00000130: fa7c e73a e050 b3b9 9b30 2aba 2fd5 f03a
00000140: b060 3eba 1507 c4ba b9e5 ba3a dc95 0fba
00000150: a7ae adba 9391 a53a 027a d9b9 f332 8fba
00000160: a06c 0c3a c0be c4b9 32a0 ef3a ea41 0c3b
00000170: 0950 dc39 3612 ce3a afb9 7cbb cefc 74bb
00000180: 53f2 623b 0126 d53a e038 4cbb 4a2c 0b3a
00000190: a0f1 c2bb ca08 2f3b 9dc9 ea3a d99d 013a
000001a0: 3e96 d13a b7dc 6f3a 7930 40ba ea8c beba
000001b0: 92ad 283b c9b7 b13a ad9f d43a f16b c3ba
000001c0: 1208 f3ba 430e 87b9 a10c 9739 5c10 ad3b
000001d0: 1fad efba bbf7 0aba 3fa3 97ba c133 1cbb
000001e0: 8b96 e3ba d155 1a3a 4e06 64ba 612a b3ba
000001f0: 470e fb38 f091 8cba 5fb8 f0ba 01e8 08ba
00000200: ffb1 103b 432b 7bbb 7c44 afbb 1cd8 f43a
00000210: ef73 8439 adb4 2fbb f8cb 84bb 2769 3c3a
00000220: a924 1fbb c4ee 1f3b 715d b5ba ba92 a73b
00000230: fb77 7ebb 19db 2d38 f8c9 92bb 21ec 8dba
00000240: 5a99 93bb c8b0 593b eeb5 56ba 305c 9ebb
00000250: 4653 5aba e38c e6b9 e51d 32ba 5a24 7f3b
00000260: 0cfe 2bba db98 e2b9 b353 71bb 0c00 373b
00000270: dbf8 c5b9 5266 edb9 3552 f5ba 605a de3a
00000280: 40e9 693a 852a 753b 8358 703b ffa7 8b3b
00000290: 4bac 133b 261b 3c3b 4258 bb3a 7254 0f3a
000002a0: 587b 3fb9 fb68 673a 4836 d6ba 1996 413a
000002b0: 4b84 b6b8 9b02 87b9 fd71 0abb ded1 cd3a
000002c0: 14a2 6d3a 77b3 903a a53b 353a cdf5 e039
000002d0: bdc5 7fbb 71cf 9839 7948 15bb a305 6fbb
000002e0: a900 28b9 55aa 1b3a 64cc 79b9 7c84 233a
000002f0: 601a 59bb 9010 1aba 8795 c9ba 38fc 27ba
00000300: dfc4 f5b9 3971 81ba 1bfc 60bb 044e 04bb
00000310: 4b0d 71b9 ddc8 28bb 3ba1 fdba 1844 21ba
00000320: 2fff 15b8 adc3 01bb 2602 933a e679 52bb
00000330: c062 d8b9 42b0 65ba 9046 a5b9 b7b8 9a3a
00000340: cf2f a537 3d97 2dba f762 ad39 306c 0dba
00000350: 8241 c3ba 08eb cdb7 4fdd 9cba a420 e2ba
00000360: 3082 483a 18b6 2dbb 9d32 7bba b3a4 703a
00000370: d8f5 f7b9 aa49 443a b550 013b 7d84 a9ba
00000380: 0f90 30ba 2860 8639 6d23 6a3a 8b78 42ba
00000390: c7a7 173a d21a 7cb9 4a66 373b 38ec 91ba
000003a0: aaf1 9bb9 efb7 ce39 78bc 5a3b 1c77 8d3a
000003b0: 3680 7e3a 0487 8a3b 8e39 1b3b 6230 b339
000003c0: 92fd bf3b be0e 1fba 229a 4a3a d207 0739
000003d0: 39ab 8fba 5337 4f3a 9f19 b53a 72b5 f7ba
000003e0: a070 7a3a 358c 843a c4d7 08ba b5be dfba
000003f0: 3c5d 0fbb 63d7 38ba 514c f6ba 5a83 1cbb

exp_avg_sq f4 [10, 10, 3, 3]
6.773575e-05 7.883498e-05 3.9479008e-05 0.000113029935 8.630519e-05 6.523425e-05 4.7055957e-05 5.3318465e-05
8.94566e-05 5.722625e-05 0.00020884068 4.9326703e-05 5.1540253e-05 9.912596e-05 6.105079e-05 3.9186336e-05
8.9918125e-05 0.00010506528 9.8349774e-05 6.698067e-05 4.3021235e-05 5.7695936e-05 0.00013242489 5.556356e-05
0.00011536353 5.715275e-05 4.0469957e-05 5.380339e-05 7.349821e-05 2.225809e-05 7.352128e-05 7.230125e-05
3.63553e-05 6.383538e-05 6.06648e-05 6.8793444e-05 5.229251e-05 4.040257e-05 2.989017e-05 5.9499464e-05
3.7133465e-05 6.991395e-05 6.3807456e-05 5.7658173e-05 6.863975e-05 3.8356946e-05 4.7956735e-05 4.0353156e-05
7.954941e-05 4.6844005e-05 3.9799274e-05 6.267106e-05 8.384344e-05 7.264225e-05 4.7125704e-05 6.0494916e-05
5.1877414e-05 4.6187197e-05 5.8098776e-05 4.9214654e-05 7.8609075e-05 7.277839e-05 5.7187386e-05 6.0035192e-05
5.259344e-05 6.1280596e-05 7.587555e-05 6.642922e-05 9.651973e-05 4.684472e-05 5.7363446e-05 5.5510394e-05
6.183943e-05 5.2776508e-05 3.9667466e-05 5.2433246e-05 6.001362e-05 3.173408e-05 3.8712333e-05 7.143229e-05
3.008465e-05 7.576528e-05 0.00027250426 3.194054e-05 5.9185677e-05 6.6580076e-05 5.5369812e-05 5.9849703e-05
8.365392e-05 3.9027924e-05 0.0005012922 0.00028024602 0.00018894902 0.00019903868 0.00029243514 0.00024503004
0.0001898587 0.00025027024 0.00014508005 0.00010951321 0.000119472264 0.00039356793 0.00011129256 0.000116618816
0.0003046304 0.00013609837 0.00012690107 0.00034950496 0.00014365978 0.00018332424 0.0001484146 0.00020685358
0.0002059714 0.00029683232 0.00020097531 0.00020800505 0.00015474726 0.00010879319 0.000103689774 0.00011404625
0.00014106308 0.0001621349 7.543588e-05 0.00021227343 0.00017934448 0.00020930103 0.00021147438 0.00014624133
0.00013128089 0.0002679415 0.00017938664 0.0001375316 0.0002353792 0.00025238516 0.00013435842 0.000139697
0.00013993881 0.000231477 0.00020396813 0.0001605089 0.00014281004 0.00019632759 0.00012667381 0.00018030072
0.00019617952 0.00016575029 0.00020390043 0.00023032393 0.00021588047 0.00018460854 0.00024317998 0.00027004138
0.00018756832 0.00016174656 0.00018101261 0.00014439777 0.00032347685 0.00020331396 0.00026165278 0.00020763895
0.00035547005 0.00018026071 0.00032473548 0.00036959656 0.00045954096 0.0001894371 0.0002755042 0.00038325446
0.00015656973 0.00019463406 0.00024074203 0.00018436435 0.00011467097 0.00023839742 0.00013417582 0.00011635307
0.00018472935 0.00017500974 0.00016608232 0.00018006506 6.9790134e-05 0.000100783225 6.736942e-05 0.00013982726
8.559166e-05 9.527275e-05 0.00010804133 0.00010413264 7.747519e-05 9.4787916e-05 0.00010034375 0.00016391424
6.0558134e-05 9.818323e-05 9.793947e-05 7.511914e-05 7.344426e-05 9.491188e-05 8.6260035e-05 8.6992266e-05
4.627072e-05 8.643204e-05 7.995673e-05 4.800424e-05 9.083851e-05 7.229331e-05 4.9432234e-05 9.4379604e-05
4.069793e-05 3.7161113e-05 0.00011728469 5.654174e-05 4.8643255e-05 9.687716e-05 4.5825633e-05 6.210796e-05
8.088294e-05 5.2266467e-05 5.353752e-05 6.875042e-05 8.293424e-05 5.807816e-05 7.544431e-05 0.0001023645
8.369227e-05 0.000120463636 6.229605e-05 0.00010970064 6.960137e-05 5.82653e-05 7.6353506e-05 0.000116921576
9.399928e-05 9.198031e-05 0.00013852688 0.00015281617 0.00010018935 0.00013969243 0.00015272776 0.00011451646
0.0001064099 9.5811956e-05 0.0001276617 5.7033674e-05 7.061715e-05 0.000106960426 0.00015330884 0.00010019329
0.00010272256 8.829185e-05 0.000119554315 7.709992e-05 9.1217014e-05 0.00010146961 8.4619125e-05 8.7108965e-05
00000000: 5b0d 8e38 3554 a538 4396 2538 7c0a ed38
00000010: bffe b438 5fce 8838 f35d 4538 44a2 5f38
00000020: a59a bb38 3806 7038 3efc 5a39 25e4 4e38
00000030: ed2c 5838 d8e1 cf38 6508 8038 025c 2438
00000040: 6d92 bc38 7e56 dc38 2241 ce38 f977 8c38
00000050: b371 3438 8afe 7138 89db 0a39 eb0c 6938
00000060: 53ef f138 4cb7 6f38 49be 2938 f3aa 6138
00000070: 0d23 9a38 e2b6 ba37 702f 9a38 70a0 9738
00000080: 357c 1838 5cdf 8538 5572 7e38 3345 9038
00000090: a854 5b38 ee75 2938 a7bc fa37 108f 7938
000000a0: c1bf 1b38 c49e 9238 5ed0 8538 fed5 7138
000000b0: aff2 8f38 75e1 2038 2725 4938 df40 2938
000000c0: c4d3 a638 5e7a 4438 25ee 2638 456e 8338
000000d0: 1bd5 af38 8357 9838 d7a8 4538 ecbb 7d38
000000e0: f396 5938 20b9 4138 16af 7338 d56b 4e38
000000f0: edda a438 9aa0 9838 7ddc 6f38 4cce 7b38
00000100: c797 5c38 c583 8038 601f 9f38 ea4f 8b38
00000110: a36a ca38 237b 4438 8899 7038 d5d3 6838
00000120: cbaf 8138 585c 5d38 9e60 2638 c5eb 5b38
00000130: 22b7 7b38 351a 0538 0d5f 2238 ebcd 9538
00000140: 4b5e fc37 2de4 9e38 e7de 8e39 e5f7 0538
00000150: 233e 7838 e8a0 8b38 e23c 6838 2107 7b38
00000160: 5b6f af38 eab1 2338 2669 033a fced 9239
00000170: 9e20 4639 0ab5 5039 fb51 9939 6077 8039
00000180: cf14 4739 b436 8339 a120 1839 75aa e538
00000190: 2f8d fa38 cb57 ce39 bd65 e938 4091 f438
000001a0: cdb6 9f39 a1b5 0e39 bf10 0539 c33d b739
000001b0: 61a3 1639 ba3a 4039 be9f 1b39 d6e6 5839
000001c0: 07fa 5739 29a0 9b39 e6bc 5239 ee1b 5a39
000001d0: a743 2239 e627 e438 0674 d938 1d2c ef38
000001e0: 55ea 1339 c102 2a39 5433 9e38 b795 5e39
000001f0: 6b0e 3c39 d177 5b39 39bf 5d39 5c58 1939
00000200: 72a8 0939 807a 8c39 bc19 3c39 5c36 1039
00000210: 1fd0 7639 9052 8439 90e2 0c39 a17b 1239
00000220: 8abc 1239 a2b8 7239 47e0 5539 484e 2839
00000230: 47bf 1539 49dd 4d39 bed3 0439 1b0f 3d39
00000240: 8ab5 4d39 41cd 2d39 1bce 5539 1c83 7139
00000250: f95d 6239 7a93 4139 21fe 7e39 5794 8d39
00000260: fdad 4439 839a 2939 34ce 3d39 7b69 1739
00000270: 5498 a939 ad30 5539 712e 8939 a8b9 5939
00000280: 625e ba39 5e04 3d39 4241 aa39 69c6 c139
00000290: 8bee f039 a2a3 4639 8c71 9039 8bef c839
000002a0: de2c 2439 af16 4c39 b26f 7c39 ee51 4139
000002b0: 827b f038 52fa 7939 8cb1 0c39 9402 f438
000002c0: e8b3 4139 d282 3739 6226 2e39 d9cf 3c39
000002d0: 4b5c 9238 955b d338 af48 8d38 989e 1239
000002e0: ac7f b338 2bcd c738 3f94 e238 c961 da38
000002f0: 2d7a a238 e0c8 c638 a46f d238 65e0 2b39
00000300: cdff 7d38 b8e7 cd38 da64 cd38 4889 9d38
00000310: 1606 9a38 6d0b c738 81e6 b438 9e6f b638
00000320: cf12 4238 d942 b538 71ae a738 2958 4938
00000330: 8e80 be38 2d9c 9738 7555 4f38 aaed c538
00000340: 12b3 2a38 71dd 1b38 bdf6 f538 3b27 6d38
00000350: 4c06 4c38 872a cb38 e634 4038 f53f 8238
00000360: b39f a938 b138 5b38 798d 6038 1a2e 9038
00000370: fbec ad38 f398 7338 db37 9e38 86ac d638
00000380: f283 af38 6ca1 fc38 f0a4 8238 150f e638
00000390: f3f6 9138 e461 7438 fa1f a038 cb33 f538
000003a0: 7b21 c538 8ee5 c038 8741 1139 473d 2039
000003b0: bf1c d238 677a 1239 8c25 2039 8e28 f038
000003c0: 6128 df38 a7ee c838 eddc 0539 7137 6f38
000003d0: 4b18 9438 f14f e038 87c1 2039 dd1e d238
000003e0: c16c d738 5329 b938 3cb9 fa38 b4b0 a138
000003f0: c34b bf38 15cc d438 8c75 b138 45ae b638

exp_avg f4 [10]
0.00038273435 -0.0036101057 0.001064445 0.0025472012 -0.0023662052 -0.0028215484 0.0014020319 0.0041263737
0.0007395063 0.00053476426
00000000: bca9 c839 8697 6cbb d984 8b3a f2ee 263b
00000010: 5612 1bbb bae9 38bb 62c4 b73a 8836 873b
00000020: 6ddb 413a 6c2f 0c3a

exp_avg_sq f4 [10]
8.2948936e-05 8.18482e-05 9.824209e-05 9.975503e-05 0.000107202664 0.00012964722 4.9752573e-05 9.579724e-05
6.4170796e-05 8.644968e-05
00000000: dff4 ad38 eba5 ab38 5207 ce38 9333 d138
00000010: fed1 e038 e9f1 0739 6bad 5038 c0e6 c838
00000020: 6f93 8638 524c b538

exp_avg f4 [10]
0.0016754007 0.006097214 0.0049060713 0.006266401 0.0027169124 0.007493763 0.0070505473 -0.008512202
0.004449922 -0.0036233691
00000000: 1e99 db3a 23cb c73b 1cc3 a03b 6256 cd3b
00000010: 3a0e 323b 3e8e f53b 4708 e73b c376 0bbc
00000020: a7d0 913b 0c76 6dbb

exp_avg_sq f4 [10]
0.00076941523 0.0026626412 0.0011475066 0.0016482411 0.00088547484 0.0010089765 0.0013686181 0.0019025443
0.0009681184 0.0013999162
00000000: 95b2 493a b57f 2e3b ef67 963a cb09 d83a
00000010: 361f 683a a23f 843a 3463 b33a cb5e f93a
00000020: 53c9 7d3a 657d b73a

exp_avg f4 [10]
-0.0007674387 0.0011811156 -0.0004924873 0.005091627 -0.008930447 0.000548073 0.0014099762 0.0037797794
-0.000679574 -5.803116e-05
00000000: f02d 49ba aacf 9a3a 431a 01ba aad7 a63b
00000010: 0251 12bc 8eac 0f3a f3ce b83a 2db6 773b
00000020: 7025 32ba 7c66 73b8

exp_avg_sq f4 [10]
0.0001528388 0.00016526545 0.0003798951 0.00016779019 0.00030843038 0.00014667347 0.0002641857 0.00022027081
0.000157064 0.00014236433
00000000: 5a43 2039 1b4b 2d39 a82c c739 d6f0 2f39
00000010: d3b4 a139 5ccc 1939 6882 8a39 7ff8 6639
00000020: 8cb1 2439 a247 1539

exp_avg f4 [10, 10, 3, 3]
-0.0019646923 -0.00026289077 -0.0031666218 0.0025512285 -0.001144674 -0.00024164465 0.0018390345 0.0010830763
-0.0024755604 0.00024004246 0.0032322942 -0.00036703955 -0.0018255601 -0.0008095505 -0.00045477986 -0.004473165
-0.00077351247 0.00024633258 0.0013247814 0.0028210112 0.0013061805 0.0024826769 0.0005683498 -0.0031194866
0.0024458966 -0.00035816655 -0.0014822162 0.0009132872 0.0004307675 -0.0010428645 7.107615e-05 0.0020985138
-0.0007627123 -0.0012773284 -0.001686293 0.0011967688 0.0004918428 -0.0029555655 -0.00021954483 -0.0011706757
-0.0039174366 -0.0004464851 -0.0038525339 -0.0035906334 -0.0038335593 0.0032094386 0.0031160638 0.0016924404
0.00010915878 -0.00037417668 -0.00047074814 0.001769748 0.00069488597 -0.00030209922 -0.0017959271 0.0019241092
0.0013283018 -0.0006820951 -0.0022154357 0.00016822634 -0.00081033335 -0.0006359481 -0.001240106 0.001190733
0.00079379894 0.00072733825 0.00071170914 -0.0015274889 0.00035185838 0.0008884824 -0.003280728 -0.0005423289
0.001039176 -0.0023234675 -0.0009097471 0.00016377414 -0.00012815405 -0.0007105433 8.280967e-05 -0.0023357617
-0.0003761766 0.0025383364 0.0013725711 -0.0014736995 0.0006754943 -0.0016880102 -0.00018774683 0.0014200606
-0.00048276063 -0.0013469113 0.00047037535 0.00071455044 0.0007234752 0.00028519664 0.002236731 -0.00085471285
-0.0009071025 -0.00029194047 0.0013911283 0.0031038858 0.004502078 0.00048841065 0.0014861304 0.005029202
-0.0011580032 0.00016383962 0.0023994402 0.0037839143 0.0012948262 -0.00032678424 0.00051141577 -0.002701119
0.00073086115 -0.0006255358 0.0013148878 0.001204964 0.0016519971 0.0011992748 -0.0007500879 0.00073592906
0.00084328867 0.0006721433 0.0018712487 0.0005267755 -0.0003823425 -0.00093898753 0.0005415292 0.0036288798
0.002725625 0.0027762842 0.0018392523 0.0025844397 -0.0010555171 0.0026885003 0.0005207116 0.0016379594
0.0017990499 -0.0016065291 0.0004127495 -0.0014448263 -0.001740973 0.001529664 -0.0012007713 -0.00054236763
0.0015170726 0.0022275383 0.0028990933 0.00010917959 -0.0005918423 0.0031541379 0.0004899576 -0.00051717315
0.003069509 0.0014308717 -0.0008098369 0.00046799282 0.0009932201 -0.0014457593 -0.00026040533 0.0016324256
-0.0015738889 0.00031396575 0.0009904592 0.00051834295 0.0010086969 9.1396934e-05 -0.00028760236 0.0015238158
0.0009567365 -0.0026307788 0.0013529009 0.0028853044 -0.00033671883 6.200874e-05 0.0011805499 6.685542e-05
0.0006677745 0.0018654427 -0.0012577276 0.0008009346 0.0011471712 0.0004338664 -0.00041068066 0.00047839555
0.0001476669 0.000731299 0.001471501 -0.00040278907 -0.000894565 0.0024782878 0.0042684567 -0.0010466655
0.0016047705 0.0053141974 0.0015548754 0.000996266 -0.00072969694 -4.2291394e-05 0.001025693 0.00016617659
-0.0007103067 -0.0010247616 0.0015045898 0.0006410367 0.00073037 0.0014813482 -0.00036434276 0.00017331004
0.00047201937 0.00012680935 -0.00031127076 -0.00054851046 -0.00035567416 0.0018655689 0.0015086466 0.00063309754
0.0011135493 -0.0012448957 0.0007411031 0.0014154912 -0.0010678589 -0.0014710535 0.0013440504 0.0014709854
-0.0008577112 0.00051734765 -0.00091389474 0.00033486937 0.00040956275 -0.0032735683 -0.0038921826 0.0022390063
-0.0010723703 -0.0025714634 0.0005098191 0.002573803 0.002612714 0.0005674467 -0.00023557081 0.0024094568
0.0007678448 0.00059767894 0.00092376134 0.00015378768 0.00022829867 0.00011430543 0.0006766977 -0.00091324875
-0.0014217246 0.00011073218 -0.0006315435 -0.0002429936 0.0018321587 0.00032565912 0.0016615206 0.00020202872
00000000: 11c2 00bb 9ad4 89b9 1987 4fbb 8332 273b
00000010: e308 96ba fe61 7db9 c20b f13a 03f6 8d3a
00000020: 033d 22bb e8b3 7b39 e6d4 533b 376f c0b9
00000030: a247 efba 0438 54ba 856f eeb9 a193 92bb
00000040: 8bc5 4aba 3326 8139 4aa4 ad3a b7e0 383b
00000050: 2534 ab3a 68b4 223b 4ffd 143a 4d70 4cbb
00000060: 564b 203b 4dc8 bbb9 ec46 c2ba ab69 6f3a
00000070: a3d8 e139 bab0 88ba b80e 9538 3887 093b
00000080: c2f0 47ba 076c a7ba 9b06 ddba e6dc 9c3a
00000090: 03ef 003a 29b2 41bb 9e35 66b9 5c71 99ba
000000a0: d75d 80bb 3716 eab9 cb7a 7cbb d550 6bbb
000000b0: 743c 7bbb 7255 523b e036 4c3b e0d4 dd3a
000000c0: 2cec e438 252d c4b9 bfce f6b9 e4f6 e73a
000000d0: 0229 363a 1263 9eb9 5065 ebba 6432 fc3a
000000e0: 6a1a ae3a a1ce 32ba d830 11bb ea65 3039
000000f0: 8d6c 54ba c1b5 26ba 0d8b a2ba 5f12 9c3a
00000100: f216 503a d8aa 3e3a fe91 3a3a 0636 c8ba
00000110: a279 b839 0be9 683a 7b01 57bb 142b 0eba
00000120: f634 883a 5145 18bb 187c 6eba c9ba 2b39
00000130: 1761 06b9 c143 3aba 1aaa ad38 9413 19bb
00000140: 9239 c5b9 385a 263b d8e7 b33a 2629 c1ba
00000150: a813 313a 3940 ddba e8dd 44b9 5421 ba3a
00000160: 091b fdb9 d88a b0ba b69c f639 ab50 3b3a
00000170: 99a7 3d3a 7286 9539 1e96 123b cf0e 60ba
00000180: 9eca 6dba 960f 99b9 8556 b63a 906a 4b3b
00000190: 2b86 933b af08 003a 43ca c23a 01cc a43b
000001a0: 24c8 97ba 5dcc 2b39 ed3f 1d3b 8cfb 773b
000001b0: 28b7 a93a 3d54 abb9 8810 063a 4205 31bb
000001c0: 4397 3f3a fffa 23ba 5058 ac3a e2ef 9d3a
000001d0: d387 d83a fc30 9d3a 8ca1 44ba 5deb 403a
000001e0: 2510 5d3a c632 303a b044 f53a 4e17 0a3a
000001f0: 2475 c8b9 6326 76ba 69f5 0d3a 80d2 6d3b
00000200: 66a0 323b 52f2 353b 1113 f13a b45f 293b
00000210: 4759 8aba 8d31 303b 5d80 083a ccb0 d63a
00000220: 19ce eb3a 2c92 d2ba 4d66 d839 5360 bdba
00000230: 5c31 e4ba 027f c83a 3363 9dba ad2d 0eba
00000240: 82d8 c63a e4fb 113b b7fe 3d3b 59f7 e438
00000250: dd25 1bba a7b5 4e3b 7f70 003a e792 07ba
00000260: d129 493b 168c bb3a 3c4b 54ba ef5c f539
00000270: f02e 823a a27f bdba 0387 88b9 1df7 d53a
00000280: f34a ceba c59b a439 4cd2 813a 68e1 073a
00000290: 4036 843a 5bac bf38 56c9 96b9 c6ba c73a
000002a0: 80cd 7a3a 2569 2cbb d253 b13a 6017 3d3b
000002b0: a389 b0b9 b00a 8238 aebc 9a3a bb34 8c38
000002c0: 970d 2f3a df81 f43a 56da a4ba d0f5 513a
000002d0: ae5c 963a 9078 e339 a050 d7b9 2ad1 fa39
000002e0: 08d7 1a39 a5b4 3f3a 61df c03a 6f2d d3b9
000002f0: 3e81 6aba c56a 223b 69de 8b3b 4430 89ba
00000300: 2a57 d23a b822 ae3b f6cc cb3a 2495 823a
00000310: 2249 3fba 0a62 31b8 8c70 863a b03f 2e39
00000320: e033 3aba 4b51 86ba a835 c53a 3f0b 283a
00000330: 4d76 3f3a cc29 c23a 4205 bfb9 8fba 3539
00000340: 5e79 f739 20f8 0439 0e32 a3b9 eac9 0fba
00000350: c779 bab9 1b86 f43a c8bd c53a 75f6 253a
00000360: 84f4 913a c52b a3ba 9646 423a 0188 b93a
00000370: 66f7 8bba 5dd0 c0ba d92a b03a 14ce c03a
00000380: 06d8 60ba 9d9e 073a 7092 6fba 6891 af39
00000390: 95ba d639 5d89 56bb fd13 7fbb 4bbc 123b
000003a0: c78e 8cba ff85 28bb 61a5 053a 40ad 283b
000003b0: 113a 2b3b b4c0 143a 8f03 77b9 fae7 1d3b
000003c0: 3149 493a 8ead 1c3a 9328 723a 1142 2139
000003d0: 7563 6f39 43b7 ef38 6a64 313a 1667 6fba
000003e0: 2959 baba e338 e838 2b8e 25ba 19cc 7eb9
000003f0: 0b25 f03a 3abd aa39 61c7 d93a acd7 5339

exp_avg_sq f4 [10, 10, 3, 3]
6.2078136e-05 0.000115775314 0.00013850364 7.4291514e-05 0.00018112252 0.00021608773 9.841292e-05 0.00010397074
0.00016528743 0.00030875616 0.00024134418 0.0002395052 0.00021755055 0.00025387236 0.00020277013 0.00021723426
0.00022930795 0.0001304368 0.00021609942 0.0002245724 0.0001172828 0.00019322654 0.00017386797 0.00010020099
0.00013043535 0.000170916 7.5009615e-05 0.00013309026 0.00016128458 0.00014251297 0.00015382911 0.00015992323
0.00010201524 0.00017546535 0.00015096964 9.410461e-05 0.00017808992 0.00022583002 0.00019236232 0.00018576611
0.00021723052 0.00022077818 0.0001760969 0.00019278692 0.00014941809 0.00015125032 0.00011764287 9.396513e-05
0.00018588886 0.00014700812 9.2203525e-05 0.00017247399 0.00017310932 0.00019845733 0.00014784532 0.00013303212
7.331246e-05 0.00012576702 0.0001620203 0.00011140335 0.00012582446 0.0001358816 0.00012195157 0.00010541338
8.1439684e-05 7.990792e-05 0.00012622407 9.088199e-05 6.712545e-05 0.0001054347 8.130938e-05 5.9175367e-05
6.0284194e-05 0.0001239258 0.00013882093 0.00010251155 0.00013752257 0.00015910532 0.000113181726 0.00012731832
0.00012098965 8.213782e-05 0.00010919871 7.063561e-05 9.043639e-05 0.000116488416 9.553348e-05 6.389007e-05
6.167343e-05 8.559895e-05 4.3517688e-05 4.324888e-05 0.00011245445 4.1222276e-05 7.397214e-05 0.00015156012
5.985074e-05 6.959461e-05 0.00013376118 0.00019144412 0.00013160279 0.00011717257 0.00014244729 0.00015340044
0.00011088294 0.00010359007 0.00019801111 9.913228e-05 8.357798e-05 6.444116e-05 5.5087894e-05 9.712392e-05
5.4681128e-05 5.8317855e-05 0.00010659823 7.1444716e-05 5.0756367e-05 7.951973e-05 9.9898665e-05 6.3129395e-05
9.203225e-05 0.00012430966 7.919686e-05 7.2473944e-05 0.00013238868 6.5895074e-05 9.6693184e-05 0.000100480225
9.451897e-05 0.00013322194 0.00014244136 8.097691e-05 8.6686065e-05 0.000109700595 6.50738e-05 4.6359273e-05
5.7717312e-05 4.1008938e-05 5.028573e-05 6.822493e-05 4.7654656e-05 0.000101251055 6.737731e-05 8.134913e-05
5.411862e-05 7.7799625e-05 6.44602e-05 5.9669826e-05 6.912236e-05 4.926662e-05 5.0369166e-05 8.3444706e-05
5.417834e-05 7.079094e-05 4.159536e-05 4.302652e-05 7.8582496e-05 5.5158725e-05 4.5166784e-05 8.042021e-05
7.2996874e-05 3.64681e-05 3.813671e-05 5.117265e-05 0.00012117401 4.6906498e-05 5.7014855e-05 0.000111887115
3.2107604e-05 6.8147216e-05 0.00022699646 7.709641e-05 5.3621286e-05 6.1979685e-05 7.398514e-05 4.8693644e-05
3.4039334e-05 7.329543e-05 3.4849978e-05 4.609693e-05 6.567925e-05 9.2810005e-05 0.00013236098 6.651603e-05
9.083124e-05 0.00028524233 0.00013559443 0.00011885707 0.00011605689 0.00029404394 0.00018595165 0.00018071695
0.00015549785 0.00018116379 0.00019019567 0.00011480022 0.00017827992 0.00017712037 7.657383e-05 0.000107976644
9.9397206e-05 0.00012512799 0.00015089932 0.0001604078 0.00012698636 0.00016314317 0.0001812381 0.00011660786
0.00010819868 8.523604e-05 0.0001696939 0.00015939609 0.00013549741 0.00015687104 0.00010197646 0.00011438738
0.0001678305 0.00013497121 0.00010321175 0.00013851798 0.00013078844 7.8609766e-05 0.00012806903 7.381511e-05
8.142164e-05 4.6559846e-05 4.52167e-05 6.3392814e-05 0.00011140759 9.807936e-05 0.000105481275 0.00017707559
0.00015463766 0.00014790651 9.325687e-05 7.797541e-05 7.9417616e-05 0.00011325849 0.00011187203 9.177449e-05
0.00013504144 0.00011394864 8.341926e-05 7.674866e-05 0.000112188565 0.00013582375 9.657241e-05 6.286579e-05
9.796334e-05 9.149205e-05 5.9282487e-05 4.6867466e-05 0.00010002705 0.00011127041 0.00012284843 7.362868e-05
00000000: f22f 8238 66cc f238 4a3b 1139 f4cc 9b38
00000010: b5eb 3d39 9c95 6239 0963 ce38 de0a da38
00000020: 0251 2d39 8de0 a139 5611 7d39 b023 7b39
00000030: 481e 6439 2c1a 8539 b19e 5439 61c9 6339
00000040: 6272 7039 ddc5 0839 bf98 6239 327b 6b39
00000050: b9f5 f538 db9c 4a39 5450 3639 ff22 d238
00000060: 79c5 0839 ea37 3339 7b4e 9d38 258e 0b39
00000070: 801e 2939 896f 1539 304d 2139 11b1 2739
00000080: 04f1 d538 1ffd 3739 9b4d 1e39 075a c538
00000090: a6bd 3a39 c9cc 6c39 deb4 4939 36ca 4239
000000a0: 60c8 6339 b180 6739 a7a6 3839 d826 4a39
000000b0: 1dad 1c39 f398 1e39 09b7 f638 250f c538
000000c0: 29eb 4239 3126 1a39 645d c138 22da 3439
000000d0: ae84 3539 fc18 5039 ed06 1b39 8a7e 0b39
000000e0: 54bf 9938 54e0 0339 fee3 2939 38a1 e938
000000f0: bfef 0339 707b 0e39 40c0 ff38 6111 dd38
00000100: 99ca aa38 3d94 a738 045b 0439 e697 be38
00000110: b4c5 8c38 d31c dd38 a484 aa38 1133 7838
00000120: a9d9 7c38 14f2 0139 7690 1139 78fb d638
00000130: ef33 1039 82d5 2639 fa5b ed38 c080 0539
00000140: d3bb fd38 6841 ac38 9c01 e538 3422 9438
00000150: aba8 bd38 3e4b f438 2659 c838 b8fc 8538
00000160: ac56 8138 9683 b338 c386 3638 2266 3538
00000170: 86d5 eb38 15e6 2c38 7e21 9b38 1cec 1e39
00000180: 3e08 7b38 52f3 9138 3e42 0c39 64be 4839
00000190: dbfe 0939 8bba f538 e75d 1539 1eda 2039
000001a0: d389 e838 7f3e d938 34a1 4f39 3de5 cf38
000001b0: 9646 af38 9624 8738 2d0e 6738 02af cb38
000001c0: 6a59 6538 529a 7438 7d8d df38 97d4 9538
000001d0: 3ce3 5438 d4c3 a638 b080 d138 5664 8438
000001e0: 7001 c138 1f59 0239 7e16 a638 27fd 9738
000001f0: d1d1 0a39 2631 8a38 c2c7 ca38 e9b8 d238
00000200: 7c38 c638 7eb1 0b39 505c 1539 26d2 a938
00000210: 3acb b538 0f0f e638 3b78 8838 e471 4238
00000220: 7e15 7238 0301 2c38 e4e9 5238 fb13 8f38
00000230: cce0 4738 bf56 d438 eb4c 8d38 fb99 aa38
00000240: 6dfd 6238 5b28 a338 ce2e 8738 fd45 7a38
00000250: c9f5 9038 a1a3 4e38 7b43 5338 09ff ae38
00000260: 8d3d 6338 9975 9438 ad76 2e38 6077 3438
00000270: a8cc a438 3b5a 6738 7771 3d38 46a7 a838
00000280: e615 9938 53f5 1838 fbf4 1f38 37a2 5638
00000290: cd1e fe38 78bd 4438 3c23 6f38 f0a4 ea38
000002a0: 47ab 0638 42ea 8e38 e605 6e39 d2ae a138
000002b0: 6be7 6038 17fb 8138 7828 9b38 673c 4c38
000002c0: 75c5 0e38 2fb6 9938 e12b 1238 3458 4138
000002d0: 47bd 8938 fea2 c238 61ca 0a39 867e 8b38
000002e0: a77c be38 948c 9539 5a2e 0e39 e742 f938
000002f0: 9263 f338 e929 9a39 04fc 4239 d67e 3d39
00000300: 230d 2339 c9f6 3d39 436f 4739 e6c0 f038
00000310: a7f0 3a39 63b9 3939 4396 a038 8571 e238
00000320: 7873 d038 ca34 0339 ba3a 1e39 2433 2839
00000330: a427 0539 6911 2b39 bb0a 3e39 5e8b f438
00000340: b9e8 e238 c0c0 b238 dcef 3139 9023 2739
00000350: 4f14 0e39 c07d 2439 32dc d538 42e3 ef38
00000360: a8fb 2f39 0f87 0d39 6373 d838 233f 1139
00000370: 4124 0939 4cdb a438 454a 0639 2fcd 9a38
00000380: e9c0 aa38 4149 4338 10a7 3d38 c2f1 8438
00000390: 7fa3 e938 f5af cd38 d435 dd38 5ead 3939
000003a0: 3b26 2239 5a17 1b39 e792 c338 bb86 a338
000003b0: 028d a638 3085 ed38 d79c ea38 0e77 c038
000003c0: e999 0d39 b6f7 ee38 60f1 ae38 20f4 a038
000003d0: c746 eb38 e96b 0e39 eb86 ca38 d0d6 8338
000003e0: ab71 cd38 6cdf bf38 16a6 7838 8f93 4438
000003f0: 9dc5 d138 d959 e938 e0d0 0039 1969 9a38

exp_avg f4 [10, 10, 3, 3]
-0.0022547673 0.0042573437 0.0019783482 -0.0050691515 0.0057436265 -0.0012211254 -0.00017790734 -0.0010188606
0.0022698003 0.004836734 -0.0030055647 -0.00020912522 0.0011427954 0.0021496408 0.002722744 -0.00031251545
0.0014179115 0.0038100732 0.0015874198 0.00092075707 -0.0043147905 0.0044820704 6.1661114e-05 -0.0026000454
0.0026920175 -0.0013261604 -0.006223148 -0.0023220137 0.0012074906 -0.0009356907 -0.0019447204 0.0009095544
-0.0055299597 0.0016678831 0.0019346789 -0.00053376897 -0.0055165594 -0.0024357617 -0.0051613 0.0073005413
0.0007075726 -0.00013717613 -0.0042052497 0.005167117 0.0027612764 0.0064606345 0.00057983317 0.0043365066
0.0123056425 0.0032344551 0.0022608417 -0.010048403 -0.0058864253 -0.0031019521 -0.00026099946 -0.0001312188
0.0010038946 0.0006761309 -0.00014492363 -0.0021694517 0.0022105149 0.0023195958 -0.002668897 0.0011349168
7.021498e-05 0.004615295 -0.0042716004 -0.002773757 0.0034455112 -0.0056483145 -0.007562425 -0.0036295601
-0.00094314566 0.002352355 -0.0041723894 0.0027835993 0.011270843 0.0015767284 0.0031900257 -0.0017776892
0.0026063146 -0.0033393558 0.00413802 -0.004251955 0.0021600022 -0.0026740269 -0.004485466 -0.0014264054
0.004319708 0.0040959963 8.338786e-05 -0.003342673 -0.0024023198 -0.0042858636 0.005182822 -0.008223615
-0.003375275 0.00074821396 -0.0061788517 0.00631589 0.006370742 -0.003136217 0.002287001 0.0047965096
-0.002637539 -0.001908683 -0.0041013267 0.0017050308 0.004758826 -0.0033683022 0.0009902727 -0.0014654137
-0.0071179266 -0.0035785122 0.002728706 -0.006568083 -0.0010493525 0.0011087821 -0.0006626994 -0.00050853303
-0.006475835 -0.001858219 -0.0012862695 -0.008420648 -0.002622095 0.0015573008 -0.0013265656 -0.00049262843
-0.0006328503 -0.00040122715 0.003682672 0.0037913793 0.0047329743 2.1772546e-05 -0.00047920935 0.007910493
0.0046210773 0.004366674 -0.0012967391 -0.0027244512 0.004261804 0.00048554334 -0.0004506824 -0.0017474008
0.003361194 -0.0022715414 0.0034523308 -0.009243841 0.0050684856 0.0015132105 -0.00558066 9.7558506e-05
-0.0058491207 0.014389406 0.0037592186 -0.004310354 0.006413646 0.0026694743 0.0041927965 0.0014427897
0.002843562 0.0046057445 0.0041382858 0.00017854279 0.0031522315 0.002824477 0.008940751 -0.001100658
0.005114831 0.009360606 -0.0029451672 0.0022929115 0.00027208257 0.00048702475 -0.0049474873 0.008172586
-0.0017737937 -0.0011868936 0.002851767 -0.01264529 -0.0053132074 -0.008068025 0.00083929126 -0.0011727912
-1.788635e-05 -0.0009248745 -0.001354109 -0.00642299 -0.005633785 -0.0024849693 -0.005731387 0.00063949573
-0.00077237864 0.0024958684 0.0034495734 -0.0025416422 -0.00030796014 0.003415678 0.00043994407 -0.001183915
0.0027546294 -0.004385454 0.0003313981 -0.0010690541 0.00043401384 0.00051062304 -0.0023498926 -0.004625545
0.0009795092 -0.00039833193 -0.0028203914 0.0023431396 -0.0021598644 -0.004552574 -0.00661498 -0.001531588
-0.002335913 0.0028261926 -0.002469209 -0.0034031186 -0.0054712426 -0.0022734709 0.0024668213 -2.3266719e-05
0.0007392181 -0.0026454795 0.0019939237 -0.0007558522 -0.0023836812 -0.0057249335 -0.0020905978 0.006577432
0.0033095835 0.0053499658 0.0015719834 0.0019563502 0.0012564446 0.0021056926 0.0043796254 0.0014751782
-0.006522036 0.001963664 -0.00023816816 -0.0009302621 0.000100259305 -0.0008947915 -0.0020482151 0.0011933638
0.0010645139 -0.0015963437 0.0033764972 0.002968359 0.0035555363 -0.002493629 0.00058481214 0.0037838703
00000000: b8c4 13bb 3081 8b3b 2da7 013b 201b a6bb
00000010: 0835 bc3b 2b0e a0ba a38c 3ab9 4a8b 85ba
00000020: eec0 143b 777d 9e3b 02f9 44bb a048 5bb9
00000030: dac9 953a fde0 0c3b 1070 323b 1dd9 a3b9
00000040: 37d9 b93a 6cb2 793b f810 d03a f65e 713a
00000050: 1663 8dbb 55de 923b 0f50 8138 8665 2abb
00000060: 8f6c 303b 8fd2 adba 8deb cbbb ed2c 18bb
00000070: a944 9e3a 2449 75ba fde5 feba 2a6f 6e3a
00000080: aa34 b5bb df9c da3a 0d95 fd3a a1ec 0bba
00000090: 41c4 b4bb 4da1 1fbb 1f20 a9bb 6139 ef3b
000000a0: 657c 393a f0d6 0fb9 31cc 89bb eb50 a93b
000000b0: 88f6 343b bbb3 d33b f2ff 173a 4119 8e3b
000000c0: 9b9d 493c 27f9 533b a12a 143b 0fa2 24bc
000000d0: eae2 c0bb 1f4a 4bbb c1d6 88b9 c797 09b9
000000e0: 1d95 833a 603e 313a a4f6 17b9 5c2d 0ebb
000000f0: 49de 103b 5c04 183b a9e8 2ebb 7dc1 943a
00000100: 6140 9338 e73b 973b c8f8 8bbb ecc7 35bb
00000110: 16ce 613b 7f15 b9bb 38ce f7bb eadd 6dbb
00000120: 6f3d 77ba f829 1a3b 8ab8 88bb 0c6d 363b
00000130: 58a9 383c 3aaa ce3a c00f 513b 5a01 e9ba
00000140: b4ce 2a3b 18d9 5abb 3a98 873b fc53 8bbb
00000150: d38e 0d3b ba3e 2fbb d1fa 92bb 39f6 baba
00000160: 568c 8d3b b537 863b 84e0 ae38 bf10 5bbb
00000170: 3d70 1dbb 6e70 8cbb a9d4 a93b 57bc 06bc
00000180: b833 5dbb ca23 443a f777 cabb 86f5 ce3b
00000190: a8c1 d03b fd88 4dbb 83e1 153b 0a2c 9d3b
000001a0: 90da 2cbb c62c faba 6c64 86bb 577b df3a
000001b0: edef 9b3b bcbe 5cbb 0acc 813a 2013 c0ba
000001c0: 7f3d e9bb 7985 6abb 17d4 323b 1339 d7bb
000001d0: 6d8a 89ba 8e54 913a 01b9 2dba 134f 05ba
000001e0: 3e33 d4bb 7c8f f3ba 0b98 a8ba c2f6 09bc
000001f0: 74d7 2bbb 581e cc3a 28e0 adba bc23 01ba
00000200: dde5 25ba cc5b d2b9 fc58 713b ca78 783b
00000210: 1117 9b3b 30a4 b637 643e fbb9 039b 013c
00000220: 686c 973b 5116 8f3b 58f7 a9ba b58c 32bb
00000230: 9aa6 8b3b 8690 fe39 9149 ecb9 0b09 e5ba
00000240: 7a47 5c3b 24de 14bb 8040 623b 7b73 17bc
00000250: 8a15 a63b eb56 c63a f8dd b6bb 5398 cc38
00000260: fba9 bfbb 8bc1 6b3c 395d 763b df3d 8dbb
00000270: 9029 d23b 59f2 2e3b ba63 893b fd1b bd3a
00000280: 0e5b 3a3b c9eb 963b 759a 873b 3737 3b39
00000290: ab95 4e3b dc1a 393b 3a7c 123c f443 90ba
000002a0: 509a a73b 3a5d 193c b503 41bb ac44 163b
000002b0: 4ea6 8e39 5b57 ff39 881e a2bb 4fe6 053c
000002c0: a47e e8ba 8a91 9bba b6e4 3a3b 312e 4fbc
000002d0: 6a1a aebb c02f 04bc e203 5c3a 58b8 99ba
000002e0: a50a 96b7 4773 72ba 5c7c b1ba f277 d2bb
000002f0: 9d9b b8bb deda 22bb 5cce bbbb d5a3 273a
00000300: 7479 4aba b991 233b 3d12 623b ae91 26bb
00000310: b675 a1b9 91d9 5f3b 4ba8 e639 982d 9bba
00000320: 0387 343b dbb3 8fbb 80bf ad39 811f 8cba
00000330: 5a8c e339 55db 053a a800 1abb e291 97bb
00000340: e062 803a 35d7 d0b9 51d6 38bb 5c8f 193b
00000350: 838c 0dbb c22d 95bb 79c2 d8bb 91bf c8ba
00000360: 1e16 19bb a537 393b 74d2 21bb db06 5fbb
00000370: 1c48 b3bb 83fe 14bb 65aa 213b e62c c3b7
00000380: 16c8 413a c85f 2dbb 7dac 023b 6224 46ba
00000390: 8937 1cbb 3998 bbbb 6902 09bb 8087 d73b
000003a0: 99e5 583b c44e af3b 030b ce3a 1c36 003b
000003b0: 49af a43a a9ff 093b f682 8f3b c45a c13a
000003c0: ceb6 d5bb d1b0 003b c7bc 79b9 d5dc 73ba
000003d0: 4e42 d238 7190 6aba 593b 06bb a56a 9c3a
000003e0: 2987 8b3a 683c d1ba 3948 5d3b cd88 423b
000003f0: 0004 693b 276c 23bb 144e 193a cffa 773b

exp_avg_sq f4 [10, 10, 3, 3]
0.00051636196 0.00050522544 0.0004420833 0.00059260504 0.0005431236 0.00066507637 0.0005522885 0.00045540885
0.0004005468 0.0009062382 0.0009889478 0.0009540955 0.001072345 0.0011198289 0.0011130938 0.00072523236
0.00092510704 0.001028896 0.0006570081 0.00056193845 0.00031397163 0.00047795352 0.0005640112 0.00051255804
0.0008915255 0.0007101013 0.00045653543 0.00047349464 0.00041388092 0.00036918637 0.00095985975 0.00047735588
0.00049445324 0.0004607518 0.00041493107 0.00030388669 0.0005070851 0.00046562587 0.0005321868 0.00088346016
0.0006490022 0.0005134114 0.0005387448 0.0005988541 0.0004943556 0.00078809634 0.0007744093 0.0008705999
0.0005423394 0.00056871265 0.00060823536 0.0009850761 0.00076281663 0.00093611056 0.00041396494 0.00038784908
0.00033699072 0.0008244594 0.0003137021 0.00042483176 0.00087386905 0.00046283985 0.00050647435 0.0008527182
0.0010302309 0.00074086094 0.000523695 0.00075165305 0.0006002842 0.0004958288 0.0005341436 0.00052470615
0.00050947705 0.0004921789 0.00048473358 0.00066251913 0.00062872045 0.0005453909 0.0008157288 0.0006232377
0.00055734953 0.00072277756 0.00079077453 0.0004948639 0.0008472725 0.0006811846 0.00068674696 0.0008709286
0.0006220865 0.00048234995 0.00042789677 0.00049452786 0.00037964943 0.00054199237 0.0005958432 0.00051833846
0.00040961575 0.00045011085 0.00041325833 0.0004242904 0.00081520603 0.0009864864 0.00054899225 0.0007977918
0.001144529 0.00039046275 0.00066011975 0.0010870391 0.00051902304 0.0005236693 0.0004935445 0.0007797881
0.00062290794 0.0005238783 0.0010488651 0.0008124449 0.0006310878 0.00050332374 0.00040297437 0.00024214906
0.0006633526 0.00052073115 0.00046177008 0.00052541634 0.0005028622 0.00044306295 0.0003893974 0.0005082462
0.00055082893 0.0005808284 0.0006627748 0.0006127436 0.00055906136 0.00065462413 0.0005933123 0.00065727794
0.00065080327 0.00060358754 0.0005244304 0.0004783807 0.0006699312 0.00072699174 0.0007011072 0.000634421
0.00027934535 0.00028837184 0.0002495573 0.0004784869 0.00034822247 0.00035931225 0.00061829743 0.00050099916
0.0003910317 0.0004256721 0.0006101865 0.0007062456 0.00039404762 0.0007065219 0.00092128536 0.00043743584
0.00060564774 0.00077867747 0.00041551678 0.00047131593 0.00052585755 0.00069078006 0.0005975156 0.00055482343
0.00079462497 0.0007196528 0.00068480644 0.0006139311 0.000696138 0.00045679847 0.0006967413 0.00065951626
0.0005962113 0.0010700121 0.000837858 0.0006724299 0.00049694895 0.0004270536 0.00035157168 0.0003921742
0.00039186038 0.00036455767 0.0003043483 0.00036915555 0.00029879817 0.0006614715 0.0004671228 0.00047717622
0.0005765108 0.0004308626 0.0004023602 0.00050896476 0.00044846928 0.00040497008 0.00037176412 0.00026181675
0.0002477449 0.00044424733 0.000406089 0.00030669448 0.0005587198 0.00035797036 0.00040571604 0.0003567428
0.00028266796 0.00027126752 0.00040545358 0.00031646356 0.00032672845 0.0004053523 0.0002973002 0.0002959627
0.0003209055 0.00029776842 0.00024488434 0.00029312324 0.00028309936 0.00021620799 0.00028051107 0.0002474818
0.00021155975 0.0003003469 0.00030444554 0.00023759085 0.00031123674 0.00031058016 0.00027992553 0.0003330473
0.0002860003 0.000244547 0.00012574557 9.9004275e-05 8.4796644e-05 0.00014699047 0.00013746326 0.000114085335
0.00020100285 0.00014597646 0.00014999429 0.0002747409 0.00035361413 0.00029527178 0.00035845567 0.0004001991
0.0003054361 0.00037988805 0.00040410805 0.00024657312 0.00020903227 0.0001745274 0.0002434532 0.00023846836
00000000: 775c 073a 1b71 043a 6bc7 e739 0d59 1b3a
00000010: 6860 0e3a 8558 2e3a 74c7 103a f1c3 ee39
00000020: 7b00 d239 9e90 6d3a 959f 813a 441c 7a3a
00000030: ed8d 8c3a 39c7 923a 3be5 913a 851d 3e3a
00000040: e282 723a 05dc 863a 113b 2c3a 0d4f 133a
00000050: 8f9c a439 d695 fa39 27da 133a 305d 063a
00000060: 43b5 693a 1726 3a3a 265b ef39 603f f839
00000070: 28fe d839 5b8f c139 199f 7b3a 9f45 fa39
00000080: 329e 013a 0f91 f139 1b8b d939 fb52 9f39
00000090: e8ed 043a 3f1f f439 7482 0b3a 0298 673a
000000a0: cd21 2a3a 7596 063a 8d3a 0d3a 6bfc 1c3a
000000b0: a597 013a 4098 4e3a ba01 4b3a f838 643a
000000c0: c82b 0e3a a915 153a fc71 1f3a ab1d 813a
000000d0: c2f7 473a 5165 753a 6f09 d939 3958 cb39
000000e0: 21ae b039 8920 583a 6278 a439 f4bb de39
000000f0: 5c14 653a 50a9 f239 ebc4 043a f388 5f3a
00000100: d008 873a 5636 423a 9448 093a 950a 453a
00000110: 645c 1d3a 82fa 013a c505 0c3a 6f8c 093a
00000120: 6d8e 053a 9105 013a d723 fe39 e8ac 2d3a
00000130: b7d0 243a 90f8 0e3a a2d6 553a c660 233a
00000140: 181b 123a c878 3d3a fb4b 4f3a c1b9 013a
00000150: 7f1b 5e3a 8691 323a cf06 343a 074f 643a
00000160: 8513 233a eae3 fc39 5557 e039 34a3 013a
00000170: af0b c739 7e14 0e3a 5c32 1c3a 1be1 073a
00000180: b2c1 d639 dbfc eb39 98aa d839 4b73 de39
00000190: 8db3 553a fe4c 813a 3fea 0f3a e722 513a
000001a0: 0504 963a 06b7 cc39 e30b 2d3a fb7a 8e3a
000001b0: 0c0f 083a da46 093a 3661 013a b26a 4c3a
000001c0: a54a 233a e154 093a 137a 893a 41fa 543a
000001d0: 966f 253a 7cf1 033a 4e46 d339 65e9 7d39
000001e0: d7e4 2d3a ad81 083a bb19 f239 18bc 093a
000001f0: 83d2 033a e74a e839 0928 cc39 d33b 053a
00000200: 8165 103a bc42 183a 10be 2d3a 87a0 203a
00000210: f98d 123a 159b 2b3a 8488 1b3a 2d4d 2c3a
00000220: ab9a 2a3a 133a 1e3a ee79 093a 2ccf fa39
00000230: 529e 2f3a 9793 3e3a 82ca 373a 464f 263a
00000240: 1975 9239 9d30 9739 04d7 8239 6ddd fa39
00000250: a191 b639 1362 bc39 3d15 223a 7c55 033a
00000260: 6303 cd39 be2c df39 ecf4 1f3a 5723 393a
00000270: 2d98 ce39 e235 393a 6a82 713a a557 e539
00000280: 55c4 1e3a 2920 4c3a b8d9 d939 f41a f739
00000290: b4d9 093a 7715 353a 98a2 1c3a 9271 113a
000002a0: 614e 503a 15a7 3c3a 9584 333a 38f0 203a
000002b0: 087d 363a 747e ef39 84a5 363a 63e3 2c3a
000002c0: 104b 1c3a a63f 8c3a b3a3 5b3a 0246 303a
000002d0: ae45 023a 2ae6 df39 2753 b839 bb9c cd39
000002e0: 9c72 cd39 1a22 bf39 f090 9f39 388b c139
000002f0: 03a8 9c39 9a66 2d3a 29e8 f439 822d fa39
00000300: fc20 173a 66e5 e139 dff3 d239 0c6c 053a
00000310: 8720 eb39 2a52 d439 56e9 c239 7344 8939
00000320: c2e3 8139 dee9 e839 58e8 d439 d6cb a039
00000330: 0d77 123a f8ad bb39 49b6 d439 3509 bb39
00000340: 0d33 9439 e938 8e39 0f93 d439 05eb a539
00000350: c04c ab39 7785 d439 f5de 9b39 712b 9b39
00000360: 353f a839 cd1d 9c39 d263 8039 56ae 9939
00000370: f46c 9439 e4b5 6239 8f11 9339 72c0 8139
00000380: 23d6 5d39 e177 9d39 fd9d 9f39 cf21 7939
00000390: 7d2d a339 5dd5 a239 f8c2 9239 da9c ae39
000003a0: 4ff2 9539 8b36 8039 92da 0339 84a0 cf38
000003b0: dad4 b138 7421 1a39 0324 1039 1941 ef38
000003c0: 4bc4 5239 4211 1939 c947 1d39 190b 9039
000003d0: 4965 b939 b5ce 9a39 1bef bb39 d0d1 d139
000003e0: f022 a039 b62b c739 77de d339 7c46 8139
000003f0: ac2f 5b39 5801 3739 7947 7f39 5d0d 7a39

exp_avg f4 [10]
0.0032717255 3.4068333e-05 0.0028731173 -0.0046055065 -0.00043601007 -0.0027722663 0.0046564844 -0.0016109269
-0.0026567464 0.0017853479
00000000: 726a 563b 98e4 0e38 e94a 3c3b cae9 96bb
00000010: 4898 e4b9 e9ae 35bb 6c95 983b bd25 d3ba
00000020: cf1c 2ebb 5602 ea3a

exp_avg_sq f4 [10]
0.000156475 0.0003163749 6.2052364e-05 6.0362614e-05 5.341432e-05 0.0001531803 0.00012536801 0.00011473343
4.911006e-05 0.00017550203
00000000: 7013 2439 1fdf a539 1c22 8238 dd2d 7d38
00000010: 3009 6038 069f 2039 3875 0339 0b9d f038
00000020: 87fb 4d38 f806 3839

exp_avg f4 [10]
0.0006111309 0.003352432 -0.0008060461 0.0028306425 -0.0003628151 -0.0010301423 -0.0004416838 0.00040708182
0.0027850133 -0.001458957
00000000: 4d34 203a 7ab4 5b3b d74c 53ba 4d82 393b
00000010: 3838 beb9 d705 87ba cc91 e7b9 996d d539
00000020: c584 363b 793a bfba

exp_avg_sq f4 [10]
9.433621e-05 7.502875e-05 8.04686e-05 0.00015156738 6.935506e-05 6.441766e-05 6.337796e-05 4.088726e-05
6.483349e-05 6.535959e-05
00000000: 5ed6 c538 c158 9d38 40c1 a838 0fee 1e39
00000010: b772 9138 f817 8738 c8e9 8438 5c7e 2b38
00000020: 37f7 8738 aa11 8938

exp_avg f4 [10]
0.0005669348 0.0014148179 -0.0019718017 -0.0004484624 0.0019618715 0.00011912992 -0.0013007751 0.00026920316
0.00022890254 0.0010266207
00000000: 5a9e 143a 6971 b93a 5839 01bb 9b1f ebb9
00000010: be92 003b 64d5 f938 c57e aaba d623 8d39
00000020: 8f05 7039 ad8f 863a

exp_avg_sq f4 [10]
6.442711e-05 5.204304e-05 3.368726e-05 5.2437783e-05 4.6101122e-05 5.6696364e-05 8.70325e-05 3.1565323e-05
0.00010909364 6.232665e-05
00000000: 0b1d 8738 ca48 5a38 6c4b 0d38 a4f0 5b38
00000010: b45c 4138 42cd 6d38 3885 b638 0265 0438
00000020: 34c9 e438 5eb5 8238

exp_avg f4 [10]
-0.0002742362 0.0010308493 -0.00233171 0.0030571988 6.3941966e-06 -0.0019796877 0.000115323804 0.00029665316
0.0008336023 0.0005576394
00000000: 5cc7 8fb9 901d 873a 9acf 18bb 495b 483b
00000010: bb8d d636 a6bd 01bb ffd9 f138 1d88 9b39
00000020: 1a86 5a3a 8c2e 123a

exp_avg_sq f4 [10]
7.256109e-05 5.644028e-05 6.976357e-05 9.248821e-05 5.8572172e-05 6.357816e-05 3.6257956e-05 5.727505e-05
0.00015732968 3.2186876e-05
00000000: f02b 9838 4aba 6c38 084e 9238 3bf6 c138
00000010: 64ab 7538 4455 8538 af13 1838 9e3a 7038
00000020: ddf8 2439 6500 0738
