SuperGo-master/saved_models/1584177784/1-value_net.pth.tar (torch_old, 178024 bytes, 4 tensors)

conv.weight f4 [1, 10, 1, 1]
000000 be 34 04 be bf b1 94 3e f2 e5 74 3e 6e ab 83 be
       -0.12910745 0.2904186 0.23915842 -0.25716728
000010 4a a5 70 be 6e 22 5d 3e 09 80 40 be f8 e9 0f 3d
       -0.23500553 0.21595165 -0.18798842 0.03513524
000020 b8 3f b7 bd 6a b9 49 be
       -0.089477 -0.19699636

fc1.weight f4 [256, 169]
000000 80 1e 10 3b a8 80 08 bd 36 ac cf bc cc 08 ea 3c
       0.0021990836 -0.03332582 -0.025350671 0.028568648
000010 00 a0 52 bc fe e5 6b bd a0 62 5b bc a9 34 87 bd
       -0.01285553 -0.057592385 -0.013390213 -0.06601841
000020 5a dc e6 bc e9 7c 8a 3d ca 9c 3e bd b6 46 6e 3d
       -0.028181244 0.06762106 -0.046536244 0.058172904
000030 4a c4 80 bd ea 88 41 bd 90 c8 ad bb 23 71 8b 3d
       -0.06287439 -0.047249712 -0.00530345 0.068086885
000040 88 7b 0b 3d 14 31 03 3d 80 78 d9 bc 32 da 69 bd
       0.034053355 0.032029226 -0.026546717 -0.057092853
000050 86 a0 81 bc 26 a6 04 3d ac 68 90 bc a6 40 6f 3d
       -0.015823614 0.032385014 -0.017628036 0.058411263
000060 46 df c9 bc 74 fe 4f bd c6 dc 27 3d a3 10 39 bd
       -0.024642598 -0.050779775 0.04098203 -0.04518188
000070 b6 dc 6d 3d 1c 30 61 bd b0 bf 26 bc b8 1e 39 3c
       0.058071814 -0.05497752 -0.010177538 0.011298828
000080 28 bc 3a 3c 58 b3 1f 3c 70 34 41 3d c6 ef 74 3d
       0.011397399 0.009747349 0.04716915 0.05979898
000090 15 3c 9a 3d 50 f2 b3 bc 72 4f 1e 3d 94 96 3c 3d
       0.07530991 -0.02196613 0.038649984 0.04604204
0000a0 b2 ce 1c bd 1e dc 63 3d d4 e9 46 bd 50 99 73 bd
       -0.038283058 0.055629842 -0.04856284 -0.059472382
0000b0 b6 9d 67 3d a6 92 7f 3d c8 fc 70 bd 30 cb 4e 3c
       0.05654689 0.062395714 -0.05883482 0.012621686
0000c0 53 90 87 bd 91 a3 87 3d 55 78 9d 3d d2 4d 60 bd
       -0.066193245 0.06622995 0.07688967 -0.054761715
0000d0 b2 f1 8b bc d4 09 d8 bc 0d 99 69 bd 54 19 9d bc
       -0.017083023 -0.026371874 -0.057030726 -0.019177116
0000e0 d4 07 ab 3c f8 e9 3f bc 43 c9 3d bd 20 72 ef bb
       0.020877756 -0.011713497 -0.046334516 -0.007307306
0000f0 82 43 09 3d bc b0 28 3d bc 08 b6 3c f0 ed c1 3c
       0.033511646 0.041184172 0.022220962 0.023673028
000100 90 80 fa bb 76 60 6f 3d 6a 27 17 bd f8 ec ea 3c
       -0.0076447204 0.0584416 -0.036902823 0.028677449
000110 7e 4d 37 bd 50 c4 0d 3d e0 bd 83 3b 30 b1 46 bd
       -0.044751637 0.034611046 0.0040204376 -0.048508823
000120 cd 26 84 3d 2f ea 2b bd c9 d4 90 bd 1b 9e 29 bd
       0.06452713 -0.04197138 -0.070718355 -0.041410547
000130 90 cc a8 bc cd 1d 3c bd 38 bd 26 3c 6f 7d 04 bd
       -0.020605356 -0.045926858 0.010176949 -0.032346185
000140 90 ce d7 3c d8 77 d6 3c 54 f9 86 bd f2 a4 17 3d
       0.026343614 0.026180193 -0.06590524 0.03702254
000150 58 ee d5 3c 2d fc 0e bd 88 6a 42 3c cc 97 14 3d
       0.026114628 -0.034908462 0.011866219 0.036277577
000160 e0 26 cb 3c 05 ac 95 bd 5c 2b 7e bd a8 12 f6 bc
       0.02479881 -0.07308201 -0.06205307 -0.030038193
000170 48 72 50 bc d6 2e 2f 3d 6c ac 86 bc 36 26 5a 3d
       -0.012722559 0.042769276 -0.016439639 0.053259097
000180 c3 5b 80 3d f5 7b 87 bd 8e 9e 6b 3d 80 bc 4b bb
       0.06267502 -0.0661544 0.057524256 -0.0031087697
000190 ec b1 6c bc bd 06 84 3d 98 f9 4d bc f0 ef 43 3d
       -0.014446717 0.06446598 -0.012571715 0.047836244
0001a0 f2 c5 81 bd e6 f3 88 bd b6 16 9c bc b6 da 60 3d
       -0.06336583 -0.06687145 -0.019053798 0.05489608
0001b0 06 4d 51 3d 82 92 54 3d ed 81 39 bd 20 63 42 bb
       0.051098846 0.051897533 -0.045289923 -0.0029661134
0001c0 90 8e 82 bc 10 f1 a9 3b 40 2e 4d 3b 4c 6b 3c 3d
       -0.01593712 0.0051862076 0.0031308085 0.046000764
0001d0 de 23 44 bd b7 8c 86 3d 8f b8 9c bd 98 be c7 3c
       -0.047885768 0.06569808 -0.07652389 0.024382874
0001e0 6c e7 d5 bc b0 92 91 bd 72 72 94 bc 7f 1d 89 3d
       -0.026111327 -0.071080565 -0.018120978 0.06695079
0001f0 30 5b 6b bc c0 f2 dd 3b ea bc 20 bd 60 27 52 bd
       -0.0143650025 0.006773323 -0.039242662 -0.051307082
000200 eb 7a 9b 3d 6e 28 82 bd 63 cc 3b bd ae 9f 4c 3d
       0.07591804 -0.063553676 -0.045849215 0.04995697
000210 6f 53 23 bd 40 f5 cf bb 00 19 80 3c 77 97 96 bd
       -0.03987449 -0.0063463748 0.01563692 -0.073531084
000220 f4 4c 6e bd f0 ed cb bb 80 73 c7 3a e4 e4 87 3c
       -0.058178857 -0.0062234327 0.0015216917 0.016588636
000230 0a ec 45 3d 20 cc f9 bb d0 67 87 3c 4a f0 38 bd
       0.048320808 -0.0076232105 0.016528994 -0.045151033
000240 14 58 9a bd 70 e2 e2 3b 14 fb eb 3c fc 82 e5 bc
       -0.07536331 0.006923966 0.028806247 -0.02801656
000250 0a 30 6a 3d 0e d3 67 3d 1e 3e 50 3d fc e5 c1 3c
       0.05717472 0.05659776 0.05084049 0.023669235
000260 6d 19 54 bd 52 82 0a bd 20 dd 4f bc d4 98 27 3d
       -0.05178206 -0.03381569 -0.012686998 0.040917233
000270 ac 0b 34 3d 8a 50 23 bd 58 73 ea 3c 97 ca 34 bd
       0.043956444 -0.03987173 0.028619453 -0.044138517
000280 d8 23 7e 3c a6 97 57 3d 60 eb 31 bd de 35 80 bd
       0.0155114755 0.052634858 -0.04343736 -0.06260274
000290 76 50 6d 3d 00 a0 20 3b 78 fd 3f bc e0 8f e8 3b
       0.05793806 0.002450943 -0.0117181465 0.0070972294
0002a0 ab 6f 8f 3d 69 2d 87 bd 66 e7 54 bd 91 4f 84 3d
       0.07003721 -0.06600458 -0.05197849 0.064604886
0002b0 7c 7f b9 3c 0f 53 2b bd 10 7b b9 bb 9d fe 99 3d
       0.022643797 -0.041827258 -0.005660422 0.07519267
0002c0 90 1d 4b bd 4a f9 7d bd 44 bb ac 3c a0 cd 1c bc
       -0.04958874 -0.06200532 0.021085389 -0.009570509
0002d0 68 f0 e3 3c c8 29 0b bc 23 96 7e bd 90 98 a6 bb
       0.027824596 -0.008493848 -0.0621549 -0.005084105
0002e0 8c 4f f4 3c b0 53 90 3c 38 41 4e 3c 32 65 11 3d
       0.029823087 0.01761803 0.012588792 0.035496898
0002f0 46 f5 7e bd 8c d1 1a 3d 3e dc 36 3d 10 d1 cb bc
       -0.06224563 0.037797496 0.044643633 -0.024879962
000300 14 55 17 bd 36 92 f0 bc 80 78 1e 3a 90 3f 64 bd
       -0.03694637 -0.029366594 0.00060451776 -0.05572468
000310 b8 56 b1 3c 5e 2b 12 bd 35 0e 96 3d 28 05 3c 3d
       0.021647796 -0.03568589 0.073269285 0.045903355
000320 c0 81 99 3b 65 e4 87 3d 24 56 9b bd af 95 13 bd
       0.004684657 0.0663536 -0.075847894 -0.03603142
000330 3c d4 c4 bc 14 c5 83 bd 58 23 09 bc c4 79 77 bc
       -0.024026982 -0.06434074 -0.008370243 -0.015104715
000340 ea c3 2b bd 6d ec 09 bd 22 05 ce bc 9b 3f 0b bd
       -0.041934885 -0.03367274 -0.025148932 -0.033996206
000350 72 01 fe bc 00 4d 0b 3a b9 36 74 bd 06 99 e7 bc
       -0.031006549 0.0005313903 -0.0596225 -0.02827121
000360 63 bf 82 3d 76 9a 27 3d d8 51 f2 3c 60 6e 58 3c
       0.0638416 0.04091879 0.029580042 0.013209909
000370 23 84 03 bd 4a 28 2c bd 98 55 03 3d a5 e8 93 bd
       -0.032108437 -0.04203061 0.03206405 -0.07222108
000380 c6 f2 39 3d 00 f8 dc b8 8a ea 4b bd 46 69 85 bc
       0.045397542 -0.00010536611 -0.04978422 -0.01628555
000390 d8 8c 53 bc 64 0e 81 3c fd 7a 87 3d a0 39 36 bd
       -0.012911998 0.015753932 0.06615255 -0.04448855
0003a0 10 2d f1 3b 24 9a ec bc 50 25 ed bb cf 9b 34 bd
       0.007360108 -0.028882094 -0.007237114 -0.044093903
0003b0 d8 68 62 3c e8 d6 b3 bc e4 9c 8a bd 50 25 dc 3b
       0.013818942 -0.021953061 -0.06768206 0.006718315
0003c0 cb d2 91 3d d2 ed 82 bd 87 f6 82 3d 0b 82 8b 3d
       0.07120284 -0.06393017 0.063946776 0.06811913
0003d0 aa 96 5c bd 3c c1 a7 bc 3b d6 8d 3d 44 cf ff 3c
       -0.053854622 -0.020477884 0.06925627 0.031226762
0003e0 ea 8a 70 bd 67 66 9d bd 78 95 37 3c 6b bb 8d bd
       -0.05872623 -0.07685547 0.01120507 -0.06920513
0003f0 14 5d 82 3c 5e 54 9c bd 57 c0 83 3d 90 c3 be 3b
       0.015913524 -0.07633279 0.0643317 0.0058216527

fc1.bias f4 [256]
000000 4c 30 2f 3d b8 5b 3f bc 03 99 62 bd d8 f5 87 bd
       0.04277067 -0.011679582 -0.055321705 -0.06638688
000010 18 c7 4c 3c 0f c3 85 bd 20 82 e4 3c 59 14 72 bd
       0.0124986395 -0.06531345 0.02789408 -0.059101436
000020 e2 45 41 3d 02 3d 6a 3d e0 9e 9b bb 3a 13 73 3d
       0.047185786 0.057187088 -0.004749164 0.059344508
000030 30 45 4b 3c 19 51 98 3d 4a 4c 2a bd fb 03 80 3d
       0.012406632 0.07437343 -0.04157666 0.06250759
000040 46 39 c4 bc 72 91 34 3d 92 31 54 3d 03 4a 0f bd
       -0.023953091 0.04408402 0.051805086 -0.034982692
000050 97 ac 16 bd 72 6b 3e 3d 39 ab 72 bd f2 93 d1 bc
       -0.03678569 0.046489187 -0.059245322 -0.025583241
000060 d2 54 42 3d e0 18 ea 3c 00 44 d6 bb 3c 59 2e 3d
       0.047444172 0.028576314 -0.006538868 0.04256557
000070 02 96 66 3d 9b aa 8d 3d 80 4c d0 3c 03 96 16 bd
       0.056295402 0.06917306 0.025427103 -0.036764156
000080 e8 30 92 bc 28 7a 5e bd 39 e5 46 bd 50 2b 63 bd
       -0.017845586 -0.054315716 -0.048558448 -0.055461228
000090 ee 2f 90 bd 4f 51 2d bd 3e 2d 15 3d 80 fc 1b bb
       -0.07040392 -0.04231387 0.0364201 -0.0023801625
0000a0 00 a5 6b bd 7a 64 57 3d 80 6a 23 ba 20 37 e3 3c
       -0.057530403 0.052586056 -0.0006233826 0.027736247
0000b0 a4 92 f7 bc a0 95 1d 3d 50 e6 10 bc 08 b7 25 3d
       -0.03022129 0.03847277 -0.008843973 0.040457755
0000c0 e5 c3 9a 3d e0 44 cb 3b 10 d9 db bb ca c2 e0 bc
       0.07556895 0.006203279 -0.0067092255 -0.027436633
0000d0 4a 82 9a bd 94 e2 fd bc 9f 9b 97 bd de c0 02 bd
       -0.07544382 -0.03099183 -0.07402729 -0.031922214
0000e0 39 6c 23 bd 48 17 4d 3c 50 dd 5d 3c d0 29 54 bc
       -0.03989813 0.012517758 0.013541535 -0.012949422
0000f0 be ba 91 bd 26 38 78 bd fc 11 5a bd d6 bc 61 3d
       -0.07115696 -0.060600422 -0.053239807 0.05511173
000100 88 f2 8b bd e4 60 be 3c a0 cc 59 bd e2 0e ce bc
       -0.068333685 0.02323956 -0.05317366 -0.025153581
000110 40 30 bd ba 06 a4 cf bc dc 17 44 3d c0 62 11 bb
       -0.0014433935 -0.025346767 0.047874317 -0.0022184104
000120 bc 7b d0 bc 00 3d 02 3c ed 48 42 bd 1d ee 9a 3d
       -0.025449626 0.007949114 -0.04743283 0.07564948
000130 e6 83 44 bd 00 7c 94 b8 de bf 38 3d c8 51 20 bc
       -0.04797735 -7.080287e-05 0.045104854 -0.009785123
000140 63 9a 3f bd a3 d1 6a bd e0 d5 bc 3b a0 5c 17 bb
       -0.046778094 -0.05732883 0.0057628006 -0.002309598
000150 40 77 9f bc 36 9c 66 bd 00 3b ad ba c3 88 74 bd
       -0.019466043 -0.056301318 -0.0013216436 -0.05970074
000160 3d 8d 88 bd ab 6e 8f bd 20 01 65 3b d0 33 9e bc
       -0.06667564 -0.0700353 0.0034943298 -0.019311816
000170 84 ed 9d 3c 2e d2 7b 3d 2e b7 6d 3d f0 65 17 3c
       0.019278295 0.06147974 0.058036022 0.009240612
000180 00 ee 36 bb ed 01 8f 3d a0 b5 1c bd 45 5f 8a bd
       -0.0027912855 0.06982789 -0.03825915 -0.067564525
000190 8e b0 9b bd a1 5d 83 3d 3e 12 59 bd 00 28 ac ba
       -0.076020345 0.06414343 -0.052995913 -0.001313448
0001a0 46 d4 45 3d fe 1e 3b 3d 17 ee 95 3d d6 9f 64 3d
       0.048298143 0.045683853 0.07320803 0.055816494
0001b0 a0 f2 61 bc af 7d 8f 3d 12 76 41 3d e6 0d 49 3d
       -0.013790756 0.07006394 0.04723174 0.04908552
0001c0 50 5b ca 3c fb 6b 9a 3d cc 53 8f 3c 48 e3 97 bd
       0.024701744 0.07540127 0.017496012 -0.07416397
0001d0 00 7a a3 bc 12 b3 3a 3d 70 2a 1b 3c 78 db cc 3c
       -0.019955635 0.04558093 0.009470567 0.025006995
0001e0 d7 88 84 3d 6c 5c 9d 3c 13 3c 8f 3d 64 3f 87 3c
       0.06471413 0.01920911 0.0699388 0.01650972
0001f0 d4 24 8d bd d4 fc fd 3c 4a 2c 2b bd a4 3a 9f 3c
       -0.0689179 0.031004347 -0.041790284 0.019437142
000200 bb 84 85 3d fc d3 51 bd 70 d0 65 bd f9 9d 2f bd
       0.06519457 -0.051227555 -0.056106985 -0.042875264
000210 f2 79 76 bd 50 1d 99 bd 5e dd 9e bc e8 1c 9c 3c
       -0.06017489 -0.07476294 -0.019392665 0.019056752
000220 fe 71 3e 3d 6d 85 16 bd 48 de 04 bc de 78 5c bd
       0.04649543 -0.03674834 -0.008109637 -0.053826205
000230 f0 39 d6 3c b6 70 8b bd 62 35 97 bc c0 a2 b6 3b
       0.026150674 -0.06808607 -0.018458072 0.0055736005
000240 79 00 01 bd 80 cb 3f bc 46 85 34 3d 0d 9d 61 bd
       -0.03149459 -0.011706233 0.044072412 -0.055081416
000250 9a 23 53 3d 58 59 80 bd e0 8d 12 bc c2 13 71 3d
       0.051547624 -0.06267041 -0.008944958 0.058856733
000260 70 1a 7a bd 10 2f de 3c 50 80 30 3d a2 3c 47 3d
       -0.06106037 0.02712205 0.04309112 0.04864181
000270 a5 fb 85 3d 03 b1 40 bd 00 07 33 3c 04 af b4 3c
       0.06542138 -0.04704381 0.010926962 0.02205611
000280 b6 c0 44 3d 90 cb 34 3d 28 c1 32 3c 28 24 4b 3c
       0.048035346 0.044139445 0.01091031 0.012398757
000290 9a c3 5a 3d a6 62 09 3d b0 d2 74 3c d6 00 48 3d
       0.053409196 0.033541344 0.01494281 0.048828922
0002a0 40 3f 73 bd a3 bb 41 bd d8 28 b4 3c bc d6 74 bc
       -0.05938649 -0.047298085 0.021992132 -0.014943775
0002b0 14 af 1b bd 14 9e 35 bd b0 c4 1d 3c c8 55 16 bd
       -0.038008764 -0.04434021 0.0096294135 -0.0367029
0002c0 cb ff 82 3d 1d 53 8f 3d 60 03 51 bb 75 9a 94 3d
       0.06396445 0.069982745 -0.003189288 0.07256023
0002d0 ec 23 9a 3c 50 93 7e bc 46 90 1a 3d 3d 45 99 3d
       0.018815957 -0.015538052 0.037735246 0.07483909
0002e0 fe 8b 89 bd 50 cb 36 3c e4 5d f5 3c 80 a5 6b 3b
       -0.067161545 0.011156872 0.029951997 0.00359568
0002f0 9e 22 49 bd f0 81 6a bd 60 98 3c bc 2c 4b b3 bc
       -0.04910528 -0.057252824 -0.011510938 -0.02188643
000300 22 21 50 3d bc 52 b3 bc 2f e4 36 bd 80 e5 c4 3c
       0.050812848 -0.021890037 -0.044651207 0.024035215
000310 8a 1f 43 bd ff 8b 8c 3d e0 6a 99 bb 16 f9 60 3d
       -0.0476375 0.0686264 -0.00468193 0.054925047
000320 1c 9b aa 3c 43 63 46 bd ca 46 5e 3d 30 8f 2d bc
       0.020825915 -0.048434507 0.05426673 -0.010593221
000330 f8 39 07 bc 9d 58 92 bd 0e 13 93 bd 6d 8b 68 bd
       -0.008253567 -0.07145808 -0.07181369 -0.05677359
000340 a8 ac 61 bc 78 96 5c bc 86 6c 51 3d 0f 94 25 bd
       -0.013774075 -0.013463609 0.051128887 -0.040424403
000350 b0 71 81 bb b1 91 90 3d 0a 82 38 3d d0 26 37 3d
       -0.00395032 0.070590384 0.04504589 0.04471475
000360 de f3 90 bd 56 6c 6a bd 3a d1 2c 3d 20 fe 29 3c
       -0.07077764 -0.057232223 0.04219172 0.0103755295
000370 d0 c2 03 bc 69 9b 97 bd f6 36 ab bc ae c3 72 3d
       -0.008042052 -0.07402689 -0.02090023 0.059268646
000380 80 8c 6b 3a f8 64 28 bc 30 69 93 3c c4 0b e1 3c
       0.00089854747 -0.010277979 0.017994493 0.02747143
000390 f0 ba 32 3d 6e 20 62 3d bf 99 97 3d 25 12 1c bd
       0.04363531 0.05520671 0.074023716 -0.03810324
0003a0 f6 ea a4 bc 0e 76 7f 3d 00 3f 6c bc 15 ed 97 3d
       -0.02013157 0.062368445 -0.014419317 0.07418267
0003b0 a2 a0 48 3d 60 e4 41 bd b4 04 3a 3d 32 d2 88 bd
       0.048981316 -0.047336936 0.04541464 -0.066807166
0003c0 8a 27 24 3d 76 7c ef bc 3c 70 e5 3c 9e 87 a1 bc
       0.04007677 -0.029234152 0.02800762 -0.019717988
0003d0 1e 73 15 bd 00 d3 15 bc c8 18 37 bd da d1 d8 bc
       -0.036486737 -0.009144545 -0.044701368 -0.026467253
0003e0 d8 13 3d 3c 8c ed 11 3d 90 28 fe 3b a8 13 77 3c
       0.011540376 0.035626933 0.0077563003 0.01508037
0003f0 50 a3 22 3c be e3 08 bd c4 04 8d bd e8 39 8e bd
       0.009926632 -0.033420317 -0.068856746 -0.069446385

fc2.weight f4 [1, 256]
000000 58 b3 4b bc 78 1b 31 bc 9c 4d 4b bd a8 a8 0d 3d
       -0.012432896 -0.010809772 -0.04963456 0.03458467
000010 80 d7 16 bb 0c 5f 2c 3d a2 15 7a 3d 90 1a f0 3b
       -0.0023016632 0.04208283 0.061055787 0.0073273852
000020 58 c7 8c 3c a4 16 ac 3c 34 ac 30 3d c0 81 d9 3b
       0.017184898 0.02100689 0.043132976 0.006637782
000030 98 2f fd bc f0 c3 d6 bc 66 d6 29 bd 18 97 71 bd
       -0.030906484 -0.026216477 -0.041464232 -0.058981985
000040 76 8f 19 bd 40 51 b2 3b 4c be 5f bd 94 48 9e bc
       -0.03749033 0.0054418147 -0.05462484 -0.019321717
000050 f0 33 4c bd 28 49 33 3d 60 6e 5f bc a8 2b fd bc
       -0.04985422 0.04377094 -0.013637155 -0.030904606
000060 30 cf d0 3b f0 18 37 3d 58 12 2c 3c 96 f0 5e 3d
       0.006372355 0.044701517 0.01050242 0.05442866
000070 44 38 7f 3d fc 34 96 3c 68 3c f4 3c 8c 0b 33 3d
       0.06230952 0.018335812 0.02981396 0.043712184
000080 ba c3 55 bd a0 18 25 3d e6 77 6f 3d 50 65 a7 3b
       -0.052188613 0.040306687 0.058463953 0.005108513
000090 60 e8 c9 3c 40 94 1e 3b b0 58 a4 bc 80 f2 00 3c
       0.024646938 0.002419725 -0.02006182 0.0078703165
0000a0 82 ab 31 3d 58 ad fc 3c bc 70 29 3d e6 d5 5e 3d
       0.043376453 0.030844375 0.041367278 0.05440321
0000b0 f8 60 17 3c 6a c5 34 bd 5a 4a 27 3d 78 ed be bc
       0.009239428 -0.04413358 0.04084239 -0.023306593
0000c0 10 12 d3 3b 24 7a 8e 3c c0 75 31 3c 78 17 22 3d
       0.006441362 0.017392226 0.010831296 0.039573163
0000d0 b8 a4 32 3c 6c 67 b9 bc 90 27 9a bb 88 74 8e bc
       0.01090353 -0.022632323 -0.0047044232 -0.01738955
0000e0 fe 35 55 bd 00 a2 d5 39 b0 9c 4f 3d 24 3f 53 3d
       -0.052053444 0.00040747225 0.05068654 0.051573887
0000f0 b8 24 72 bd 18 87 36 3c 04 81 44 3d 78 e1 78 bd
       -0.05911705 0.011140607 0.0479746 -0.0607619
000100 70 e9 e8 bb f0 2b 7a 3c 14 e2 58 bd 64 a2 1d bd
       -0.007107906 0.015269265 -0.05294998 -0.038484946
000110 a8 ec d2 bc ee 15 01 3d 00 e8 93 b9 0c 98 04 bd
       -0.025747612 0.031515054 -0.00028210878 -0.032371566
000120 0a ee 03 3d 8e fe 63 3d e2 19 52 3d 84 df 13 3d
       0.032209434 0.055662684 0.051294215 0.036101833
000130 06 6b 16 bd c0 5f 85 ba 16 6b 5c 3d 36 cb 5a 3d
       -0.03672316 -0.001017563 0.053813063 0.053416453
000140 54 a3 3c 3d 96 de 63 bd ce 43 25 bd 0c fa 63 bd
       0.0460542 -0.055632196 -0.040347867 -0.055658385
000150 74 93 e4 bc 3a 5f 00 bd 42 53 2d bd d0 8a d1 bc
       -0.027902342 -0.031340815 -0.04231573 -0.025578886
000160 1c 6d 61 3d b8 5d 72 3c f8 35 42 bc 34 1d 90 bc
       0.055035695 0.014792852 -0.011853687 -0.01759205
000170 c0 42 5e 3c c0 fc 03 3c 66 02 7b 3d 70 f3 be bc
       0.013565719 0.008055866 0.061281584 -0.02330944
000180 04 65 09 3d 04 01 18 bd 76 f9 4c bd 22 4e 62 3d
       0.0335436 -0.037110344 -0.050042592 0.055250295
000190 6c 36 42 3d c0 d7 e6 3a d0 04 c9 bb f0 75 47 bc
       0.047415182 0.0017611906 -0.006134607 -0.012174115
0001a0 e0 f2 08 bb 18 93 f7 3c d0 94 ff bc 1e 36 24 bd
       -0.0020896718 0.030221507 -0.031198889 -0.040090673
0001b0 c8 c2 05 bc 34 57 2e bd 00 86 71 3c b0 88 7b 3d
       -0.008164115 -0.042563632 0.014741421 0.061409652
0001c0 e8 46 4d 3d fc d5 6a 3d 0a b8 5e 3d 70 12 b9 3c
       0.05011645 0.057332978 0.054374732 0.0225918
0001d0 e8 45 de bc c0 2a aa bb 18 b2 2f 3d 30 c3 45 bd
       -0.027132943 -0.0051930845 0.042894453 -0.04828185
0001e0 4a 13 0c bd ba e5 7f 3d da 3f 44 3d a4 1f 18 bd
       -0.034198083 0.062474944 0.047912456 -0.03713955
0001f0 50 e3 2a bd 40 27 57 3d 58 dc 17 3c e8 92 2f 3d
       -0.04172069 0.052527666 0.009268843 0.04286471
000200 50 15 1c 3d e0 ae 47 bd b2 3b 5f 3d 50 95 3d 3c
       0.038106263 -0.04875076 0.05450029 0.011571243
000210 98 00 f7 bc 68 53 cc 3c 5c b3 43 bd f0 b0 ee 3c
       -0.03015165 0.024942115 -0.047778472 0.029137105
000220 c0 0e 8d bc 60 b4 d3 bb 26 6f 1c bd dc 5c 7d 3d
       -0.017218947 -0.0064607114 -0.038191937 0.061856136
000230 2c ab 4f 3d 40 4f 8a 3b 10 09 38 bd ee 34 68 3d
       0.05070035 0.004220873 -0.044930518 0.056691103
000240 16 1a 3d bd 70 58 4f bd 8e 2c 30 3d 58 0f 2b 3c
       -0.046167456 -0.05062145 0.04301124 0.01044067
000250 80 3e 64 bc 38 ef 3c 3d 78 d0 67 bd ac 00 3e 3d
       -0.013930917 0.046126574 -0.056595296 0.04638736
000260 bc 5d b9 3c f0 4c 28 3c 2c cc 99 3c f8 93 56 bd
       0.022627704 0.01027225 0.018774115 -0.052387208
000270 de 57 4d 3d 14 66 88 3c de 0c 0a bd c0 9c c0 3c
       0.050132625 0.016650237 -0.033703677 0.023512244
000280 00 33 cc 3c 10 50 8d 3b fa b1 3f bd 50 55 9a bc
       0.024926662 0.0043125227 -0.04680059 -0.018839508
000290 12 5d 79 bd 96 6a 66 3d 78 03 52 bd 00 e6 02 b9
       -0.060879774 0.056253992 -0.05127284 -0.00012483448
0002a0 20 33 a3 3c f4 23 be 3c a2 a0 3b bd 12 20 29 bd
       0.01992184 0.023210503 -0.04580749 -0.04129035
0002b0 d8 ae 6e bc b4 d9 f1 3c 9c 39 19 3d 0c 3f f6 3c
       -0.014568053 0.029522754 0.037408456 0.03005936
0002c0 dc 00 cf bc d0 da 5f bc 1c 83 14 3d e8 65 1c bd
       -0.025268964 -0.013663009 0.03625785 -0.038183123
0002d0 26 74 1b 3d 54 94 d0 3c 00 9a 57 3d b8 2f 9d bc
       0.037952565 0.025461353 0.0526371 -0.019187793
0002e0 44 77 3e 3d f0 d5 ce bb 10 ba b6 bc e0 5c 08 3d
       0.04650046 -0.0063121244 -0.022305518 0.033291698
0002f0 90 7e c6 3c fc 46 1d 3d 80 54 2b bb 34 61 c8 bc
       0.024230272 0.038397774 -0.0026142895 -0.024460413
000300 1a 0a 2f 3d ac 9e 63 bd 26 d5 42 bd 30 bf 26 3c
       0.042734243 -0.055571243 -0.047566555 0.010177419
000310 44 d1 43 bd 0e 86 3f 3d 56 cf 5b 3d a0 77 62 3d
       -0.047806993 0.046758704 0.053664528 0.055289865
000320 18 1f aa bc c0 33 13 3d bc ab bb bc c6 5b 1e bd
       -0.02076678 0.035938025 -0.022909038 -0.03866174
000330 e2 e8 36 3d 7a 98 6e 3d 96 95 50 bd 5c 7a 85 3c
       0.044655688 0.05825088 -0.050923906 0.016293697
000340 44 86 85 3c 38 13 bf 3c 9c c6 af 3c de 95 0d bd
       0.016299374 0.023324594 0.021457009 -0.034566753
000350 3c 8e cf bc 74 19 de bc aa 9d 3d 3d 76 3b 3e bd
       -0.025336377 -0.027111746 0.04629294 -0.046443425
000360 00 57 a7 3a 3e f0 75 bd a0 e2 13 bc 22 84 7c 3d
       0.0012767017 -0.060043566 -0.0090262 0.06164945
000370 76 6a 0c bd 22 0e 22 3d d0 4c a6 3b 5a 1f 28 bd
       -0.034281217 0.03956426 0.0050750747 -0.041045524
000380 a8 30 66 3d 5a 5b 4f bd f8 f7 08 bc 78 43 d8 3c
       0.056198746 -0.05062423 -0.008359902 0.02639936
000390 68 26 88 3c 14 e1 d5 bc d4 8f a6 bc e0 eb 32 bb
       0.016619876 -0.026108302 -0.020332254 -0.0027301237
0003a0 72 5f 6e bd 00 7c d2 ba 6c 20 b0 bc 76 08 58 3d
       -0.058196492 -0.0016058683 -0.021499835 0.052742444
0003b0 18 f0 3b 3c e6 c7 0c 3d 26 0e 04 3d 58 ff f5 3c
       0.011470817 0.034370326 0.032240056 0.030028984
0003c0 74 ea 68 3d 16 1d 0d 3d 66 8d 10 3d a0 23 23 bc
       0.056864217 0.034451567 0.035291098 -0.009957224
0003d0 9c 9f 09 bd 6c 39 c8 bc 10 59 bc bc 9c 65 a1 bc
       -0.03359948 -0.024441443 -0.022991687 -0.019701771
0003e0 96 2c 4a 3d c4 62 4a bd 8a 9a 78 3d f2 d6 62 3d
       0.049358927 -0.049410596 0.060694255 0.05538077
0003f0 90 b9 c4 3c 70 cf 01 3d e0 ce 21 3d 5c eb 6a bd
       0.024014264 0.03169197 0.039503932 -0.057353362
