SuperGo-master/saved_models/1584177784/2-extractor.pth.tar (torch_old, 998539 bytes, 355 tensors)

conv1.weight f4 [10, 17, 3, 3]
0	0xbd9a5ef3	-0.075376414
1	0xbe69fca7	-0.22850285
2	0x3db61481	0.088906296
3	0xbf151c85	-0.5824664
4	0xbe6ee9d4	-0.23331386
5	0x3dfd5598	0.12369841
6	0xbe64edaf	-0.22356294
7	0xbeab00a6	-0.33398932
8	0x3dfb9a7b	0.12285324
9	0x3cf3a588	0.029742017
10	0xbdc9e1d2	-0.09857525
11	0x3d9eabf9	0.07747645
12	0xbec5cd4f	-0.386332
13	0xbe34907e	-0.17633244
14	0x3dd8bdd6	0.10583083
15	0xbe607689	-0.21920218
16	0xbe2ede7d	-0.1707706
17	0x3e03b00f	0.1286013
18	0xbc484174	-0.0122226365
19	0xbd8736f0	-0.06602275
20	0x3e7534d5	0.23945935
21	0xbe2dbe5a	-0.16967145
22	0xb8728ae6	-5.7826655e-05
23	0x3e23dbbe	0.16001794
24	0xbe97d16b	-0.2965196
25	0xbe2dd441	-0.169755
26	0x3e0c21a4	0.13684708
27	0x3cd27bd1	0.025693806
28	0xbd79e476	-0.061008893
29	0x3e7176a4	0.23580414
30	0xbe18e855	-0.14932378
31	0xbc7c0d71	-0.015384064
32	0x3e0323ba	0.12806597
33	0xbe611689	-0.21981253
34	0xbda21a0e	-0.07915126
35	0x3e3b368e	0.1828253
36	0x3d19a72b	0.03751294
37	0x3c439884	0.011938218
38	0x3e1d4a6a	0.15360418
39	0xbe384264	-0.17994076
40	0xbd6444e5	-0.055729765
41	0x3d224f96	0.03962668
42	0xbe97154e	-0.29508442
43	0xbcaba44b	-0.020952364
44	0x3e8169be	0.25275987
45	0x3d53a04a	0.051666535
46	0xbd82153b	-0.06351706
47	0x3e31d2b6	0.17365536
48	0xbe06eaf3	-0.13175564
49	0xbdf09f01	-0.117490776
50	0x3d0531aa	0.032518066
51	0xbe2b77c1	-0.16744901
52	0xbda02de8	-0.07821256
53	0x3e1bc5a4	0.15212113
54	0xbbc627c7	-0.0060472223
55	0x3d413095	0.047165472
56	0x3e083141	0.13300039
57	0xbe172fcd	-0.14764328
58	0xbbb391eb	-0.0054800413
59	0x3d25ec89	0.04050878
60	0xbe679a7c	-0.22617525
61	0xbdbb72c5	-0.0915275
62	0x3e53ed2e	0.20695946
63	0x3ba796a4	0.0051143933
64	0xbca557ac	-0.020183407
65	0x3e3c7af1	0.18406273
66	0xbd725d79	-0.059171174
67	0xbdf135f7	-0.11777871
68	0x3d279c85	0.040920753
69	0xbe33c997	-0.17557369
70	0xbdfd9be2	-0.12383248
71	0x3e165d2c	0.1468398
72	0xbc84b5d5	-0.016199986
73	0x3d9e8da5	0.0774186
74	0x3cc69232	0.024239633
75	0xbe172576	-0.14760384
76	0x3f2b6a5c	0.66959167
77	0x3e9f116a	0.31067973
78	0xbe9f1909	-0.31073788
79	0x3dcdd93c	0.100512
80	0x3dd52a28	0.10408431
81	0xbdcfc1bf	-0.10144376
82	0x3b503f07	0.0031775848
83	0xbd064c0c	-0.032787368
84	0xbe544609	-0.20729841
85	0x3eb94c71	0.36191133
86	0x3e3351be	0.17511651
87	0xbe45dedc	-0.19323295
88	0xbbbdb588	-0.0057894625
89	0x3ccc264c	0.024920605
90	0xbd853ec1	-0.0650611
91	0xbd52fb7a	-0.051509358
92	0xbd7aa66f	-0.06119388
93	0xbe695a3b	-0.22788326
94	0x3eadef1d	0.3397149
95	0x3e367a88	0.1782018
96	0xbe893a38	-0.2680223
97	0xbd81ecc6	-0.06343989
98	0xbdb0e756	-0.08637874
99	0xbe1d4116	-0.1535686
100	0xbbf8c495	-0.007591794
101	0xbd88235c	-0.06647369
102	0xbe07e106	-0.13269433
103	0x3e849e8d	0.25902215
104	0x3e6ff777	0.23434244
105	0xbe8f3380	-0.2796898
106	0xbdf2b5d7	-0.118510894
107	0x3c45c94b	0.012071918
108	0xbd0f3a1d	-0.03496753
109	0xbd1f98d4	-0.038964108
110	0xbd6ebf19	-0.058287714
111	0xbe093d63	-0.13402323
112	0x3e686e1e	0.22698256
113	0x3e778ecc	0.24175566
114	0xbe9a1af4	-0.3009869
115	0xbd8c1e63	-0.06841733
116	0x3d58e6da	0.052954532
117	0xbe25391d	-0.16135068
118	0xbc5f9b3a	-0.013647849
119	0xbb7461fe	-0.0037289853
120	0xbe2405e3	-0.1601787
121	0x3e7a97ba	0.24471942
122	0x3e9518a0	0.2912035
123	0xbe6a433e	-0.22877213
124	0x3c77f24e	0.0151334535
125	0x3c3dc1d6	0.011581859
126	0xbe04d9f7	-0.12973772
127	0x3d29c348	0.041446
128	0xbdc53c79	-0.09630675
129	0xbe1860d7	-0.14880691
130	0x3e13f196	0.14447626
131	0x3e60c4e3	0.21950106
132	0xbe98f2bb	-0.2987269
133	0xbbd2f62a	-0.0064380364
134	0x3deefca7	0.11669283
135	0xbe0c4632	-0.13698652
136	0x3d2e0039	0.04248068
137	0x3d163180	0.0366683
138	0xbe70cecf	-0.23516391
139	0x3e81cad0	0.25350046
140	0x3e8f840b	0.28030428
141	0xbe9036ba	-0.28166753
142	0x3e0bfbb6	0.13670239
143	0x3db892a1	0.09012342
144	0x3ba79c9d	0.0051151053
145	0xbeeaa0ee	-0.45825905
146	0xbee1ec2c	-0.44125497
147	0x3e14ec91	0.14543368
148	0xbf0c9c36	-0.5492586
149	0xbf0ff859	-0.56238323
150	0x3dcd4c5e	0.100243315
151	0xbed683b5	-0.4189736
152	0xbecde7b9	-0.40215853
153	0x3e8e42fa	0.27785474
154	0x3e4b31d5	0.19843228
155	0x3ec21cfb	0.37912735
156	0x3e5b74eb	0.2143132
157	0x3e7b5ab6	0.24546322
158	0x3f656acd	0.8961609
159	0x3ecbfd47	0.39841673
160	0x3e96fe0c	0.29490697
161	0x3e92e330	0.28688955
162	0x3e425e34	0.18981248
163	0xbdf57f1f	-0.11987137
164	0x3df36ab5	0.11885587
165	0x3cf33798	0.029689595
166	0x3cf48031	0.029846283
167	0x3ebccdea	0.3687585
168	0x3e317b04	0.17332083
169	0xbdd4f152	-0.10397591
170	0x3c7dca4b	0.015490125
171	0x3de55d93	0.111994885
172	0xbd76d2aa	-0.0602595
173	0x3e043317	0.12910114
174	0x3d9e8b99	0.0774147
175	0xbc9ec91b	-0.019383004
176	0x3e9cc1e6	0.30616683
177	0x3e20c27e	0.15699193
178	0xbcada54b	-0.021196982
179	0x3dd8c36c	0.10584149
180	0x3dc05e11	0.09392942
181	0xbd26c205	-0.040712375
182	0x3e3c439f	0.1838517
183	0x3e1ee600	0.15517426
184	0xbdba5abb	-0.09099337
185	0x3e6fe863	0.23428492
186	0x3e17e7ad	0.14834471
187	0x3caf938f	0.021432666
188	0x3db4a14e	0.08819829
189	0x3dde05c1	0.10840941
190	0x3db9317a	0.0904264
191	0x3e468bb0	0.19389224
192	0x3e42cfda	0.19024602
193	0x3d164965	0.03669109
194	0x3e929b25	0.2863399
195	0x3e1e17fd	0.15438838
196	0xbd363a5d	-0.044489253
197	0x3d135e0a	0.035978355
198	0x3dd2bf09	0.10290343
199	0x3d59a481	0.0531354
200	0x3ded63ca	0.11591299
201	0x3d329b51	0.043605153
202	0x3d61bc94	0.055111483
203	0x3e5ae9bf	0.2137823
204	0x3e065d0e	0.13121435
205	0xbdfd5280	-0.12369251
206	0xb8b95679	-8.837594e-05
207	0x3df0f12a	0.117647484
208	0x3d94dc84	0.072686225
209	0x3ddbe9a0	0.1073792
210	0x3e189d2b	0.14903705
211	0x3d821bfc	0.06352994
212	0x3e217085	0.15765579
213	0x3d1f4002	0.038879402
214	0x3c9f2819	0.0194283
215	0x3d585b01	0.052821163
216	0x3e98a795	0.29815355
217	0x3e4019d6	0.18759856
218	0x3e16b3ba	0.14716998
219	0x3dd23de6	0.102657124
220	0x3daf8795	0.08570782
221	0x3eaadf38	0.33373427
222	0x3e2281cc	0.15869826
223	0x3d748df6	0.059705697
224	0x3d92cdbe	0.071681485
225	0xbbbcbdb9	-0.0057599214
226	0x3e2b873a	0.16750804
227	0x3e05b9d2	0.13059166
228	0xbc437e2c	-0.011931937
229	0xbe186435	-0.14881976
230	0x3d9c565e	0.07633661
231	0xbe21bc7c	-0.15794557
232	0xbe988d52	-0.2979532
233	0x3e59c440	0.2126627
234	0x3dd2d64d	0.10294781
235	0x3e1fea5a	0.15616742
236	0x3d9508fb	0.072771035
237	0x3cae916e	0.02130958
238	0x3d7e20e0	0.06204307
239	0x3d79ca72	0.060984083
240	0xbd990b07	-0.074728064
241	0xbdf2b53d	-0.11850975
242	0x3e8735ea	0.2640832
243	0x3d9024c1	0.0703826
244	0x3e514703	0.20437245
245	0x3d05e994	0.03269346
246	0x3d1454c4	0.03621365
247	0x3c4af089	0.01238645
248	0x3c8bf042	0.017082337
249	0xbd0dfa91	-0.034662787
250	0xbdfce008	-0.12347418
251	0x3e4e0c7e	0.20121953
252	0xbc32ab96	-0.010905167
253	0x3e5685d4	0.20949489
254	0x3d8ac8bb	0.067765675
255	0xbd856828	-0.06514007

bn1.weight f4 [10]
0	0x3fbcfa4e	1.4763887
1	0x3f80693c	1.0032115
2	0x3f9ae33a	1.2100594
3	0x3fa50bea	1.2894261
4	0x3fb2f36f	1.398054
5	0x3fc0d8cd	1.5066162
6	0x3f941ff7	1.1572255
7	0x3f9e69c7	1.2376031
8	0x3f91c0aa	1.1386921
9	0x3fb669d7	1.425105

bn1.bias f4 [10]
0	0xbd2925aa	-0.041295685
1	0xbe54aab0	-0.20768237
2	0xbdbb4e3c	-0.091457814
3	0x3e253aa7	0.16135655
4	0x3d195cb2	0.037441917
5	0x3ec352ac	0.3814901
6	0x3e93744f	0.28799674
7	0x3f022802	0.508423
8	0x3e421369	0.18952717
9	0xbe7bf512	-0.24605206

bn1.running_mean f4 [10]
0	0xbfea2e00	-1.8295288
1	0x4041535c	3.0207129
2	0xbfcc11f1	-1.5942975
3	0xbecc9360	-0.39956188
4	0xbfc157a1	-1.5104867
5	0x3f47462f	0.77841467
6	0xc071b666	-3.7767577
7	0x3fe2b348	1.7710962
8	0xbf711985	-0.94179565
9	0xbf9c5f16	-1.2216518

bn1.running_var f4 [10]
0	0x40bdc6e1	5.930527
1	0x40c9725a	6.295209
2	0x415610d9	13.379113
3	0x41282b10	10.510513
4	0x412a7ad2	10.654985
5	0x411209ea	9.12742
6	0x411ccc8a	9.799936
7	0x4140a07b	12.03918
8	0x41041f2f	8.257613
9	0x40ec50d3	7.384866

res0.conv1.weight f4 [10, 10, 3, 3]
0	0xbd99304d	-0.07479916
1	0xbe8020a2	-0.25024897
2	0x3dae1747	0.085005336
3	0xbe7d7a92	-0.24753788
4	0xbeba9c08	-0.36447167
5	0x3d2d34ef	0.04228681
6	0xbe975d86	-0.2956354
7	0x3b1dc69e	0.0024074684
8	0xbe0ad923	-0.13559394
9	0x3df2e818	0.118606746
10	0xbe9fca1e	-0.3120889
11	0xbe015659	-0.12630595
12	0xbeb4afe4	-0.35290444
13	0xbe9703df	-0.2949514
14	0xbe9278d0	-0.28607798
15	0xbe8269b9	-0.25471285
16	0xbc91ee07	-0.017813696
17	0xbdd3bbfd	-0.1033859
18	0x3e4df4e9	0.20112957
19	0xbe71ebe2	-0.23625138
20	0xbe827eb3	-0.2548729
21	0x3e2d5633	0.16927414
22	0x3ee7ba5b	0.45259365
23	0x3d842ad9	0.06453485
24	0x3ebfb01d	0.3743905
25	0x3e71bcee	0.23607227
26	0xbdaef029	-0.08541901
27	0x3e973a2d	0.29536572
28	0xbea212ee	-0.31655067
29	0x3bd779eb	0.006575813
30	0x3d98a32d	0.07452998
31	0xbd9fa1d9	-0.07794542
32	0x3e40d550	0.18831372
33	0x3d8d21e3	0.06891229
34	0xbda02fd0	-0.078216195
35	0xbded89a5	-0.11598519
36	0x3d884514	0.066538006
37	0xbe97412d	-0.29541913
38	0xbf078add	-0.52946264
39	0xbe403d28	-0.1877333
40	0xbe9bfaf8	-0.3046491
41	0xbed19e7d	-0.4094123
42	0x3d617b7e	0.055049412
43	0xbecafada	-0.3964451
44	0x3e6ffe82	0.23436931
45	0x3e4ee40c	0.2020418
46	0xbe7077fc	-0.2348327
47	0xbe744cb9	-0.23857392
48	0xbcab3716	-0.02090029
49	0xbe8e3d1b	-0.27780995
50	0xbe6d09a1	-0.23148204
51	0xbc3be58b	-0.0114683015
52	0xbe810d6b	-0.2520555
53	0xbe047147	-0.12933837
54	0xbd4b3285	-0.049608726
55	0xbcf0287c	-0.02931618
56	0x3e0eae4b	0.13933675
57	0x3e11f103	0.14252095
58	0x3d997666	0.07493286
59	0x3e5ccae9	0.21561779
60	0x3e8aafda	0.2708729
61	0x3eb3e1e1	0.3513327
62	0x3de3733a	0.11105962
63	0xbe98f4c2	-0.29874235
64	0xbdbc6b36	-0.09200136
65	0x3ee5ac69	0.448581
66	0xbdeae371	-0.11469162
67	0xbd4dc5e8	-0.050237566
68	0xbe4ac517	-0.19801746
69	0xbea3f5ad	-0.32023373
70	0xbec2a010	-0.38012743
71	0xbd8ccc67	-0.06874924
72	0x3e8f4fd4	0.27990592
73	0x3cad8ead	0.021186197
74	0xbe0f8b8c	-0.14018077
75	0x3e8d6af8	0.27620673
76	0x3ca74b9d	0.020421797
77	0xbe828bfa	-0.2549742
78	0x3da6668a	0.081250265
79	0xbd5e8ba8	-0.054332405
80	0xbe674098	-0.22583234
81	0xbe99d62f	-0.30046222
82	0x3e4bcf49	0.19903292
83	0xbe0a0d9e	-0.13481757
84	0x3e92468a	0.28569442
85	0x3e674064	0.22583157
86	0x3ea6ae0e	0.32554668
87	0xbf4590d5	-0.7717412
88	0x3c988d19	0.018621968
89	0xbb9d9afc	-0.0048097353
90	0xbe76f33c	-0.24116224
91	0xbdb699fd	-0.0891609
92	0x3ec18ebd	0.37804213
93	0x3e32fe58	0.17479837
94	0x3df880d8	0.1213395
95	0x3ea554b1	0.32291177
96	0x3e014be6	0.12626609
97	0x3d41e63a	0.0473387
98	0x3e25479b	0.16140597
99	0x3cc3b03e	0.02388775
100	0xbce5e7de	-0.028064664
101	0x3dcf16b4	0.10111752
102	0x3d0ecb2e	0.034861736
103	0xbd5515b9	-0.05202267
104	0xbd06a274	-0.03286977
105	0x3ce37f45	0.027770648
106	0xbd8f7a93	-0.07005801
107	0xbdc7d666	-0.0975769
108	0x3e145f4a	0.14489475
109	0x3cb97580	0.022639036
110	0x3cc3097b	0.023808232
111	0x3c613838	0.013746314
112	0xbe918530	-0.28421926
113	0xbd1ed184	-0.03877403
114	0xbd977e16	-0.07397096
115	0xbdc6a9bc	-0.09700343
116	0xbe2fd9a8	-0.17172873
117	0xbd85395b	-0.0650508
118	0xbdda1247	-0.106480174
119	0x3e8384fb	0.25687394
120	0xbd6a124b	-0.05714635
121	0xbe8f7ef7	-0.28026554
122	0xbe6063b3	-0.21913032
123	0xbe9c4e5a	-0.30528527
124	0xbeb09cf0	-0.34494734
125	0xbee90820	-0.4551401
126	0xbe83dda8	-0.25755048
127	0x3e76ab84	0.24088866
128	0x3f03021e	0.51175106
129	0x3e5ffb40	0.21873188
130	0x3ed2df82	0.41186148
131	0x3f44c84b	0.7686812
132	0x3cd8b419	0.026453065
133	0xbd641933	-0.055688094
134	0xbd344c9b	-0.04401837
135	0xbe78f367	-0.243116
136	0xbccb0e44	-0.024787076
137	0xbcdaf3a2	-0.026727501
138	0xbe1091b0	-0.14118075
139	0xbe650437	-0.22364889
140	0xbd914cd3	-0.07094731
141	0xbd6154a9	-0.05501238
142	0xbe6397a8	-0.22225821
143	0xbee7e0fe	-0.45288843
144	0x3edfadde	0.43687338
145	0xbd9947cd	-0.07484398
146	0xbdb482e2	-0.088140264
147	0x3e19c5f9	0.15016927
148	0x3dcdff15	0.10058419
149	0xbd89f6f2	-0.06736554
150	0x3dcb0cd6	0.09914558
151	0xbdeddc43	-0.11614277
152	0x3d831c4d	0.06401882
153	0xbe6b0ce8	-0.22954142
154	0xbe670143	-0.22559075
155	0xbea496dd	-0.3214635
156	0xbc2fa842	-0.010721268
157	0xbcffbb0e	-0.031217124
158	0xbdcb1f4e	-0.0991808
159	0xbe916d92	-0.28403908
160	0xbd300487	-0.042973068
161	0xbe76741d	-0.24067731
162	0x3e7a411f	0.24438904
163	0x3e08e019	0.13366736
164	0x3d16423e	0.036684267
165	0x3e977d5b	0.29587826
166	0xbdade926	-0.08491735
167	0x3ec9f869	0.39447334
168	0xbc6cc5b1	-0.01445143
169	0xbbf87c65	-0.0075831884
170	0x3de4500a	0.11148079
171	0xbdc98a28	-0.09840804
172	0xbecfae9d	-0.40562907
173	0x3d60d26b	0.05488817
174	0xbd75938f	-0.059955176
175	0xbd35db95	-0.044398863
176	0x3f0174b9	0.5056873
177	0xbe7d35b5	-0.24727519
178	0x3da465aa	0.080272034
179	0x3e84190d	0.25800362
180	0x3e8cd20c	0.27504003
181	0xbe777621	-0.24166156
182	0x3e03eb1e	0.12882659
183	0x3e9080f0	0.28223372
184	0xbea89ce0	-0.32932186
185	0xbde0edeb	-0.10982879
186	0x3dd85b39	0.10564274
187	0xbd8fd930	-0.07023847
188	0x3c4e13db	0.012577976
189	0xbd6ba053	-0.057525944
190	0xbd3e7dd4	-0.046506718
191	0xbe23c3d0	-0.15992665
192	0x3daa2bd2	0.08309139
193	0x3e2f2748	0.17104828
194	0xbda5013c	-0.08056876
195	0x3ea578c1	0.3231869
196	0x3eaba73f	0.33526036
197	0xbe2b8892	-0.16751316
198	0xbe021b25	-0.12705667
199	0xbe2840ed	-0.16431017
200	0x3d9e2ff4	0.0772399
201	0xbe95a90f	-0.29230544
202	0xbca78f76	-0.02045415
203	0xbd6e2ae7	-0.058146384
204	0xbf25fd39	-0.6483951
205	0x3dd03bcc	0.10167655
206	0xbd2c3a1c	-0.042047605
207	0xbea8c8e8	-0.3296578
208	0xbebbf0b0	-0.36707067
209	0xbcb44110	-0.02200368
210	0xbf08fc2e	-0.53509796
211	0xbe4a1cf9	-0.19737615
212	0xbefd3f05	-0.49462143
213	0xbda8220b	-0.08209618
214	0x3e832cf7	0.25620243
215	0x3dc2a79f	0.095046274
216	0xbe949efd	-0.29027548
217	0x3e06fbe1	0.13182022
218	0xbc96284c	-0.018329762
219	0xbe20fd94	-0.15721732
220	0x3e6655cb	0.22493665
221	0xbd1ee127	-0.03878894
222	0xbe1a628d	-0.15076657
223	0x3e87baec	0.26509798
224	0x3ea61df6	0.32444733
225	0xbed1df0d	-0.40990487
226	0xbe994ec5	-0.2994291
227	0xbde8b817	-0.11363237
228	0xbe4276c2	-0.18990615
229	0xbe4140c3	-0.18872361
230	0x3d1ae10e	0.037812285
231	0xbcdce31e	-0.026963767
232	0x3ed63817	0.41839668
233	0x3e9837c3	0.29730043
234	0x3cf95ce2	0.030439798
235	0x3d911d1c	0.0708563
236	0xbf071f94	-0.5278256
237	0xbdbe9dcb	-0.0930744
238	0x3de05121	0.10952974
239	0xbdff7ca2	-0.12474944
240	0xbebb7025	-0.36608997
241	0xbf16f3ab	-0.5896556
242	0xbe4a1bd6	-0.19737181
243	0x3de3a862	0.11116101
244	0x3e9d5a38	0.30732894
245	0xbef9d6ab	-0.4879659
246	0xbe053404	-0.13008124
247	0x3db63739	0.08897252
248	0xbed03355	-0.40664163
249	0x3dc3c924	0.09559849
250	0x3e2d2d4e	0.16911814
251	0xbf091db9	-0.5356098
252	0xbdeb85d6	-0.115001366
253	0x3d27024d	0.04077368
254	0xbe4928cb	-0.19644468
255	0xbe9e8677	-0.30961964

res0.bn1.weight f4 [10]
0	0x3f39f8ba	0.7264515
1	0x3f761403	0.96124285
2	0x3f912df6	1.1342151
3	0x3f9274eb	1.144193
4	0x3f66cc57	0.9015555
5	0x3f2fbeb7	0.6865038
6	0x3f36d41e	0.71417415
7	0x3f3d6126	0.7397636
8	0x3f865ec4	1.049767
9	0x3f78f202	0.97244275

res0.bn1.bias f4 [10]
0	0xbea3dbac	-0.32003534
1	0xbe7b591a	-0.24545708
2	0xbe226d3b	-0.1586198
3	0xbde4090b	-0.11134537
4	0xbe8edadd	-0.27901354
5	0xbe2590d6	-0.16168532
6	0x3c6386b8	0.0138871
7	0xbec071e2	-0.37586886
8	0x3dc8db8e	0.09807502
9	0x3d53a957	0.051675167

res0.bn1.running_mean f4 [10]
0	0xc02b8d67	-2.6805055
1	0xbf588802	-0.8458253
2	0xc02d4d60	-2.7078476
3	0xbf5deb15	-0.8668683
4	0xbf04f4d8	-0.519361
5	0x40033c73	2.0505645
6	0x40038f6d	2.055629
7	0x3e0cbd3d	0.13744064
8	0xbf9d5f73	-1.2294754
9	0x3fca70aa	1.5815632

res0.bn1.running_var f4 [10]
0	0x40acc645	5.399203
1	0x4133c547	11.235663
2	0x40d71a2b	6.7219443
3	0x40bcf048	5.904331
4	0x41207b07	10.030036
5	0x40a2b458	5.0845146
6	0x40a69cc3	5.206636
7	0x40a94644	5.2898273
8	0x40845c9c	4.136305
9	0x414f37cd	12.951123

res0.conv2.weight f4 [10, 10, 3, 3]
0	0x3e0f4d97	0.13994442
1	0xbdd1cbc7	-0.102439456
2	0xbb7e0c25	-0.0038764563
3	0xbd18ca42	-0.037302263
4	0xbcfb8f52	-0.030707989
5	0xbd8c90fd	-0.06863592
6	0xbd82d862	-0.06388928
7	0x3e56ea16	0.20987734
8	0xbda4851e	-0.080332026
9	0xbcdae6a9	-0.026721315
10	0x3ea8c491	0.32962468
11	0x3e874dbc	0.26426494
12	0xbd5e6d75	-0.054303605
13	0x3eca50b4	0.39514697
14	0x3dc94134	0.0982689
15	0xbeb4f5ec	-0.35343874
16	0xbd48d580	-0.049031734
17	0xbd5ffcdd	-0.05468451
18	0xbeda981b	-0.42694172
19	0xbe5e20da	-0.2169222
20	0x3c6c78a6	0.014433062
21	0xbeba3b78	-0.36373496
22	0xbdedef67	-0.11617928
23	0x3ec17e02	0.3779145
24	0xbefe24e0	-0.49637508
25	0xbefc8ae6	-0.4932472
26	0x3e1bf0df	0.15228604
27	0xbdf9daff	-0.12199973
28	0x3d6aa9c8	0.057290822
29	0xbe4a5838	-0.19760215
30	0xbdb09017	-0.08621233
31	0xbe354279	-0.17701139
32	0x3e43d915	0.19125779
33	0x3db90d62	0.09035756
34	0xbe7fe9a1	-0.24991466
35	0x3e5c4381	0.21510126
36	0xbd5b584c	-0.053551003
37	0x3d06de25	0.032926697
38	0xbd0a5c38	-0.033779353
39	0xbd4dead7	-0.05027279
40	0xbd13b41b	-0.036060434
41	0x3d36ac8a	0.04459814
42	0xbe86627c	-0.26247013
43	0x3dfe3640	0.12412691
44	0x3e797333	0.24360351
45	0x3e25c58c	0.1618864
46	0xbd9bc1c7	-0.076053195
47	0x3e66eec7	0.22552024
48	0x3c3e1364	0.011601303
49	0x3e47f9b7	0.19528852
50	0xbd3f6a1b	-0.04673205
51	0x3e254f80	0.16143608
52	0x3dcca70c	0.09992799
53	0xbe018623	-0.12648825
54	0xbe1b8072	-0.15185717
55	0x3cf31bac	0.02967628
56	0xbd1f1aef	-0.038844045
57	0x3dc7f887	0.097642
58	0x3df14cd5	0.11782233
59	0xbd6a35c5	-0.057180185
60	0x3ddc6031	0.107605346
61	0x3dc999b3	0.09843769
62	0xbe066ea7	-0.13128148
63	0x3c9521f7	0.018204672
64	0x3da803be	0.08203839
65	0x3dfe1468	0.12406236
66	0x3de5cb7c	0.11220452
67	0x3e38c6de	0.18044612
68	0x3aabb9d2	0.0013101643
69	0x3dac7e9f	0.084225886
70	0x3e606c1b	0.21916239
71	0x3dd1f560	0.1025188
72	0x3d89faf3	0.06737318
73	0x3e339ae3	0.17539553
74	0x3babedac	0.0052468386
75	0xbd929d8f	-0.07158958
76	0xbdcf3e9a	-0.10119362
77	0xbe78c024	-0.24292046
78	0xbdf41126	-0.11917333
79	0x3e21064c	0.15725058
80	0xbd5486b9	-0.051886294
81	0x3c1e9837	0.0096798455
82	0x3ea406c4	0.32036412
83	0x3e2fa6ed	0.17153521
84	0x3e628413	0.22120695
85	0x3e022ac8	0.12711632
86	0xbdd715f8	-0.10502237
87	0x3e984fd4	0.29748404
88	0x3e19f997	0.15036617
89	0xbd2b75dc	-0.041860446
90	0xbd4dda7e	-0.0502572
91	0x3e300813	0.1719058
92	0xbe43c1f3	-0.19116955
93	0xbd6a8ef1	-0.057265226
94	0xbee6f45d	-0.4510831
95	0x3de2f4a1	0.110818155
96	0x3e15d75b	0.14632933
97	0x3d911844	0.070847064
98	0x3d6a41ed	0.057191778
99	0xbd3ca0ba	-0.04605172
100	0xbdeca2e1	-0.11554504
101	0xbdd04630	-0.10169637
102	0x3cb8f09a	0.022575665
103	0xbec34e1c	-0.3814553
104	0xbeab7f37	-0.33495495
105	0x3cf773c0	0.030206561
106	0xbddd0d5d	-0.107935645
107	0x3e2d9ce1	0.16954376
108	0x3ee70066	0.4511749
109	0xbd8ff6b2	-0.07029475
110	0x3e8025bc	0.2502879
111	0x3e50d60a	0.2039415
112	0xbdba6487	-0.09101205
113	0x3e7f139e	0.24909827
114	0x3e763969	0.24045338
115	0xbece8d1e	-0.4034204
116	0xbd91449f	-0.070931666
117	0x3e2f68a6	0.17129764
118	0xbcfa6f2d	-0.03057059
119	0xbeff519e	-0.49866956
120	0x3e82b16d	0.2552599
121	0x3da545b9	0.08069939
122	0xbd6df777	-0.05809733
123	0xbea57b7f	-0.32320783
124	0xbd8aef33	-0.06783905
125	0x3eb392e5	0.3507301
126	0xbdda8fe1	-0.10671974
127	0x3e7b146d	0.2451951
128	0x3c4b5755	0.012410958
129	0xbe3c1070	-0.18365645
130	0xbe82d888	-0.25555825
131	0xbd047865	-0.03234138
132	0x3e90209c	0.2814988
133	0x3dbb4a79	0.09145064
134	0x3ced2d3e	0.028952237
135	0xbe413a72	-0.18869951
136	0xbe56a3b0	-0.2096088
137	0xbea14f9b	-0.31506047
138	0x3deeb983	0.11656477
139	0xbcfab06f	-0.030601708
140	0xbd7b8d83	-0.061414253
141	0x3e4d2205	0.20032509
142	0x3df81cba	0.12114854
143	0xbe518fc1	-0.20464994
144	0x3e7a2bbd	0.24430747
145	0x3dbb20ba	0.091371015
146	0xbc5fd7ec	-0.01366232
147	0xbdab8c99	-0.08376426
148	0xbd17a9fa	-0.037027337
149	0xb866c737	-5.5021806e-05
150	0x3db3703e	0.08761643
151	0xbdc6dc98	-0.09710044
152	0x3d238e4f	0.039930638
153	0xbe348f01	-0.17632677
154	0xbd0d8a3b	-0.034555655
155	0xbe5ec380	-0.21754265
156	0xbe1e8087	-0.15478717
157	0x3eb167b6	0.34649438
158	0x3dcf10ee	0.10110651
159	0x3d914707	0.070936255
160	0x3df3c278	0.11902326
161	0xbdca9bf6	-0.098930284
162	0x3ed9206e	0.42407554
163	0xbc3185bb	-0.0108351065
164	0xbed91810	-0.4240117
165	0xbd979b5a	-0.07402678
166	0x3e68151e	0.22664306
167	0x3e889ba3	0.2668124
168	0x3ef7b615	0.48381105
169	0x3defa698	0.11701697
170	0x3d808787	0.0627585
171	0xbc3d9f8f	-0.011573686
172	0xbe8e2215	-0.27760378
173	0xbe2bee24	-0.16790062
174	0xbb5a2d84	-0.003329129
175	0x3d58c9bc	0.052926764
176	0xbe9215a9	-0.2853215
177	0x3e5b568b	0.21419732
178	0x3e0d71a5	0.13812883
179	0xbea0d732	-0.3141418
180	0x3ded36f7	0.11582749
181	0xbe2c070a	-0.1679956
182	0x3ee0a73a	0.43877584
183	0xbd4bb944	-0.04973723
184	0xbe5af900	-0.21384048
185	0xbd807b86	-0.0627356
186	0x3dd41ec5	0.10357431
187	0x3e8a4cc2	0.27011687
188	0x3d5f3667	0.05449524
189	0x3df2f775	0.11863605
190	0xbdf1dfef	-0.1181029
191	0xbe57656d	-0.21034785
192	0x3db470c3	0.0881057
193	0x3d31250e	0.04324823
194	0xbdf5f649	-0.12009866
195	0xbead9ce7	-0.3390877
196	0xbcf87ed1	-0.030333908
197	0xbe9ec1b2	-0.31007153
198	0x3e3df4b7	0.18550383
199	0x3e1cb027	0.15301572
200	0xbe7106bc	-0.23537725
201	0x3d669b0c	0.056300208
202	0xbddfd7b9	-0.10929818
203	0xbd056e3e	-0.03257584
204	0x3e18f294	0.14936286
205	0xbc3270e9	-0.010891178
206	0xbe979d66	-0.29612273
207	0x3d376e60	0.044782996
208	0xbcbea552	-0.02327219
209	0xbcf5da9a	-0.030011464
210	0xbe5a0bec	-0.2129361
211	0xbe27dee1	-0.16393615
212	0xbe899360	-0.2687025
213	0x3e1a91f2	0.15094736
214	0x3d82dc4c	0.063896745
215	0xbcfce8ac	-0.030872665
216	0xbdb8675a	-0.09004088
217	0xbdaac54c	-0.08338413
218	0xbd43ec18	-0.04783258
219	0x3d42fd3b	0.04760478
220	0x3b87147b	0.0041223145
221	0xbe2c8f23	-0.16851477
222	0x3d0a55bd	0.033773173
223	0x3e4d32d3	0.20038919
224	0x3d7c7565	0.061635394
225	0x3de48246	0.1115766
226	0xbc22ef72	-0.0099447835
227	0x3d57cd16	0.05268582
228	0x3dfc5881	0.12321568
229	0x3f0356e3	0.51304454
230	0x3cae2e04	0.021262176
231	0x3e088f56	0.13335928
232	0x3e0cc6d7	0.13747726
233	0x3de81f3d	0.11334083
234	0x3d18331d	0.03715812
235	0xbe340e29	-0.17583527
236	0xbe01d637	-0.12679373
237	0xbcbc9819	-0.023021745
238	0xbe313c0c	-0.17308062
239	0x3e061ba6	0.13096485
240	0x3e34513c	0.17609113
241	0x3e214391	0.15748431
242	0xbdc11213	-0.094272755
243	0x3e6eefaa	0.23333612
244	0xba73fa38	-0.0009307
245	0x3d9662c5	0.073430575
246	0x3e18d4ad	0.1492488
247	0x3e21b6da	0.15792409
248	0x3da27c62	0.079338804
249	0xbdf6a15e	-0.12042497
250	0x3e6e1d8d	0.2325346
251	0x3eb26a77	0.3484685
252	0xbf243435	-0.6414216
253	0xbe0df0d8	-0.13861406
254	0x3d58f225	0.052965302
255	0xbd5bfb7e	-0.05370664

res0.bn2.weight f4 [10]
0	0x3f327caf	0.697215
1	0x3f4c2b47	0.79753536
2	0x3f72b6d8	0.9481025
3	0x3f922067	1.1416138
4	0x3f31db4e	0.6947526
5	0x3f744e6d	0.9543217
6	0x3f5e5e0a	0.8686224
7	0x3f84dbee	1.0379617
8	0x3f8b2b3c	1.0872569
9	0x3f57fb31	0.8436766

res0.bn2.bias f4 [10]
0	0x3cf10631	0.029421898
1	0xbeb0b3c7	-0.3451216
2	0xbe9d1b25	-0.30684772
3	0xbecfdbd5	-0.40597406
4	0x3c90f813	0.017696416
5	0x3c45862c	0.012055915
6	0xbe2a2765	-0.1661659
7	0x3da37a09	0.07982261
8	0xbe860df0	-0.26182508
9	0xbee61cbf	-0.44943807

res0.bn2.running_mean f4 [10]
0	0x3ec0cb98	0.3765533
1	0x3e0f5b08	0.1399957
2	0x3ec5dedb	0.38646588
3	0xbe8a2deb	-0.26988158
4	0x3d88b97f	0.066760056
5	0xbf0373f9	-0.51348835
6	0xbf59a9ae	-0.85024536
7	0xbfa7885f	-1.3088492
8	0xbf699792	-0.912469
9	0xbdfbf630	-0.12302816

res0.bn2.running_var f4 [10]
0	0x3fe3ed86	1.7806861
1	0x3fd802b8	1.687583
2	0x405c7d21	3.4451373
3	0x400424ef	2.0647542
4	0x40632632	3.5492063
5	0x4005c82b	2.0903423
6	0x403d0af3	2.9537933
7	0x40302749	2.7523978
8	0x401f5406	2.4895034
9	0x3fb10303	1.3829044

res1.conv1.weight f4 [10, 10, 3, 3]
0	0x3ed47a03	0.41499338
1	0x3dd4017a	0.10351844
2	0xbdde8024	-0.10864285
3	0x3ee87f40	0.45409584
4	0x3ea3223d	0.3186206
5	0x3dfb40fe	0.12268256
6	0xbcdaab4d	-0.02669301
7	0xbdd650d4	-0.104646355
8	0xbdfdf522	-0.12400271
9	0xbe91d423	-0.2848216
10	0xbd32d252	-0.04365761
11	0xbe262b79	-0.16227521
12	0xbd7c082a	-0.061531223
13	0xbdee3e27	-0.11632948
14	0x3cd79695	0.02631692
15	0x3dbdb0ca	0.092622355
16	0x3d5147c5	0.051093835
17	0x3ee010ab	0.43762717
18	0x3cba4a9a	0.02274065
19	0xbdf61304	-0.12015346
20	0x3c1d0de6	0.009585833
21	0xbe84a917	-0.25910255
22	0xbe3383df	-0.17530774
23	0xbdbce4da	-0.092233375
24	0xbccc6ef4	-0.02495525
25	0x3da59008	0.080841124
26	0xbb2b3d57	-0.002612909
27	0xbd850cdf	-0.064965956
28	0xbe5a1b2c	-0.21299428
29	0xbd80a269	-0.06280977
30	0xbeb8cdd2	-0.36094528
31	0xbddea28d	-0.10870848
32	0xbd2a211b	-0.041535478
33	0xbecaa53d	-0.39579192
34	0xbe3a8d4e	-0.18217966
35	0x3e1cc1e0	0.15308332
36	0x3ed4b44b	0.41543803
37	0x3ee46380	0.44607162
38	0x3e7e4929	0.24832596
39	0xbe2ca687	-0.168604
40	0xbc1718bd	-0.009222207
41	0x3c995bf5	0.018720606
42	0xbefacc23	-0.4898387
43	0xbeb2d135	-0.34925237
44	0xbe3242ae	-0.17408249
45	0x3e1883ea	0.14894071
46	0x3b3e7f83	0.0029067702
47	0x3e643ebc	0.22289556
48	0xbe6d1f36	-0.23156437
49	0xbe7020dd	-0.23450036
50	0xbc82b07e	-0.015953299
51	0xbe00498c	-0.12528056
52	0xbe8b6b60	-0.27230358
53	0x3d5bf865	0.053703684
54	0x3d31702c	0.043319866
55	0xbe6ada3f	-0.22934817
56	0xbd674e57	-0.056471195
57	0x3d235d84	0.039884105
58	0xbf11f179	-0.57009083
59	0xbdf3ef9d	-0.11910937
60	0xbe122de6	-0.14275321
61	0xbe724c60	-0.23661947
62	0xbed0016f	-0.40626094
63	0x3dd5a5f0	0.10432041
64	0x3e3a7409	0.18208326
65	0x3e00b3ae	0.12568542
66	0x3da74097	0.081666164
67	0xbd95f1e6	-0.07321529
68	0x3ccae272	0.02476618
69	0xbe259b74	-0.16172582
70	0xbe93dd8a	-0.28879958
71	0xbddfb93b	-0.10924002
72	0xbf41fbc7	-0.75774807
73	0xbebc66e4	-0.3679725
74	0x3eac963a	0.33708364
75	0xbe11a53e	-0.14223191
76	0xbe0f715c	-0.14008087
77	0x3e540272	0.20704058
78	0x3ec80d6c	0.3907274
79	0x3e47e2f4	0.1952017
80	0x3e97d3fa	0.29653913
81	0x3d418fa8	0.047256142
82	0x3e903f1e	0.28173155
83	0x3e255f9a	0.1614975
84	0x3c3b9b39	0.011450582
85	0x3ceeda2f	0.029156772
86	0xbd569576	-0.05238863
87	0x3e116054	0.14196903
88	0xbe200bea	-0.15629545
89	0xbf0dc657	-0.5538077
90	0xbd0fc7af	-0.035102542
91	0x3f0e16ca	0.55503523
92	0xbd9a8b0c	-0.07546052
93	0x3e3c08c5	0.1836272
94	0x3e08fbc6	0.13377294
95	0xbcd3c481	-0.025850536
96	0x3aaa1544	0.0012976308
97	0xbd6078d8	-0.054802746
98	0xbe2073e5	-0.1566921
99	0x3e29b03e	0.16571137
100	0xbd7fcc4c	-0.062450692
101	0x3f19f948	0.60146
102	0x3d49fef9	0.049315426
103	0xbd2d440e	-0.04230123
104	0x3de784a8	0.11304599
105	0xbe23fa42	-0.16013435
106	0xbeaed0a6	-0.3414356
107	0xbea0b955	-0.31391397
108	0x3e500bb3	0.20316963
109	0x3ec59208	0.38587976
110	0xbe80338b	-0.25039324
111	0x3e544a7b	0.20731537
112	0xbdd914b2	-0.105996504
113	0xbea01522	-0.31266123
114	0x3e64a1e0	0.22327375
115	0x3d0df979	0.034661744
116	0xbcce88c7	-0.025211705
117	0xbe845acb	-0.2585052
118	0x3debd278	0.11514753
119	0xbd927ed3	-0.07153096
120	0x3cd04c49	0.025427
121	0xb877ac8d	-5.905009e-05
122	0xbecf3fe5	-0.40478435
123	0x3e8ded1d	0.27719966
124	0xbe765f9c	-0.2405991
125	0xbe1b3869	-0.15158238
126	0xbef78005	-0.4833986
127	0x3d9015f7	0.070354395
128	0x3de122e0	0.1099298
129	0xbe0c3c0b	-0.1369478
130	0xbf12b92a	-0.5731379
131	0xbdc73b1a	-0.097280696
132	0xbd7ada1f	-0.061243173
133	0x3d1cee29	0.038313065
134	0x3f0ce23e	0.5503272
135	0x3eb0f738	0.34563613
136	0x3ecc2818	0.3987434
137	0xbe5faebc	-0.21844
138	0x3e379cdc	0.17930931
139	0xbdc7eba6	-0.09761743
140	0xbe8aa5ce	-0.27079624
141	0xbdd2863d	-0.1027951
142	0xbdf97860	-0.12181163
143	0xbecb3008	-0.39685082
144	0xbd6c7ae7	-0.057734396
145	0xbe84436b	-0.25832686
146	0x3da63797	0.08116072
147	0xbe97c3c1	-0.29641536
148	0xbd14d9a3	-0.036340367
149	0x3d6feafb	0.058573704
150	0x3e8e9cfa	0.2785414
151	0x3f22b9ba	0.63564646
152	0x3e988827	0.29791376
153	0xbee5c34e	-0.44875568
154	0xbe9957f9	-0.2994993
155	0x3dd57eb8	0.1042456
156	0x3d617440	0.055042505
157	0x3dc198e1	0.094529875
158	0x3e5e3d96	0.2170318
159	0x3e835904	0.2565385
160	0xbe3600d0	-0.17773747
161	0x3d96c6fb	0.07362171
162	0xbe5cefac	-0.21575803
163	0xbeeb40fd	-0.4594802
164	0xbed5eec2	-0.4178372
165	0x3d94d607	0.07267385
166	0x3f3eb1cf	0.74490064
167	0xbe935124	-0.28772843
168	0x3d8713bc	0.06595561
169	0x3d8738c0	0.06602621
170	0xbeb5b5cf	-0.3549027
171	0x3c5b5fe8	0.013389565
172	0xbd401e6c	-0.046904013
173	0x3ed36e21	0.4129496
174	0x3e2ced0e	0.16887304
175	0x3ef9e2cf	0.48805854
176	0xbe1265fa	-0.14296713
177	0xbc605bef	-0.013693794
178	0x3da8dae0	0.08244872
179	0xbdf8a336	-0.12140505
180	0xbde8f8ba	-0.11375566
181	0xbd721942	-0.05910612
182	0x3def4975	0.11683933
183	0x3d91de47	0.07122474
184	0x3ed3a4e4	0.4133674
185	0x3d43e12e	0.04782217
186	0x3e12d029	0.1433722
187	0x3df7094f	0.12062322
188	0x3e89259c	0.26786506
189	0x3e9c0f39	0.30480364
190	0x3e2a738b	0.16645639
191	0x3dda8fa6	0.1067193
192	0x3ecf7665	0.40520015
193	0xbe0a82f0	-0.13526511
194	0x3dd4885e	0.103775725
195	0x3e662fb1	0.2247913
196	0x3e51b2bd	0.2047834
197	0xbd4992be	-0.04921221
198	0xbb4c3221	-0.003115781
199	0xbd6b1d1d	-0.05740081
200	0xbd5c1281	-0.053728584
201	0xbdd4d5c1	-0.10392333
202	0xbe028a45	-0.12748058
203	0xbd0c59b3	-0.03426523
204	0x3d1fa719	0.038977716
205	0xbe6131e2	-0.21991685
206	0xbcf6d2a1	-0.030129733
207	0x3cb5d933	0.022198295
208	0x3c74b526	0.014935767
209	0xbca4db4a	-0.020124096
210	0xbdae6d64	-0.08516958
211	0x3da352a4	0.07974747
212	0xbcdc12ea	-0.026864488
213	0xbdc49dc2	-0.096004024
214	0xbd84fa12	-0.064930096
215	0xbd512a1b	-0.051065546
216	0xbc7c7da6	-0.015410816
217	0x3e67e474	0.22645742
218	0x3e837cc3	0.25681123
219	0xbd825266	-0.063633725
220	0x3e93fd06	0.2890398
221	0x3eb125bf	0.3459911
222	0xbe3eb9af	-0.1862552
223	0x3cf0b8d8	0.029385015
224	0x3dd367f8	0.10322565
225	0x3dce6b3c	0.10079047
226	0x3d43065c	0.047613487
227	0xbe1f7c94	-0.15574867
228	0xbce937e0	-0.028469026
229	0x3d6b4d52	0.057446785
230	0xbe95b618	-0.2924049
231	0x3d8186a1	0.063245066
232	0xbe5d92ba	-0.21638003
233	0x3d2260e8	0.0396432
234	0x3d15537e	0.036456577
235	0xbe46c298	-0.19410169
236	0xbdcd6f24	-0.10030964
237	0x3b987c08	0.0046534576
238	0xbcec39a1	-0.028836073
239	0xbe04eb26	-0.12980327
240	0x3cccc767	0.024997426
241	0xbdb80c98	-0.08986777
242	0xb9619f39	-0.00021516987
243	0x3dc54ef8	0.09634203
244	0xbdb67d70	-0.08910644
245	0xbe306467	-0.172258
246	0x3e011cd0	0.12608647
247	0xbde740af	-0.11291634
248	0xbdc17ada	-0.0944726
249	0xbdd9207c	-0.10601899
250	0xbe8e9fa3	-0.27856168
251	0xbdb7dbee	-0.08977495
252	0xbd9230c2	-0.07138206
253	0xbde39a17	-0.11113375
254	0xbef2233f	-0.47292516
255	0xbbd08439	-0.0063634184

res1.bn1.weight f4 [10]
0	0x3f78233c	0.96928763
1	0x3f969786	1.1764991
2	0x3f2ff495	0.6873258
3	0x3f6f66d9	0.9351631
4	0x3f8fdd1e	1.1239355
5	0x3f12d6d1	0.57359034
6	0x3f6d968b	0.92807835
7	0x3f2bd159	0.67116314
8	0x3f8df1ec	1.1089454
9	0x3f0321ba	0.5122334

res1.bn1.bias f4 [10]
0	0xbe73aa1a	-0.23795357
1	0x3e61ad7d	0.22038837
2	0xbed39d56	-0.41330975
3	0xbe62b9d1	-0.22141196
4	0x3e059cce	0.13048097
5	0xbe010335	-0.1259888
6	0xbe870cf9	-0.26377085
7	0xbed6d457	-0.41958877
8	0x3cbd843e	0.023134347
9	0xbeca3362	-0.39492327

res1.bn1.running_mean f4 [10]
0	0xbfe14586	-1.7599342
1	0xbf1796a0	-0.5921421
2	0xbe0f3240	-0.13984013
3	0xbffce964	-1.9758725
4	0xc044d9ef	-3.0758016
5	0xc00d926d	-2.2120621
6	0x3fb9b5ce	1.4508607
7	0x40573a55	3.3629353
8	0xbf590374	-0.84770894
9	0x40368d1f	2.8523633

res1.bn1.running_var f4 [10]
0	0x4112fd85	9.186894
1	0x4102c9c2	8.174257
2	0x408e9b8b	4.456487
3	0x40c89e51	6.2693257
4	0x4178bc2e	15.545942
5	0x41265d22	10.3977375
6	0x40bed8c4	5.9639606
7	0x410992a3	8.5983
8	0x41061b35	8.381642
9	0x40a620fe	5.1915274

res1.conv2.weight f4 [10, 10, 3, 3]
0	0xbe8a1428	-0.26968503
1	0xbe9120ec	-0.2834543
2	0xbe9498a7	-0.29022714
3	0xbdf06af5	-0.117391504
4	0x3e8616cd	0.2618927
5	0x3eecf38e	0.46279567
6	0xbcde4fad	-0.027137602
7	0x3e80ba6a	0.25142223
8	0x3ec929b4	0.3928963
9	0x3d847a56	0.06468646
10	0xbeab07f6	-0.3340451
11	0xbea7d883	-0.32782373
12	0xbe455908	-0.19272244
13	0xbe995166	-0.29944915
14	0xbe20cc39	-0.15702905
15	0xbea0f238	-0.31434798
16	0x3eb907de	0.36138815
17	0xbdc2b333	-0.09506836
18	0x3e15e629	0.1463858
19	0x3e327225	0.17426355
20	0xbc27a208	-0.010231502
21	0x3cb4e0f2	0.022079919
22	0x3e89847b	0.26858887
23	0x3cd7c131	0.026337238
24	0xbddf2ce9	-0.10897238
25	0xbe017389	-0.1264173
26	0xbd99408f	-0.07483017
27	0x3dad47af	0.08460938
28	0xbe17fed1	-0.14843298
29	0xbcd98921	-0.026554646
30	0x3e83f008	0.25769067
31	0x3d3f401b	0.046691995
32	0xbe3f974b	-0.18710057
33	0x3bf758a7	0.00754841
34	0x3d13269b	0.03592549
35	0xbd56a257	-0.052400913
36	0xbe838224	-0.25685227
37	0xbec225d8	-0.37919497
38	0xbef447c4	-0.47711003
39	0xbdaf0960	-0.0854671
40	0xbede4051	-0.43408445
41	0xbedac778	-0.42730308
42	0x3e1fe4c6	0.15614614
43	0xbead0347	-0.33791563
44	0xbe9cf68e	-0.30656856
45	0xbd9c6dc5	-0.076381244
46	0x3dec4621	0.115368135
47	0x3db3da51	0.08781875
48	0xbe0f2f2d	-0.1398284
49	0x3de6916b	0.11258205
50	0x3cedebee	0.029043164
51	0xbd51d216	-0.051225744
52	0xbd8c0316	-0.06836526
53	0x3df4e962	0.11958577
54	0xbe9b66bd	-0.3035182
55	0xbe226d4b	-0.15862004
56	0x3e2294a6	0.15877017
57	0xbdc46bb3	-0.095908545
58	0x3d204a65	0.03913345
59	0x3e2b4010	0.16723657
60	0xbe079e8f	-0.13244079
61	0x3e4fe146	0.20300779
62	0xbde1def9	-0.11028857
63	0xbd6d2188	-0.057893306
64	0xbd4fc3e2	-0.050723918
65	0x3e8a0dfa	0.26963788
66	0x3e459149	0.19293703
67	0xbd519f09	-0.05117706
68	0x3e03f779	0.12887372
69	0x3e0a9c65	0.13536222
70	0x3dfc3fb6	0.123168394
71	0xbce909f5	-0.02844713
72	0x3e6db73d	0.23214431
73	0x3ef7925d	0.48353854
74	0xbe8322e7	-0.25612566
75	0xbd14e0ed	-0.03634732
76	0x3bb94c4c	0.0056548472
77	0xbecbda4f	-0.39814994
78	0xbe78f920	-0.24313784
79	0x3e06a2b3	0.13148002
80	0xbdc5f29a	-0.09665413
81	0xbe2aed2e	-0.1669204
82	0xbe3d0f95	-0.18462975
83	0xbcab4766	-0.020908069
84	0x3dac5406	0.08414464
85	0x3e061678	0.13094509
86	0x3d2dd4e9	0.042439375
87	0xbc8d17fa	-0.017223347
88	0x3e0445b5	0.12917216
89	0xbd7b4fcf	-0.06135541
90	0x3ea244d2	0.3169313
91	0x3bc8b6ff	0.0061253305
92	0x3e550985	0.20804413
93	0x3e77738e	0.24165174
94	0x39235730	0.00015577371
95	0x3e569966	0.20956954
96	0x3e973505	0.29532638
97	0x3cd1cff8	0.025611863
98	0x3e15790f	0.14596961
99	0xbe425d1a	-0.18980828
100	0xbdbc6f7b	-0.09200951
101	0xbded4fc1	-0.115874775
102	0xbea73106	-0.3265459
103	0xbdf97d25	-0.121820726
104	0xbe7957d8	-0.24349916
105	0x3e9c3d5e	0.3051557
106	0xbeea5219	-0.4576576
107	0xbea2ff89	-0.31835583
108	0xbd4b3e7a	-0.04962013
109	0xbc6437d2	-0.013929324
110	0xbd3c9a6a	-0.0460457
111	0xbc67df73	-0.014152396
112	0xbdde4bdb	-0.10854312
113	0xbe47d06f	-0.19513105
114	0xbdc4f156	-0.09616344
115	0xbd80354a	-0.06260164
116	0xbd912a11	-0.07088102
117	0x3c7b17b8	0.015325479
118	0x3cc257c9	0.0237235
119	0xbd87650e	-0.066110715
120	0x3dc7ee23	0.09762218
121	0xbf30362f	-0.6883268
122	0x3ea867e6	0.32891768
123	0x3d79ddcd	0.06100254
124	0xbedbab2d	-0.42904034
125	0xbe845b17	-0.25850746
126	0xbdbade19	-0.09124393
127	0x3e46ca27	0.19413052
128	0x3daac3bd	0.08338115
129	0xbe378317	-0.179211
130	0x3d2f37e1	0.0427779
131	0x3cc0b62d	0.023524368
132	0xbea2cc2f	-0.31796405
133	0xbd8dd1fb	-0.06924816
134	0x3d83f535	0.06443254
135	0xbe3ccb8d	-0.18437023
136	0xbd9fb4f4	-0.07798186
137	0xbc136d07	-0.008998162
138	0xbdb6fa4b	-0.08934458
139	0xbe3f7a94	-0.18699104
140	0x3d073de0	0.033017993
141	0xbe4026c6	-0.18764791
142	0xbdf61f98	-0.12017745
143	0xbc7a3678	-0.015271775
144	0x3e180552	0.1484578
145	0xbe69a69e	-0.22817466
146	0xbe1b20b5	-0.15149195
147	0xbdfd465e	-0.12366937
148	0xbd2284dc	-0.039677486
149	0x3e917604	0.2841035
150	0x3db2900b	0.0871888
151	0x3e104698	0.1408943
152	0x3d24658a	0.040135898
153	0xbe18730a	-0.14887634
154	0xbb3bb8a2	-0.0028643985
155	0xbe82a3ad	-0.255155
156	0xbd890fc0	-0.06692457
157	0x3af21eef	0.0018472354
158	0x3cad9000	0.021186829
159	0xbd61f665	-0.05516662
160	0xbe5e305b	-0.21698134
161	0xbbd28f3c	-0.0064257663
162	0x3e19b813	0.15011625
163	0x3c6edec1	0.014579476
164	0xbd5a2ebb	-0.053267222
165	0x3cadf629	0.021235542
166	0xbe919034	-0.2843033
167	0xbe7eb509	-0.24873747
168	0x3e565f7a	0.20934859
169	0xbe92dc64	-0.2868377
170	0xbebbfc67	-0.36716005
171	0xbd59992c	-0.05312459
172	0xbd665b4d	-0.056239415
173	0xbe9297b2	-0.2863136
174	0xbdf03812	-0.117294446
175	0xba43f0db	-0.000747455
176	0xbbd3714d	-0.0064527155
177	0xbdbffc04	-0.0937424
178	0xbd90658b	-0.07050618
179	0x3d37f11e	0.04490768
180	0xbe186e7e	-0.148859
181	0xbe5e77ae	-0.21725342
182	0xbe1ccfa5	-0.15313585
183	0x3e6d0d8d	0.231497
184	0x3c2e671c	0.0106447
185	0xbe2b774c	-0.16744727
186	0x3dcbb47d	0.09946535
187	0x3d9aace8	0.075525105
188	0xbe03ca8d	-0.12870236
189	0x3da702e5	0.08154849
190	0xbe3cc7cb	-0.1843559
191	0xbe864903	-0.2622758
192	0x3eda77ea	0.42669612
193	0xbde1e134	-0.11029282
194	0x3da1ff54	0.07910028
195	0x3e5bcc71	0.21464707
196	0x3dd329a5	0.103106774
197	0x3ee2df8d	0.4431118
198	0x3ca89701	0.020579817
199	0xbd4acdf1	-0.049512807
200	0x3c985d77	0.018599255
201	0x3c3cd85a	0.011526192
202	0xbde1ada2	-0.11019446
203	0xbd5d6543	-0.05405165
204	0x3dd81a51	0.105518945
205	0xbe037dae	-0.12840912
206	0xbd79241e	-0.06082546
207	0xbb1b90b0	-0.0023737364
208	0xbe5aee3c	-0.21379942
209	0xbc52199c	-0.012823489
210	0xbddcb6cd	-0.10777054
211	0x3e39ce64	0.18145138
212	0xbded89ec	-0.11598572
213	0xbdea0a9a	-0.11427803
214	0x3e1634cd	0.1466858
215	0x3ec4de23	0.38450727
216	0xbe2b8e74	-0.1675356
217	0x3e61fa47	0.2206813
218	0xbc28ac7b	-0.010295029
219	0xbd2067f9	-0.039161656
220	0x3e9138db	0.2836369
221	0x3e3d09f2	0.18460825
222	0x3e3a34f6	0.18184265
223	0x3e7df523	0.24800543
224	0xbbdce8bd	-0.0067416118
225	0x3d8bbd05	0.06823162
226	0xbd533959	-0.051568363
227	0x3b08abce	0.0020854357
228	0x3db4609e	0.08807491
229	0x3e23b008	0.1598512
230	0x3e28dcfa	0.16490546
231	0x3d3ee712	0.046607085
232	0x3c602595	0.013680835
233	0x3e0ccd0f	0.13750099
234	0xbe2a007b	-0.16601746
235	0x3d525c0d	0.051357318
236	0xbd3fecbc	-0.046856627
237	0x3e104bff	0.1409149
238	0xbefa954a	-0.48942024
239	0x3d7610af	0.060074504
240	0x3bb996a3	0.0056637092
241	0x3ea76971	0.32697633
242	0x3e7cfb69	0.2470528
243	0x3e1a1fc2	0.15051177
244	0x3dfb3c50	0.12267363
245	0x3d3711ca	0.0446947
246	0x3ee31b37	0.443567
247	0x3d4a8655	0.049444515
248	0x3d2ec7df	0.04267108
249	0x3e935c4f	0.28781363
250	0x3ea60365	0.32424465
251	0x3e1e9830	0.15487742
252	0x3e0a9439	0.13533105
253	0xbe612ad7	-0.21988998
254	0xbd38815a	-0.045045234
255	0x3d3f906f	0.046768602

res1.bn2.weight f4 [10]
0	0x3f5a1b24	0.85197663
1	0x3f90fd4c	1.13273
2	0x3f4570d5	0.77125293
3	0x3f70e93f	0.94105905
4	0x3ef9dfd6	0.48803586
5	0x3fa7fae8	1.3123446
6	0x3f58012d	0.84376794
7	0x3f4fa0ca	0.8110472
8	0x3f559f2c	0.83446
9	0x3f75b2d6	0.95976007

res1.bn2.bias f4 [10]
0	0xbe0da07d	-0.13830753
1	0xbe2f662b	-0.17128818
2	0xbea67d58	-0.32517505
3	0xbead3e94	-0.33836806
4	0xbe100692	-0.14065006
5	0x3d62de95	0.055388052
6	0xbe4a536e	-0.19758388
7	0x3e10dd46	0.14146909
8	0xbe57fc85	-0.21092422
9	0xbe655473	-0.22395496

res1.bn2.running_mean f4 [10]
0	0xbfc913f7	-1.5709218
1	0xbfba4459	-1.4552108
2	0x3f95885e	1.1682241
3	0xbfd77273	-1.6831802
4	0xbfc82cd3	-1.5638679
5	0xbf8f2d8d	-1.1185776
6	0xbde633ba	-0.11240335
7	0xbed30ba0	-0.41219807
8	0xbfa2acd8	-1.2708998
9	0x3f021cb7	0.50825065

res1.bn2.running_var f4 [10]
0	0x4049edfe	3.155151
1	0x3fe08004	1.7539067
2	0x3ff9cd7b	1.9515833
3	0x3fd87da1	1.6913339
4	0x3fc5545c	1.541637
5	0x3fe34414	1.7755151
6	0x3fc1c71c	1.5138888
7	0x3fea5be0	1.8309288
8	0x3fff0db0	1.9926052
9	0x3f9c6a68	1.2219973

res2.conv1.weight f4 [10, 10, 3, 3]
0	0xbe1b9552	-0.1519368
1	0xbe3c46bb	-0.18386357
2	0xbb42cdc5	-0.00297247
3	0xbe2e1e66	-0.17003784
4	0xbe57742b	-0.21040408
5	0xbdcb9274	-0.09940043
6	0xbde00aa5	-0.1093953
7	0xbebe427f	-0.37160107
8	0xbe1b4fbe	-0.15167138
9	0xbdaaf027	-0.08346587
10	0x3d6c66e1	0.0577153
11	0xbdbdb63b	-0.09263273
12	0xbde0a228	-0.10968429
13	0xbe8299a8	-0.25507855
14	0xbd12de46	-0.035856508
15	0xbd9a23bc	-0.07526347
16	0xbe97e464	-0.29666436
17	0xbd80d45e	-0.06290506
18	0xbd529467	-0.05141106
19	0x3d3bb6a3	0.045828473
20	0xbdd601d5	-0.10449568
21	0xbe553d0c	-0.20824069
22	0xbcc61095	-0.024177829
23	0xbda7ab88	-0.08187014
24	0xbe55af11	-0.20867564
25	0xbe88db6b	-0.26729903
26	0xbdb7f301	-0.08981896
27	0xbe8474cc	-0.2587036
28	0xbe0ab0fb	-0.13544075
29	0xbe8eaf78	-0.27868247
30	0xbe31ac51	-0.1735089
31	0xbdd0dda6	-0.10198526
32	0xbe683e1b	-0.22679941
33	0xbd4d7654	-0.050161675
34	0xbdb7f11f	-0.08981537
35	0xbe1efe6f	-0.15526746
36	0xbe5cf171	-0.21576478
37	0xbdf0bcab	-0.117547356
38	0xbdd30035	-0.10302774
39	0xbe7966b4	-0.24355584
40	0xbe411c78	-0.18858516
41	0xbe4802a3	-0.19532256
42	0xbeb95393	-0.36196575
43	0xbe8b9806	-0.27264422
44	0xbe978f17	-0.29601356
45	0xbe044f9b	-0.12920992
46	0x3e56af14	0.20965225
47	0x3e3a44a9	0.18190254
48	0xbe88771b	-0.2665337
49	0x3ddccda7	0.107814126
50	0x3e49eeb9	0.19719972
51	0xbe0e59ad	-0.13901396
52	0x3d0cf670	0.03441471
53	0xbd0e68c4	-0.03476788
54	0xbda300ef	-0.079591624
55	0x3e109447	0.14119063
56	0x3b9f760f	0.0048663686
57	0x3a01e387	0.00049548637
58	0x3e3b9d97	0.18321835
59	0x3c90327a	0.017602194
60	0xbd901bb8	-0.07036537
61	0xbe729dcf	-0.23693012
62	0xbeac9efb	-0.33715042
63	0x3de7684e	0.112991914
64	0x3dc2f368	0.09519082
65	0xbdd29607	-0.10282522
66	0x3e97fb77	0.2968404
67	0x3e398c39	0.18119897
68	0x3cd92563	0.026507085
69	0xbcacd592	-0.021097932
70	0x3e7121b2	0.2354801
71	0x3e282979	0.1642207
72	0xbda93fcb	-0.08264121
73	0xbdcfdc97	-0.10149496
74	0xbebb4edb	-0.365836
75	0xbecc3c18	-0.39889598
76	0xbe5be6c0	-0.21474743
77	0xbe8221ee	-0.2541651
78	0xbe800e7c	-0.2501105
79	0xbe5a829f	-0.2133889
80	0xbeefcd22	-0.4683619
81	0xbd4a2513	-0.049351763
82	0xbe198069	-0.14990391
83	0xbdae682d	-0.08515964
84	0x3bb82421	0.0056195413
85	0xbdd4b5b6	-0.10386221
86	0xbdd1584b	-0.10221919
87	0x3d56d733	0.052451324
88	0xbdd3c3a4	-0.1034005
89	0xbe321462	-0.17390588
90	0xbc0a264a	-0.00843198
91	0xbd83de94	-0.06438938
92	0xbd57797a	-0.052606083
93	0xbd814d23	-0.06313541
94	0xbe8d51d6	-0.27601498
95	0x3df03d69	0.11730463
96	0xbea63257	-0.3246028
97	0xbe9305e7	-0.2871544
98	0x3ee51a62	0.4474669
99	0xbe0f62c6	-0.14002523
100	0x3d473dc1	0.048642877
101	0x3e6ab610	0.22921014
102	0xbe7011a2	-0.23444226
103	0x3cd8495d	0.02640217
104	0x3d84eeb5	0.06490842
105	0xbe1dff1f	-0.15429352
106	0x3d04b6b0	0.032400787
107	0xbc76537b	-0.015034552
108	0x3e571a5a	0.21006146
109	0xbe0caa28	-0.13736784
110	0xbe116adc	-0.1420092
111	0xbe332a1f	-0.17496537
112	0xbdd5910b	-0.104280554
113	0x3c503468	0.012707807
114	0xbe2187c6	-0.1577445
115	0x3d811307	0.06302457
116	0x3e8e7f4d	0.27831498
117	0x3d05f5d8	0.032705158
118	0x3e20e778	0.15713298
119	0xbe4c5d5d	-0.1995749
120	0xbe347f79	-0.17626752
121	0xbe0e9e0f	-0.13927482
122	0x3d8280ff	0.0637226
123	0xbc9c59b5	-0.019085744
124	0xbe076fa1	-0.13226177
125	0xbd5e992a	-0.054345287
126	0x3daf9676	0.0857362
127	0x3d83a1fa	0.06427379
128	0x3cccd0d6	0.025001924
129	0xbdf20280	-0.11816883
130	0xbe2bbfd7	-0.167724
131	0xbd524cf6	-0.051342927
132	0xbd9ccab1	-0.07655848
133	0xbe3b7eaa	-0.18310037
134	0x3deddc83	0.11614325
135	0x3e8dba19	0.27681044
136	0x3dd9330f	0.10605442
137	0xbe0736e0	-0.13204527
138	0xbe3e70cd	-0.18597718
139	0x3c90bf92	0.017669473
140	0xbdafc222	-0.0858195
141	0x3e7005ca	0.23439708
142	0x3d9b9a5d	0.07597802
143	0x3e8eed87	0.27915594
144	0x3e29c910	0.16580606
145	0x3e2f0d0e	0.17094824
146	0x3d1ce0f9	0.03830049
147	0xbe944710	-0.28960466
148	0x3e3852b4	0.18000299
149	0x3ce5c119	0.028046178
150	0x3dabbfaa	0.083861664
151	0x3ea7fa46	0.3280813
152	0x3e2a5b7c	0.16636461
153	0xbea20fc9	-0.31652668
154	0xbe56ea7a	-0.20987883
155	0x3d664998	0.05622253
156	0xbea9f252	-0.33192688
157	0x3e196cc1	0.14982893
158	0x3efcddc8	0.49387956
159	0x3df6f787	0.12058931
160	0x3ebadd5d	0.36497012
161	0x3e31ff3e	0.17382523
162	0xbd1c3257	-0.038133945
163	0xbe53412c	-0.2063033
164	0xbe415e01	-0.18883516
165	0xbcbe48aa	-0.023228008
166	0xbcc513dd	-0.024057323
167	0xbe08c267	-0.13355409
168	0xbdcb1299	-0.099156566
169	0xbd5e0dc8	-0.05421236
170	0xbe904ced	-0.2818369
171	0x3e1c6f38	0.15276802
172	0x3b4396ac	0.0029844446
173	0x3e2dd0c0	0.16974163
174	0x3d70b2d9	0.058764312
175	0xbcd101bc	-0.025513522
176	0x3d917818	0.07102984
177	0xbd845349	-0.06461198
178	0xbe5471a8	-0.20746481
179	0x3d57a93b	0.052651625
180	0x3e9bf040	0.30456734
181	0xbe12e2df	-0.14344357
182	0xbe18ccfc	-0.14921945
183	0x3e8a5318	0.2701652
184	0xbcc11332	-0.023568723
185	0xbda408f2	-0.08009519
186	0xbe1dc0fa	-0.15405646
187	0xbcfe1c10	-0.03101924
188	0x3e3e4db2	0.18584326
189	0xbdf6a105	-0.12042431
190	0xbe3a65a6	-0.18202838
191	0xbe8d6270	-0.27614164
192	0xbe7ae662	-0.24501947
193	0x3e7ee830	0.2489326
194	0xbe1fa771	-0.15591218
195	0x3c4140a7	0.0117951995
196	0xbe38f413	-0.18061857
197	0xbebd5229	-0.36976746
198	0xbb98ba97	-0.004660915
199	0x3dac5997	0.084155254
200	0x3cc9bd68	0.024626449
201	0x3da8906c	0.08230671
202	0x3d034ba8	0.032054573
203	0xbd833153	-0.06405892
204	0xbd3c75f4	-0.046010926
205	0xbca132b7	-0.019677503
206	0xbe230182	-0.15918544
207	0xbce2eb7a	-0.027700175
208	0x3e8847b2	0.266172
209	0x3c2a5c96	0.010398051
210	0xbe26f8b7	-0.16305815
211	0x3c0661fc	0.008202072
212	0x3e79d1c4	0.24396425
213	0xbdd246c5	-0.102674045
214	0xbd1ec2aa	-0.038759865
215	0x3ed902dd	0.42384997
216	0x3deb69de	0.11494802
217	0x3dfd54de	0.12369703
218	0x3e774678	0.24147975
219	0xbd961ea5	-0.07330064
220	0x3eaebc92	0.34128243
221	0x3ea0a419	0.31375197
222	0xbe3a9b90	-0.18223405
223	0x3d8cac57	0.06868809
224	0x3e8e702d	0.27819958
225	0xbc2080ed	-0.009796363
226	0xbe79bfef	-0.24389623
227	0x3a5c2b6a	0.0008398803
228	0x3e6cd6e8	0.23128855
229	0xbebf6201	-0.3737946
230	0x3e0995cd	0.1343605
231	0xbea9d8fd	-0.3317336
232	0xbc8f9ada	-0.017529894
233	0x3dfceea5	0.12350205
234	0xbd2d8528	-0.042363316
235	0x3e9cd366	0.30630034
236	0xbd1e8497	-0.038700666
237	0x3c562b79	0.013071888
238	0xbd4cac20	-0.04996884
239	0x3e30df99	0.17272796
240	0xbd83aaf3	-0.0642909
241	0xbe7f467a	-0.24929228
242	0xbddaf905	-0.10692028
243	0xbdb70502	-0.08936502
244	0xbdc9e63d	-0.098583676
245	0xbf1e313d	-0.6179388
246	0x3d368381	0.044559006
247	0xbe87e062	-0.26538378
248	0xbe74d2bc	-0.23908514
249	0xbbb1d130	-0.0054265484
250	0xbd3a8d76	-0.045545064
251	0xbe667c65	-0.2250839
252	0x3cc6c1d8	0.024262354
253	0x3e0b553f	0.13606738
254	0x3dbf3fef	0.09338366
255	0x3d9e4aca	0.07729109

res2.bn1.weight f4 [10]
0	0x3f84917f	1.0356902
1	0x3f3aee51	0.7301989
2	0x3f3df2b4	0.7419846
3	0x3f703c33	0.93841857
4	0x3f91bfcb	1.1386656
5	0x3f4f2bc6	0.8092617
6	0x3f026a60	0.50943565
7	0x3f97ca5c	1.185863
8	0x3f08a2f1	0.5337363
9	0x3f6df98b	0.929589

res2.bn1.bias f4 [10]
0	0xbca4c37f	-0.020112751
1	0xbe8d7a88	-0.27632546
2	0xbe10caa4	-0.14139801
3	0xbec0632b	-0.3757566
4	0xbdecff5f	-0.11572146
5	0xbe2eb970	-0.17062926
6	0xbeb22032	-0.34790188
7	0xbdefa477	-0.11701291
8	0xbe70c33a	-0.23511973
9	0xbe17b8ca	-0.14816585

res2.bn1.running_mean f4 [10]
0	0xc0a443d1	-5.1332784
1	0x3da2d0ff	0.07950019
2	0xc014dd0b	-2.3259914
3	0x40411440	3.016861
4	0x3f4745b3	0.7784073
5	0xc081e27b	-4.0588965
6	0x3f95da50	1.1707249
7	0x3ef401c9	0.47657612
8	0x40655f96	3.583959
9	0xbff88974	-1.9416947

res2.bn1.running_var f4 [10]
0	0x41e81d35	29.014261
1	0x40fbd005	7.869143
2	0x41195d6c	9.585308
3	0x41221d01	10.132081
4	0x415436fc	13.263424
5	0x412d6767	10.837745
6	0x401eae06	2.4793715
7	0x412f9046	10.972723
8	0x411da032	9.85161
9	0x41249fc5	10.289006
