SuperGo-master/saved_models/1584177784/4-policy_net.pth.tar (torch_old, 963616 bytes, 203 tensors)

exp_avg_sq f4 [10]
3.5415007e-07 9.653644e-08 9.590054e-07 6.941848e-07 8.9344087e-07 9.471839e-07 2.4877843e-07 7.2217546e-07
4.9834404e-07 1.0830838e-07
00000000: 0422 be34 784f cf33 2db7 8035 0458 3a35
00000010: cad4 6f35 fb41 7e35 d98f 8534 85db 4135
00000020: f1c5 0535 2997 e833

exp_avg f4 [10]
-0.00014456699 1.6444449e-06 -2.0013817e-05 -0.00012135107 0.00012536814 -5.802721e-05 -1.9868166e-05 0.00019198898
1.855263e-05 1.030204e-06
00000000: e896 17b9 b2b6 dc35 58e3 a7b7 dc7d feb8
00000010: 4175 0339 3e62 73b8 90aa a6b7 a650 4939
00000020: 78a1 9b37 8a45 8a35

exp_avg_sq f4 [10]
3.966121e-05 2.9079038e-05 2.329476e-05 8.580865e-06 1.0857532e-05 2.38061e-05 1.0257096e-05 1.7181937e-05
7.3867336e-06 2.6120804e-05
00000000: e659 2638 c2ee f337 1e69 c337 89f6 0f37
00000010: bf28 3637 36b3 c737 e415 2c37 ee21 9037
00000020: 8fdb f736 001e db37

exp_avg f4 [10]
-0.00016481185 1.7247174e-06 -0.002147084 -0.00031034494 0.00022244919 8.769262e-05 0.0019160018 0.00075867865
-0.0002994518 -0.00040193376
00000000: 58d1 2cb9 d77c e735 18b6 0cbb cbb5 a2b9
00000010: 4041 6939 9ee7 b738 5a22 fb3a 10e2 463a
00000020: beff 9cb9 a3ba d2b9

exp_avg_sq f4 [10, 10, 3, 3]
8.062793e-08 7.308027e-08 6.079155e-08 9.164393e-08 5.6087554e-08 3.7685645e-08 9.1766e-08 6.32799e-08
5.4082886e-08 3.1484046e-07 4.0796192e-07 6.921254e-07 2.678723e-07 2.546649e-07 3.4481357e-07 1.876739e-07
3.3319063e-07 2.866542e-07 6.7504334e-07 7.3750834e-07 7.639166e-07 7.889686e-07 8.0215733e-07 8.392377e-07
7.476042e-07 6.590294e-07 6.309372e-07 5.639997e-07 5.7954816e-07 4.606339e-07 6.836247e-07 6.312742e-07
5.925582e-07 6.991477e-07 6.626246e-07 5.9282496e-07 2.587328e-07 1.3386247e-07 1.897112e-07 2.7738665e-07
3.138617e-07 1.7256254e-07 5.6539176e-07 2.1546647e-07 2.207119e-07 5.9124267e-07 5.9425207e-07 7.4064866e-07
7.4273623e-07 5.9568754e-07 8.518017e-07 7.745233e-07 5.828905e-07 6.922311e-07 5.76264e-07 3.9906186e-07
5.9463804e-07 6.680976e-07 3.6837568e-07 4.963596e-07 6.872488e-07 3.3722895e-07 5.051439e-07 8.003505e-07
8.4604466e-07 1.0209719e-06 1.0039141e-06 9.855356e-07 1.2967284e-06 7.196605e-07 6.1297004e-07 6.4361865e-07
5.471393e-07 6.4007725e-07 5.635206e-07 6.629841e-07 7.2282546e-07 7.9188095e-07 4.892602e-07 5.393392e-07
5.536214e-07 1.7240558e-06 1.6408715e-06 2.620475e-06 2.5507343e-06 2.4578806e-06 2.1440244e-06 3.1805907e-06
1.5433016e-06 1.7368179e-06 1.7068618e-09 1.7086276e-09 6.527693e-09 1.7661625e-09 1.885321e-09 8.509721e-10
4.802305e-10 7.481974e-10 2.3074056e-09 1.0325349e-07 8.063755e-08 7.7288234e-08 8.668987e-08 4.8302304e-08
5.0179562e-08 8.3688825e-08 4.376353e-08 4.5025836e-08 6.115168e-08 7.496886e-08 1.1760789e-07 6.9152875e-08
5.204633e-08 8.9746855e-08 8.983044e-08 8.661637e-08 9.4045014e-08 2.6487653e-08 3.1754002e-08 4.991744e-08
1.9343515e-08 2.1106649e-08 3.4280134e-08 3.0613034e-08 2.9863866e-08 3.757259e-08 8.669164e-09 1.1856926e-08
9.847684e-09 1.1149077e-08 1.852038e-08 1.1238312e-08 1.0919069e-08 8.71332e-09 1.672927e-08 5.6765778e-08
7.647567e-08 1.2424428e-07 3.7679705e-08 5.0186035e-08 9.5538425e-08 5.15464e-08 5.89676e-08 7.796095e-08
2.2012847e-08 2.4790625e-08 2.9939844e-08 2.0454378e-08 2.6788902e-08 3.4417422e-08 2.3441638e-08 2.4351571e-08
2.7912618e-08 1.0493474e-07 1.5210175e-07 1.6893163e-07 6.459426e-08 1.076042e-07 1.6405028e-07 7.4260534e-08
9.149081e-08 1.3638392e-07 3.5949757e-08 3.647819e-08 6.5447246e-08 2.8180152e-08 2.4859775e-08 4.890584e-08
2.8789803e-08 2.5905436e-08 3.4325108e-08 2.0418499e-07 1.6796902e-07 2.6960342e-07 1.6232853e-07 1.6185174e-07
2.3419744e-07 1.9636721e-07 1.5963373e-07 2.5462376e-07 3.3168003e-08 3.1954112e-08 4.6630806e-08 6.214139e-08
1.875943e-08 1.5067467e-08 5.1447024e-08 3.8781472e-08 1.9900934e-08 2.4818212e-07 3.8009475e-07 5.414513e-07
1.767303e-07 2.8614662e-07 2.891051e-07 1.7606322e-07 2.1417846e-07 1.999339e-07 6.401366e-08 6.3357305e-08
1.9192693e-07 9.101454e-08 8.535479e-08 1.8195371e-07 8.1802376e-08 7.8482664e-08 9.786272e-08 4.893426e-08
9.6919486e-08 1.4255755e-07 3.616611e-08 1.767186e-08 6.488753e-08 7.2096e-08 4.0131756e-08 5.6947584e-08
7.211349e-08 8.996889e-08 9.321606e-08 8.55967e-08 1.0656688e-07 8.7860705e-08 1.0411573e-07 8.644354e-08
5.527897e-08 9.556682e-08 1.3437355e-07 2.700241e-07 5.3121067e-08 6.610297e-08 1.1232246e-07 9.745398e-08
3.700924e-08 7.44049e-08 1.6323108e-07 9.637091e-08 2.174607e-07 2.2528052e-07 1.0163113e-07 1.5769592e-07
2.4398457e-07 1.1310002e-07 1.4730503e-07 2.3884695e-07 6.113255e-07 8.7187385e-07 1.4599229e-07 2.9103765e-07
5.169666e-07 1.328949e-07 2.3723952e-07 3.5972315e-07 3.3163587e-08 6.884894e-08 1.7388872e-07 2.5677641e-08
00000000: ac25 ad33 4ef0 9c33 828c 8233 c9cd c433
00000010: ebe4 7033 cedb 2133 e410 c533 7ee4 8733
00000020: c348 6833 5807 a934 dc05 db34 7fca 3935
00000030: 17d0 8f34 e1b8 8834 d11e b934 6983 4934
00000040: 5fe1 b234 74e5 9934 a034 3535 30f9 4535
00000050: f30f 4d35 82c9 5335 d553 5735 fa47 6135
00000060: f8ae 4835 28e8 3035 ad5d 2935 c465 1735
00000070: 3f92 1b35 0b4d f734 5582 3735 d574 2935
00000080: 4a10 1f35 10ad 3b35 37df 3135 9f22 1f35
00000090: f7e7 8a34 d6bb 0f34 6bb3 4b34 bbeb 9434
000000a0: d380 a834 a149 3934 6dc5 1735 f95a 6734
000000b0: d3fc 6c34 e3b5 1e35 b184 1f35 fdd0 4635
000000c0: 7260 4735 56e7 1f35 5ea7 6435 d6e8 4f35
000000d0: ee77 1c35 c2d1 3935 8fb0 1a35 a53e d634
000000e0: 379f 1f35 5157 3335 2bc5 c534 923d 0535
000000f0: 617b 3835 650c b534 3999 0735 abd7 5635
00000100: bf1b 6335 5408 8935 3abe 8635 bf46 8435
00000110: 400b ae35 b12e 4135 fb8a 2435 23c5 2c35
00000120: 20df 1235 c6d1 2b35 d744 1735 ecf7 3135
00000130: 3008 4235 a591 5435 b455 0335 1cc7 1035
00000140: 939c 1435 1b66 e735 ea3b dc35 6bdb 2f36
00000150: 482d 2b36 11f2 2436 0fe2 0f36 2272 5536
00000160: 7023 cf35 9c1c e935 dc96 ea30 fdd4 ea30
00000170: 324a e031 52bd f230 eb8e 0131 d7e9 6930
00000180: 3801 0430 b6a9 4d30 4f90 1e31 35bc dd33
00000190: f62a ad33 a8f9 a533 432a ba33 f274 4f33
000001a0: 0385 5733 6bb8 b333 83f6 3b33 6e62 4133
000001b0: 7e52 8333 91fe a033 9f8f fc33 3281 9433
000001c0: 8c89 5f33 dbba c033 cfe8 c033 da01 ba33
000001d0: cbf5 c933 f786 e332 e561 0833 ce64 5633
000001e0: d728 a632 034e b532 683b 1333 637b 0333
000001f0: ab43 0033 805f 2133 63ef 1432 50b3 4b32
00000200: 922e 2932 298a 3f32 bf16 9f32 9e12 4132
00000210: 9396 3b32 96b1 1532 0eb4 8f32 a2ce 7333
00000220: f23a a433 0268 0534 46d5 2133 218c 5733
00000230: ce2a cd33 de63 5d33 9043 7d33 7c6b a733
00000240: c316 bd32 29f3 d432 3597 0033 a7b3 af32
00000250: 6b1d e632 5bd2 1333 b55c c932 ac2d d132
00000260: 7fc4 ef32 7c58 e133 6951 2334 9363 3534
00000270: 12b7 8a33 0914 e733 cc25 3034 2979 9f33
00000280: 9b79 c433 ed70 1234 2d67 1a33 32ac 1c33
00000290: 018c 8c33 cf10 f232 398b d532 8a0c 5233
000002a0: 724d f732 a886 de32 db6c 1333 f13d 5b34
000002b0: f95a 3434 03be 9034 874c 2e34 78c9 2d34
000002c0: b477 7b34 02d9 5234 c967 2b34 39b3 8834
000002d0: 9b74 0e33 eb3d 0933 1d47 4833 9772 8533
000002e0: 6c24 a132 b66d 8132 9af6 5c33 ae90 2633
000002f0: 9ef2 aa32 e43d 8534 d30f cc34 4058 1135
00000300: 41c3 3d34 b19f 9934 4d36 9b34 e40b 3d34
00000310: edf8 6534 69ad 5634 e277 8933 0c0f 8833
00000320: 7914 4e34 c673 c333 4b4c b733 0e5f 4334
00000330: 55ab af33 4d8a a833 9928 d233 ca2b 5233
00000340: 0d22 d033 ec11 1934 0f55 1b33 d5cc 9732
00000350: 4c58 8b33 32d3 9a33 555d 2c33 8896 7433
00000360: cfdc 9a33 ec34 c133 122e c833 49d1 b733
00000370: c3d9 e433 efad bc33 3a96 df33 d7a2 b933
00000380: df6b 6d33 6a3a cd33 5248 1034 d4f7 9034
00000390: 3b27 6433 7ef4 8d33 ed35 f133 e447 d133
000003a0: 17f4 1e33 87c8 9f33 9e44 2f34 78f4 ce33
000003b0: 247f 6934 a3e4 7134 4e40 da33 2053 2934
000003c0: fcfc 8234 65e1 f233 e62a 1e34 e03a 8034
000003d0: f819 2435 b70a 6a35 0ec2 1c34 e93f 9c34
000003e0: adc5 0a35 dfb1 0e34 e7bb 7e34 f91f c134
000003f0: c06f 0e33 1bda 9333 2bb6 3a34 bb91 dc32

exp_avg f4 [10, 10, 3, 3]
-1.2196566e-07 -1.9598192e-09 -1.8815758e-09 9.0425914e-08 -1.3094778e-07 -9.817405e-08 -5.193236e-07 -2.0679927e-07
-6.4837295e-08 -9.859496e-05 0.00016418165 -0.00027197244 -3.707324e-05 0.00034188663 -2.419945e-05 8.773558e-05
0.00023739296 -1.7200903e-06 5.515399e-05 5.698469e-05 -3.8204485e-05 6.546253e-05 0.00017149805 5.132561e-05
0.00014498358 4.4460143e-05 -5.2416777e-05 -6.99969e-05 5.0118193e-05 6.031514e-06 9.025855e-06 2.8508507e-06
-4.952963e-05 2.4945039e-05 3.23781e-06 8.431095e-06 4.6439847e-05 3.2035954e-05 -1.5287424e-05 3.347648e-05
0.00011206316 -4.795622e-05 0.00019175255 7.642766e-05 -2.4799845e-05 9.30039e-05 -1.7112476e-05 6.0581344e-05
7.86792e-05 -7.941827e-06 -3.8825583e-05 0.00021591561 -3.6717724e-06 0.00014693914 0.0001310445 8.851956e-05
-4.530259e-05 2.241232e-05 -2.2907736e-05 7.853951e-05 5.0900802e-05 -7.262401e-05 6.774155e-05 3.603254e-05
9.654123e-05 -7.6019416e-05 5.3314998e-05 2.979731e-06 -1.24178205e-05 5.8909267e-05 4.1097526e-05 7.127761e-05
-1.0045481e-05 -1.2168392e-05 -1.885124e-05 -5.4134292e-05 -1.6052045e-05 -3.866834e-05 -8.23592e-06 -2.3769879e-05
3.0741015e-07 0.00013031592 0.00018003283 1.0782837e-06 -3.9159393e-05 -8.287495e-05 -9.046605e-05 8.467551e-05
-0.00026993424 0.00022419856 -2.245659e-11 -5.481378e-12 -7.4619505e-10 6.8273182e-12 9.6266595e-14 5.3826907e-15
7.987259e-15 3.4135637e-15 -2.3032564e-11 -1.9044288e-05 -8.3840016e-05 3.871366e-05 -1.9639801e-05 -3.432544e-05
-1.8962695e-05 -6.1950144e-05 -5.2132527e-05 3.0959138e-05 3.2519878e-05 -1.0096097e-05 9.707138e-06 -8.159303e-06
-5.20732e-05 -8.146822e-05 -0.00011378804 -8.143449e-05 -4.6784688e-05 7.598772e-06 2.7172993e-05 -4.3141135e-06
-9.036587e-06 -3.3079968e-06 -2.2817711e-07 -3.4469092e-05 -6.382096e-06 -9.798004e-06 1.6586164e-05 -2.592462e-06
1.633788e-05 -2.5409208e-05 -5.796182e-05 2.4162533e-05 -5.7472917e-05 -1.23038435e-05 7.338816e-06 6.336811e-06
-4.6111138e-05 2.0172238e-05 1.7056664e-05 3.4909033e-05 5.1143084e-05 -6.0421164e-05 1.5883981e-05 2.3232607e-05
-0.000112546324 -2.2783126e-05 4.2401985e-06 -5.320083e-05 -3.2101667e-05 -9.284695e-06 -4.226288e-05 -4.9640374e-05
-1.4606885e-06 -1.7697286e-05 -6.911526e-05 3.2975982e-05 4.6675075e-05 5.1121573e-05 2.3935376e-05 8.492836e-05
0.000104746956 2.417744e-05 -4.7342687e-06 1.8538934e-05 1.7704593e-05 -4.178018e-06 -9.232791e-06 1.4975611e-06
-6.2271574e-06 -1.6629094e-05 -1.1755573e-05 -8.247723e-05 -4.3832373e-05 0.00019101487 -0.00024641192 -3.9378643e-05
5.8294227e-05 -0.00019387023 -0.00017853845 -0.000102735634 -8.663911e-09 -3.2202074e-08 -7.39243e-08 3.7788332e-08
1.6226823e-08 1.4284792e-09 5.006322e-09 -1.4801861e-08 5.246779e-09 2.6546517e-05 -1.4192007e-05 0.00014232358
0.00014858313 -0.00016685353 3.800112e-05 2.4269335e-05 -2.9805293e-05 -6.5770226e-05 2.897727e-05 9.340193e-05
7.755284e-06 3.6077003e-05 1.4420924e-05 -1.36804e-05 4.808158e-05 4.2464955e-05 -0.00012747415 3.2460888e-05
4.240416e-06 2.457963e-05 3.9373048e-05 1.45467775e-05 3.85029e-06 3.8496823e-05 -5.248846e-05 1.2316921e-05
-3.1712327e-05 9.044115e-06 -8.527746e-06 4.1550273e-05 -7.2446037e-06 -8.4534695e-05 -5.7841185e-05 1.9743446e-05
2.411992e-06 -1.320139e-05 1.2907718e-05 -4.557784e-06 5.8566617e-05 -7.6538545e-06 3.7613154e-05 -4.682938e-05
-2.8852182e-06 -9.052613e-05 -1.8137549e-05 6.4154076e-05 3.6734136e-06 -2.6501142e-05 6.48009e-05 -5.0689882e-06
-5.4538334e-05 4.8749076e-05 -2.6690905e-05 -0.00024653765 7.0684226e-05 0.00013600386 -4.3148622e-05 7.451722e-05
6.429964e-05 3.7037564e-05 -8.851e-05 2.3087492e-05 1.2322941e-05 4.229232e-05 1.7565995e-05 1.4907665e-06
00000000: aaf5 02b4 81ad 06b1 084d 01b1 2c30 c233
00000010: a79a 0cb4 c1d3 d2b3 a567 0bb5 8d0c 5eb4
00000020: ae3c 8bb3 c4c4 ceb8 2d28 2c39 8697 8eb9
00000030: 177f 1bb8 3f3f b339 ecff cab7 aefe b738
00000040: b0ec 7839 dadd e6b5 2555 6738 d802 6f38
00000050: c13d 20b8 ee48 8938 28d4 3339 7446 5738
00000060: bc06 1839 b77a 3a38 16da 5bb8 4dcb 92b8
00000070: 0036 5238 5062 ca36 c16d 1737 3e51 3f36
00000080: 09be 4fb8 1041 d137 2749 5936 4773 0d37
00000090: 68c8 4238 585e 0638 7e3d 80b7 1969 0c38
000000a0: 7303 eb38 9924 49b8 2f11 4939 ca47 a038
000000b0: 4309 d0b7 170b c338 c38c 8fb7 b918 7e38
000000c0: 9300 a538 e33d 05b7 a7d8 22b8 6867 6239
000000d0: 9268 76b6 ad13 1a39 fd68 0939 94a3 b938
000000e0: 4903 3eb8 1702 bc37 fd29 c0b7 94b5 a438
000000f0: 527e 5538 b84d 98b8 7810 8e38 a521 1738
00000100: 2e76 ca38 9d6c 9fb8 8b9e 5f38 64f7 4736
00000110: 2256 50b7 5815 7738 2260 2c38 e07a 9538
00000120: 0389 28b7 d826 4cb7 bb22 9eb7 410e 63b8
00000130: 81a7 86b7 d02f 22b8 022d 0ab7 6d65 c7b7
00000140: 210a a534 6aa5 0839 32c7 3c39 8cb9 9035
00000150: 143f 24b8 26cd adb8 97b8 bdb8 d193 b138
00000160: f685 8db9 d816 6b39 bf87 c5ad dddb c0ac
00000170: cf1c 4db0 0437 f02c eac5 d829 8fee c127
00000180: bbe2 0f28 23f9 7527 b998 caad 4cc1 9fb7
00000190: 44d3 afb8 7a60 2238 27c0 a4b7 a9f8 0fb8
000001a0: 1412 9fb7 3beb 81b8 e0a8 5ab8 1fda 0138
000001b0: f465 0838 6862 29b7 d7db 2237 f1e3 08b7
000001c0: 2c69 5ab8 ebd9 aab8 7da1 eeb8 cfc7 aab8
000001d0: ad3a 44b8 f4f8 fe36 8ff1 e337 f4c1 90b6
000001e0: d89b 17b7 f4fe 5db6 d900 75b4 e892 10b8
000001f0: ca25 d6b6 1b62 24b7 8422 8b37 28fa 2db6
00000200: 550d 8937 dc25 d5b7 081c 73b8 a5b0 ca37
00000210: 130f 71b8 9b6c 4eb7 f33f f636 cba0 d436
00000220: 7567 41b8 8d37 a937 e814 8f37 4a6b 1238
00000230: 7882 5638 bb6c 7db8 973e 8537 a5e3 c237
00000240: d906 ecb8 641e bfb7 0747 8e36 f523 5fb8
00000250: e7a4 06b8 76c5 1bb7 6c43 31b8 f234 50b8
00000260: e00c c4b5 a274 94b7 f9f1 90b8 b14f 0a38
00000270: fbc4 4338 5f6b 5638 d4c8 c837 911b b238
00000280: 98ab db38 a8d0 ca37 0fdb 9eb6 0f84 9b37
00000290: 5384 9437 e730 8cb6 89e6 1ab7 cfff c835
000002a0: e0f2 d0b6 b57e 8bb7 cd39 45b7 a0f7 acb8
000002b0: a7d8 37b8 2a4b 4839 d930 81b9 7f2a 25b8
000002c0: f380 7438 a549 4bb9 0d36 3bb9 c673 d7b8
000002d0: 49d8 14b2 8e4e 0ab3 50c0 9eb3 b64c 2233
000002e0: 2963 8b32 2554 c430 1304 ac31 464b 7eb2
000002f0: 2847 b431 36b0 de37 351a 6eb7 b23c 1539
00000300: fbcc 1b39 67f5 2eb9 6463 1f38 0096 cb37
00000310: 6106 fab7 1fee 89b8 3714 f337 c8e0 c338
00000320: b11c 0237 6351 1738 66f1 7137 df84 65b7
00000330: 34ab 4938 661c 3238 95aa 05b9 9d26 0838
00000340: e548 8e36 5a30 ce37 7d24 2538 ef0d 7437
00000350: bd31 8136 a677 2138 0e27 5cb8 c6a4 4e37
00000360: da02 05b8 2ebc 1737 6412 0fb7 4446 2e38
00000370: ac16 f3b6 3848 b1b8 809a 72b8 ba9e a537
00000380: b5dd 2136 8a7b 5db7 3a8e 5837 11ef 98b6
00000390: 6da5 7538 0e69 00b7 d1c2 1d38 aa6a 44b8
000003a0: ac9f 41b6 d9d8 bdb8 1726 98b7 758a 8638
000003b0: c484 7636 c54e deb7 b8e5 8738 4716 aab6
000003c0: 17c0 64b8 ec77 4c38 48e6 dfb7 b941 81b9
000003d0: 4e3c 9438 429c 0e39 7bfa 34b8 2146 9c38
000003e0: 9bd8 8638 c858 1b38 729e b9b8 03ac c137
000003f0: a1be 4e37 0863 3138 b05a 9337 5916 c835

exp_avg_sq f4 [10, 10, 3, 3]
5.290471e-06 4.3447862e-06 5.3738117e-06 3.4561915e-06 3.7863315e-06 5.801506e-06 4.205787e-06 4.22181e-06
3.7466652e-06 2.393454e-06 1.8660015e-06 1.2802362e-06 3.099943e-06 1.932942e-06 1.4546044e-06 3.4382351e-06
2.7835897e-06 1.8826613e-06 3.2864518e-06 2.5870092e-06 1.8607457e-06 3.446104e-06 2.3799396e-06 1.6596157e-06
2.8555387e-06 2.745218e-06 1.5640092e-06 4.540062e-06 3.0265094e-06 2.2178722e-06 6.7995734e-06 3.7966474e-06
2.307385e-06 7.2369985e-06 5.48834e-06 2.352329e-06 1.7597245e-06 1.9112426e-06 2.681666e-06 2.0366058e-06
1.7923296e-06 2.117936e-06 2.9899636e-06 1.774186e-06 1.8896831e-06 5.6024255e-06 4.5016677e-06 4.239196e-06
8.279835e-06 4.7500953e-06 5.0136186e-06 7.339482e-06 1.0039457e-05 3.9761107e-06 1.2910875e-05 7.869249e-06
1.173969e-05 7.0816086e-06 3.1389472e-06 8.206342e-06 1.04640985e-05 5.7335315e-06 8.169195e-06 3.5887088e-06
2.9585287e-06 5.34145e-06 4.57597e-06 3.1419156e-06 3.5505166e-06 4.7541066e-06 3.0010453e-06 4.085477e-06
4.0543555e-06 3.2386736e-06 2.1700948e-06 6.3397524e-06 4.20159e-06 2.8944787e-06 4.7074404e-06 4.7974804e-06
2.884174e-06 1.9711404e-06 1.947163e-06 1.816779e-06 2.9146127e-06 1.2684209e-06 1.9552176e-06 2.603923e-06
4.8402203e-06 2.42533e-06 8.152559e-06 7.142224e-06 1.0732856e-05 5.444717e-06 4.721286e-06 6.5382733e-06
9.575793e-06 9.835445e-06 9.270229e-06 5.8527753e-06 8.730525e-06 1.3789746e-05 7.751724e-06 6.2663253e-06
8.131489e-06 4.1242915e-06 3.0832305e-06 4.6330833e-06 3.23927e-06 5.0847175e-06 8.288986e-06 2.621044e-06
3.1221862e-06 3.2058342e-06 2.6284608e-06 2.9830285e-06 3.635617e-06 8.5503425e-06 1.4411757e-05 1.9394165e-05
7.488435e-06 5.937107e-06 8.457137e-06 5.1771367e-06 4.0178275e-06 5.6463236e-06 6.450942e-06 7.1311074e-06
7.6245824e-06 8.864401e-06 8.128419e-06 7.533138e-06 8.954978e-06 8.990754e-06 1.1062451e-05 1.2105081e-05
1.4089521e-05 1.9961473e-05 6.6482826e-06 8.504639e-06 1.0220129e-05 5.2485593e-06 5.6807357e-06 7.107382e-06
1.3047163e-05 1.5489684e-05 2.1612237e-05 1.2760236e-05 1.5832624e-05 1.8712937e-05 1.7483435e-05 2.1091866e-05
2.3266526e-05 9.556257e-06 1.25493025e-05 1.553336e-05 9.710346e-06 1.6316537e-05 2.0036383e-05 7.830371e-06
1.25616725e-05 1.6324768e-05 9.0308195e-06 1.095427e-05 1.5750007e-05 7.197081e-06 8.49639e-06 1.1283692e-05
5.8517085e-06 7.759282e-06 9.730314e-06 3.0691879e-06 2.184391e-06 3.297369e-06 3.6034692e-06 6.256235e-06
5.3022786e-06 3.345239e-06 4.161111e-06 5.6015583e-06 3.7211106e-05 1.7494825e-05 1.6295948e-05 3.2581494e-05
1.4852509e-05 1.2780413e-05 4.0274797e-05 1.565052e-05 1.0894045e-05 2.7339177e-06 4.0026107e-06 5.5294868e-06
4.0645195e-06 4.1597314e-06 4.8826623e-06 4.175161e-06 5.180397e-06 5.0840013e-06 2.843043e-06 2.659832e-06
3.5283085e-06 2.220718e-06 3.4415789e-06 3.6367067e-06 2.8348097e-06 4.0881987e-06 4.4986928e-06 5.6117456e-06
6.0748653e-06 5.509624e-06 4.848945e-06 6.975789e-06 6.6002362e-06 5.2064815e-06 8.382351e-06 8.535717e-06
1.5057365e-05 8.736193e-06 1.3285862e-05 1.3342246e-05 8.210176e-06 1.0755238e-05 1.7038612e-05 7.9398305e-06
1.1272304e-05 8.812126e-06 1.1470795e-05 1.1147187e-05 8.5145e-06 1.4304087e-05 1.2454525e-05 9.2847995e-06
1.4640869e-05 1.3517952e-05 3.2662098e-05 1.588137e-05 2.574313e-05 2.9298762e-05 1.8003386e-05 2.2028791e-05
3.492134e-05 1.696221e-05 1.7894014e-05 1.4988718e-05 1.7003737e-05 1.3130775e-05 1.34580205e-05 1.3596986e-05
1.3735012e-05 1.2674785e-05 1.1773884e-05 1.0220956e-05 5.3312756e-06 5.619148e-06 6.386016e-06 4.845355e-06
00000000: cd84 b136 6ec9 9136 b150 b436 ebf0 6736
00000010: ae18 7e36 8faa c236 6f1f 8d36 12a9 8d36
00000020: 386f 7b36 3a9f 2036 5373 fa35 95d4 ab35
00000030: 9d08 5036 b1b7 0136 d43b c335 6ebc 6636
00000040: b5cd 3a36 c0af fc35 d08c 5c36 7b9c 2d36
00000050: bcbe f935 9e43 6736 0db7 1f36 f6bf de35
00000060: c8a1 3f36 7c3a 3836 f2ea d135 d656 9836
00000070: 091b 4b36 c1d6 1436 e427 e436 e8c9 7e36
00000080: 93d8 1a36 58d5 f236 7b28 b836 b4dc 1d36
00000090: ac2f ec35 e642 0036 acf6 3336 9fac 0836
000000a0: fa8f f035 dd21 0e36 2fa7 4836 9120 ee35
000000b0: 04a1 fd35 78fc bb36 080d 9736 6b3e 8e36
000000c0: 9fe9 0a37 0263 9f36 a83a a836 ac45 f636
000000d0: 246f 2837 886a 8536 c99b 5837 2b06 0437
000000e0: 96f5 4437 8e9e ed36 b4a6 5236 f8ad 0937
000000f0: f68e 2f37 a962 c036 6d0e 0937 8cd5 7036
00000100: 238b 4636 b53a b336 488b 9936 b3d9 5236
00000110: 6945 6e36 7785 9f36 9165 4936 fb15 8936
00000120: a60a 8836 fd57 5936 f2a1 1136 0fba d436
00000130: 62fb 8c36 c43e 4236 9bf4 9d36 0bfa a036
00000140: bb8d 4136 ef47 0436 01ac 0236 0dd8 f335
00000150: aa98 4336 9c3e aa35 6236 0336 0ebf 2e36
00000160: 2d69 a236 dac2 2236 f9c6 0837 3da7 ef36
00000170: 4411 3437 c3b1 b636 8a6b 9e36 5763 db36
00000180: b8a7 2037 ea02 2537 5587 1b37 f562 c436
00000190: 5279 1237 825a 6737 670d 0237 5343 d236
000001a0: 7b6c 0837 6563 8a36 7fe9 4e36 e275 9b36
000001b0: 3c62 5936 649d aa36 ec10 0b37 31e5 2f36
000001c0: c086 5136 d023 5736 9d64 3036 0a30 4836
000001d0: 6dfb 7336 7173 0f37 06ca 7137 a7b0 a237
000001e0: 2b45 fb36 5c37 c736 20e3 0d37 44b7 ad36
000001f0: e0d0 8636 8d75 bd36 2b75 d836 bf47 ef36
00000200: aad6 ff36 50b8 1437 4b5f 0837 2ac5 fc36
00000210: 563d 1637 ffd6 1637 de98 3937 ed16 4b37
00000220: 0862 6c37 f072 a737 5014 df36 25af 0e37
00000230: 1f77 2b37 c81c b036 269d be36 f27b ee36
00000240: 23e5 5a37 d8ef 8137 ed4b b537 cc14 5637
00000250: 4dd0 8437 baf9 9c37 64a9 9237 70ee b037
00000260: 7c2c c337 d053 2037 d88a 5237 a34d 8237
00000270: 9ee9 2237 7fdf 8837 ce13 a837 305f 0337
00000280: f9bf 5237 2cf1 8837 1383 1737 3bc8 3737
00000290: e21e 8437 747e f136 b88b 0e37 174f 3d37
000002a0: cb59 c436 dd2d 0237 613f 2337 3ff8 4d36
000002b0: 8d97 1236 5e48 5d36 21d3 7136 a6ec d136
000002c0: 3aea b136 c57e 6036 ac9f 8b36 05f5 bb36
000002d0: 1f13 1c38 dac1 9237 48b3 8837 1da8 0838
000002e0: 0a2f 7937 756b 5637 bcec 2838 3c49 8337
000002f0: 91c5 3637 5978 3736 2a4e 8636 ee89 b936
00000300: f561 8836 d293 8b36 c0d5 a336 5c18 8c36
00000310: 45d3 ad36 3d97 aa36 1bcb 3e36 917f 3236
00000320: e1c7 6c36 a507 1536 e0f5 6636 250e 7436
00000330: a93d 3e36 5c2d 8936 7af3 9636 874c bc36
00000340: b2d6 cb36 4fdf b836 1fb4 a236 9211 ea36
00000350: 9977 dd36 56b3 ae36 eca1 0c37 a034 0f37
00000360: e49e 7c37 aa91 1237 58e6 5e37 83d8 5f37
00000370: 70be 0937 6571 3437 24ee 8e37 5035 0537
00000380: 2d1e 3d37 cbd7 1337 b072 4037 ce04 3b37
00000390: 80d9 0e37 96fb 6f37 c7f3 5037 e9c5 1b37
000003a0: 0ea2 7537 29cb 6237 a9fe 0838 fb38 8537
000003b0: f3f2 d737 9dc6 f537 fa05 9737 78ca b837
000003c0: 8178 1238 124a 8e37 1a1b 9637 0e78 7b37
000003d0: 3fa3 8e37 404c 5c37 c2c9 6137 9c1e 6437
000003e0: 6d6f 6637 c9a5 5437 7288 4537 ac7a 2b37
000003f0: 4fe3 b236 1d8c bc36 7647 d636 4895 a236

exp_avg f4 [10, 10, 3, 3]
-0.00026395736 -0.00039100175 -0.00035297996 5.3615777e-06 -3.9899245e-05 -0.00028794073 -0.00016348851 -0.0006396507
-0.00039368033 0.0003226823 0.00029219713 -0.0002925977 -0.00039925685 -0.00010069966 0.00014958536 0.00012368546
7.932619e-06 1.0046912e-05 -0.00088041957 -0.00029229003 1.9035628e-05 0.000115639225 -2.3966124e-05 -0.00023932941
-0.00012472837 -0.0003829421 -8.7361244e-05 -0.00029474942 8.3289626e-05 -5.0219805e-06 -1.8313725e-05 -0.00012165764
-2.7867516e-05 0.00038566408 -0.00014297939 -0.00042533368 0.00021921526 -0.0002559665 -4.121377e-05 0.00018819282
-0.00013298079 -5.3965017e-05 5.303713e-05 5.8690555e-05 -0.00014889496 -0.0007760968 0.0009311441 0.00017103396
0.00041350917 -0.0007625246 0.00072452513 0.00015482106 0.00063439074 -1.5944424e-05 -0.001026776 -0.00048476984
-0.0005147084 -0.00078032864 -0.0004412617 -0.0006686549 -0.0015155697 -0.0010432916 -0.00048416975 -0.00010652485
0.00032861557 0.0011231989 7.278302e-05 -6.02067e-05 0.00037391437 4.0144336e-05 2.3258272e-05 -0.00012609988
-0.00042056065 -0.00016605413 5.7835297e-07 0.0003584396 9.308757e-05 -0.00082213554 -0.00057347317 0.00057942816
-0.00035752365 0.00042883956 0.00088598335 -0.00033034282 -0.00019209496 -0.0006225735 0.0007653357 4.2115356e-05
-0.00017283765 -0.00059796486 0.0007984419 0.00073647004 0.0006924612 0.0009249873 0.0009930133 0.000417646
-0.00028601437 -0.00022960965 -0.00016173437 -0.00011547352 -0.0004883387 -0.00020790186 -0.000166552 -6.004404e-05
0.00014339917 0.00015528408 0.00029413775 0.00018801432 -0.00045680365 -0.00029570275 -0.00032439615 -0.00012438156
-6.606497e-05 -0.00018383237 0.00012337026 -2.0669291e-05 0.0002662691 -0.00047008446 -3.083005e-05 3.2273165e-05
-0.00022820219 0.00013163085 4.742971e-05 4.8351612e-05 0.00023807942 0.0004349831 0.0008325205 0.0014024229
0.0010096249 -0.00036858808 -0.00025215413 -0.00034403548 -0.00054040743 -0.00058095367 -0.000294961 3.3805514e-05
-0.00032397182 -0.00040232032 -3.9744962e-05 -2.5278061e-05 4.032377e-05 0.00022934412 0.00068739714 0.0007859507
-0.0007570469 -0.0009690217 -0.0007728897 -0.0005996334 -0.0008503564 -0.0009170912 -0.00015567178 -0.0005772726
-0.00027183225 -6.0607224e-05 0.00042900434 0.0004542186 -9.86998e-05 0.00010225704 1.9928997e-05 4.0780255e-06
7.5796175e-05 1.522343e-06 -0.00022585338 -0.00055680063 -0.00012581692 -0.00020905648 -0.00019090502 4.1720265e-05
0.0002779424 0.00019691835 0.000543041 -0.00037460873 -0.00045786495 -2.092738e-06 -7.7145276e-05 6.272086e-05
-3.105923e-05 -1.6923641e-05 0.00024220759 9.7029406e-05 0.0005154625 0.002094327 0.0011708527 -0.0003723482
0.0015881772 0.0009120738 -0.0012423865 0.00046773537 -0.000117745025 -0.00054405245 -0.0006063244 -0.000543678
-0.0009911505 -0.00020412916 -0.0001956653 -0.0010694992 5.799062e-05 7.005655e-05 -0.00014328993 -0.00012411334
0.00014217308 -0.00027275694 0.00041016634 0.00015657174 6.484363e-05 0.0005802246 0.00032793588 -0.0008346264
-0.0005074615 -0.00013516952 -0.0005695173 -0.0005712122 0.000118352655 -0.00048406946 -0.00035516024 0.0002692898
-0.00089331577 0.00019041012 0.00074080983 -0.0013597418 -0.0018793945 -9.214366e-05 -0.0008288661 -0.00079873134
-0.0003603267 -0.0013312523 -0.0013343311 -0.0003314209 -0.0014898239 -5.820297e-05 -0.0009963154 0.0001290558
-0.0011676374 -0.00015098031 -0.00032435238 -0.00015872685 0.0005443511 -0.00034378513 6.632841e-05 0.00058778236
0.00016396405 0.0013364776 0.0012234058 -0.0008044965 0.00011406426 0.0007309218 -6.257162e-05 -0.0006564958
0.00036760568 9.979541e-05 -0.00029811056 0.00081472524 -0.0005163097 -5.984778e-05 -0.00032724123 0.00016487732
00000000: c263 8ab9 5eff ccb9 2b10 b9b9 9ae7 b336
00000010: 7d59 27b8 c0f6 96b9 1d6e 2bb9 3bae 27ba
00000020: e166 ceb9 af2d a939 0932 9939 cc67 99b9
00000030: 5953 d1b9 b82e d3b8 04da 1c39 90b1 0139
00000040: 5716 0537 298f 2837 f5cb 66ba 813e 99b9
00000050: b3ae 9f37 5683 f238 dc0a c9b7 80f4 7ab9
00000060: 84c9 02b9 9ec5 c8b9 b635 b7b8 9988 9ab9
00000070: c7ab ae38 7c82 a8b6 6da0 99b7 7322 ffb8
00000080: 09c5 e9b7 f532 ca39 bdec 15b9 52ff deb9
00000090: 26dd 6539 3e33 86b9 f3dc 2cb8 a055 4539
000000a0: c270 0bb9 7f58 62b8 2f74 5e38 812a 7638
000000b0: b020 1cb9 f972 4bba 0618 743a 9457 3339
000000c0: 43cc d839 29e4 47ba 0fee 3d3a 7657 2239
000000d0: 3e4d 263a 64c0 85b7 e394 86ba b528 feb9
000000e0: 7fed 06ba f88e 4cba 2559 e7b9 ac48 2fba
000000f0: 15a6 c6ba 0fbf 88ba 2ad8 fdb9 1866 dfb8
00000100: 094a ac39 4d38 933a 16a3 9838 7486 7cb8
00000110: f009 c439 a760 2838 c21a c337 ae39 04b9
00000120: b27e dcb9 d11e 2eb9 1d40 1b35 f3ec bb39
00000130: 0238 c338 9584 57ba 2255 16ba c4e4 173a
00000140: 0372 bbb9 dfd5 e039 5641 683a dd31 adb9
00000150: 196d 49b9 3334 23ba cfa0 483a 05a5 3038
00000160: c13b 35b9 bec0 1cba 874e 513a ab0f 413a
00000170: 4986 353a d97a 723a ff27 823a 7ff7 da39
00000180: 33f4 95b9 5fc3 70b9 3d97 29b9 602a f2b8
00000190: db03 00ba 3b00 5ab9 76a4 2eb9 ccd7 7bb8
000001a0: 6c5d 1639 c1d3 2239 8036 9a39 b625 4539
000001b0: 267f efb9 8d08 9bb9 b713 aab9 6c6c 02b9
000001c0: 5c8c 8ab8 20c3 40b9 f45c 0139 f762 adb7
000001d0: 099a 8b39 ab75 f6b9 844f 01b8 0c5d 0738
000001e0: 8f49 6fb9 6306 0a39 43ef 4638 26cd 4a38
000001f0: f5a4 7939 720e e439 813d 5a3a 81d1 b73a
00000200: 6455 843a 0e3f c1b9 8e33 84b9 a95f b4b9
00000210: 21aa 0dba 244b 18ba ffa4 9ab9 65ca 0d38
00000220: c3da a9b9 85ee d2b9 d4b3 26b8 390c d4b7
00000230: 5121 2938 187c 7039 7132 343a 4208 4e3a
00000240: 8f74 46ba f205 7eba c09b 4aba b730 1dba
00000250: 74ea 5eba f368 70ba d33b 23b9 1c54 17ba
00000260: b584 8eb9 8334 7eb8 fdeb e039 3024 ee39
00000270: 0dfd ceb8 d572 d638 322d a737 f9d5 8836
00000280: c3f4 9e38 4f53 cc35 0ed3 6cb9 42f6 11ba
00000290: b9ed 03b9 2c36 5bb9 ad2d 48b9 cbfc 2e38
000002a0: ccb8 9139 de7b 4e39 dd5a 0e3a 2267 c4b9
000002b0: 980d f0b9 f770 0cb6 0ec9 a1b8 0189 8338
000002c0: 9845 02b8 3ef7 8db7 1bf9 7d39 447c cb38
000002d0: 1a20 073a fa40 093b 4c77 993a bb37 c3b9
000002e0: 622a d03a 3d18 6f3a 93d7 a2ba 613a f539
000002f0: e1ed f6b8 be9e 0eba bef1 1eba 9d85 0eba
00000300: 7ee9 81ba 810b 56b9 812b 4db9 702e 8cba
00000310: f43a 7338 53eb 9238 1940 16b9 6c24 02b9
00000320: 4c14 1539 d100 8fb9 980b d739 682d 2439
00000330: a9fc 8738 371a 183a cfee ab39 d4ca 5aba
00000340: 2a07 05ba 4bbc 0db9 a94b 15ba 67bd 15ba
00000350: 1934 f838 b4ca fdb9 cd34 bab9 772f 8d39
00000360: 682d 6aba d4a8 4739 e832 423a 5d39 b2ba
00000370: 0456 f6ba 403d c1b8 4348 59ba f461 51ba
00000380: 3bea bcb9 6a7d aeba b9e4 aeba 8fc2 adb9
00000390: 3246 c3ba f71e 74b8 cc96 82ba 2753 0739
000003a0: 690b 99ba 7850 1eb9 d70d aab9 ea6f 26b9
000003b0: c9b2 0e3a 0f3e b4b9 cb19 8b38 6815 1a3a
000003c0: c4ed 2b39 bf2c af3a b05a a03a d9e4 52ba
000003d0: c935 ef38 559b 3f3a e238 83b8 b018 2cba
000003e0: 33bb c039 4149 d138 b94b 9cb9 4993 553a
000003f0: f558 07ba 1105 7bb8 9391 abb9 ebe2 2c39

exp_avg_sq f4 [10]
1.8855997e-05 3.4496197e-06 2.8367883e-06 1.867755e-05 4.6839164e-06 1.177663e-05 7.74447e-06 8.089921e-06
4.932509e-06 4.6806827e-06
00000000: f22c 9e37 0480 6736 a75f 3e36 bcad 9c37
00000010: 892a 9d36 3e94 4537 3fee 0137 f2b9 0737
00000020: ee81 a536 c20e 9d36

exp_avg f4 [10]
-0.0004519675 5.5139528e-05 -0.0001896637 -0.00018277206 -0.0002451586 0.00055451534 -0.0006693108 -1.5662192e-05
0.0002825251 -0.00021370772
00000000: 0df6 ecb9 9e45 6738 76e0 46b9 80a6 3fb9
00000010: a188 80b9 e55c 113a b074 2fba 4d62 83b7
00000020: e11f 9439 bb16 60b9

exp_avg_sq f4 [10, 10, 3, 3]
7.5446145e-08 2.701657e-08 3.417645e-08 7.266554e-08 2.703882e-08 4.4531717e-08 4.619436e-08 3.1805797e-08
3.6837587e-08 5.1916555e-08 6.0753926e-08 8.583906e-08 5.1837663e-08 4.8394924e-08 6.61801e-08 5.508334e-08
5.997656e-08 5.8490734e-08 4.537854e-08 5.0629694e-08 6.5986335e-08 6.0966656e-08 7.38305e-08 8.9470866e-08
5.709258e-08 5.3888563e-08 9.522506e-08 7.9631924e-08 2.7108731e-08 7.683577e-08 9.6289625e-08 2.2990356e-08
5.2402694e-08 5.0868817e-08 1.1505244e-08 3.519441e-08 5.133178e-08 6.461318e-08 6.8762425e-08 6.5264715e-08
4.607673e-08 6.3967505e-08 7.787179e-08 9.6574105e-08 8.680356e-08 1.5903075e-07 1.472826e-07 3.5116142e-07
2.9931977e-07 7.5692256e-08 2.2850182e-07 3.6966858e-07 1.266629e-07 3.0022102e-07 1.8806799e-07 1.6058927e-07
1.7816636e-07 2.2934938e-07 1.14686365e-07 1.3143041e-07 3.1544562e-07 1.3715118e-07 1.04043615e-07 4.312544e-08
5.908592e-08 9.3092005e-08 4.566461e-08 5.971692e-08 9.411136e-08 3.169886e-08 3.7444774e-08 6.9520226e-08
8.130643e-08 5.522645e-08 1.3773206e-07 7.598232e-08 2.9170147e-08 7.866542e-08 9.524696e-08 3.3497617e-08
6.834048e-08 4.3208743e-08 4.137027e-08 2.797514e-08 3.042673e-08 3.2015002e-08 2.9301201e-08 3.774175e-08
3.6671317e-08 2.8495837e-08 2.3544455e-08 3.0527623e-08 5.335655e-08 4.695444e-08 2.4010085e-08 3.439591e-08
1.8781499e-08 1.5433713e-08 2.588199e-08 3.648482e-08 6.437086e-08 1.1434096e-07 3.357965e-08 4.3722967e-08
7.304758e-08 4.235173e-08 3.2498075e-08 4.5095074e-08 1.7044798e-08 2.2777597e-08 4.901173e-08 2.2257648e-08
1.6730135e-08 4.3196483e-08 2.8766067e-08 2.4484441e-08 3.409502e-08 2.2653326e-08 1.932987e-08 2.2555104e-08
2.3554371e-08 1.5167013e-08 1.3887789e-08 2.0731106e-08 2.1017293e-08 8.413162e-09 1.4827837e-08 4.0750795e-08
2.3733751e-08 1.9665425e-08 4.64365e-08 1.943798e-08 1.4708627e-08 3.9879435e-08 1.6874253e-08 2.220461e-08
1.3658743e-08 3.188325e-08 4.9870785e-08 1.5080582e-08 1.598816e-08 7.165623e-08 2.8217634e-08 2.324653e-08
3.404197e-08 3.9237545e-08 2.9561619e-08 4.7729014e-08 2.0529985e-08 1.8674605e-08 6.958956e-08 2.2242597e-08
1.2368022e-08 2.3083718e-08 1.8847077e-08 3.3246277e-08 1.9884512e-08 1.5946625e-08 2.8442182e-08 9.471864e-09
1.9313813e-08 2.5066218e-08 1.5001502e-08 7.510487e-09 2.248787e-08 2.211988e-08 1.3062481e-08 8.021163e-09
2.0694896e-08 1.7013914e-08 8.067258e-09 2.5949259e-08 3.1253165e-08 5.6405092e-08 2.4765084e-08 2.8082306e-08
4.5705217e-08 2.1193905e-08 2.696655e-08 3.1445854e-08 3.4172106e-07 3.12237e-07 4.2151513e-07 3.1439865e-07
2.0610763e-07 2.923326e-07 2.8495003e-07 2.571826e-07 2.9719436e-07 4.029216e-07 5.0267494e-07 9.816082e-07
4.0142487e-07 3.1266023e-07 4.3902276e-07 5.176445e-07 4.846787e-07 4.3006543e-07 4.7283768e-07 3.917706e-07
4.829511e-07 4.8024816e-07 4.130468e-07 4.3231069e-07 5.4404944e-07 5.6932487e-07 5.1030133e-07 1.2922274e-07
1.3997953e-07 1.4739501e-07 1.4377109e-07 1.0048994e-07 1.200339e-07 1.5118398e-07 1.03628224e-07 7.351677e-08
1.1665691e-07 1.321409e-07 1.2363267e-07 8.190189e-08 7.9425085e-08 1.3018555e-07 6.761433e-08 1.2493746e-07
1.8900782e-07 1.6285973e-07 1.3337728e-07 2.3667954e-07 2.9339344e-07 1.9876047e-07 2.416352e-07 4.5976498e-07
2.1021057e-07 1.8013661e-07 1.7607569e-07 1.9580986e-07 1.6849725e-07 2.1248877e-07 1.469547e-07 1.1584398e-07
3.298473e-07 1.8700553e-07 1.2623126e-07 1.1823195e-07 1.3312734e-07 1.71605e-07 1.3014076e-07 1.2555097e-07
1.6339315e-07 1.0540699e-07 9.718393e-08 1.4011022e-07 4.183548e-08 2.4765704e-08 6.65542e-08 8.857908e-08
00000000: f504 a233 1112 e832 67c9 1233 4e0c 9c33
00000010: fe42 e832 2443 3f33 3c67 4633 d89a 0833
00000020: 5b37 1e33 dbfa 5e33 d377 8233 8656 b833
00000030: 1da4 5e33 c8da 4f33 e51e 8e33 c694 6c33
00000040: 76cc 8033 3e37 7b33 3be6 4233 f073 5933
00000050: 5fb4 8d33 c6ec 8233 bf8c 9e33 2123 c033
00000060: f535 7533 1a73 6733 887e cc33 1d02 ab33
00000070: bbdc e832 e900 a533 c8c7 ce33 547c c532
00000080: 5f11 6133 db7a 5a33 99a8 4532 aa28 1733
00000090: e477 5c33 79c1 8a33 8baa 9333 a827 8c33
000000a0: e7e5 4533 825e 8933 783a a733 2d64 cf33
000000b0: c368 ba33 0ac2 2a34 bc24 1e34 4287 bc34
000000c0: 32b2 a034 428c a233 1a5a 7534 dd76 c634
000000d0: d500 0834 102e a134 bcef 4934 716e 2c34
000000e0: ff4d 3f34 1443 7634 7f49 f633 511f 0d34
000000f0: 845a a934 d443 1334 956e df33 ec38 3933
00000100: a8c5 7d33 dfe9 c733 c520 4433 b93d 8033
00000110: 441a ca33 4425 0833 f7d2 2033 264b 9533
00000120: af9a ae33 2032 6d33 80e3 1334 b92b a333
00000130: d591 fa32 c6ee a833 928a cc33 05df 0f33
00000140: 94c2 9233 8494 3933 18af 3133 fc4d f032
00000150: 8bae 0233 de80 0933 06b2 fb32 7e19 2233
00000160: 8a80 1d33 02c7 f432 ce3e ca32 7a1d 0333
00000170: 262a 6533 f4aa 4933 bc3e ce32 b4ba 1333
00000180: f454 a132 1893 8432 1953 de32 7cb3 1c33
00000190: 413c 8a33 9c8b f533 3739 1033 e9c9 3b33
000001a0: 55de 9c33 38e6 3533 0394 0b33 8fae 4133
000001b0: e869 9232 77a8 c332 f880 5233 1631 bf32
000001c0: f5b5 8f32 0987 3933 4019 f732 db51 d232
000001d0: df6f 1233 3197 c232 d50a a632 33bf c132
000001e0: 9c54 ca32 9d48 8232 2497 6e32 2f14 b232
000001f0: 8489 b432 7a89 1032 84bd 7e32 f905 2f33
00000200: 12df cb32 baec a832 7971 4733 92f8 a632
00000210: 3ab1 7c32 e747 2b33 e0f2 9032 74bc be32
00000220: c9a7 6a32 01f0 0833 8231 5633 8d8a 8132
00000230: 5656 8932 6ee1 9933 3c63 f232 a9af c732
00000240: 8b35 1233 2386 2833 b0ee fd32 9bfe 4c33
00000250: ea59 b032 e469 a032 4471 9533 fd0f bf32
00000260: 237b 5432 a249 c632 29e5 a132 abca 0e33
00000270: 81ce aa32 00fb 8832 0551 f432 b3b9 2232
00000280: 86e7 a532 3251 d732 a7dc 8032 7907 0132
00000290: 592b c132 2102 be32 6669 6032 73cd 0932
000002a0: 8fc4 b132 fe25 9232 2d98 0a32 06e7 de32
000002b0: 383b 0633 0e42 7233 ffba d432 a539 f132
000002c0: 6b4d 4433 e40d b632 12a4 e732 150f 0733
000002d0: c975 b734 87a1 a734 994c e234 9fca a834
000002e0: 6f4e 5d34 e3f1 9c34 3cfb 9834 e812 8a34
000002f0: 158e 9f34 1f51 d834 8fef 0635 cdbf 8335
00000300: 6a83 d734 b2db a734 d4b2 eb34 42f4 0a35
00000310: de1a 0235 bee3 e634 51da fd34 8b54 d234
00000320: 26a4 0135 67ea 0035 b8c0 dd34 5418 e834
00000330: cb0a 1235 b5d3 1835 a4fb 0835 7ac0 0a34
00000340: 484d 1634 a243 1e34 7f5f 1a34 eecc d733
00000350: abe2 0034 2355 2234 388a de33 46e0 9d33
00000360: d184 fa33 9de2 0d34 e4bf 0434 0ae2 af33
00000370: 6790 aa33 22c9 0b34 5f33 9133 8c26 0634
00000380: 13f2 4a34 8bde 2e34 7836 0f34 fa21 7e34
00000390: b083 9d34 dd6a 5534 17ba 8134 9ed5 f634
000003a0: 3eb6 6134 936b 4134 510f 3d34 ce3f 5234
000003b0: 2cec 3434 7828 6434 9aca 1d34 e7c5 f833
000003c0: de15 b134 b0cb 4834 2f8a 0734 b4e6 fd33
000003d0: c4f1 0e34 6c42 3834 d2bc 0b34 30cf 0634
000003e0: 2b71 2f34 1b5c e233 6eb3 d033 3471 1634
000003f0: 99ae 3333 5cbc d432 8fec 8e33 dd38 be33

exp_avg f4 [10, 10, 3, 3]
-3.337457e-06 6.754556e-06 1.0991651e-05 -1.0915685e-05 7.188981e-06 8.281319e-06 4.7063927e-06 1.7473178e-05
1.0558464e-05 5.6666016e-07 4.690917e-06 5.7785674e-06 -8.181067e-08 3.769969e-06 3.641717e-06 6.5863064e-06
5.3259078e-06 3.8957246e-06 2.9187433e-06 1.5712765e-05 2.554197e-05 5.9364197e-06 2.1834261e-05 2.3691751e-05
1.0327496e-05 2.4200566e-05 1.5062636e-05 -1.20627295e-08 9.596888e-07 7.1054764e-08 5.7067246e-07 2.0818509e-06
1.3057571e-06 4.3506873e-07 -9.545337e-07 -1.5560202e-07 -1.0878078e-06 -1.7587046e-06 -5.6578115e-06 1.42496465e-05
6.332766e-06 5.8690705e-07 8.965136e-07 4.667023e-06 6.303395e-06 -6.36621e-08 2.586781e-06 2.761521e-07
2.2221238e-06 3.4845668e-06 4.227816e-06 4.592784e-06 2.6026673e-06 3.118708e-06 -1.5770017e-06 -1.5890888e-06
-2.4539552e-06 -7.959984e-07 1.4322416e-07 -1.0383868e-06 -2.336172e-06 -9.0773983e-07 3.5886732e-08 6.757251e-08
-2.128351e-07 -9.255894e-08 8.053428e-08 -5.2383314e-07 3.154159e-08 4.1254857e-08 -5.748255e-08 1.3505436e-07
1.4861561e-07 -1.8573725e-07 -5.4891608e-08 2.9734593e-07 1.0410897e-08 6.319433e-08 1.14150495e-07 4.294921e-08
1.2544413e-07 -2.5865784e-06 -5.156292e-06 7.558445e-07 -4.3148557e-06 -3.1580032e-06 -4.1577023e-06 -4.1514836e-06
-4.018977e-06 -3.778806e-06 -1.9421037e-05 -3.9900606e-06 8.141162e-06 -9.2164055e-06 3.432474e-06 1.6493477e-05
-1.5581903e-05 -1.0529599e-05 -1.6979952e-06 2.0665254e-06 1.6097338e-05 -3.0729511e-06 -2.02163e-06 1.6535027e-05
4.293044e-06 -9.050868e-06 1.8814448e-05 4.0394725e-06 1.2909153e-06 -8.350527e-06 1.5743908e-05 -5.3630716e-05
-3.213858e-05 2.9543093e-05 -4.994111e-05 -3.430956e-05 1.9575029e-05 1.6153463e-06 2.192621e-06 3.2336197e-07
-1.8355922e-06 5.0737975e-07 1.970557e-06 7.8875775e-07 5.974792e-08 1.6625616e-07 1.0082237e-05 2.3610176e-06
1.2934727e-05 2.5454328e-06 -8.797829e-06 -8.594795e-06 7.0971046e-06 -7.35296e-05 -1.0618518e-05 -9.2439e-06
-7.936683e-06 1.564667e-05 -2.4677447e-05 2.0691614e-06 1.383774e-05 -1.9521358e-05 3.3440044e-06 2.6801208e-06
-4.888252e-07 1.1082844e-06 2.0628947e-06 -2.2377883e-07 -7.0176475e-07 2.7944577e-06 2.0034875e-06 8.2005687e-07
9.764796e-07 1.7569896e-08 -3.311957e-09 4.9931707e-08 -1.6741833e-09 -3.540509e-09 1.184358e-08 2.313644e-10
-8.27524e-09 8.716476e-09 -1.670617e-10 -3.1804597e-11 -8.336995e-09 5.5581224e-11 -1.4258065e-09 -1.3638095e-11
7.681854e-09 3.5543966e-09 6.668647e-11 1.14897975e-05 1.3180347e-05 1.959331e-05 1.0903123e-05 1.6341673e-05
2.327293e-05 8.188852e-06 1.4327403e-05 2.2627293e-05 -2.7067137e-05 1.5222572e-06 1.1099544e-05 1.5890453e-05
0.00014607327 4.5889803e-05 -3.1730888e-05 2.0413117e-05 -3.9289826e-05 5.997088e-05 5.8088306e-05 2.483389e-05
2.9568153e-05 3.5287514e-05 6.3551697e-06 -6.8811954e-05 3.935935e-05 -1.2579308e-05 2.1844582e-05 1.0857488e-05
7.5750024e-05 -0.00023065826 -4.0425013e-05 -4.284511e-07 -0.00011205278 -4.2204818e-05 1.8302115e-05 3.6255678e-06
-3.6928102e-06 -6.2336e-06 -8.9713444e-07 -2.626438e-06 4.5659117e-06 -6.6565085e-06 -3.5771918e-06 -2.6323968e-07
4.126303e-05 0.0001993717 9.0325826e-05 3.478386e-05 7.3034644e-05 -3.636215e-05 -1.4391889e-05 -0.000118660406
-5.6067227e-05 -9.990337e-05 -3.1333257e-05 -1.768833e-05 -7.2324554e-05 -4.7171434e-05 1.7471075e-06 -2.8785042e-05
2.4894802e-05 -1.731351e-05 -6.1446553e-06 -8.62873e-06 4.838094e-07 1.0494787e-05 1.3962523e-06 8.8686165e-06
1.1338894e-05 -5.227329e-07 -3.406449e-06 -1.6407448e-07 -2.8632914e-07 -9.236716e-08 8.641593e-07 -7.322918e-07
-3.424426e-07 5.301605e-07 -3.6605843e-07 -2.0548724e-08 -3.4340278e-08 -2.529132e-08 -2.4276738e-07 -2.1846243e-07
00000000: 13f9 5fb6 32a5 e236 c868 3837 8322 37b7
00000010: e038 f136 ffef 0a37 9beb 9d36 5d93 9237
00000020: 4224 3137 971c 1835 ac66 9d36 84e5 c136
00000030: e4af afb3 93ff 7c36 3964 7436 f1ff dc36
00000040: 33b5 b236 05b8 8236 a1df 4336 e8ce 8337
00000050: f742 d637 7531 c736 b828 b737 a6bd c637
00000060: 4244 2d37 5202 cb37 87b5 7c37 723c 4fb2
00000070: a8ce 8035 c596 9833 5030 1935 edb5 0b36
00000080: 7941 af35 6493 e934 871d 80b5 8f13 27b4
00000090: cb00 92b5 a10c ecb5 3bd8 bdb6 c411 6f37
000000a0: 0c7e d436 f28b 1d35 f2a7 7035 6c99 9c36
000000b0: c081 d336 9cb6 88b3 8f98 2d36 0e42 9434
000000c0: cc1f 1536 67d8 6936 aadc 8d36 b71b 9a36
000000d0: 7ca9 2e36 ff4a 5136 5ea9 d3b5 ad48 d5b5
000000e0: a1ae 24b6 98ac 55b5 28c9 1934 b35e 8bb5
000000f0: 21c7 1cb6 68ab 73b5 e121 1a33 611c 9133
00000100: ab87 64b4 d1c4 c6b3 30f2 ac33 8a9d 0cb5
00000110: 5878 0733 3230 3133 bbe2 76b3 7603 1134
00000120: 2693 1f34 116f 47b4 f6c1 6bb3 eaa2 9f34
00000130: 9cdb 3232 73b5 8733 e622 f533 2877 3833
00000140: d2b1 0634 1495 2db6 3604 adb6 3de5 4a35
00000150: 54c8 90b6 15ee 53b6 6482 8bb6 f94c 8bb6
00000160: c0da 86b6 6597 7db6 5cea a2b7 5ce2 85b6
00000170: 0696 0837 29a0 1ab7 7459 6636 795b 8a37
00000180: e2b5 82b7 49a8 30b7 ace6 e3b5 a3ae 0a36
00000190: c508 8737 e638 4eb6 57ab 07b6 b3b4 8a37
000001a0: f80c 9036 2fd9 17b7 b8d3 9d37 ce8a 8736
000001b0: 8343 ad35 3e19 0cb7 c911 8437 8bf1 60b8
000001c0: 8acc 06b8 4fd3 f737 dc77 51b8 9ce7 0fb8
000001d0: 0e35 a437 e0ce d835 f124 1336 889a ad34
000001e0: 785e f6b5 df32 0835 e93d 0436 05bb 5335
000001f0: c44e 8033 2584 3234 e126 2937 f971 1e36
00000200: 3b02 5937 34d2 2a36 639a 13b7 5d32 10b7
00000210: aa23 ee36 e733 9ab8 3026 32b7 4016 1bb7
00000220: cb27 05b7 f840 8337 6a02 cfb7 ecdb 0a36
00000230: a428 6837 ccc1 a3b7 8f69 6036 20dc 3336
00000240: d037 03b5 5dc0 9435 4370 0a36 db47 70b4
00000250: e860 3cb5 6b88 3b36 a773 0636 e121 5c35
00000260: 950f 8335 9cec 9632 9098 63b1 7e74 5633
00000270: 1719 e6b0 4b4d 73b1 9e78 4b32 4a63 7e2f
00000280: e42a 0eb2 78bf 1532 b0af 37af cbe0 0bae
00000290: 7e3a 0fb2 e572 742e 1bf6 c3b0 85ec 6fad
000002a0: 27f9 0332 9b41 7431 25a5 922e 4ec4 4037
000002b0: 2921 5d37 505c a437 8fec 3637 7a15 8937
000002c0: 3d3a c337 da62 0937 ba5f 7037 becf bd37
000002d0: 3c0e e3b7 5c50 cc35 2e38 3a37 7d4c 8537
000002e0: 3f2b 1939 cd79 4038 c816 05b8 d63c ab37
000002f0: 21cb 24b8 3e89 7b38 d8a3 7338 5f52 d037
00000300: 2009 f837 ae01 1438 7e3e d536 234f 90b8
00000310: c815 2538 b70b 53b7 e23e b737 8e28 3637
00000320: fcdb 9e38 dbdc 71b9 078e 29b8 df05 e6b4
00000330: e1fd eab8 1405 31b8 7e87 9937 c84e 7336
00000340: ffd1 77b6 372a d1b6 9cd2 70b5 dc41 30b6
00000350: e234 9936 f95a dfb6 b00f 70b6 6353 8db4
00000360: d711 2d38 6f0e 5139 4f6d bd38 e3e4 1138
00000370: 2d2a 9938 9083 18b8 b174 71b7 52d9 f8b8
00000380: ba29 6bb8 3783 d1b8 d46b 03b8 6661 94b7
00000390: f3ac 97b8 f1d9 45b8 287e ea35 6877 f1b7
000003a0: 2ed5 d037 7b3c 91b7 302e ceb6 1dc4 10b7
000003b0: 21df 0135 c412 3037 dd66 bb35 6bca 1437
000003c0: 2e3c 3e37 ee51 0cb5 599a 64b6 732c 30b4
000003d0: c7b8 99b4 625b c6b3 93f8 6735 b692 44b5
000003e0: f4d8 b7b4 5a50 0e35 b086 c4b4 1f83 b0b2
000003f0: 897d 13b3 3340 d9b2 b255 82b4 7f92 6ab4

exp_avg_sq f4 [10]
4.6308745e-05 2.7348822e-05 5.9533936e-06 2.3086322e-05 1.04910705e-05 1.1779681e-05 3.4234993e-06 6.2462714e-05
4.6220357e-06 3.018e-06
00000000: a33b 4238 266b e537 43c3 c736 80a9 c137
00000010: ce02 3037 58a1 4537 45bf 6536 6afe 8238
00000020: fc16 9b36 d888 4a36

exp_avg f4 [10]
0.00066465413 0.0001563994 0.0001229825 -0.0013047034 -0.00022529098 0.00029883516 -0.0005070087 0.00012474992
5.8457263e-05 0.0001429413
00000000: 2f3c 2e3a 25ff 2339 ddf4 0039 9502 abba
00000010: 163c 6cb9 faac 9c39 c7e8 04ba 4dcf 0239
00000020: 0230 7538 83e2 1539

exp_avg_sq f4 [10, 10, 3, 3]
1.9118656e-06 1.9953925e-06 4.0443124e-06 2.997673e-06 3.686543e-06 3.718307e-06 2.691008e-06 7.2396642e-06
3.0774481e-06 1.3884179e-06 1.7667115e-06 2.5734594e-06 1.6485086e-06 1.8564165e-06 2.656194e-06 1.3601883e-06
1.5485473e-06 2.2678953e-06 1.978756e-06 2.2585768e-06 1.8070785e-06 2.185794e-06 2.255693e-06 2.0265256e-06
1.8187935e-06 2.1971407e-06 2.1505975e-06 1.0092471e-06 1.4700131e-06 1.2328433e-06 9.254492e-07 1.7654139e-06
8.9754036e-07 8.880064e-07 1.532964e-06 6.349792e-07 2.0965533e-06 2.4576516e-06 1.8245026e-06 2.5583747e-06
2.3834282e-06 2.1953724e-06 1.7811341e-06 2.0723955e-06 2.2551412e-06 2.940473e-06 2.1715837e-06 3.6130305e-06
2.0820135e-06 3.333089e-06 3.6441158e-06 2.7176939e-06 2.3578175e-06 3.4489253e-06 2.8938966e-06 2.9399255e-06
2.7044e-06 3.2320768e-06 3.851072e-06 3.7657494e-06 2.9440596e-06 2.4788571e-06 2.8215547e-06 2.3251632e-06
1.7190355e-06 1.3093663e-06 1.4752027e-06 1.2762265e-06 1.1950436e-06 1.4090253e-06 1.6335871e-06 1.271535e-06
9.072583e-06 4.568793e-06 5.115582e-06 6.351811e-06 4.20576e-06 4.6868504e-06 8.991246e-06 5.412722e-06
6.4598953e-06 3.8126416e-06 4.3195682e-06 2.8540942e-06 3.921805e-06 5.680233e-06 4.236371e-06 2.526258e-06
2.69123e-06 2.3856721e-06 4.1311688e-07 6.237894e-07 7.422115e-07 4.4588108e-07 6.797588e-07 6.62342e-07
4.9838184e-07 5.3639775e-07 5.9035193e-07 3.1779655e-07 3.487806e-07 3.7180536e-07 2.9904908e-07 2.9009644e-07
2.6628362e-07 3.5405168e-07 2.9231626e-07 2.555925e-07 3.0044296e-07 3.25465e-07 3.6719254e-07 2.733498e-07
3.085018e-07 3.637846e-07 3.3911058e-07 3.162845e-07 3.4487405e-07 1.766608e-07 1.5996652e-07 2.3678658e-07
1.6083679e-07 1.9083618e-07 2.0965128e-07 1.8212009e-07 1.5517101e-07 1.7223574e-07 3.6550927e-07 3.096176e-07
3.0912696e-07 3.7942556e-07 3.9250745e-07 3.3797377e-07 5.896321e-07 4.4340936e-07 4.32988e-07 5.405137e-07
5.665424e-07 4.7462893e-07 4.714347e-07 4.4323863e-07 5.631629e-07 4.4774893e-07 3.4032365e-07 4.7081025e-07
4.136084e-07 4.6430463e-07 4.262052e-07 5.238029e-07 3.568272e-07 4.5833707e-07 4.580936e-07 3.3722574e-07
3.479587e-07 2.3155754e-07 2.8076786e-07 2.621409e-07 2.4797367e-07 2.4720546e-07 2.401914e-07 2.9183877e-07
2.7992692e-07 2.3353849e-07 3.2332514e-07 2.7980798e-07 3.0938526e-07 4.2668756e-07 3.5621125e-07 3.587668e-07
3.4370444e-07 3.153298e-07 3.0906034e-07 5.778035e-07 5.100284e-07 4.2293277e-07 8.274428e-07 6.0553043e-07
6.7302034e-07 6.483372e-07 6.526258e-07 5.384074e-07 8.297123e-07 9.016498e-07 1.1138181e-06 1.1075064e-06
1.3141993e-06 1.1991999e-06 1.033029e-06 1.8017959e-06 9.25904e-07 6.8579726e-07 1.159859e-06 1.4986826e-06
6.3054205e-07 1.2671213e-06 1.410367e-06 5.7437524e-07 9.0531773e-07 9.874474e-07 5.875328e-07 8.7299657e-07
9.5247333e-07 4.4514292e-07 7.3028787e-07 9.578594e-07 3.6192097e-07 5.9387816e-07 6.4926354e-07 9.294008e-07
1.292923e-06 5.916878e-07 8.871581e-07 1.3796304e-06 6.461265e-07 1.1886133e-06 1.252932e-06 5.186827e-07
8.1360474e-07 1.1394277e-06 1.2186124e-06 8.025068e-07 9.907109e-07 1.1339046e-06 6.712324e-07 8.7554866e-07
9.690327e-07 8.229694e-07 9.886618e-07 1.4103827e-06 6.5360206e-07 9.907625e-07 1.2187555e-06 9.498493e-07
7.37995e-07 1.2474036e-06 5.800635e-07 7.4146004e-07 1.2264302e-06 5.2619566e-07 7.253526e-07 1.1427646e-06
6.0143094e-07 6.3273876e-07 1.051974e-06 8.0270104e-07 8.1110636e-07 6.7744793e-07 6.76928e-07 6.65578e-07
5.7191113e-07 5.613626e-07 7.508112e-07 5.576489e-07 1.286607e-06 2.0806574e-06 2.7442222e-06 1.2675647e-06
00000000: 9a4d 0036 95e8 0536 61b4 8736 a12b 4936
00000010: 5466 7736 0788 7936 2a97 3436 3eec f236
00000020: 2886 4e36 ad59 ba35 bf1f ed35 b2b3 2c36
00000030: 5342 dd35 fc29 f935 1141 3236 b78f b635
00000040: aed7 cf35 2532 1836 c5ca 0436 0e92 1736
00000050: bf8a f235 a8af 1236 8360 1736 72ff 0736
00000060: 451d f435 9772 1336 fc52 1036 7775 8735
00000070: 444d c535 2c78 a535 636c 7835 29f3 ec35
00000080: 81ee 7035 565f 6e35 3ec0 cd35 7073 2a35
00000090: 83b2 0c36 22ee 2436 6fe1 f435 8bb0 2b36
000000a0: fcf2 1f36 3654 1336 4d0f ef35 7c13 0b36
000000b0: 0857 1736 f154 4536 86bb 1136 6477 7236
000000c0: b8b8 0b36 08ae 5f36 6f8d 7436 a061 3636
000000d0: ff3a 1e36 1674 6736 c434 4236 894b 4536
000000e0: 3d7d 3536 a8e6 5836 7538 8136 15b7 7c36
000000f0: 8f92 4536 715a 2636 f159 3d36 000a 1c36
00000100: 9cb9 e635 7cbd af35 94ff c535 cf4a ab35
00000110: 6365 a035 be1d bd35 a041 db35 9ca9 aa35
00000120: 7336 1837 a24d 9936 84a6 ab36 a421 d536
00000130: 341f 8d36 bd43 9d36 1cd9 1637 ee9e b536
00000140: 14c2 d836 afdc 7f36 cff0 9036 f788 3f36
00000150: 0c98 8336 d498 be36 2626 8e36 c888 2936
00000160: fb9a 3436 8919 2036 5aca dd34 7b72 2735
00000170: 633c 4735 6e61 ef34 ab78 3635 cccb 3135
00000180: 8ac8 0535 f9fc 0f35 ad78 1e35 a09d aa34
00000190: 0a40 bb34 8a9c c734 fe8c a034 8dbe 9b34
000001a0: bef5 8e34 7e14 be34 a4ef 9c34 5e38 8934
000001b0: 914c a134 92bb ae34 8f22 c534 e9c0 9234
000001c0: 2aa0 a534 2d4e c334 010f b634 d0cd a934
000001d0: 2127 b934 27b0 3d34 43c3 2b34 663f 7e34
000001e0: 7bb2 2c34 a6e8 4c34 811c 6134 ca8c 4334
000001f0: 159d 2634 cdef 3834 363b c434 8539 a634
00000200: 16f6 a534 dab3 cb34 d0b9 d234 c372 b534
00000210: 3647 1e35 b80d ee34 6b75 e834 d217 1135
00000220: 7f14 1835 81d0 fe34 7e19 fd34 41f6 ed34
00000230: 432c 1735 2562 f034 bab5 b634 abc3 fc34
00000240: e80d de34 8b45 f934 32d1 e434 769b 0c35
00000250: f591 bf34 5e11 f634 e8ef f534 f40b b534
00000260: 14cf ba34 0da2 7834 71bc 9634 5fbc 8c34
00000270: 3e21 8534 a9b7 8434 a8f3 8034 04ae 9c34
00000280: dd48 9634 92c2 7a34 7895 ad34 8438 9634
00000290: 9619 a634 7e13 e534 4d3d bf34 899c c034
000002a0: 6186 b834 994a a934 eeec a534 5b1a 1b35
000002b0: e3e8 0835 700f e334 701d 5e35 bc8b 2235
000002c0: 9ba9 3435 6509 2e35 1a30 2f35 1387 1035
000002d0: 65b9 5e35 e708 7235 807e 9535 a1a5 9435
000002e0: 8b63 b035 32f4 a035 9ba6 8a35 3cd5 f135
000002f0: a38b 7835 a117 3835 74ac 9b35 5826 c935
00000300: 8542 2935 f511 aa35 d74b bd35 c42e 1a35
00000310: f604 7335 6f88 8435 f2b6 1d35 de57 6a35
00000320: 78ad 7f35 fafb ee34 0009 4435 cc8f 8035
00000330: 0a4e c234 ff6a 1f35 0d49 2e35 f07b 7935
00000340: 7f88 ad35 7ad4 1e35 0a25 6e35 bd2b b935
00000350: 7a71 2d35 7188 9f35 6a2a a835 9b3b 0b35
00000360: 7e66 5a35 70ee 9835 348f a335 d96b 5735
00000370: 91f8 8435 aa30 9835 bd2e 3435 3f07 6b35
00000380: b60f 8235 07ea 5c35 29b2 8435 614c bd35
00000390: 3173 2f35 57fa 8435 1f94 a335 26f9 7e35
000003a0: a11a 4635 766c a735 a9b5 1b35 bf08 4735
000003b0: d29b a435 e43f 0d35 dab5 4235 1861 9935
000003c0: 0572 2135 7ad9 2935 8d31 8d35 3279 5735
000003d0: ceba 5935 ded9 3535 23b6 3535 2caa 3235
000003e0: 6f85 1935 8bb0 1635 5a8b 4935 57b1 1535
000003f0: 7baf ac35 6ca1 0b36 6129 3836 3121 aa35
