SuperGo-master/saved_models/1584177784/5-policy_net.pth.tar (torch_old, 963616 bytes, 203 tensors)

exp_avg_sq f4 [10, 10, 3, 3]
00000000: dd4b 1234 d2cb fa33 2ab2 2f34 8a25 3f34
00000010: 680e 9c33 8479 fd33 bccf 8d34 bfbd e133
00000020: 219c 0334 be96 d733 8342 8e34 b1ed 0334
00000030: 89f6 2d34 68a6 f534 14ed 5034 abfb 4634
00000040: deb4 7e34 a826 4634 c154 0d34 fdbf e633
00000050: fd51 d633 e60a 3134 2861 0c34 2f98 0734
00000060: 0527 4934 82cc 1b34 0e4c 1c34 d33e b533
00000070: 455e b433 a380 aa33 1f3a df33 ebac f533
00000080: ab6e e633 2f8a dc33 d942 0134 9721 0234
00000090: 2753 e632 c184 0333 0caf b832 c9cd bb32
000000a0: 160b 4d33 29fc 8332 ac0b a032 651c 0233
000000b0: c8d8 9432 e958 d333 3f12 8d33 d19f 6b33
000000c0: abe0 f933 fd5d b633 4c7f 9d33 78de 0f34
000000d0: 0395 e133 e7de c433 a868 8c32 24bb d431
000000e0: e9eb 8e32 3e85 f032 f452 1032 bbf8 9c32
000000f0: a5cf 2033 f825 1932 e39c b532 2654 dc33
00000100: a90f ad33 cf28 2034 81d9 0334 a815 3433
00000110: f702 dc33 b9d7 3f34 8ad4 8033 64c3 e633
00000120: 188e e633 e74b c433 a6a9 a633 67cc 0f34
00000130: 02b3 f633 9b2f bd33 b83e 2a34 96a5 1c34
00000140: 9098 f433 1995 9e33 8897 8e33 2062 5c33
00000150: 272f b333 c5ce d333 27b5 a733 f2c9 c233
00000160: 8531 eb33 c16e e633 6151 2733 ad13 5733
00000170: 9d40 b433 d804 2133 4840 3833 e993 8733
00000180: 0f79 4933 cf27 0c33 2146 6833 2d6f f033
00000190: 982f ed34 2fab 0234 d76f 2635 d3dd 0436
000001a0: 466c 0135 e0d6 f134 ea99 2c34 23da 1235
000001b0: f073 d233 5c6a 3c34 3c12 7534 f6ba 2934
000001c0: e757 5134 c01a dd34 4692 f533 1975 6534
000001d0: da38 1135 cf00 0133 727a 2233 d07c 2f33
000001e0: 15b2 b732 d6d5 1133 aee5 e632 0bce ba32
000001f0: 62bd be32 a0d8 bc32 2e3c 7c35 991a 1d36
00000200: d259 2035 c6b9 d135 1e72 7c36 89da 9435
00000210: 45d9 8c35 9cc8 2636 c046 3935 e2a5 1d35
00000220: f639 3334 a83c ba34 300b 1934 2bf6 b933
00000230: a245 8933 8792 4c35 30fd 7b34 548f e434
00000240: 7fbd c031 8142 2e32 a3f2 1c32 489c fd31
00000250: 760e ce32 e87f 9232 b833 2832 7e9c d632
00000260: 65f1 8a32 6a86 6b34 dde3 1a34 0780 2934
00000270: 9f21 6234 6bd9 d033 d5cb bb33 0a22 a034
00000280: 9007 4c34 3a5a 2d34 1a53 2a34 575f 1b34
00000290: 8a67 8634 8985 7034 6f8e 2134 548c 5934
000002a0: 5241 8234 37e0 0834 aab0 0d34 8e1f 3f33
000002b0: 635e 4333 9962 8733 34b6 3f33 eb1c 4133
000002c0: 12e6 6d33 6139 8833 e572 8333 0c87 5833
000002d0: e497 8a33 487b 0734 5bf4 3d34 dedd 6033
000002e0: 57b7 9233 e11c e233 c168 ae33 b4d9 8a33
000002f0: 56a3 a033 77b5 4934 2d69 2734 ed93 5b34
00000300: e66f 0034 426c dd33 f191 f033 9e28 1b34
00000310: 25db f333 e062 e833 8329 e234 b302 ec34
00000320: b679 f334 ffc0 8d34 70a2 a134 23fc c134
00000330: 2a6a 6534 6fdb 4134 5202 5d34 3ae3 cc32
00000340: de9b 3833 a0fe d433 99f4 fd32 7dd1 0c33
00000350: e07b 6333 1829 8533 4dee 4b33 03c0 1f33
00000360: a1bf d333 04d4 c433 9c77 e133 6b55 2534
00000370: 6ae1 f533 110e a433 35a1 1434 ba5d f133
00000380: 5c11 9933 2c26 6233 014f f732 34ba e833
00000390: ad95 9133 3ff4 2e33 a2e5 a033 fc6c be33
000003a0: 37ac 6533 1fee fc32 5f92 5731 0c83 d731
000003b0: 6178 c431 df7b 7e31 e232 1532 afdd 3f31
000003c0: 1ded 1832 9619 cf31 e4aa bc30 0c34 9933
000003d0: f8fd a733 45ff 0f34 dba6 b633 62e6 4833
000003e0: 5d22 b733 1ee3 3734 1bc5 0434 953b c733
000003f0: 6be1 7f34 189d 5c34 da1c 9f34 3873 2934
1.3624908e-07 1.1678607e-07 1.6362961e-07 1.7801918e-07 7.2669366e-08 1.1803334e-07 2.6414443e-07 1.05118936e-07
1.2257125e-07 1.00391375e-07 2.6497955e-07 1.2286797e-07 1.620157e-07 4.5755883e-07 1.9457758e-07 1.8531743e-07
2.3721392e-07 1.845425e-07 1.3162482e-07 1.0745132e-07 9.980065e-08 1.6488374e-07 1.3073861e-07 1.2628219e-07
1.8733779e-07 1.45099e-07 1.45563e-07 8.439897e-08 8.399051e-08 7.939641e-08 1.0394819e-07 1.1440155e-07
1.073034e-07 1.0269684e-07 1.203838e-07 1.2119413e-07 2.6813337e-08 3.0621553e-08 2.1500021e-08 2.1863245e-08
4.7740365e-08 1.5365076e-08 1.863176e-08 3.029381e-08 1.7328048e-08 9.841626e-08 6.569143e-08 5.4860553e-08
1.1635833e-07 8.492132e-08 7.3340374e-08 1.3398846e-07 1.0504484e-07 9.167507e-08 1.6345737e-08 6.1912875e-09
1.6638255e-08 2.8000269e-08 8.4007645e-09 1.82739e-08 3.7441755e-08 8.914405e-09 2.1142517e-08 1.0259855e-07
8.058789e-08 1.4916007e-07 1.2279453e-07 4.1929212e-08 1.02450876e-07 1.786674e-07 5.999125e-08 1.0745751e-07
1.0736056e-07 9.140768e-08 7.760836e-08 1.3392274e-07 1.1487829e-07 8.809658e-08 1.5855301e-07 1.4588872e-07
1.13898864e-07 7.384569e-08 6.639954e-08 5.1311986e-08 8.343914e-08 9.863064e-08 7.809495e-08 9.0705626e-08
1.0952048e-07 1.07303556e-07 3.895673e-08 5.0076483e-08 8.393656e-08 3.749014e-08 4.2899302e-08 6.313332e-08
4.690906e-08 3.2632496e-08 5.408049e-08 1.1196094e-07 4.417932e-07 1.216947e-07 6.200257e-07 1.9798651e-06
4.8213803e-07 4.504609e-07 1.6074742e-07 5.470667e-07 9.799976e-08 1.7547558e-07 2.2824037e-07 1.5807368e-07
1.949662e-07 4.118392e-07 1.14353085e-07 2.1369887e-07 5.409944e-07 3.003589e-08 3.7829928e-08 4.085888e-08
2.1384986e-08 3.3954926e-08 2.687997e-08 2.1746947e-08 2.2205032e-08 2.198459e-08 9.396489e-07 2.3410305e-06
5.973535e-07 1.5625781e-06 3.7617351e-06 1.1090461e-06 1.0494047e-06 2.4852698e-06 6.9020825e-07 5.872845e-07
1.669176e-07 3.4689333e-07 1.4253305e-07 8.6595115e-08 6.392226e-08 7.620915e-07 2.3468306e-07 4.2572594e-07
5.6094787e-09 1.0143254e-08 9.135564e-09 7.3810362e-09 2.3988132e-08 1.7054802e-08 9.7906465e-09 2.4984043e-08
1.6175088e-08 2.193498e-07 1.4425264e-07 1.5785928e-07 2.1060121e-07 9.725303e-08 8.744943e-08 2.982709e-07
1.9001732e-07 1.6144705e-07 1.5862716e-07 1.4470184e-07 2.503478e-07 2.2400322e-07 1.504611e-07 2.0260751e-07
2.4261914e-07 1.2747556e-07 1.3195918e-07 4.449935e-08 4.548782e-08 6.304362e-08 4.4636366e-08 4.4962615e-08
5.539011e-08 6.343431e-08 6.121062e-08 5.0414243e-08 6.4537545e-08 1.2617704e-07 1.7690893e-07 5.235585e-08
6.832004e-08 1.0529198e-07 8.121561e-08 6.465726e-08 7.480291e-08 1.87856e-07 1.559135e-07 2.044978e-07
1.1961637e-07 1.03108064e-07 1.12024175e-07 1.4450276e-07 1.13554314e-07 1.0821327e-07 4.2125984e-07 4.396039e-07
4.5350833e-07 2.640372e-07 3.0106776e-07 3.6132505e-07 2.1365909e-07 1.8054355e-07 2.0583073e-07 2.3852056e-08
4.29826e-08 9.918335e-08 2.9564307e-08 3.278682e-08 5.296522e-08 6.20077e-08 4.7481354e-08 3.7194706e-08
9.86031e-08 9.165527e-08 1.0499136e-07 1.5397897e-07 1.1449704e-07 7.639404e-08 1.3842221e-07 1.1239486e-07
7.127775e-08 5.2654443e-08 2.8790511e-08 1.0837212e-07 6.7793145e-08 4.0734673e-08 7.4923506e-08 8.8673886e-08
5.3474846e-08 2.9444946e-08 3.136982e-09 6.272222e-09 5.7180363e-09 3.7032277e-09 8.684511e-09 2.792017e-09
8.901478e-09 6.0274017e-09 1.372737e-09 7.134085e-08 7.82274e-08 1.341078e-07 8.505386e-08 4.677566e-08
8.527852e-08 1.7125828e-07 1.2365165e-07 9.2774975e-08 2.3830732e-07 2.0546247e-07 2.963705e-07 1.5781268e-07

exp_avg f4 [10, 10, 3, 3]
00000000: 4c97 7336 5ab8 8036 d885 de36 6d7e 3a37
00000010: 24cd 1e37 28dc 5337 61ee fb35 e296 2536
00000020: 78e9 0a37 2f92 0b39 01ef d7b3 3141 d938
00000030: 77c2 c738 58ac 0ab9 e4da 2bb9 5176 f438
00000040: 397c c8b8 d3cb db38 f2cd 8d38 2167 c2b6
00000050: 8ad5 1a38 e004 3439 eb79 2f36 8ef2 4536
00000060: ad43 9538 0bbe 4336 dadf a637 6348 99b3
00000070: c409 3eb4 544b 94b4 87d7 6db4 410c 72b4
00000080: cfbb 91b4 9eca 9933 376a b1b3 8f51 4e34
00000090: 0b6e 65b6 c992 90b7 ed32 e4b5 dafc 4936
000000a0: e285 e0b7 07e1 f9b4 f6b2 2eb6 a689 c6b7
000000b0: f8c8 cab5 4321 9338 ceb0 6138 7b21 6d38
000000c0: b7e2 e637 3179 6137 2c47 01b7 d288 ab37
000000d0: efc7 8eb6 1d67 0c37 7b1b 542f ac13 eb2b
000000e0: f902 27ae 47f2 51b0 e450 642d 3a9b 68b0
000000f0: 01f5 13b2 b23d 5b2d 6751 2430 379e f038
00000100: 67cc 3f38 af8f d138 4690 4539 7b0c ab38
00000110: d24f 0f39 8abb 0b39 a58c 3538 8982 0539
00000120: 26e4 9cb7 be6c 04b8 b629 38b8 9b8f 0bb7
00000130: 795e 8bb7 3223 dfb7 a5f1 20b6 12d9 30b7
00000140: 3c80 aab7 8f7e b536 3bb2 1c36 cbad 8f36
00000150: 8055 4838 f329 3738 a288 b737 b2ed 3037
00000160: a9bb 1637 8791 9237 2338 a1b6 1874 a9b6
00000170: 3de7 95b6 f1dd 2db7 e387 21b7 1651 18b7
00000180: 0bb4 b0b6 6c81 95b6 4ec6 fcb6 f046 48b8
00000190: 6ed7 2337 cdbc 56b8 5ba0 0cb8 e0f3 a738
000001a0: fd0c d138 e33c 8ab8 0c43 0538 e615 6fb8
000001b0: 036c 36b6 5e28 d837 d940 6b36 559b 88b8
000001c0: 3b0a 4637 0059 8636 a3ac 0b36 0933 6b37
000001d0: 1a93 77b7 9970 84b4 bff8 62b4 3f74 f8b3
000001e0: ae70 1ab4 62b1 33b4 c11f d9b3 f24a 1cb4
000001f0: ce39 e5b3 729d fab3 3100 5137 50b0 bc37
00000200: 6cdc 2d37 1a5c 5037 617e e537 e21c b237
00000210: 9395 9237 3996 0b38 d76b 8e37 c289 1bb8
00000220: a033 e2b7 90ea 01b8 af59 1eb7 03bc f735
00000230: f07d 0437 f898 87b7 d1b8 05b7 0e4c 44b7
00000240: f971 b1ab fb3a bd2d 5194 5fab ed44 ffab
00000250: 97e0 e4b0 4718 43b0 ef5c a22c 57d9 bc30
00000260: 08c2 15b0 be6d 80b8 c85b 0ab8 7ca9 56b8
00000270: 6475 ccb8 5878 3fb8 f2ba 81b8 4968 77b8
00000280: fea6 8fb7 d4d2 55b8 63ec 1b38 0e56 1a38
00000290: ceb0 0438 5536 3138 b446 2838 1ee5 0238
000002a0: 0696 e037 0b44 ad37 8bcf 8037 eca4 deb6
000002b0: b765 a6b6 c22d fab5 0e6c 0cb8 898c 05b8
000002c0: 1d00 92b7 5a71 53b7 fd2d 64b7 fffd 95b7
000002d0: 53c2 29b6 f8f0 f0b5 eda2 0fb5 dc3b b8b5
000002e0: 4536 1fb5 529f 8bb4 4293 4ab6 a52e 8ab5
000002f0: 9c1f f5b5 05d6 40b7 7d7c 23b7 6a3a 27b7
00000300: 0373 3337 8307 1937 61d4 2f37 34d2 07b7
00000310: 2e73 bdb7 dda7 81b7 5bec c537 e3fa d1b7
00000320: f9d1 c5b3 30cc 0c38 eddf 8ab7 136f 10b8
00000330: 5f39 9d38 797b b536 b9f2 a4b7 4efb 18b3
00000340: fff9 24b3 07ac deb4 f17d 4a33 9bd8 d833
00000350: 650e 6c32 2bb6 39b5 de5b c2b4 09f2 75b4
00000360: 53e8 4c37 23ba 1737 8ac8 ea36 39c7 c537
00000370: d050 2c37 a363 0a37 4182 8637 328f 3337
00000380: 70bf 4f37 7b3e 2736 8995 41b6 0f77 a4b4
00000390: 46d6 d036 4655 4536 3a0c 9236 a18d 6736
000003a0: a948 8eb4 a6b8 c335 53b3 26aa 02ee 732b
000003b0: 38b1 7aaa 024c e3aa c947 abac 3e12 18aa
000003c0: 3194 4bac b4a2 03ac 35de aba6 7453 12b7
000003d0: b0d8 d8b7 7cb0 49b7 bc8e 4bb7 8504 03b8
000003e0: bf4e d0b7 55f1 c2b6 7c7b 33b7 b1f9 84b7
000003f0: 2157 fdb6 86f0 1fb7 f2f4 74b7 686c 9337
3.6297888e-06 3.8361586e-06 6.631697e-06 1.11159e-05 9.465297e-06 1.2627839e-05 1.8770335e-06 2.4674741e-06
8.2798e-06 0.0001331053 -1.0055192e-07 0.00010359509 9.525281e-05 -0.00013224909 -0.00016389374 0.00011656865
-9.5598814e-05 0.00010480699 6.761764e-05 -5.7936563e-06 3.6915335e-05 0.00017167954 2.6147998e-06 2.9496473e-06
7.117479e-05 2.9167884e-06 1.9892981e-05 -7.137785e-08 -1.7698682e-07 -2.7621957e-07 -2.2150753e-07 -2.2542464e-07
-2.7145003e-07 7.1614735e-08 -8.261525e-08 1.9214916e-07 -3.4187713e-06 -1.723449e-05 -1.7002145e-06 3.0098513e-06
-2.6765225e-05 -4.6543593e-07 -2.603219e-06 -2.3667537e-05 -1.5108662e-06 7.015702e-05 5.3808842e-05 5.6536384e-05
2.7523709e-05 1.3439262e-05 -7.70557e-06 2.04485e-05 -4.255205e-06 8.368658e-06 1.9291051e-10 1.6703214e-12
-3.7974044e-11 -7.6378054e-10 1.2978261e-11 -8.46217e-10 -8.612234e-09 1.2462408e-11 5.977853e-10 0.000114735616
4.5728313e-05 9.99266e-05 0.0001884113 8.15624e-05 0.00013667278 0.00013325937 4.328475e-05 0.00012732497
-1.8702889e-05 -3.1572526e-05 -4.3907865e-05 -8.318481e-06 -1.6614084e-05 -2.660006e-05 -2.3982514e-06 -1.0540958e-05
-2.0325293e-05 5.4089537e-06 2.3349555e-06 4.2819643e-06 4.7763344e-05 4.366967e-05 2.1878925e-05 1.054576e-05
8.98439e-06 1.7472323e-05 -4.804709e-06 -5.0501076e-06 -4.4674657e-06 -1.0363278e-05 -9.627986e-06 -9.078785e-06
-5.2661685e-06 -4.4556127e-06 -7.533271e-06 -4.774978e-05 9.765716e-06 -5.119741e-05 -3.3527944e-05 8.008606e-05
9.968316e-05 -6.591694e-05 3.1772113e-05 -5.7002435e-05 -2.7182984e-06 2.5768004e-05 3.5055475e-06 -6.513918e-05
1.1804102e-05 4.003872e-06 2.0813102e-06 1.4018974e-05 -1.4756597e-05 -2.4668842e-07 -2.1138383e-07 -1.1569545e-07
-1.438336e-07 -1.6735206e-07 -1.0110626e-07 -1.4555897e-07 -1.0674158e-07 -1.1670171e-07 1.2457415e-05 2.2493448e-05
1.03629245e-05 1.241921e-05 2.7357777e-05 2.1232703e-05 1.7474207e-05 3.328009e-05 1.6977936e-05 -3.7083177e-05
-2.696534e-05 -3.097445e-05 -9.438415e-06 1.8457653e-06 7.897135e-06 -1.6164486e-05 -7.970449e-06 -1.1700218e-05
-1.260824e-12 2.1513005e-11 -7.9431345e-13 -1.813797e-12 -1.6653016e-09 -7.0975087e-10 4.6146346e-12 1.3740572e-09
-5.448162e-10 -6.123957e-05 -3.2987242e-05 -5.117942e-05 -9.749344e-05 -4.5650027e-05 -6.1860206e-05 -5.8986512e-05
-1.712469e-05 -5.0979506e-05 3.7175032e-05 3.6796606e-05 3.1635915e-05 4.225069e-05 4.012017e-05 3.1207797e-05
2.6772741e-05 2.0654892e-05 1.5355434e-05 -6.635315e-06 -4.9590267e-06 -1.8639769e-06 -3.3479235e-05 -3.1840555e-05
-1.7404609e-05 -1.2602972e-05 -1.36005665e-05 -1.788046e-05 -2.5296074e-06 -1.7951525e-06 -5.350874e-07 -1.372649e-06
-5.931109e-07 -2.6006688e-07 -3.018606e-06 -1.0295377e-06 -1.8263122e-06 -1.1493922e-05 -9.744542e-06 -9.967576e-06
1.069601e-05 9.12126e-06 1.0480261e-05 -8.095569e-06 -2.258419e-05 -1.5456166e-05 2.3594292e-05 -2.503157e-05
-9.211721e-08 3.3568766e-05 -1.6555156e-05 -3.443572e-05 7.4970296e-05 5.4085945e-06 -1.966335e-05 -3.5618818e-08
-3.8411596e-08 -4.147589e-07 4.7146333e-08 1.0097684e-07 1.3740281e-08 -6.918296e-07 -3.6202158e-07 -2.2905455e-07
1.221344e-05 9.04364e-06 6.9970893e-06 2.3577e-05 1.02708145e-05 8.2486395e-06 1.6034699e-05 1.0702572e-05
1.2382734e-05 2.4921308e-06 -2.8846282e-06 -3.0634007e-07 6.2238278e-06 2.9404923e-06 4.3525624e-06 3.4504121e-06
-2.6502428e-07 1.4582372e-06 -1.4805977e-13 8.6661245e-13 -2.2265946e-13 -4.037604e-13 -4.868082e-12 -1.3506641e-13
-2.8930298e-12 -1.8706538e-12 -1.1925738e-15 -8.721709e-06 -2.585011e-05 -1.2021625e-05 -1.2132976e-05 -3.1237043e-05
-2.4832201e-05 -5.8097453e-06 -1.0697982e-05 -1.5851898e-05 -7.5501307e-06 -9.53314e-06 -1.4600564e-05 1.7574246e-05

exp_avg_sq f4 [10, 10, 3, 3]
00000000: 14c9 ab35 a0bd 0436 e8be 2b36 6c8e ea35
00000010: dc12 ff35 8bd6 3236 63ae 2336 08d7 3136
00000020: e87c 4336 cbd5 6d35 905a 1f35 c942 1e35
00000030: 3e7c 1935 1d25 d734 aeaf e434 1598 c034
00000040: 48cf 9634 1869 d334 7fea 9c33 4f69 d133
00000050: 8803 ec33 5be8 d033 12f9 f033 fdcb dd33
00000060: 15fc 9633 0320 a033 6e92 a333 67ac 5e37
00000070: a965 5a37 e9f7 2d37 17ed 5537 8b42 4637
00000080: 29f4 1637 8c12 3137 684f 2837 6ae2 1337
00000090: 64aa b535 3071 0e36 c7ec 9335 5e36 8f36
000000a0: 16c2 dd35 36dd 5536 e3b4 d935 8399 1836
000000b0: 258a 8535 d4be f234 e872 2d35 bf26 4535
000000c0: ac60 0535 373f 3635 a4e0 4c35 f963 1e35
000000d0: dd81 4835 71fa 5f35 a745 b035 ba0a cd35
000000e0: 3193 b135 284b 8b35 31a2 8e35 aaa2 8f35
000000f0: 75ac 7335 cd44 6335 05dc 8b35 60d6 a135
00000100: ec9d ce35 0094 1e36 e178 c535 e7c8 0b36
00000110: 6ca8 2036 8a98 e135 a282 1236 884d 3536
00000120: 195d 2536 ecb3 4d36 8466 7c36 ce55 2636
00000130: 639e 6936 897e 8d36 b2a4 3036 3e1e 5f36
00000140: 67be 7436 dd76 3b34 3f6f 7934 3052 0134
00000150: c609 a934 64d5 2334 1ab6 b133 3e8f 8c34
00000160: 3120 e433 1de8 a633 88e4 7c33 7172 9433
00000170: c182 fb33 3b8b 3933 3e17 6133 c851 fd33
00000180: 44c8 8b33 2406 9d33 1eac 0634 ac78 0333
00000190: b608 0333 8b2b 1c33 233f f632 a488 c832
000001a0: b871 e432 74c0 ed32 1ca4 c332 1042 ae32
000001b0: 2e9b 9b32 2d96 b832 abd9 0433 a723 d332
000001c0: cef1 0932 e138 5f32 fd1b 9432 fd8e 2632
000001d0: 5b3e 1032 51fe cb34 517a d634 591d c834
000001e0: 4a76 d434 5f58 ae34 cbb6 0c35 6a2d a234
000001f0: 3991 f334 563b 9634 d9e5 c433 a721 c433
00000200: 9fcb f633 b20d 9d33 6e72 0c34 bd24 d533
00000210: c543 0134 5d26 cf33 f9ed 1234 b657 2633
00000220: 0a4b 3a33 7200 7a33 bc1f cf32 569b 0a33
00000230: d9e0 3733 25d5 0c33 8dc9 2233 f52a 4033
00000240: 5bcb 4333 1316 4233 ca6f 2d33 2027 1f33
00000250: d4bc 2b33 6669 fa32 467b 4b33 508b 4233
00000260: 1b9d 1d33 9759 4433 3766 8f33 b5fe aa33
00000270: 29f0 0b33 a43d 2933 8034 6133 993d 3b33
00000280: cde3 5d33 ece5 8333 cc9e 0f34 33d4 2934
00000290: de21 6d34 6ac9 c933 ff9f 1c34 96dd 8034
000002a0: bb0d 2634 5ffa 4734 386a 6334 b628 4132
000002b0: 6cd9 1432 c056 f431 691e 2f32 1d66 3932
000002c0: d4de 3c32 02fd cd31 2961 8b31 bf1f fa31
000002d0: 20db 0335 be8f 6535 12b6 a035 af62 a034
000002e0: 2404 f534 c7dd 3b35 bf92 1734 fcae 3234
000002f0: 297e 9134 eea5 8834 e5e5 6134 ece6 b634
00000300: 28b9 9b34 d465 2834 d373 6a34 8f36 6134
00000310: ccb4 f733 cc4e 3d34 0a71 9e32 8c6f 0133
00000320: 995d fd31 d316 e232 4b41 c232 db5a 1432
00000330: 18ee 9d32 e247 5832 8785 cc31 ae3b 8235
00000340: 0295 0436 c5f9 8935 863e 8035 9f6b a235
00000350: 9648 9035 44e6 9d35 22e5 7e35 b700 6d35
00000360: 2770 8634 8274 a834 e8e4 6934 a381 d134
00000370: 7dc9 8734 a84c b734 b18e b834 bb11 c834
00000380: 7bcb 9434 e4a6 b033 3d77 2e34 ee2a 9934
00000390: f284 4533 587a 6f33 92f0 0e34 0a3d 1f34
000003a0: d785 c033 558c ad33 0ad8 a634 dd0a b034
000003b0: bf2c b434 1c42 9d34 85b3 9534 3e65 9034
000003c0: 99e5 9f34 27f0 6c34 d49b 6334 fa69 9d34
000003d0: d498 0a35 cc9b 1835 f112 5434 c0ee ae34
000003e0: 1a24 a734 4241 8434 8f6a 8534 1758 6534
000003f0: ace5 5435 947a 9b35 13cc ce35 84e9 d034
1.2799014e-06 1.977991e-06 2.5592108e-06 1.7475809e-06 1.9004469e-06 2.6648947e-06 2.43904e-06 2.650022e-06
2.912997e-06 8.860049e-07 5.93639e-07 5.895677e-07 5.717774e-07 4.0073874e-07 4.2596133e-07 3.587344e-07
2.8090494e-07 3.9378278e-07 7.306971e-08 9.7514764e-08 1.0990249e-07 9.72802e-08 1.12211765e-07 1.032822e-07
7.030773e-08 7.4564035e-08 7.6169144e-08 1.3272372e-05 1.3017482e-05 1.0369325e-05 1.2750991e-05 1.1817213e-05
8.997545e-06 1.055434e-05 1.00320685e-05 8.814599e-06 1.3535141e-06 2.1225533e-06 1.1021265e-06 4.2680613e-06
1.652227e-06 3.1868235e-06 1.6220405e-06 2.273912e-06 9.949478e-07 4.5214858e-07 6.461473e-07 7.34446e-07
4.9687037e-07 6.7892273e-07 7.632282e-07 5.9005066e-07 7.469478e-07 8.3438414e-07 1.3133293e-06 1.5276812e-06
1.3230366e-06 1.037818e-06 1.0627028e-06 1.0701672e-06 9.077551e-07 8.466421e-07 1.0420341e-06 1.2057826e-06
1.5394157e-06 2.3629982e-06 1.4712824e-06 2.0829555e-06 2.3939892e-06 1.6808201e-06 2.1831734e-06 2.701623e-06
2.4641106e-06 3.0652109e-06 3.7610598e-06 2.4785872e-06 3.4811899e-06 4.216858e-06 2.632191e-06 3.3247193e-06
3.6469662e-06 1.7458974e-07 2.3230403e-07 1.2043961e-07 3.1485814e-07 1.5258189e-07 8.275329e-08 2.6181254e-07
1.0622933e-07 7.7721985e-08 5.888117e-08 6.912604e-08 1.1711882e-07 4.32003e-08 5.2408033e-08 1.17961065e-07
6.50912e-08 7.311999e-08 1.2542338e-07 3.0610565e-08 3.0508737e-08 3.6361183e-08 2.866688e-08 2.3345201e-08
2.6594407e-08 2.7677949e-08 2.2775616e-08 2.0286308e-08 1.8114942e-08 2.1488711e-08 3.0931613e-08 2.4579846e-08
8.02943e-09 1.2993241e-08 1.7242195e-08 9.6949835e-09 8.396081e-09 3.7996736e-07 3.9949603e-07 3.7274256e-07
3.9574144e-07 3.2474324e-07 5.2420063e-07 3.0207894e-07 4.536794e-07 2.798285e-07 9.16877e-08 9.1330826e-08
1.1492306e-07 7.3133734e-08 1.3080145e-07 9.925268e-08 1.2038716e-07 9.646167e-08 1.3683884e-07 3.872966e-08
4.3374747e-08 5.8208066e-08 2.4112403e-08 3.2271906e-08 4.2812506e-08 3.2790144e-08 3.7901874e-08 4.4742553e-08
4.5586926e-08 4.518922e-08 4.0381373e-08 3.7055656e-08 3.998578e-08 2.915176e-08 4.7376737e-08 4.529585e-08
3.6697298e-08 4.5716288e-08 6.677549e-08 7.962573e-08 3.2581884e-08 3.940444e-08 5.2434643e-08 4.3595353e-08
5.1662756e-08 6.1419854e-08 1.3375683e-07 1.5816549e-07 2.2084666e-07 9.396429e-08 1.4586838e-07 2.4003083e-07
1.546495e-07 1.8624404e-07 2.1179665e-07 1.1243335e-08 8.66417e-09 7.111197e-09 1.0193255e-08 1.0791635e-08
1.09937055e-08 5.995049e-09 4.0564783e-09 7.2795667e-09 4.912017e-07 8.551832e-07 1.1973918e-06 2.9874124e-07
4.563782e-07 6.9985657e-07 1.4116357e-07 1.6641201e-07 2.7100148e-07 2.5452704e-07 2.1038393e-07 3.406816e-07
2.900572e-07 1.5683264e-07 2.1835085e-07 2.0974606e-07 1.15347206e-07 1.7630663e-07 1.8445025e-08 3.0136604e-08
7.37391e-09 2.6320242e-08 2.2614264e-08 8.635392e-09 1.8385478e-08 1.2589199e-08 5.9523617e-09 9.703124e-07
1.9756267e-06 1.0279988e-06 9.55494e-07 1.2101262e-06 1.0749961e-06 1.1764428e-06 9.4955806e-07 8.829042e-07
2.5041047e-07 3.137721e-07 2.1783092e-07 3.9023607e-07 2.5292312e-07 3.414218e-07 3.4376492e-07 3.7265804e-07
2.77152e-07 8.225996e-08 1.6248391e-07 2.8529706e-07 4.598855e-08 5.5757795e-08 1.33123e-07 1.4830235e-07
8.965042e-08 8.0814665e-08 3.10771e-07 3.279046e-07 3.356017e-07 2.929163e-07 2.788403e-07 2.6895754e-07
2.9783112e-07 2.206658e-07 2.1197712e-07 2.9320637e-07 5.16314e-07 5.6851127e-07 1.975093e-07 3.258374e-07
3.113244e-07 2.4634397e-07 2.4850712e-07 2.1359334e-07 7.931037e-07 1.1584075e-06 1.540759e-06 3.8912924e-07

exp_avg f4 [10, 10, 3, 3]
00000000: e2e4 2eb8 e116 52b5 27ef e137 3be5 5ab8
00000010: 5636 f8b6 9e02 1d38 13f1 a0b8 5b13 dfb7
00000020: bb08 7cb7 f3b2 b1b9 157a 8a38 071b b137
00000030: a25f 06b9 5b7d c1b7 b223 34b9 2b5f 7bb8
00000040: 5d43 23b9 b8b0 64b9 facd 5e33 b102 bcb4
00000050: 3832 8ab4 6d46 1634 de11 ec34 fc48 a533
00000060: ecd3 9732 4399 3cb3 f80b 87b3 53a2 a0ba
00000070: c709 0fb9 9f68 a7ba 4dd5 dc38 beb6 d73a
00000080: 11ea ff39 9069 70ba 5766 8338 d641 dbba
00000090: 6f32 a8b9 bf7e 52b9 f257 42b9 3051 2fb9
000000a0: 8ef3 d6b8 b000 10b9 e691 b836 4933 67b9
000000b0: 8407 f1b8 7784 8bb6 ca50 1636 09b8 c537
000000c0: f219 8bb7 44af 40b7 bf13 3a36 56ac f9b6
000000d0: 7439 0136 d1d2 5a37 b6ab 89b9 61a2 6db9
000000e0: 93cb 99b8 e2fa 90b9 67cc 5eb9 9ef5 3db9
000000f0: d223 02b9 2de3 49b9 4ac0 8db9 b3f3 f7b5
00000100: 3062 d6b6 b297 6b37 fc1e 08b7 96cf b5b6
00000110: 0ada 3036 92a7 20b6 6d9c 85b6 e055 8236
00000120: 1d47 95b4 8015 d734 5390 3338 eb54 0bb7
00000130: e7ee 9f35 cd96 2537 7656 bfb6 c2bc a237
00000140: 0692 8737 a328 2cb8 f66c dbb8 4d78 7938
00000150: b9f4 06b8 8ca0 6eb7 efd9 2138 6515 dab7
00000160: 6a2b 5bb7 c459 0bb8 7ffe 5cb5 c953 a436
00000170: 3dd0 c436 abe2 46b4 e992 8135 9e4e 7f37
00000180: 1f73 cfb4 a8d3 5c36 a997 3b37 8a6b 86b8
00000190: 8bcc 21b7 8475 04b7 4006 ceb7 a5ad beb6
000001a0: 0ab8 9fb7 591f efb6 89b1 bbb7 5367 b2b7
000001b0: e8c1 e231 52d1 e031 ad6a 0b33 9626 d032
000001c0: 67f3 04b0 3236 6d2f 37f5 b231 19b8 96b0
000001d0: 04af 21b0 af18 b0b9 6d0f 8ab8 f03f 69b9
000001e0: 1376 48b8 3d33 3339 f64e 2238 a6d7 5bb9
000001f0: fb09 3638 c05a bdb9 c202 63b8 4faa b6b8
00000200: 7ef2 30b8 b40c 91b8 0ebe 6ab8 36be 99b8
00000210: 0a29 2bb8 44fa 55b8 cb3a 2ab8 cd70 7f35
00000220: 4989 0136 9dd1 1236 7593 41b5 e042 68b5
00000230: 7d50 47b4 226d 80b5 fb75 3b34 b163 6d34
00000240: 6a36 a0b8 a6f1 a0b8 41e7 1ab8 d5f9 b6b8
00000250: 70b9 65b8 cb22 11b8 0098 b5b7 6130 b8b7
00000260: 65ca 03b8 3800 1536 3475 c735 a658 4c35
00000270: a863 4435 e2fd 8ab4 4d9f 84b5 b9f1 c135
00000280: 5d3f ab35 8c5d ae35 1386 1337 12bc 8536
00000290: dcc2 0137 2313 8b36 990f 6436 aff1 3737
000002a0: 2518 14b6 b388 7d36 5ecc d036 be51 61b6
000002b0: a70f c8b7 0e73 1237 99ba a6b7 7ce0 99b6
000002c0: 377e 0537 6fe0 f8b6 3cc8 3c35 69c5 3bb6
000002d0: fdd6 7cb7 b985 b4b6 e055 8cb7 3845 afb4
000002e0: bffc 33b6 1188 78b7 7af9 ad37 eb6f 8137
000002f0: 4e8a a536 f474 b038 20a8 6438 4ab5 f437
00000300: b764 2539 7a46 e138 8506 a038 935e d038
00000310: 4e9d 8c38 6531 f738 bfa5 27b1 b155 85b2
00000320: 17b8 18b1 47bb dfb1 651b 8632 c0a7 4231
00000330: b062 d232 7fa3 9832 05d2 6431 301b 3639
00000340: 8ae9 6839 b8da b3b8 c5c6 8139 97a8 1839
00000350: 2bf9 36b9 a34d 55b8 23bd 8938 0f6e 8db9
00000360: 9ed5 8b37 c984 8637 06f4 f438 8918 09b8
00000370: 385e b038 6dcc 3739 8a75 f035 0819 e738
00000380: b016 0039 4ac0 0fb7 a6b8 5fb7 18c6 6eb7
00000390: 384e cb35 8f79 13b6 f44d abb6 765d 6d37
000003a0: 59e8 2d37 a2db f336 018e 8638 2344 5b38
000003b0: f4a7 3c38 ed3e 9838 3049 9738 8b06 e537
000003c0: 236f 1438 8769 3038 84d4 6938 a934 56b7
000003d0: d40e 2db7 6420 65b7 92ed c635 caf9 f135
000003e0: 7d35 06b7 db62 9137 cfaf 9637 419f bd36
000003f0: 6fe6 40b7 e26c 54b7 1bfb aeb7 d5d0 11b6
-4.1697996e-05 -7.826439e-07 2.6933454e-05 -5.2188738e-05 -7.3973015e-06 3.7434154e-05 -7.674298e-05 -2.6592685e-05
-1.5022403e-05 -0.00033893398 6.603092e-05 2.111263e-05 -0.00012814862 -2.3065766e-05 -0.00017179435 -5.9931695e-05
-0.00015569986 -0.00021809607 5.1875737e-08 -3.5019687e-07 -2.5741042e-07 1.399546e-07 4.3971426e-07 7.696687e-08
1.7675085e-08 -4.391155e-08 -6.2886045e-08 -0.0012255408 -0.00013641185 -0.0012772268 0.00010530148 0.001645766
0.00048811783 -0.00091710035 6.265629e-05 -0.0016727995 -0.00032081033 -0.00020074377 -0.00018534044 -0.00016719545
-0.00010249681 -0.00013733166 5.500612e-06 -0.00022048982 -0.000114931754 -4.1579437e-06 2.2398767e-06 2.3569928e-05
-1.6582173e-05 -1.1484899e-05 2.7727654e-06 -7.440841e-06 1.925594e-06 1.3042897e-05 -0.0002625861 -0.00022662572
-7.333527e-05 -0.00027652743 -0.00021247716 -0.00018115944 -0.0001241111 -0.00019253483 -0.00027036882 -1.847386e-06
-6.3891275e-06 1.4042411e-05 -8.113446e-06 -5.4183865e-06 2.635296e-06 -2.3939397e-06 -3.9819192e-06 3.884299e-06
-2.7805154e-07 4.0062514e-07 4.2811338e-05 -8.304817e-06 1.1915953e-06 9.869877e-06 -5.702309e-06 1.9399802e-05
1.6161252e-05 -4.104584e-05 -0.00010463029 5.9478265e-05 -3.2176005e-05 -1.4223286e-05 3.8588358e-05 -2.5997588e-05
-1.3063525e-05 -3.3223783e-05 -8.2326727e-07 4.8973347e-06 5.8654973e-06 -1.8522648e-07 9.654005e-07 1.5217489e-05
-3.8640516e-07 3.2905755e-06 1.118138e-05 -6.4096486e-05 -9.643972e-06 -7.895174e-06 -2.4560024e-05 -5.682656e-06
-1.9039977e-05 -7.1264044e-06 -2.2374808e-05 -2.1267368e-05 6.5995103e-09 6.543055e-09 3.246048e-08 2.4231934e-08
-4.8367216e-10 2.1574278e-10 5.2083595e-09 -1.096626e-09 -5.882017e-10 -0.00033587727 -6.583226e-05 -0.0002224443
-4.779368e-05 0.00017089858 3.8697348e-05 -0.00020965803 4.3401476e-05 -0.00036116503 -5.4123586e-05 -8.710159e-05
-4.218751e-05 -6.916505e-05 -5.596695e-05 -7.331038e-05 -4.0807798e-05 -5.1016235e-05 -4.0585914e-05 9.515905e-07
1.9302408e-06 2.1877706e-06 -7.211268e-07 -8.652405e-07 -1.85626e-07 -9.568505e-07 1.7458653e-07 2.2108613e-07
-7.63953e-05 -7.674405e-05 -3.6931833e-05 -8.724971e-05 -5.4770557e-05 -3.4603097e-05 -2.1647662e-05 -2.1957037e-05
-3.142133e-05 2.2202858e-06 1.4860766e-06 7.612492e-07 7.316071e-07 -2.5889227e-07 -9.881129e-07 1.4449971e-06
1.2758934e-06 1.2991236e-06 8.793099e-06 3.985603e-06 7.734368e-06 4.1447506e-06 3.3983727e-06 1.0963921e-05
-2.2067773e-06 3.7779507e-06 6.2226745e-06 -3.3575193e-06 -2.3849147e-05 8.729066e-06 -1.9875633e-05 -4.5858887e-06
7.956804e-06 -7.4171035e-06 7.0326837e-07 -2.798008e-06 -1.5070426e-05 -5.3799854e-06 -1.672929e-05 -3.2646653e-07
-2.6820196e-06 -1.4813632e-05 2.0739379e-05 1.5430114e-05 4.933484e-06 8.414118e-05 5.4516015e-05 2.9171486e-05
0.00015773145 0.00010741963 7.630609e-05 9.935829e-05 6.7050205e-05 0.00011787078 -2.4395914e-09 -1.5522206e-08
-2.2223554e-09 -6.511445e-09 1.561211e-08 2.832607e-09 2.4492095e-08 1.7769478e-08 3.329775e-09 0.00017367
0.00022212244 -8.576125e-05 0.00024752892 0.00014558654 -0.00017449695 -5.0855462e-05 6.5678985e-05 -0.00026975616
1.6669565e-05 1.6035878e-05 0.000116802796 -3.2686195e-05 8.4098836e-05 0.00017528395 1.7915602e-06 0.00011019601
0.00012215483 -8.568235e-06 -1.3334828e-05 -1.4232028e-05 1.5147443e-06 -2.1975463e-06 -5.105272e-06 1.4148061e-05
1.0365701e-05 7.267533e-06 6.416068e-05 5.2277126e-05 4.497911e-05 7.259646e-05 7.213873e-05 2.7301974e-05
3.5389454e-05 4.205995e-05 5.574945e-05 -1.2767655e-05 -1.0315056e-05 -1.3657005e-05 1.4821292e-06 1.8028597e-06
-7.999476e-06 1.733138e-05 1.796326e-05 5.6511785e-06 -1.1497744e-05 -1.2661536e-05 -2.0859346e-05 -2.172824e-06

exp_avg_sq f4 [10]
00000000: 7959 9036 8dd4 da37 ec83 7d37 59e8 c235
00000010: 9ea4 7239 7d6a bb38 56a2 a631 97de 9838
00000020: 9360 b736 0137 9436
4.3019504e-06 2.6086602e-05 1.5110691e-05 1.4521748e-06 0.00023140243 8.93669e-05 4.8496913e-09 7.2893854e-05
5.4650677e-06 4.417147e-06

exp_avg f4 [10]
00000000: f6ec ca37 453b ae39 e83d 3cb8 c482 c9b6
00000010: d38e 5db4 e23c 073a 7a1a 6aaf 1a50 9739
00000020: fb99 38b9 a6d1 9438
2.419062e-05 0.00033232025 -4.4880348e-05 -6.00549e-06 -2.0634188e-07 0.00051589136 -2.1291582e-10 0.00028860645
-0.0001760497 7.09624e-05

exp_avg_sq f4 [10]
00000000: 7669 7338 db41 8639 9d28 af38 06b6 0739
00000010: f1c3 6439 8a3e 4838 f968 8238 70a2 9538
00000020: 95d8 af38 e314 af38
5.8033933e-05 0.00025607538 8.352215e-05 0.00012942412 0.00021816768 4.774196e-05 6.218436e-05 7.13513e-05
8.384992e-05 8.348541e-05

exp_avg f4 [10]
00000000: 9234 ccb9 5692 3f39 f2a5 b3bb eefb 7b3a
00000010: 3bd9 113b 52ce ef39 59ad 473a db5f ca3b
00000020: d84b b03a 203b b0ba
-0.0003894908 0.00018269694 -0.0054824287 0.00096124306 0.0022254724 0.00045739353 0.00076170784 0.0061759776
0.0013450338 -0.0013445355

exp_avg_sq f4 [10]
00000000: 74d3 b137 8e2e d135 9a17 0237 37ab 3437
00000010: 3262 c335 0e96 f336 693b b037 8122 1237
00000020: 26d1 3236 7e89 3b36
2.119851e-05 1.5585263e-06 7.754099e-06 1.07687e-05 1.4557211e-06 7.259433e-06 2.10085e-05 8.710312e-06
2.6645807e-06 2.7945202e-06

exp_avg f4 [10]
00000000: 925d 0f3a 4b23 5539 3212 0939 bc82 3f3a
00000010: b97d a738 31fe 193a af7a 6ab9 602d 3e38
00000020: 7dfa ddb8 970f e2b8
0.000546896 0.0002032641 0.00013072116 0.0007305553 7.986598e-05 0.0005874364 -0.00022361682 4.534179e-05
-0.00010584758 -0.000107794236

exp_avg_sq f4 [10]
00000000: 4be7 4a38 b47c 6639 b3c2 e738 1f29 e338
00000010: 5df5 3839 49df 3638 ae57 4238 d3ab 8838
00000020: 00b4 a838 0cb5 5039
4.837596e-05 0.00021980965 0.00011051204 0.00010831863 0.00017639012 4.3600132e-05 4.6334862e-05 6.51699e-05
8.044392e-05 0.00019903871

exp_avg f4 [10]
00000000: 40aa d03a 0f36 03b9 7ced 2cbb 7367 85b8
00000010: d5c0 843b f3d9 ceba 3efa 74ba a255 7f3b
00000020: b3bb 1bbb e99b dcb9
0.0015919879 -0.00012513272 -0.002638667 -6.361203e-05 0.0040513077 -0.0015781507 -0.00093451503 0.0038960953
-0.0023763 -0.00042077832

exp_avg_sq f4 [10, 10, 3, 3]
00000000: 16e7 4235 f8dd 2d35 b47e 1f35 7908 a335
00000010: 834e 9835 afd8 5a35 a977 c935 4342 e335
00000020: f4b6 8935 cce6 aa34 baa0 cf34 29df f234
00000030: 2cf2 9c34 bc59 c734 fd1b e034 3921 b134
00000040: 044a ce34 6edf e134 e5d1 0635 13a0 0a35
00000050: 5141 f734 7f0e f734 272b e034 fd39 e734
00000060: 41a4 f734 b308 f134 00f9 dd34 4c34 8535
00000070: 8dbb d235 7484 cb35 2552 c735 3819 1536
00000080: 8d40 d535 8040 f735 6c59 0236 c8b1 c135
00000090: 5fd5 d635 a611 e535 b9a0 0036 a9a1 dd35
000000a0: 4da1 e335 a170 f035 c0e5 f035 553e ee35
000000b0: ce37 f235 c52c 2a35 adee 7635 6573 8135
000000c0: 7826 9235 8916 ba35 998a b635 5396 cf35
000000d0: d185 e535 9486 9e35 bac8 1535 073b 2c35
000000e0: bf96 2935 456e 1e35 ad1c 3135 50fc 3e35
000000f0: cedd 2a35 22e4 3d35 6935 3a35 2371 2135
00000100: a44f 0d35 8dfa 1f35 7cb6 0f35 3414 2035
00000110: db13 0b35 bba1 3635 e1d1 1435 2e46 f234
00000120: 506c d134 eab8 d834 802a ed34 7ee7 cc34
00000130: 8bd0 cd34 a8c4 dc34 a4ce db34 2453 cf34
00000140: 4f8f c634 56b5 4634 f524 3434 71a3 1634
00000150: d80a 3334 191c e533 5c9c 6c34 f19a 2d34
00000160: 0ca0 7834 330b 1934 e18b 5f36 4d97 3036
00000170: ac04 1a36 de4d 9036 9e90 5836 2700 6836
00000180: 7b07 bd36 e5f8 6836 2e12 5436 7007 1936
00000190: 4677 ff35 0790 2c36 89ff 0336 b60b ee35
000001a0: 9ffa 1d36 dd98 b035 41cc ba35 3579 aa35
000001b0: 09cd d235 4ef7 b135 bb73 c135 d787 fb35
000001c0: 92d9 c635 d5cc a535 36dd da35 3c11 af35
000001d0: e6d6 8a35 e024 9f36 844f b736 c27d 7b36
000001e0: 8561 a636 6ba2 a436 1b5e 5236 abc1 a236
000001f0: ddc0 7c36 a5a6 0936 e3b5 1c36 b819 4236
00000200: 10f7 3836 795c 2236 e626 7c36 4830 7436
00000210: c891 0536 72cb 3336 abd5 4336 e77b ac36
00000220: 373c 8036 2d5b b236 0092 a236 9edd 9236
00000230: f266 8336 0b04 c236 1376 9d36 6435 7f36
00000240: d2b9 c635 0cd0 9835 c63a 6635 5b6d 9b35
00000250: 0195 a735 7f79 ad35 b460 9235 a406 9635
00000260: 725f ad35 557f f835 2034 0a36 2810 1136
00000270: f348 c835 25f1 e435 0df9 0336 2503 aa35
00000280: caa9 c835 a518 e235 50df 9835 7eb4 8535
00000290: 7ca2 6535 3f3b a735 0703 7735 b7d7 4635
000002a0: 597e c835 bca1 9a35 5f65 7735 81fc 4235
000002b0: bcd6 0b35 d2f1 2535 0c3f 7335 0ea1 4c35
000002c0: d44b 1435 3570 8135 39cb 2d35 96cf 2535
000002d0: f382 ac35 faed 2836 db8a 8b36 1f91 e035
000002e0: 455c 8036 b3ec 7b36 817c 0a36 c09c 7436
000002f0: 9e3b 1336 f584 aa35 7742 8335 6038 ae35
00000300: b457 9c35 b0b1 8235 09d7 8b35 2b4f 8035
00000310: 3150 5135 7e66 5335 051e 2936 cf96 2c36
00000320: 37ac 1e36 267e 1136 3783 1636 5835 1536
00000330: a565 1036 1601 1636 e0c5 1636 eb39 2b36
00000340: 86e7 9436 b2d7 e836 5198 7436 2969 e336
00000350: 04f4 0b37 7809 a836 758b b136 952b 9e36
00000360: 9d6e a735 da57 9f35 b75d d035 b7c8 cb35
00000370: e629 a335 5200 0036 d038 0c36 8e27 cb35
00000380: 5e10 f435 fb95 eb35 ec5e 3f36 cb78 d136
00000390: d394 0536 72b7 9836 c9b0 bc36 ba00 4536
000003a0: 98be 7b36 2dbc 7036 c677 b435 cd32 ca35
000003b0: bc07 8635 9db7 a335 23b6 9535 2cab 8535
000003c0: 2583 8235 5bc2 6235 de51 6a35 085d 1236
000003d0: 1f50 0436 8566 3035 75ff 3536 a4d7 cc35
000003e0: 87f4 4135 559a 0836 3f26 9a35 81db 2535
000003f0: 1401 8435 2d3e 8c35 53c6 6b35 388c d435
7.2606906e-07 6.477053e-07 5.9416493e-07 1.2146912e-06 1.1347732e-06 8.1526645e-07 1.5010493e-06 1.6932103e-06
1.0260542e-06 3.1832894e-07 3.8673699e-07 4.5238383e-07 2.9233468e-07 3.713193e-07 4.1743615e-07 3.2992992e-07
3.8424344e-07 4.2072082e-07 5.0224327e-07 5.1641945e-07 4.605486e-07 4.6017882e-07 4.175465e-07 4.3069295e-07
4.6126846e-07 4.4896078e-07 4.134563e-07 9.924493e-07 1.5700804e-06 1.5163228e-06 1.4850563e-06 2.221741e-06
1.5888523e-06 1.8421706e-06 1.942356e-06 1.4431362e-06 1.6006342e-06 1.7066966e-06 1.916704e-06 1.6512832e-06
1.6959763e-06 1.7914173e-06 1.794826e-06 1.7750523e-06 1.8046646e-06 6.3395083e-07 9.198946e-07 9.644833e-07
1.0889044e-06 1.3864639e-06 1.3600394e-06 1.5466452e-06 1.7100775e-06 1.1811085e-06 5.579892e-07 6.416089e-07
6.317677e-07 5.902005e-07 6.5979367e-07 7.114768e-07 6.3652703e-07 7.0739964e-07 6.936812e-07 6.014181e-07
5.2642486e-07 5.9596715e-07 5.35372e-07 5.9634044e-07 5.181043e-07 6.803563e-07 5.543971e-07 4.5127075e-07
3.900809e-07 4.0367678e-07 4.4175613e-07 3.8166394e-07 3.833596e-07 4.112128e-07 4.094228e-07 3.8617247e-07
3.6984645e-07 1.8506157e-07 1.6777251e-07 1.4029298e-07 1.6674619e-07 1.06687544e-07 2.2036096e-07 1.6168248e-07
2.3155025e-07 1.425331e-07 3.331101e-06 2.6314112e-06 2.2950508e-06 4.3005994e-06 3.2270686e-06 3.4570783e-06
5.6335098e-06 3.471557e-06 3.1601044e-06 2.2803106e-06 1.9033694e-06 2.5713832e-06 1.9669262e-06 1.773579e-06
2.3540704e-06 1.3157511e-06 1.3917526e-06 1.2701263e-06 1.5705892e-06 1.3259503e-06 1.4413303e-06 1.8740492e-06
1.4815471e-06 1.2353072e-06 1.6306647e-06 1.3043532e-06 1.0344345e-06 4.742862e-06 5.463082e-06 3.7475115e-06
4.9585383e-06 4.906489e-06 3.1347215e-06 4.850522e-06 3.7663187e-06 2.051159e-06 2.3351683e-06 2.8923223e-06
2.7561946e-06 2.4193707e-06 3.7573568e-06 3.6386937e-06 1.99034e-06 2.67915e-06 2.9181635e-06 5.1404236e-06
3.821707e-06 5.3154276e-06 4.844973e-06 4.3769387e-06 3.9160886e-06 5.782121e-06 4.6927103e-06 3.8029038e-06
1.480623e-06 1.1385432e-06 8.5767203e-07 1.1580227e-06 1.2485835e-06 1.2924864e-06 1.0905992e-06 1.1177804e-06
1.2917283e-06 1.8514498e-06 2.0593943e-06 2.1616088e-06 1.4922392e-06 1.7057506e-06 1.9665488e-06 1.2666902e-06
1.4950576e-06 1.6845485e-06 1.1389875e-06 9.961802e-07 8.5545594e-07 1.2459712e-06 9.2019076e-07 7.4074654e-07
1.4937933e-06 1.1520965e-06 9.2162185e-07 7.2638073e-07 5.2094015e-07 6.1819185e-07 9.06163e-07 7.623029e-07
5.524464e-07 9.643906e-07 6.474325e-07 6.176937e-07 1.285311e-06 2.5172471e-06 4.1586877e-06 1.6731536e-06
3.825439e-06 3.7539692e-06 2.0636073e-06 3.6450074e-06 2.1939409e-06 1.2704683e-06 9.779604e-07 1.2980418e-06
1.1648431e-06 9.737469e-07 1.041889e-06 9.559784e-07 7.797526e-07 7.875277e-07 2.5200436e-06 2.571778e-06
2.3644077e-06 2.1680112e-06 2.242812e-06 2.223378e-06 2.1516837e-06 2.2352374e-06 2.246692e-06 2.5514698e-06
4.4376966e-06 6.939249e-06 3.6447493e-06 6.7773694e-06 8.34186e-06 5.0078925e-06 5.291246e-06 4.7138406e-06
1.2474662e-06 1.1871991e-06 1.5524482e-06 1.5183094e-06 1.215664e-06 1.9073673e-06 2.0894695e-06 1.513619e-06
1.818418e-06 1.7552514e-06 2.851647e-06 6.2427475e-06 1.9905171e-06 4.551309e-06 5.623417e-06 2.935571e-06
3.7512855e-06 3.587232e-06 1.3445904e-06 1.5064958e-06 9.986029e-07 1.2197885e-06 1.1154374e-06 9.95909e-07
9.723923e-07 8.4474385e-07 8.7290925e-07 2.1809847e-06 1.971617e-06 6.5714295e-07 2.7119797e-06 1.5261944e-06
7.2253937e-07 2.0355412e-06 1.1485025e-06 6.178671e-07 9.83508e-07 1.0448908e-06 8.783292e-07 1.583604e-06

exp_avg f4 [10, 10, 3, 3]
00000000: bf1f 4ab9 536a 76b9 dd5a 8db9 f0c5 0bb6
00000010: 841c 8737 d255 7bb8 4452 5538 7a89 b5b8
00000020: 9908 3038 e4a5 f036 c192 a037 eb02 e5b8
00000030: 657c d135 e886 71b7 77dc bdb8 bf65 0838
00000040: b67a 95b7 42f4 82b8 3037 77b8 d9a5 2fb8
00000050: f617 0138 6e48 59b7 53c3 0438 d1a5 f636
00000060: 5138 2db8 b803 2237 d7e0 f9b7 2c81 5cb9
00000070: 3c72 2eb8 b4f0 65b9 9d64 4bb8 b797 18b7
00000080: 5eff c337 e09a abb8 1dca 87b8 019b b3b6
00000090: 855c c6b7 c351 52b8 4ff1 2735 cfbb da36
000000a0: f4dd bbb8 2d28 0cb9 d8b1 47b9 6277 91b9
000000b0: 05e0 bab9 0e92 f5b8 a82f 5fb6 6f07 64b7
000000c0: 573f cb38 f2c2 87b7 9e12 23b8 5bac 4238
000000d0: 462a 00b9 72b1 14b9 67da c7b7 fc53 3539
000000e0: 6975 9c39 0fa6 0338 3649 6239 a6f6 0f3a
000000f0: 045f 2938 c8f7 be39 8a31 e539 5f0a 4438
00000100: 5322 5039 615b 5739 c5e1 b038 23e6 2a39
00000110: aa24 f838 f2d5 f637 2ff9 8538 6b56 b937
00000120: 5d2f 57b8 10de 5c38 e378 6939 1062 55b8
00000130: 0405 2438 8816 8238 6a1c ed35 a782 17b5
00000140: 2b9c 2438 4728 a8b6 c792 1db7 2fc2 ceb7
00000150: 6a90 10b8 0079 59b6 be90 9e38 514a 41b8
00000160: c986 bbb7 b597 0538 2d26 9139 1a44 33b8
00000170: 8d79 09b9 d688 7bb8 c138 7b39 7e0e 233a
00000180: 12be 59b9 f4ac e339 d3ab 723a b8d4 9339
00000190: 8fa1 6539 65c3 ecb7 5dd9 ba38 806f 9739
000001a0: d0c0 9039 a8de bbb8 6bea 8439 aa3e da39
000001b0: 715f 4b39 55db c638 51ff 0739 1126 4838
000001c0: ee06 2438 b832 1a38 3e71 deb7 143a 1739
000001d0: 8928 bf38 978b 3eb9 fe82 38b9 a86b 5eb9
000001e0: b60c 6db9 a006 83b9 42f1 95b9 72a3 0fb9
000001f0: 41ea 1bb9 7d8d 0ab9 4943 b3b8 af97 17b9
00000200: bfff 39b8 d32d 10b9 4bb8 86b9 800a 83b8
00000210: ebf6 b9b8 7fa0 28b9 6cc5 a6b8 fa8b 0f39
00000220: 6964 12b8 4a62 6038 2b1a 8239 c3fe 8a39
00000230: 9940 1b3a 9ae8 3f38 ae65 2439 902d 1d3a
00000240: df51 1ab9 d0d1 efb8 893a 4838 7681 06b9
00000250: 94d7 86b9 1fe6 c6b8 b1dd 0738 bcac 36b9
00000260: 24ca cc37 7a9d 0cb9 b5dd 3cb9 035d 3637
00000270: 12c4 a5b8 7958 b1b8 a59f 4cb6 79f7 0ab9
00000280: 97b6 5eb8 c0b9 ea35 6aee 7138 be6c 9637
00000290: 3a1e ee36 2a90 7036 0672 4037 645f 5037
000002a0: c91e a9b7 c499 98b7 3936 89b8 e1b2 c9b8
000002b0: 0a8e 45b8 db60 a9b7 8368 2b38 cadc 47b9
000002c0: fbf9 1eb9 c49d b237 5b67 77b9 ee9f b9b7
000002d0: 42bb 8bb9 c9aa 76ba d934 bc39 636e 8b38
000002e0: 2be5 14b9 6855 423a 700a b0b9 51da 22ba
000002f0: 0cff e3b8 7d85 7737 2fe6 33b8 c437 2239
00000300: c779 ba37 7024 02b9 194a 5239 16e3 dc38
00000310: 19ac ffb7 cf02 9438 c1a8 25b9 6160 f7b8
00000320: 647e 0a38 d84b bdb8 8d57 9bb8 7b5d 7838
00000330: 261d 6bb9 3d1e 44b9 94bd 0fb9 2d3c ecb8
00000340: db92 9e38 69af 8a39 0089 75b8 9929 0739
00000350: a18c 3d39 1039 77b9 0e7e bfb6 f5d3 3139
00000360: 4f4c 58b9 1d2e 06b9 3b80 44b9 3010 68b8
00000370: 8d81 2638 7ea9 d0b8 460f e2b8 b44a ba37
00000380: 8f6f e4b8 9e2f 9fb9 00cb f5b9 dfd1 0f3a
00000390: 9fdd 7fb9 d550 6338 ab68 3739 489d 07ba
000003a0: a666 18b9 d3c2 e7b8 ff2e 8db7 3c56 63b9
000003b0: f1ac 40ba a8cf ccb5 73c7 94b9 6675 cbb9
000003c0: 3994 36b9 770e b9b9 299e 2cb7 cd2e afb8
000003d0: bd4c 54b8 e58f 47b9 0d5d 51b9 3f26 0739
000003e0: b064 d4b6 f267 adb7 4da1 b638 00e3 cdb8
000003f0: 3e33 d238 41d2 8739 a79a 0ab9 7114 0eb8
-0.00019276048 -0.00023499997 -0.00026961314 -2.0827829e-06 1.6106533e-05 -5.992299e-05 5.0859773e-05 -8.6563596e-05
4.1969677e-05 7.1718696e-06 1.9141824e-05 -0.000109201144 1.5607917e-06 -1.439613e-05 -9.053287e-05 3.2519685e-05
-1.7819326e-05 -6.2443796e-05 -5.8940786e-05 -4.187771e-05 3.0778312e-05 -1.2951072e-05 3.1653162e-05 7.350675e-06
-4.1298863e-05 9.656818e-06 -2.9787812e-05 -0.00021028955 -4.159122e-05 -0.00021928811 -4.8492675e-05 -9.09523e-06
2.3364726e-05 -8.182763e-05 -6.474948e-05 -5.3526605e-06 -2.3646522e-05 -5.0144048e-05 6.25635e-07 6.51877e-06
-8.958197e-05 -0.00013366407 -0.00019044371 -0.00027745502 -0.00035643592 -0.00011709715 -3.325733e-06 -1.359159e-05
9.691592e-05 -1.6184033e-05 -3.8879567e-05 4.6413723e-05 -0.0001222278 -0.00014180483 -2.382435e-05 0.00017292792
0.00029842116 3.1387488e-05 0.00021580313 0.00054917706 4.038123e-05 0.00036424235 0.00043715193 4.67397e-05
0.00019849213 0.00020538039 8.434387e-05 0.00016298196 0.00011832391 2.9425111e-05 6.388348e-05 2.209396e-05
-5.1304105e-05 5.26589e-05 0.00022265645 -5.0874485e-05 3.9105318e-05 6.20308e-05 1.7666146e-06 -5.644201e-07
3.924609e-05 -5.011479e-06 -9.3921035e-06 -2.4647537e-05 -3.446677e-05 -3.240595e-06 7.5609874e-05 -4.6084e-05
-2.2354901e-05 3.185096e-05 0.00027684998 -4.274035e-05 -0.0001311062 -5.99705e-05 0.00023958368 0.0006220116
-0.0002076554 0.00043425674 0.0009257171 0.00028196513 0.00021899327 -2.822438e-05 8.909658e-05 0.00028884038
0.00027609477 -8.958328e-05 0.00025351657 0.0004162689 0.00019395143 9.4822295e-05 0.00012969716 4.7719168e-05
3.91071e-05 3.6763697e-05 -2.6517195e-05 0.00014422118 9.11514e-05 -0.00018171813 -0.00017596406 -0.00021211675
-0.00022606816 -0.00024991203 -0.00028599246 -0.00013698431 -0.00014869218 -0.00013213414 -8.547918e-05 -0.00014456989
-4.434562e-05 -0.00013749981 -0.0002569578 -6.2485225e-05 -8.8674795e-05 -0.00016081518 -7.9522695e-05 0.00013689688
-3.4902627e-05 5.34973e-05 0.0002481503 0.00026511223 0.00059224066 4.5754576e-05 0.00015678137 0.0005995864
-0.00014717084 -0.00011435489 4.773823e-05 -0.00012827464 -0.0002571909 -9.484239e-05 3.2392974e-05 -0.00017421221
2.4412824e-05 -0.00013410105 -0.0001801167 1.0869701e-05 -7.904334e-05 -8.456497e-05 -3.0491294e-06 -0.00013252896
-5.3098975e-05 1.7488419e-06 5.7680918e-05 1.793203e-05 7.0964716e-06 3.5846701e-06 1.147064e-05 1.2419976e-05
-2.0160705e-05 -1.8191415e-05 -6.542769e-05 -9.617746e-05 -4.7100744e-05 -2.0191472e-05 4.086691e-05 -0.00019060369
-0.00015161179 2.1292719e-05 -0.00023594259 -2.2128192e-05 -0.00026651664 -0.0009409604 0.0003589753 6.6485976e-05
-0.00014199752 0.0007413239 -0.00033577112 -0.0006212341 -0.0001087171 1.4753427e-05 -4.28913e-05 0.00015470298
2.2229635e-05 -0.0001241134 0.00020054764 0.000105327155 -3.0478508e-05 7.057713e-05 -0.00015798492 -0.0001179583
3.3019474e-05 -9.026349e-05 -7.4072836e-05 5.9214868e-05 -0.00022422205 -0.00018703281 -0.00013708166 -0.000112645655
7.561381e-05 0.00026452102 -5.8540143e-05 0.000128901 0.00018076833 -0.00023577013 -5.7069183e-06 0.00016958996
-0.00020627792 -0.00012796414 -0.00018739786 -5.5328186e-05 3.9698138e-05 -9.949783e-05 -0.00010779365 2.2207714e-05
-0.000108926666 -0.0003036232 -0.00046881288 0.00054862903 -0.00024401255 5.4196298e-05 0.00017491232 -0.0005173278
-0.00014534089 -0.00011051227 -1.6830394e-05 -0.00021680532 -0.0007349989 -1.525962e-06 -0.0002837736 -0.00038806646
-0.0001741209 -0.00035296727 -1.0288823e-05 -8.3533676e-05 -5.0616207e-05 -0.00019031724 -0.00019966457 0.00012888851
-6.329814e-06 -2.067161e-05 8.708481e-05 -9.817444e-05 0.00010023125 0.00025905858 -0.00013218318 -3.3874476e-05

exp_avg_sq f4 [10]
00000000: 88e6 c938 35ba 2938 ec7b 9637 1b84 a637
00000010: 662a 1038 9592 ab37 955e 8c38 d570 0838
00000020: fdc6 8138 64f4 9636
9.627367e-05 4.046616e-05 1.7939099e-05 1.9850258e-05 3.4371762e-05 2.0453046e-05 6.6933375e-05 3.253001e-05
6.188264e-05 4.498799e-06

exp_avg f4 [10]
00000000: b250 37b9 0a84 e1ba f554 59b9 83df 1aba
00000010: ca00 953a 7300 403a 09b5 d6ba 80ca e938
00000020: ca18 543b 438a e839
-0.00017482301 -0.0017205488 -0.00020726382 -0.00059079396 0.0011368033 0.00073242857 -0.0016380857 0.00011148024
0.0032363408 0.000443535

exp_avg_sq f4 [10, 10, 3, 3]
00000000: 123f a733 e007 0234 8245 ab33 19aa 1e34
00000010: 12ce 0434 036c 0734 4c93 d033 370e bc33
00000020: bb57 1c34 4922 8534 4539 bb34 001a f834
00000030: 6054 6533 68ee fe33 65f1 2c34 7695 2434
00000040: c1ac 9933 67e5 d633 4855 0435 0972 fe34
00000050: d260 cb34 2d12 d934 fbb1 cb34 4c12 9f34
00000060: 3de8 9f34 fdfe 9134 c6af 6a34 d607 cc33
00000070: 8c5b 0834 85f5 2934 5235 e833 0eb7 0934
00000080: 0261 1d34 8add 8733 e5ce 8033 5767 9c33
00000090: 07ff 3634 ccfc 4b34 d8d0 5434 1754 4a34
000000a0: 4318 7034 6092 6c34 7ebb b534 ee0d 9034
000000b0: e753 b134 5783 0234 7d97 5634 1162 9534
000000c0: 2ed6 7934 ab23 8934 7b80 8f34 a4c6 ae33
000000d0: 2592 0a34 38b7 2f34 68d2 0833 964d 9633
000000e0: 922e 8733 fc04 9d33 3dff da33 8a15 a733
000000f0: 8e8e e333 8520 d033 0277 fa33 66ee 2f35
00000100: caff 3435 cd4c fc34 7a3d b534 d242 b734
00000110: add8 9734 be70 aa34 acdf 9d34 3cb1 8834
00000120: f0a0 6733 f710 bd33 5512 0d34 7578 4133
00000130: 86f5 c233 7eef 8633 2c06 2034 f921 df33
00000140: 33cf 2d34 14a6 6d33 96c7 5c33 6285 5533
00000150: 9248 8e33 6fff 7833 b942 5033 d200 8933
00000160: 0f5b 9733 e8d7 5e33 1ac6 b934 7a04 be34
00000170: 8068 b934 0708 1d35 3261 1535 e1e8 2c35
00000180: 1f2c 5a35 21e1 be34 b10c da34 2f7a 6034
00000190: a532 3134 198b 2034 ded7 1634 8847 0f34
000001a0: 05c9 0c34 8a07 5c34 0f4d 2434 71e3 1e34
000001b0: abf4 1334 233b 1334 6bc8 4034 b8d6 4734
000001c0: 9a55 2334 658c ea33 1a99 8934 2d10 6f34
000001d0: 0a59 1d34 a328 be33 6a6c 8734 8128 9b34
000001e0: 7a3c 8134 1f49 0e35 a23c c234 ded7 0d35
000001f0: 59a5 b434 f36b 8234 b5ab e634 3de3 d734
00000200: dba8 f734 596c a934 77ce c634 fea9 e634
00000210: fae6 7e34 c44a 9e34 9eee eb34 d944 bd33
00000220: 28e8 fc33 67bf 1634 0b8e 0a34 025d 7434
00000230: 1986 4634 94a8 a434 2246 2334 8336 2534
00000240: aa89 3a34 a108 1434 915c 1c34 8a92 e533
00000250: bf5d 1934 daaf 0d34 4858 0f34 aa57 0d34
00000260: 040a 1034 bc76 a934 3904 d534 8934 f034
00000270: 67b2 9934 ef59 c434 02ae fc34 9e8d a834
00000280: 836a d034 0a87 f934 560e 9235 10c6 9d34
00000290: f913 c834 f5f3 0335 9316 7734 1ae2 8434
000002a0: 79f8 6435 8845 c034 d62f ef34 3e0e 5033
000002b0: 54f5 6333 a08d 4e33 fafd 7e33 4df8 7933
000002c0: b116 4a33 e762 1634 9107 4b33 5f11 5c33
000002d0: 1a8b 8a35 b7f0 2436 6e5e 9235 0c82 aa35
000002e0: b62f 2636 b678 ea35 80f8 4e35 5d51 a435
000002f0: 520a 7f35 6ec2 1334 eb6b f533 6b1d 2d34
00000300: da81 f933 919c 0734 5a48 0634 8fe5 1934
00000310: 46cc 2834 719a 1634 5b53 bd36 0c87 b636
00000320: 808c 8736 1f39 9b36 b716 9636 14e5 5936
00000330: a410 5e36 7b35 5b36 8a85 1f36 aa02 8735
00000340: 4ef8 ac35 1c0c 8b35 9c1c 8635 3cf3 be35
00000350: 283b a435 2502 4935 9002 8535 a35f 6535
00000360: d313 fe35 9199 d135 0f53 de35 efbb a935
00000370: f426 9135 a9f1 8f35 a64c 1435 57b5 fb34
00000380: 924c 0335 85f0 bd33 ba74 f133 4809 e433
00000390: 1fb2 b133 0b21 1134 1c6b 4434 576f 8c33
000003a0: 232f c933 18ae e933 5f12 cf33 10f1 ed33
000003b0: bc5f e033 6ef2 f833 8efe f933 ce70 e333
000003c0: 997d ee33 cec0 f333 1229 c433 6a88 3235
000003d0: a363 3d35 1d14 4435 18dd 2335 9a71 1735
000003e0: 95b9 1835 43dd 3435 6b7e 1435 d8aa f234
000003f0: f951 9035 baf9 9235 213d 8935 e23a 5435
7.788016e-08 1.2110058e-07 7.9754514e-08 1.4776778e-07 1.2368426e-07 1.2612149e-07 9.712548e-08 8.757018e-08
1.4560548e-07 2.4798126e-07 3.4873133e-07 4.6212517e-07 5.3394956e-08 1.18711625e-07 1.6106567e-07 1.5328064e-07
7.1560414e-08 1.00068796e-07 4.929793e-07 4.7394158e-07 3.7882143e-07 4.0432624e-07 3.7941194e-07 2.962937e-07
2.9785033e-07 2.7193883e-07 2.1856894e-07 9.5009156e-08 1.2699292e-07 1.5828671e-07 1.0813041e-07 1.2825714e-07
1.4657056e-07 6.326725e-08 5.9980984e-08 7.2831135e-08 1.7042849e-07 1.8997815e-07 1.9820015e-07 1.8843308e-07
2.2360568e-07 2.2032464e-07 3.3850296e-07 2.6832225e-07 3.3029866e-07 1.2154975e-07 1.9985414e-07 2.7824765e-07
2.326785e-07 2.554419e-07 2.6729307e-07 8.138639e-08 1.2905419e-07 1.63648e-07 3.185633e-08 6.999032e-08
6.2948985e-08 7.311789e-08 1.01978436e-07 7.7804614e-08 1.0596442e-07 9.69167e-08 1.16631796e-07 6.5539496e-07
6.742745e-07 4.6994538e-07 3.3758607e-07 3.4135024e-07 2.8283594e-07 3.1746998e-07 2.9406272e-07 2.546093e-07
5.393025e-08 8.804084e-08 1.3138317e-07 4.504587e-08 9.0784894e-08 6.2834246e-08 1.4903407e-07 1.0390426e-07
1.6187259e-07 5.533191e-08 5.1404264e-08 4.9714238e-08 6.625591e-08 5.7974315e-08 4.8489458e-08 6.379709e-08
7.048049e-08 5.188477e-08 3.4603073e-07 3.5393515e-07 3.453497e-07 5.849874e-07 5.5648263e-07 6.4413877e-07
8.1275533e-07 3.555406e-07 4.0614898e-07 2.0906076e-07 1.6502834e-07 1.4951765e-07 1.404837e-07 1.3343936e-07
1.3111647e-07 2.049184e-07 1.5301724e-07 1.479764e-07 1.3779452e-07 1.3711956e-07 1.7954305e-07 1.8611433e-07
1.52117e-07 1.0922012e-07 2.5629635e-07 2.2264494e-07 1.4654157e-07 8.854956e-08 2.522459e-07 2.890047e-07
2.4072125e-07 5.300553e-07 3.6179432e-07 5.284072e-07 3.364792e-07 2.429293e-07 4.2965772e-07 4.0212208e-07
4.6130194e-07 3.1557536e-07 3.7030597e-07 4.2964524e-07 2.3739622e-07 2.9484193e-07 4.3945778e-07 8.813522e-08
1.17768934e-07 1.403947e-07 1.2903926e-07 2.2758107e-07 1.8488971e-07 3.0670037e-07 1.5206072e-07 1.5386654e-07
1.7372682e-07 1.3786713e-07 1.4562308e-07 1.0690299e-07 1.428334e-07 1.3195623e-07 1.335003e-07 1.316354e-07
1.3414689e-07 3.1565094e-07 3.9677414e-07 4.4741708e-07 2.8628276e-07 3.657328e-07 4.7065265e-07 3.1395479e-07
3.8820517e-07 4.6478118e-07 1.088202e-06 2.9387638e-07 3.7267435e-07 4.9156307e-07 2.301188e-07 2.4751427e-07
8.5298194e-07 3.5813378e-07 4.4552024e-07 4.8441727e-08 5.307568e-08 4.809192e-08 5.9369974e-08 5.820066e-08
4.7052428e-08 1.4005819e-07 4.7271502e-08 5.123854e-08 1.0322285e-06 2.4578019e-06 1.090533e-06 1.2703836e-06
2.47637e-06 1.746949e-06 7.7102595e-07 1.2242632e-06 9.500992e-07 1.3761175e-07 1.1428332e-07 1.6122583e-07
1.1618586e-07 1.2629813e-07 1.2506044e-07 1.4332748e-07 1.5720533e-07 1.4026024e-07 5.642343e-06 5.439744e-06
4.03967e-06 4.6260097e-06 4.4729927e-06 3.246886e-06 3.3090264e-06 3.2664673e-06 2.3770576e-06 1.0059059e-06
1.2887265e-06 1.0359831e-06 9.992104e-07 1.4226894e-06 1.2236169e-06 7.4881456e-07 9.910018e-07 8.544832e-07
1.8930244e-06 1.5616407e-06 1.6564462e-06 1.2646177e-06 1.0814679e-06 1.0724663e-06 5.5245835e-07 4.6884335e-07
4.891273e-07 8.8447486e-08 1.12436695e-07 1.06187656e-07 8.274605e-08 1.3516198e-07 1.8292889e-07 6.5395106e-08
9.368366e-08 1.08815755e-07 9.64253e-08 1.10800215e-07 1.0448227e-07 1.15924976e-07 1.1641269e-07 1.059103e-07
1.1105585e-07 1.135064e-07 9.134432e-08 6.6508676e-07 7.0552977e-07 7.304496e-07 6.1043966e-07 5.6417196e-07
5.689447e-07 6.7377204e-07 5.531826e-07 4.5200318e-07 1.0752693e-06 1.0950528e-06 1.0225086e-06 7.906184e-07
