SuperGo-master/saved_models/1584891248/1-extractor.pth.tar (torch_old, 151633 bytes, 155 tensors)

conv1.weight f4 [10, 17, 3, 3]
00000000: 8545 01bd f0b0 9e3d fdf4 21bd 6750 87bd
00000010: ac1e 913c a8ed 0fbc 3839 34bc ec3b 4e3d
00000020: 800b c7bb ecba 5c3d d05a 4f3c 3273 a4bd
00000030: a856 883c 82ab 17bd d3a9 31bd 9844 2ebc
00000040: debb 54bd 604e 6c3b cc25 673d 2089 743d
00000050: 90fc 7e3d 3ad9 1f3d 6cda 89bd f34c 06bd
00000060: 5cd1 633d faf6 a33d b64e 973d 005c 403c
00000070: e023 c83b 855b 96bd 3662 82bd e09a 3bbd
00000080: 2ba6 1bbd f018 6d3d ea48 26bd 3a20 69bd
00000090: ba62 7ebd c0f1 4a3b 1ec1 933d 46a4 17bd
000000a0: 2eb6 8c3d 30e7 023c 2666 2bbd 16d5 1c3d
000000b0: 3c13 623d 00f3 18bb 5ca6 7fbd 4464 653d
000000c0: f6a7 a43d 3b99 84bd e019 72bd 1410 273d
000000d0: f4b6 f53c d078 cfbb 7f1c 8fbd 8c2e 9b3d
000000e0: 547d 6a3d f47b dfbc be80 333d 846b 7bbd
000000f0: 3cf3 a13d c598 92bd b4e6 8ebc 5859 403d
00000100: e639 a5bd ecf5 553d 1076 0bbd 8e5b a33d
00000110: 689b 2c3c d2cf 64bd c82e 79bd 186e 83bd
00000120: c6e1 0e3d 98fb abbc 9867 ce3c 5c6e 883d
00000130: 7be3 a4bd a80f 3bbd 8686 4ebd 085c 623d
00000140: 4908 37bd e0c5 8f3c 381d 713d e4eb 663d
00000150: 5c1b efbc 9eed 8abd c092 933a 1cc8 93bd
00000160: 528c 913d 9916 36bd b0e4 d23c 3891 643d
00000170: f817 513d c0a5 d0ba c07b 89bd 70d5 ce3b
00000180: ea30 a5bd 24ab 773d 7a44 cdbc 148e 483d
00000190: e874 c0bc 1c3e cdbc 4ca0 edbc d460 f03c
000001a0: d00d 96bd e856 983c d003 463d 00d7 933a
000001b0: d355 16bd 1575 a2bd 3a6c 9abd 60d8 943b
000001c0: f436 763d 7ef5 9e3d 36d6 f0bc 78a4 323d
000001d0: bc3c ddbc 66cb 9e3d 40d3 3c3b f0f4 8d3c
000001e0: 0e28 943d f84f 6bbd e072 f6bc 9cc9 92bd
000001f0: 94e2 83bc ac5b 57bd 2d5c 1abd d4a2 0e3d
00000200: 7854 da3c dc6a 79bd e0eb 5c3d 409d 583d
00000210: a051 33bd 4ceb 883d 5490 323d a0c4 2ebd
00000220: 414d 92bd 312d 84bd fc54 e5bc 5489 983c
00000230: acc8 803d 603c babb 440a 6e3d f0e4 413c
00000240: a83e 6bbc 89a5 51bd f29b 8c3d 58af 003d
00000250: d0fe 643d ec18 e93c 86c8 14bd 08ab 733d
00000260: bbac 0fbd 008f 54bb c431 a43d 08c6 39bd
00000270: 5fd5 20bd b8b1 20bc 6ee4 7cbd f654 01bd
00000280: d30a 99bd 6c07 ba3c 68f8 6f3d a418 b23c
00000290: 680d 63bc 003f cc3a 624c b0bc 104c 8abc
000002a0: 4088 d23a 4a78 133d e015 30bc c6c4 32bd
000002b0: 0c1c e63c fe2f a4bc 2611 843d 2c49 6cbd
000002c0: 44f3 88bc 98cd 24bc 6823 233c 69a6 20bd
000002d0: f880 1fbc c607 a33d 409c c63a b084 033d
000002e0: 4425 c3bc d88c 6ebd 30a0 8dbb 04ca b0bc
000002f0: a0bc 6f3c bb59 a5bd 4c47 a43c 7890 563d
00000300: 6905 49bd 8c02 05bd 04da 163d 4021 233b
00000310: 8036 21bb b012 cabc a324 2dbd d894 a63c
00000320: 51cc 9ebd 42f8 333d 9941 80bd 984c 4e3d
00000330: f8b5 c6bc 3e86 8e3d 2049 233b bf9c 37bd
00000340: 60bb 7ebb c06f fcba aec0 61bd efbc 05bd
00000350: 9e0c 893d ceba 8b3d 4085 fabc 1828 443d
00000360: 5ce5 8abc 14b4 c13c 6019 d7bb 5054 cabc
00000370: 3f17 9abd c044 82bb 2ed5 803d 8af0 5fbd
00000380: cce6 8f3c 50cc ed3c de17 92bd f808 5d3d
00000390: 5ecc 13bd dc6a 8e3c 8e9d 063d 6e57 38bd
000003a0: a479 5ebd c021 2cbb b01c 863b f4bf 633d
000003b0: 90b6 1fbc a047 acbc fa4f 83bd f0d7 9c3d
000003c0: 9c58 e73c 4c43 113d daf9 a3bd 6ad1 153d
000003d0: 204e af3b 7abc 1fbd 38e2 2dbc 1033 98bd
000003e0: 78f1 f33c 401f fc3a 4c60 4e3d 0af8 173d
000003f0: 887b 093c 3c11 3ebd 12b7 89bd 5a24 9d3d
-0.03156044 0.07748592 -0.03954028 -0.066071324 0.01771482 -0.008784689 -0.01099997 0.050350115
-0.006074369 0.0538892 0.012655929 -0.08029784 0.016642883 -0.037028797 -0.043374848 -0.010636471
-0.051936977 0.0036057457 0.05643253 0.059701085 0.06225258 0.039025523 -0.06731114 -0.03278823
0.055619583 0.080060914 0.0738806 0.0117406845 0.0061077923 -0.07341675 -0.063663885 -0.045801997
-0.038000267 0.05788511 -0.04059688 -0.0569155 -0.06210587 0.0030966848 0.072145686 -0.037021898
0.068706855 0.00798969 -0.041845463 0.038289152 0.055194125 -0.0023338199 -0.062414512 0.056003824
0.080398485 -0.06474539 -0.059106708 0.040786818 0.029994465 -0.0063315406 -0.06987857 0.075772375
0.05724843 -0.027280785 0.04382395 -0.06138183 0.079077214 -0.07158045 -0.017443992 0.046960205
-0.08067684 0.052236483 -0.03404814 0.07976447 0.010535099 -0.055862255 -0.06083563 -0.06417483
0.034883283 -0.020993993 0.025195882 0.066616744 -0.08051201 -0.045669228 -0.05042126 0.05526355
-0.044685636 0.017550409 0.058865756 0.056377307 -0.02918785 -0.06783603 0.0011258945 -0.07215902
0.07106842 -0.044455145 0.025743812 0.055802554 0.05104825 -0.0015918538 -0.067130566 0.006312065
-0.0806597 0.060465947 -0.025057066 0.04896362 -0.023493245 -0.02505403 -0.0290071 0.029343046
-0.07326853 0.018596128 0.04834348 0.0011279285 -0.036702942 -0.07932488 -0.07540174 0.0045423955
0.060111 0.07761668 -0.029399019 0.04361388 -0.0270065 0.07753639 0.0028812438 0.01732871
0.07234202 -0.05744931 -0.030084074 -0.0716736 -0.016099252 -0.05257766 -0.037685562 0.034823254
0.026651606 -0.060892925 0.053935885 0.05288434 -0.043779016 0.06685504 0.043594673 -0.042667985
-0.07143641 -0.06453932 -0.027994625 0.01862017 0.06288275 -0.005683467 0.05811526 0.011834368
-0.0143582 -0.051183257 0.06865682 0.03141722 0.05590707 0.028454266 -0.036324047 0.05948928
-0.035076838 -0.0032433867 0.080173045 -0.045354873 -0.039265987 -0.009807996 -0.061741285 -0.031575166
-0.07472768 0.022708617 0.058586508 0.021740265 -0.013858177 0.001558274 -0.021520797 -0.016881973
0.0016062334 0.03600339 -0.010747403 -0.04364469 0.028089546 -0.020042416 0.06448583 -0.05768697
-0.01671756 -0.010058783 0.009957172 -0.0392212 -0.009735338 0.07960467 0.0015152767 0.032108963
-0.02382148 -0.058239788 -0.0043220744 -0.021580704 0.014632374 -0.08073755 0.020053528 0.05238387
-0.049077425 -0.032473132 0.03682901 0.0024891645 -0.0024599135 -0.024667114 -0.042271268 0.020334646
-0.07753814 0.04393793 -0.06262512 0.050366014 -0.024256691 0.069591984 0.0024915412 -0.04482722
-0.0038869008 -0.0019259378 -0.055115394 -0.032650884 0.0669186 0.068227395 -0.030581117 0.0478898
-0.01695507 0.023645438 -0.006564304 -0.024698406 -0.07523965 -0.003975481 0.06290661 -0.054672755
0.017566107 0.029028088 -0.071334586 0.05396363 -0.03608357 0.017384939 0.0328651 -0.045005254
-0.054315224 -0.0026265234 0.0040927753 0.055602983 -0.009748116 -0.021030247 -0.06411739 0.07658374
0.028240494 0.03546457 -0.0800664 0.036576666 0.0053498894 -0.038998105 -0.010613017 -0.074316144
0.029778227 0.0019235387 0.050384805 0.037101783 0.008391269 -0.046403155 -0.06724371 0.07672949

bn1.weight f4 [10]
00000000: 0000 803f 0000 803f 0000 803f 0000 803f
00000010: 0000 803f 0000 803f 0000 803f 0000 803f
00000020: 0000 803f 0000 803f
1.0 1.0 1.0 1.0 1.0 1.0 1.0 1.0
1.0 1.0

bn1.bias f4 [10]
00000000: 0000 0000 0000 0000 0000 0000 0000 0000
00000010: 0000 0000 0000 0000 0000 0000 0000 0000
00000020: 0000 0000 0000 0000
0.0 0.0 0.0 0.0 0.0 0.0 0.0 0.0
0.0 0.0

bn1.running_mean f4 [10]
00000000: 0000 0000 0000 0000 0000 0000 0000 0000
00000010: 0000 0000 0000 0000 0000 0000 0000 0000
00000020: 0000 0000 0000 0000
0.0 0.0 0.0 0.0 0.0 0.0 0.0 0.0
0.0 0.0

bn1.running_var f4 [10]
00000000: 0000 803f 0000 803f 0000 803f 0000 803f
00000010: 0000 803f 0000 803f 0000 803f 0000 803f
00000020: 0000 803f 0000 803f
1.0 1.0 1.0 1.0 1.0 1.0 1.0 1.0
1.0 1.0

res0.conv1.weight f4 [10, 10, 3, 3]
00000000: e592 ba3d 727b 7b3d b6ee 6f3d 81ab 8f3d
00000010: 2c47 f4bc bd18 44bd 3a83 463d 78b1 a8bd
00000020: 1009 c4bc bc2e b6bd 9d7a 893d 20bb 46bb
00000030: 908d c5bc d6ec 2c3d 19e6 acbd 0523 bc3d
00000040: 24df fe3c ee86 4d3d c885 96bd cadb 6a3d
00000050: 8650 483d 297f 943d 9629 92bd 62be 93bd
00000060: 44f8 f23c fc56 f33c e044 a63b c6e0 7d3d
00000070: 5b5f 943d 4072 c43a d538 a23d 7183 9fbd
00000080: b436 22bd 06cf 043d 2ce1 b9bd 3be6 ae3d
00000090: e327 cdbd a47e 90bd b2e2 70bd 6290 003d
000000a0: 2b0a b03d 05c3 c73d 40e1 5abb 127d 1e3d
000000b0: eead 45bd 3814 663c 1030 b8bb f282 6dbd
000000c0: 9691 343d 5a13 3abd e24d 433d f00d 3cbd
000000d0: 75b4 d03d 254b afbd 9295 6b3d cb7b a23d
000000e0: 68a0 93bc e750 91bd 1e9d 05bd c6d0 17bd
000000f0: a715 b33d 57f9 b2bd c727 d0bd b4e2 2abd
00000100: 7a12 003d 36c6 8bbd c039 083c e40c 44bd
00000110: e895 30bd f700 833d 28b2 293c a0da 96bc
00000120: b64c b0bd 30d9 13bc 38d2 913c db72 c63d
00000130: 320e 9bbd c0be b53a 772b d6bd 7e04 593d
00000140: 1d3b b8bd 2063 4bbb cd18 873d 16a8 72bd
00000150: 8061 1e3b 3dfb 8e3d 56ef 9fbd 11b8 893d
00000160: a0c5 1bbd f195 adbd 8d3f 963d 5707 b0bd
00000170: c273 243d 328d b5bd e7e2 be3d fcd1 80bd
00000180: 859c 9c3d 8c87 68bd 106a cfbd a392 a8bd
00000190: f06d 76bd 0284 723d b04f a4bb 84c0 febc
000001a0: b91b 813d 2895 f2bc 181e c7bc d9bf b9bd
000001b0: 4350 ab3d c8cc 663c 7d23 7dbd 177a 9a3d
000001c0: 2804 0cbc f472 8fbd 5054 aabd b8b6 1b3c
000001d0: 5768 9d3d 33cc b63d 36a1 90bd 8a78 04bd
000001e0: 23ae 6dbd a469 c0bd 81d6 a43d e0b5 8e3b
000001f0: 6fb8 b33d fd7f 58bd fda8 8a3d f04e d03b
00000200: 18e3 323c cef5 c7bd 0af1 cabd 28ad 82bc
00000210: 1a74 383d f465 18bd 5cc1 8dbd db65 8b3d
00000220: a528 a03d b5c9 cf3d 0e20 71bd 0193 a7bd
00000230: 62a9 11bd 468e 693d 6019 6a3b 9dc6 56bd
00000240: bbb7 a93d 12f6 d1bd 2172 a13d 193a 803d
00000250: 18fb 22bd 2c08 ad3c dbfc c33d 56cd 50bd
00000260: ee82 7c3d 2b45 923d ae7e cbbd fab5 553d
00000270: 36d7 c9bd 4d75 c83d 5d41 8dbd a025 433b
00000280: 86e7 173d 2a78 1a3d ecb4 50bd 9cd1 b0bc
00000290: dc25 a63c 59ee 983d cc8d da3c 7c49 8abd
000002a0: 530a 933d a0c0 d93b e6ad 293d 74f5 e4bc
000002b0: a84d 12bc f055 3cbc 646d d7bd 2a87 cebd
000002c0: 00b3 cbbd 8028 52bb a043 89bc 50d6 063c
000002d0: 50ad d3bb 34e8 1dbd 768d 0bbd d00f 8dbc
000002e0: 9b84 34bd 4ac8 353d b034 91bd 43ea d03d
000002f0: 364e 613d c037 6e3c c0de ee3b 6847 413c
00000300: 3626 7f3d bf30 993d 98cc 1e3c 58a9 68bd
00000310: 4ffe 873d b9a3 d63d e075 063b ea17 063d
00000320: e49f b9bd b450 f1bc 0871 3ebd e639 c9bd
00000330: feb5 2b3d 64d4 f8bc 9f09 833d 50bf 96bd
00000340: 3750 cb3d c8b9 84bc 4e97 0cbd 3569 cf3d
00000350: 2c07 cb3c 009a 203c 58a3 86bc be4f 433d
00000360: 5272 1d3d 866a 6a3d b657 3cbd a056 eabb
00000370: 0557 8f3d 4c84 bdbc a47f 8e3c 387e d9bc
00000380: a6b7 a4bd f02f fdbc be71 7cbd 811c af3d
00000390: e067 973c c8d5 d5bd 9fdf 813d 6c8a 97bd
000003a0: 78ec 8cbd 6ac9 10bd 0c07 abbd 1224 123d
000003b0: c7ee ba3d 06f4 253d b441 85bc 8330 9b3d
000003c0: 3ae4 1f3d 623a d2bd 661c 27bd 880b e1bc
000003d0: f395 b8bd 4437 ad3c f093 b2bd d082 b8bd
000003e0: 1752 a63d 2b54 a73d 5c30 fa3c c831 76bc
000003f0: d4b6 9bbd d82e 0fbd eb58 7dbd 8ea8 b0bd
0.09110049 0.061397023 0.058577262 0.07015134 -0.029819094 -0.047875155 0.04846499 -0.082369745
-0.023930103 -0.088956326 0.0671284 -0.0030323938 -0.024115354 0.04221805 -0.08442325 0.09186367
0.031112261 0.050177507 -0.073497355 0.057338513 0.048904918 0.072508164 -0.07136838 -0.07214047
0.029659398 0.029704563 0.0050741285 0.06198194 0.0724475 0.0014987662 0.07920996 -0.07788742
-0.03960295 0.032423995 -0.09076151 0.08540007 -0.100173734 -0.07055405 -0.058809943 0.031387694
0.085956894 0.09753994 -0.003339842 0.038693495 -0.048261575 0.014042906 -0.005620964 -0.057986207
0.044084154 -0.04542861 0.047681697 -0.04591173 0.101906694 -0.085592546 0.05751569 0.07933768
-0.018020824 -0.07095509 -0.03262054 -0.037064336 0.08744364 -0.08738964 -0.10163837 -0.041720107
0.03126762 -0.06824915 0.00831455 -0.047863856 -0.04311171 0.063966684 0.010357417 -0.018414795
-0.086083815 -0.0090239495 0.017800435 0.09689876 -0.07571067 0.0013866052 -0.10457509 0.0529828
-0.0899565 -0.0031034425 0.06596527 -0.05924233 0.0024167001 0.06981514 -0.078093216 0.06724561
-0.038030267 -0.08475865 0.0733634 -0.0859515 0.040149458 -0.088648215 0.09320622 -0.06290051
0.07647041 -0.056769893 -0.10127652 -0.08231094 -0.06016344 0.059207924 -0.0050143823 -0.031097658
0.06304116 -0.029612139 -0.024306342 -0.09069795 0.08364918 0.01408691 -0.061801422 0.07542818
-0.008545913 -0.070043474 -0.083168626 0.009504013 0.07685917 0.08925667 -0.070619985 -0.032341518
-0.058027398 -0.09395149 0.08048726 0.0043551773 0.08775412 -0.052856434 0.06770513 0.0063570663
0.010918401 -0.097636804 -0.09909256 -0.015951708 0.045032598 -0.037206605 -0.06921646 0.06806537
0.07820252 0.101458944 -0.05886846 -0.08182336 -0.035561927 0.05702045 0.003572069 -0.052435506
0.08286997 -0.10252012 0.078830965 0.06261081 -0.039790243 0.02112206 0.09569713 -0.050977074
0.0616483 0.07142099 -0.099362716 0.0521755 -0.09855501 0.09787998 -0.06897233 0.0029777065
0.037086032 0.037712254 -0.05095379 -0.021584325 0.020281725 0.07467336 0.026678942 -0.06752297
0.071797036 0.006645277 0.041425608 -0.027949072 -0.0089296475 -0.0114950985 -0.105189115 -0.10084374
-0.09946251 -0.0032067597 -0.016755879 0.008229807 -0.0064598694 -0.038551524 -0.034070455 -0.017219454
-0.044071775 0.044380464 -0.070901275 0.10200932 0.05500623 0.014539659 0.0072897375 0.01179681
0.0622923 0.07480001 0.009692334 -0.056802124 0.066403024 0.10480446 0.0020517036 0.03273765
-0.090637 -0.029457428 -0.046494514 -0.098254964 0.04192161 -0.030374713 0.063983195 -0.07360709
0.09927409 -0.016201869 -0.034323983 0.101274885 0.024783693 0.009802341 -0.01643531 0.04768347
0.038439102 0.057230495 -0.045982085 -0.00715144 0.069990195 -0.023134373 0.017394848 -0.026549444
-0.08042841 -0.030906647 -0.06163191 0.085503586 0.018482149 -0.10441166 0.063414805 -0.07399449
-0.0688104 -0.035348333 -0.083509535 0.03567893 0.091275744 0.040515922 -0.016266681 0.07577612
0.039036013 -0.10265042 -0.040798567 -0.027471319 -0.090129755 0.021144517 -0.08719623 -0.090093255
0.08121126 0.08170351 0.030540638 -0.015026517 -0.07603231 -0.034956783 -0.061852377 -0.08625899

res0.bn1.weight f4 [10]
00000000: 0000 803f 0000 803f 0000 803f 0000 803f
00000010: 0000 803f 0000 803f 0000 803f 0000 803f
00000020: 0000 803f 0000 803f
1.0 1.0 1.0 1.0 1.0 1.0 1.0 1.0
1.0 1.0

res0.bn1.bias f4 [10]
00000000: 0000 0000 0000 0000 0000 0000 0000 0000
00000010: 0000 0000 0000 0000 0000 0000 0000 0000
00000020: 0000 0000 0000 0000
0.0 0.0 0.0 0.0 0.0 0.0 0.0 0.0
0.0 0.0

res0.bn1.running_mean f4 [10]
00000000: 0000 0000 0000 0000 0000 0000 0000 0000
00000010: 0000 0000 0000 0000 0000 0000 0000 0000
00000020: 0000 0000 0000 0000
0.0 0.0 0.0 0.0 0.0 0.0 0.0 0.0
0.0 0.0

res0.bn1.running_var f4 [10]
00000000: 0000 803f 0000 803f 0000 803f 0000 803f
00000010: 0000 803f 0000 803f 0000 803f 0000 803f
00000020: 0000 803f 0000 803f
1.0 1.0 1.0 1.0 1.0 1.0 1.0 1.0
1.0 1.0

res0.conv2.weight f4 [10, 10, 3, 3]
00000000: 76f0 3d3d eef3 cdbd 4041 a6bc 3397 8e3d
00000010: 7432 cd3c 3867 0ebc 74a8 90bc 9b8d 85bd
00000020: b719 8fbd 7991 5dbd ace0 41bd e617 043d
00000030: 33e1 8f3d d138 69bd f016 2d3c ae57 703d
00000040: 83fe d63d 6391 843d e6c8 0a3d 0c5c 91bc
00000050: b2f0 3e3d 6230 b0bd 7a2c 29bd 843c e3bc
00000060: d6ac 8bbd 393c a93d bdab 983d e6c8 2bbd
00000070: 9cc6 9dbc 3fdf a13d 00ae 4fba cff5 cebd
00000080: 91fa c9bd 202f 5cbd e505 d2bd cbba 913d
00000090: 7484 ec3c 9c90 e93c 884e a8bc 8071 c7bc
000000a0: 53e5 933d 5e8c 14bd 64d4 2abd 60e3 92bd
000000b0: f996 923d 4d54 903d e776 bfbd 24fc d0bd
000000c0: d0d5 693c b202 083d a0f2 35bb 1817 a4bc
000000d0: 5098 e3bb f4cd adbd a098 0f3b d0f0 2bbd
000000e0: 2cfb e6bc 3801 04bc ab0a afbd 69e5 9c3d
000000f0: aac2 773d 6a80 84bd ab55 d73d 5e8a 22bd
00000100: 9d41 ad3d 950d 54bd 3825 78bd a64a 773d
00000110: 3ff0 a7bd 678f b0bd 6471 dbbc b763 bbbd
00000120: d455 bcbc 152f b23d 1fdd 803d 393e ac3d
00000130: a7a3 9bbd d986 d43d b1c0 b8bd c75a 9f3d
00000140: 27b1 31bd 8590 acbd 2607 c1bd 143f c33c
00000150: 949e 0abd bd22 8d3d 0863 d5bc 5070 f4bc
00000160: 40b4 1c3b 96e0 0b3d 48de 85bd 321a 2ebd
00000170: b3f5 c63d cb79 7ebd 8040 ecba 23c0 b33d
00000180: f4dd 853c 1c4a c4bd bc96 933c 40eb ff3a
00000190: 5c8c 92bd ecbb fd3c 1434 a23c cbb1 cc3d
000001a0: 5ced bf3c e6af a8bd 89b8 893d 6bf3 4dbd
000001b0: 40e7 22bd 303a 08bc e87b 36bc 27cd 873d
000001c0: d9e3 c13d 185a 88bd 440f dabc 00ea 66bd
000001d0: 49b1 a5bd 4ec5 25bd 3861 1d3c c3b0 b73d
000001e0: 8867 01bd 685a bcbc 00aa 76ba 76de 193d
000001f0: 5e98 403d 40fd 4cbc 809e 39bc ae4c 23bd
00000200: bfbd 7abd e310 b2bd 4a45 7bbd 09fe a9bd
00000210: 08b4 223c a087 b3bc 25d1 9b3d f099 6fbd
00000220: ef22 b9bd a0eb 23bd 3a15 543d 664a 0c3d
00000230: 35c3 90bd f32f 9d3d d102 75bd e01e 443b
00000240: 7b22 813d b5e9 83bd da9d b1bd bad8 793d
00000250: 9ca0 a6bd 6db6 82bd f3da d53d bae0 133d
00000260: 7490 febc 40f0 c6ba 8b02 9b3d 1ab2 88bd
00000270: 5d54 cdbd 90e0 8a3c 947f d0bd 4328 aebd
00000280: df22 af3d 036d 8a3d 7263 563d 98ec e4bc
00000290: b7f0 9e3d 8011 2c3a d48d a4bc 2045 a8bc
000002a0: 64b6 db3c dbc6 d73d 137d 87bd 3ae3 0abd
000002b0: 3022 febb a64f 20bd 750e c8bd 00f3 7a3a
000002c0: 1c84 b5bd 214d a33d fbad 8ebd feec 01bd
000002d0: 24bd 71bd 269a 3e3d 484f 213c e0a8 16bc
000002e0: 5e58 373d b8db 59bc d0c3 abbb b762 a73d
000002f0: 7df7 8f3d 5230 16bd 18a2 01bc 4044 16bb
00000300: 5594 a0bd e0d0 7f3b 40f3 8c3c cdea ca3d
00000310: 3ccf f13c c70a c6bd ca23 2fbd f507 8bbd
00000320: b25a 6c3d 9a19 343d 743d b13c d4d4 a13c
00000330: c9bb b73d 5b73 88bd cc1f bbbc 98e9 40bd
00000340: 28cc cfbc 668e 22bd d447 08bd 28b5 d2bd
00000350: 2dfd ad3d 0d03 c73d 19ed ba3d cc16 81bc
00000360: 12ac 3d3d 48bb 93bc 9675 a0bd 02a6 2d3d
00000370: d0ee b93b f464 dbbc 4071 4abd b619 133d
00000380: 1c39 8dbd 701a bfbc f032 f4bc a0ad 6abb
00000390: c670 033d 9948 55bd 52ba 653d 8a9b 583d
000003a0: dc72 4abd 30ee a9bc b258 cdbd 3fab c0bd
000003b0: 0188 983d 5db8 c13d 3443 ca3c 905d c9bd
000003c0: 8039 853c b173 c43d 8ec6 6e3d 603b b83b
000003d0: 2cda f13c 3885 f3bc 6723 a9bd e138 3cbd
000003e0: 76fa 2e3d 7a49 3d3d d17e 833d f7bb 60bd
000003f0: 2674 b0bd e047 c7bb a06b 43bb 58f4 2ebc
0.0463719 -0.100562915 -0.020294785 0.06962433 0.025048472 -0.008691601 -0.01765845 -0.0652115
-0.069873266 -0.05409381 -0.047333404 0.032249354 0.07025375 -0.05693895 0.010564551 0.058677368
0.10497763 0.06473043 0.033882998 -0.017744087 0.046616264 -0.08602978 -0.04130218 -0.027738817
-0.06820075 0.0826344 0.074546315 -0.04193964 -0.019259743 0.07903909 -0.00079223514 -0.10105478
-0.09862245 -0.05375588 -0.102550305 0.07115706 0.028871752 0.028511338 -0.02054526 -0.024346113
0.072214745 -0.036266677 -0.041706458 -0.071722746 0.07157702 0.07047329 -0.09348851 -0.10204342
0.014272168 0.033205695 -0.0027763024 -0.020030543 -0.0069456473 -0.08486548 0.002191104 -0.041977704
-0.02819594 -0.008056931 -0.08546957 0.07660944 0.06048838 -0.064698055 0.10514387 -0.03968274
0.0845978 -0.051770765 -0.06058237 0.060373925 -0.0820012 -0.08621102 -0.026787467 -0.091498785
-0.022990145 0.087003864 0.062921755 0.084103055 -0.075995736 0.10377283 -0.09021128 0.07780986
-0.043381836 -0.084260024 -0.094251916 0.023833789 -0.033842638 0.068913914 -0.026048198 -0.029838711
0.0023911148 0.03414973 -0.065365374 -0.04250545 0.09714832 -0.06212787 -0.0018024594 0.087768815
0.016341187 -0.09584448 0.018016212 0.0019525066 -0.07155678 0.030973397 0.019800223 0.09994849
0.023428611 -0.08236675 0.067246504 -0.05028097 -0.03977132 -0.008314654 -0.01113794 0.066309266
0.094672866 -0.06657809 -0.026618607 -0.056375504 -0.08090455 -0.040471368 0.009605698 0.089692615
-0.031592876 -0.022992328 -0.0009409487 0.03756567 0.04702031 -0.012511551 -0.011329293 -0.03986805
-0.061216112 -0.08694627 -0.061345376 -0.083004065 0.009930618 -0.021915257 0.076082505 -0.058496416
-0.09039866 -0.04001963 0.051778056 0.03425064 -0.07068483 0.07675161 -0.05981714 0.002992563
0.06305405 -0.064410605 -0.08672686 0.060997702 -0.081361026 -0.06382451 0.10442152 0.036102988
-0.03107474 -0.0015177801 0.075688444 -0.06674595 -0.10025857 0.016952783 -0.101805836 -0.08503773
0.08551573 0.067590736 0.052340932 -0.027944848 0.077607565 0.0006563887 -0.02008716 -0.020540774
0.026820369 0.105359755 -0.06615653 -0.033908106 -0.0077555403 -0.03913846 -0.097683825 0.0009572953
-0.088630885 0.079736955 -0.06966778 -0.031720154 -0.05901827 0.046533726 0.009845562 -0.009195536
0.044762008 -0.013297014 -0.0052418485 0.08173125 0.070296265 -0.036667176 -0.007912181 -0.0022928864
-0.07840792 0.0039034411 0.017205834 0.09908066 0.029517762 -0.09670024 -0.04275874 -0.06788627
0.05770368 0.043969728 0.021635748 0.019754805 0.08971364 -0.06662627 -0.02284231 -0.047097772
-0.025365904 -0.039686583 -0.033271626 -0.10288459 0.08495555 0.09717379 0.09127254 -0.01575794
0.046306677 -0.018033639 -0.07834928 0.042394646 0.0056742206 -0.026781537 -0.04942441 0.03591319
-0.068956584 -0.023328036 -0.029809445 -0.0035809055 0.03208997 -0.052071188 0.056085892 0.05288271
-0.049425945 -0.02074346 -0.10026683 -0.094076626 0.07447816 0.09458993 0.024690248 -0.09832299
0.01626277 0.09592379 0.058294825 0.0056223124 0.029522978 -0.02972661 -0.082587056 -0.04595268
0.042719327 0.04621265 0.06420673 -0.054866757 -0.086159036 -0.006081566 -0.0029818788 -0.010678373

res0.bn2.weight f4 [10]
00000000: 0000 803f 0000 803f 0000 803f 0000 803f
00000010: 0000 803f 0000 803f 0000 803f 0000 803f
00000020: 0000 803f 0000 803f
1.0 1.0 1.0 1.0 1.0 1.0 1.0 1.0
1.0 1.0

res0.bn2.bias f4 [10]
00000000: 0000 0000 0000 0000 0000 0000 0000 0000
00000010: 0000 0000 0000 0000 0000 0000 0000 0000
00000020: 0000 0000 0000 0000
0.0 0.0 0.0 0.0 0.0 0.0 0.0 0.0
0.0 0.0

res0.bn2.running_mean f4 [10]
00000000: 0000 0000 0000 0000 0000 0000 0000 0000
00000010: 0000 0000 0000 0000 0000 0000 0000 0000
00000020: 0000 0000 0000 0000
0.0 0.0 0.0 0.0 0.0 0.0 0.0 0.0
0.0 0.0

res0.bn2.running_var f4 [10]
00000000: 0000 803f 0000 803f 0000 803f 0000 803f
00000010: 0000 803f 0000 803f 0000 803f 0000 803f
00000020: 0000 803f 0000 803f
1.0 1.0 1.0 1.0 1.0 1.0 1.0 1.0
1.0 1.0

res1.conv1.weight f4 [10, 10, 3, 3]
00000000: d2e6 073d 2fda 88bd 2e55 3ebd c401 b2bd
00000010: 2c8f ef3c 9476 47bd f662 5a3d a21c 453d
00000020: 9a8c 393d 7078 c33b 2c8a b2bc 8c0c 8bbd
00000030: 7fc0 b7bd 1daa 38bd fc98 d73c 35a9 a9bd
00000040: f961 3fbd 389b c7bc 5f40 943d b1f5 a0bd
00000050: 9b3d 813d 2c00 afbd 74df e1bc 88a7 42bc
00000060: 26ff 383d 0166 883d b5a6 8b3d fe70 09bd
00000070: 18ac 2abc 4409 12bd 828b 643d bcaa babc
00000080: 2705 a1bd 618e 5abd 5ea3 9bbd d8d3 84bc
00000090: 6034 31bb 200c f5bb daa1 1dbd 7837 d5bd
000000a0: 6f8e b03d 329e 203d c849 553c aabb 533d
000000b0: 1bd1 923d 6337 a2bd 08a2 0fbd 406d ad3b
000000c0: 8723 d4bd fd54 6dbd 7238 d7bd 2d1c cf3d
000000d0: d0d6 ccbb d125 6cbd ee0f 063d 0030 a03c
000000e0: 7e05 403d 4afc 703d 0ff1 b73d fcf2 2bbd
000000f0: dcdf b7bd 0c30 ba3c 44f2 74bd 20f2 4dbd
00000100: 44f6 c63c a002 78bc eb27 c03d b8b6 363c
00000110: 072a a63d dc77 03bd e4e6 d53c e490 b63c
00000120: 9e82 5a3d 5c1f f33c 4047 253b 9ea5 0f3d
00000130: 79ba 47bd ad65 983d 6177 adbd 61f5 86bd
00000140: 7dc6 af3d c49b 35bd 26c4 1e3d e295 69bd
00000150: 5332 49bd 2942 d33d fe1d b0bd 8091 663c
00000160: c2ec a9bd 7a68 553d 0096 e0bb 73b8 953d
00000170: 236f 75bd c02e d13b 4769 d1bd 384a d4bd
00000180: f49f f2bc 5220 90bd 4b77 973d 1052 32bd
00000190: e096 563b 42f2 773d 331c d43d 2034 48bb
000001a0: 7bb0 8c3d 4d96 963d 7b93 a83d 7078 27bc
000001b0: 0cf4 c5bc 6044 c23b 1c30 843c 4e4e 8bbd
000001c0: 7290 afbd 4991 a9bd 4c88 13bd c0c6 bebd
000001d0: 32cc 223d cd46 c7bd 685b 9bbd b423 eb3c
000001e0: 1681 a8bd 3435 74bd d589 9e3d b87d 8c3c
000001f0: f94d 5dbd 706b bd3b 897b cc3d 16fe 083d
00000200: cf7d c43d 22e3 543d c0e1 1c3b 206e 20bb
00000210: 0439 c53c bd77 a83d 6e96 6b3d b239 98bd
00000220: d19a b73d 9fde bbbd 9dfc a1bd 017b 68bd
00000230: 8da3 a93d 46e5 603d e460 903c 1c95 c53c
00000240: 5da1 a73d c350 8e3d d064 e3bb f804 29bc
00000250: 905a 133c 72b2 7b3d 7273 033d ba1d 94bd
00000260: 3123 ba3d 59ab bd3d 6810 90bc 1073 6f3c
00000270: 90a1 98bd 7751 ba3d ccb3 bd3c d93f a33d
00000280: e004 85bc a241 82bd 8103 d1bd 7408 b23c
00000290: b31d 51bd d0f1 1fbc 88c5 06bd 40b8 183c
000002a0: 25e5 953d ec49 9abd 57e1 c63d 6613 64bd
000002b0: 30ea 26bc cc88 913c 304c 963b 7068 87bb
000002c0: fb03 973d 60d3 9dbb 5ed8 513d e47b be3c
000002d0: c703 57bd d0a4 913b d1ed 32bd 5c2d 04bd
000002e0: 1000 bebd a854 b5bc 7254 223d 2f7a b03d
000002f0: 3dfc bfbd 62d0 043d 1838 1a3c cc5c 99bd
00000300: 1d55 8fbd 344e d03c 001b b7bc e00e 213c
00000310: 3cba 9bbd 7ab7 313d f774 b83d 4002 363b
00000320: dbb7 943d 0084 1e3b 35aa 3abd e038 cdbd
00000330: 80bb 2b3b 7f0f d13d 8aa2 aabd c690 573d
00000340: 1dfb bfbd 78ed e4bc 0e22 b3bd 50d2 f83b
00000350: 3acd 093d 8070 1d3a 0c8f 7cbd d64f 0a3d
00000360: 0cab afbd 6be1 51bd d1a7 88bd 244b be3c
00000370: d522 9f3d c4cf e53c 92b1 4e3d 2fdd 81bd
00000380: ee37 b6bd 0803 e0bc 13d8 ac3d 5d0e 9e3d
00000390: 92f0 563d f473 ad3c 63aa 40bd 4256 363d
000003a0: d8df 1abd dc89 d23c 9521 b33d de5a 353d
000003b0: d10a d73d deb8 24bd a26f 4abd 8611 753d
000003c0: 9bef 5bbd 8679 35bd 5410 fa3c 1eaf 253d
000003d0: a425 853c 37a4 ba3d c80d 1bbd 6e96 5d3d
000003e0: 646c 83bd 2b26 3cbd 6cf3 b5bd 5aee 01bd
000003f0: 0c3c 8cbc 98e8 59bc bee7 443d 9cac 92bd
0.03317911 -0.0668224 -0.046467952 -0.08691743 0.029243074 -0.04869707 0.053317033 0.04812301
0.045300104 0.005965285 -0.021794401 -0.067895025 -0.089722626 -0.045084108 0.026318066 -0.08284227
-0.046724293 -0.024366006 0.0723884 -0.07859362 0.063105784 -0.08544955 -0.027572371 -0.011880763
0.045165204 0.06660081 0.06818906 -0.033555023 -0.010417007 -0.035653368 0.055797108 -0.02278649
-0.07862311 -0.05335844 -0.07599519 -0.016214296 -0.0027039275 -0.007478252 -0.03848443 -0.104109704
0.08620917 0.039213367 0.013018079 0.051692642 0.0716879 -0.079207204 -0.035066634 0.0052925646
-0.10358339 -0.05794238 -0.10508813 0.10112796 -0.0062511936 -0.057653252 0.032730035 0.019554138
0.046880238 0.05883435 0.08981525 -0.041979775 -0.08978245 0.022727989 -0.059801355 -0.050279737
0.02428735 -0.015137345 0.09382614 0.011151962 0.08113485 -0.03209673 0.026111074 0.022285886
0.053347223 0.02967804 0.002521947 0.035070054 -0.04876182 0.07441268 -0.08470035 -0.06589771
0.085827805 -0.044338003 0.03876128 -0.057027705 -0.04912026 0.103153534 -0.085994706 0.014072776
-0.08297111 0.05210159 -0.006853819 0.073105715 -0.05992044 0.006383747 -0.10225158 -0.103657186
-0.029617287 -0.070374146 0.073958 -0.043535292 0.0032743737 0.06053377 0.10356941 -0.0030548647
0.068695985 0.07352886 0.08231255 -0.010221586 -0.024164222 0.005928561 0.016136222 -0.06802045
-0.08572473 -0.08279664 -0.036018655 -0.09315252 0.039745517 -0.09730301 -0.07585794 0.028703548
-0.08227746 -0.05962105 0.07741133 0.017149791 -0.05402944 0.00578063 0.099845 0.03344544
0.095943086 0.051974423 0.0023938268 -0.0024479702 0.024075039 0.08225963 0.057516508 -0.074328795
0.08965076 -0.09173321 -0.0790951 -0.05675793 0.08283148 0.054906152 0.017624326 0.024118952
0.081850745 0.06948998 -0.006939508 -0.010316126 0.00899376 0.061449476 0.03209252 -0.072322324
0.090887435 0.092611976 -0.017585948 0.014614835 -0.074526906 0.090975694 0.023157023 0.07971162
-0.016237676 -0.06360175 -0.102057464 0.021732546 -0.051053714 -0.009762242 -0.032903224 0.009321272
0.073190965 -0.07533631 0.09710949 -0.055682562 -0.010187671 0.017765425 0.004586719 -0.004132323
0.07373806 -0.0048164576 0.051231734 0.023252435 -0.052493837 0.004444696 -0.04368383 -0.03226982
-0.09277356 -0.022135094 0.039631315 0.08617055 -0.093742825 0.03242529 0.009412788 -0.07488403
-0.06998656 0.025427915 -0.022351742 0.009830207 -0.07603881 0.043387868 0.09006684 0.0027772337
0.0726163 0.0024187565 -0.04557248 -0.10020614 0.0026204288 0.10208034 -0.08331783 0.0526283
-0.09374068 -0.027945265 -0.0874673 0.0075934306 0.033642985 0.00060058385 -0.061659858 0.033767544
-0.085775465 -0.051240366 -0.066726334 0.02322919 0.077703156 0.028053172 0.050462313 -0.063410155
-0.088973865 -0.027345195 0.084396504 0.07717583 0.05247552 0.021173455 -0.047037493 0.044515856
-0.03781113 0.025700502 0.0874664 0.04427611 0.1050011 -0.040215366 -0.049422868 0.059831165
-0.053695302 -0.044305347 0.030525364 0.040450208 0.0162533 0.09113353 -0.03785494 0.05409854
-0.06417158 -0.045934837 -0.0888432 -0.03172145 -0.017118476 -0.013300084 0.04807257 -0.07161829

res1.bn1.weight f4 [10]
00000000: 0000 803f 0000 803f 0000 803f 0000 803f
00000010: 0000 803f 0000 803f 0000 803f 0000 803f
00000020: 0000 803f 0000 803f
1.0 1.0 1.0 1.0 1.0 1.0 1.0 1.0
1.0 1.0

res1.bn1.bias f4 [10]
00000000: 0000 0000 0000 0000 0000 0000 0000 0000
00000010: 0000 0000 0000 0000 0000 0000 0000 0000
00000020: 0000 0000 0000 0000
0.0 0.0 0.0 0.0 0.0 0.0 0.0 0.0
0.0 0.0

res1.bn1.running_mean f4 [10]
00000000: 0000 0000 0000 0000 0000 0000 0000 0000
00000010: 0000 0000 0000 0000 0000 0000 0000 0000
00000020: 0000 0000 0000 0000
0.0 0.0 0.0 0.0 0.0 0.0 0.0 0.0
0.0 0.0

res1.bn1.running_var f4 [10]
00000000: 0000 803f 0000 803f 0000 803f 0000 803f
00000010: 0000 803f 0000 803f 0000 803f 0000 803f
00000020: 0000 803f 0000 803f
1.0 1.0 1.0 1.0 1.0 1.0 1.0 1.0
1.0 1.0

res1.conv2.weight f4 [10, 10, 3, 3]
00000000: 1e18 60bd 3e0e 4fbd d33d 943d edcc b43d
00000010: bdc7 68bd ecef 963c 59e4 c5bd c900 bfbd
00000020: d015 fdbb ac52 af3c 27a5 a03d 8252 72bd
00000030: 01b6 b03d 1a1d 5abd 52dc 353d 0c6c cbbd
00000040: 0320 a23d b151 823d f4d8 a43c c7a3 803d
00000050: 4082 efbb 9efe 4fbd f6d4 233d 2b86 aebd
00000060: 45a4 d23d d77f a33d 964c 433d b895 f7bc
00000070: 18bd 5d3c f0b6 debc be64 133d 4f30 d53d
00000080: 18b4 613c 5a9d 85bd bca4 2cbd 703e 8abb
00000090: adda 65bd 9466 9c3c 1f32 a9bd 3b8d 9b3d
000000a0: f9c0 7cbd ee5b 103d e691 1e3d 8cec 20bd
000000b0: 6a1b 1d3d fb6b 913d 5690 363d e015 dc3b
000000c0: 8db4 d63d 008d c9bd 9b6d c93d 9764 863d
000000d0: 80e5 be3b 68e3 4f3c e3f7 bb3d 2f55 cb3d
000000e0: 02c2 093d 8074 473b 633a cabd 1e3c aebd
000000f0: 7896 373c 9f78 bebd 3e0f bcbd 3300 ae3d
00000100: 5e78 3b3d 6a73 24bd 226d 6b3d 5182 ac3d
00000110: 6802 abbd 2bfb d23d 2359 c63d f0f6 353c
00000120: fd2a 84bd 7ec0 8bbd 9be3 8d3d 31f2 c0bd
00000130: a0c6 473c 4cbd 963c d486 cf3c 7016 85bc
00000140: fa0f 0cbd 61df bf3d 5700 843d fa86 34bd
00000150: 129c 623d cb20 ae3d 1178 8c3d fcb1 0bbd
00000160: d60f 203d e6ea 3dbd 44d8 f23c 3054 4c3c
00000170: 2408 a73c e6f7 b0bd 9047 b1bc 7a42 703d
00000180: 9462 923c 20c1 b5bc 8d57 bf3d d2fe c6bd
00000190: 80ea e73b ac17 a0bc 3885 463c 982d 88bd
000001a0: ad4d 69bd 5a16 61bd 3b3e ab3d ec46 a2bd
000001b0: 0457 b03c 20ed 86bd 4c93 93bd fb17 8b3d
000001c0: 3ef9 483d 0110 b93d 9bc2 be3d 9e02 0d3d
000001d0: b08b 923c 7801 63bd 5a8f 0b3d 03a2 c53d
000001e0: 604b 503b 20a6 0cbd fa93 75bd d76b ba3d
000001f0: e8a9 52bd b3e8 d53d 3dd9 c73d 625c 0cbd
00000200: 7ec0 6bbd b056 083c 26de c3bd c5b4 ca3d
00000210: 615f b7bd 7465 cc3c 9610 0b3d 3c47 a2bc
00000220: d4bf e63c fcf1 babd 3d51 d63d 890c 60bd
00000230: 7af4 6c3d 2049 c7bb 324a 7b3d f5e4 c63d
00000240: f14a abbd 0e84 14bd 0623 523d 085c 17bd
00000250: 900b 993b 65c6 bbbd 40be c5ba 5838 853c
00000260: 68d3 91bc 7487 e0bc 2212 033d f4dc 2cbd
00000270: a71d 44bd 4d53 943d 1823 43bd 52aa 6e3d
00000280: 20a9 793c bfcc 993d 2715 b73d 1d66 97bd
00000290: 50d7 57bc 2426 c0bd 4223 2fbd 7dbb cf3d
000002a0: 5cc3 82bd e266 753d 0086 7bba 551e b4bd
000002b0: a8eb 25bc 5c0f f83c e085 aabb 58ac 8abd
000002c0: ba42 153d 6c46 a0bc 629c 21bd e092 373c
000002d0: 4742 d53d 4680 67bd 1009 edbb dcbf e63c
000002e0: f30d d23d 9c12 0ebd fe38 96bd a807 8abd
000002f0: 4692 143d 002a 48bb ee92 68bd f8f0 08bc
00000300: f0fa e4bc e852 14bc 01a0 d23d cc2a c83c
00000310: 50ab 06bc fdc2 d53d ac7e f13c 17d4 5dbd
00000320: 439b d73d 4476 f83c 15be b53d e5d9 8b3d
00000330: 1e40 653d 98a4 323c 042a 1bbd 0098 87bc
00000340: 9638 523d b144 8bbd 2bed a93d 3a56 9cbd
00000350: b1f9 c83d 242b 873c 1ae6 7a3d 5207 543d
00000360: 7a61 0a3d 5f10 61bd a49d bfbc ed7d 8d3d
00000370: 2a23 01bd fc5f fc3c 9820 91bc e797 3dbd
00000380: 9d0b 5fbd 9850 293c 60c1 0bbd 48a8 7dbc
00000390: 0048 fbba 3457 913c 6d46 b73d 6899 42bc
000003a0: 8098 2f3c 0c3d 28bd 8fca 8e3d b294 b9bd
000003b0: 0932 b4bd cebc 643d 0ced be3c c1f0 70bd
000003c0: 0444 8fbd 8033 b6bb 365a 653d 31b0 bebd
000003d0: 83c8 b13d 869d 063d 55c4 a2bd d818 0abc
000003e0: ea96 c0bd 0687 343d 6012 7a3b 30be 91bc
000003f0: 7d7b d53d 98f5 663c 2e1b 36bd a0ef b3bb
-0.0547105 -0.05055069 0.072383545 0.08828149 -0.05683111 0.01842495 -0.096626945 -0.09326322
-0.0077235475 0.021401726 0.07844 -0.059160717 0.086284645 -0.05325041 0.044399567 -0.09932718
0.07916262 0.06363238 0.020122983 0.06281238 -0.007309228 -0.05077993 0.039998017 -0.08521684
0.10285238 0.07983368 0.04768046 -0.030222759 0.013533853 -0.02718684 0.035984747 0.10409605
0.013775848 -0.06524153 -0.04214929 -0.004218869 -0.05611675 0.019091882 -0.08261513 0.07595297
-0.06170747 0.03524392 0.03871336 -0.03928809 0.038356222 0.07100674 0.044571243 0.006716475
0.10483656 -0.09841347 0.09835359 0.06562155 0.0058256984 0.012688495 0.0917814 0.09928357
0.033632286 0.003043443 -0.09874418 -0.0850756 0.011205308 -0.093003504 -0.09182595 0.08496132
0.045769088 -0.04014913 0.057477124 0.084232934 -0.08350068 0.10301813 0.0968497 0.011106238
-0.06453512 -0.06823824 0.06928178 -0.09421194 0.012193352 0.01840081 0.025332846 -0.01624605
-0.034194924 0.09368778 0.06445377 -0.044074036 0.05532462 0.085023485 0.06858838 -0.034105286
0.039077602 -0.046366595 0.02964414 0.012471244 0.020389624 -0.08641033 -0.021640569 0.058657147
0.017869271 -0.022186816 0.09342871 -0.09716572 0.007077515 -0.019542538 0.012116723 -0.06649321
-0.056958843 -0.054952957 0.08361479 -0.079236835 0.021525867 -0.06588197 -0.07205829 0.06791683
0.04906582 0.09036256 0.09314462 0.034426324 0.017888874 -0.055421323 0.034072258 0.09650042
0.0031783208 -0.034338117 -0.059955575 0.091026 -0.051431566 0.104447745 0.09758232 -0.03426779
-0.05755662 0.008321449 -0.09563856 0.0989776 -0.08953739 0.02495072 0.033951364 -0.019809358
0.028167643 -0.09128186 0.10464714 -0.054699454 0.05785034 -0.006081715 0.061350055 0.09711639
-0.08363903 -0.03625875 0.051302932 -0.036953002 0.004670568 -0.091687 -0.0015086606 0.016262218
-0.017801002 -0.02740834 0.031999715 -0.042202905 -0.04787984 0.07242451 -0.04764089 0.0582679
0.015238076 0.07509755 0.08939581 -0.073925234 -0.013173893 -0.09382275 -0.042758234 0.101431824
-0.06384918 0.05991257 -0.00095948577 -0.08794848 -0.010126986 0.030280761 -0.0052039474 -0.06771153
0.03644059 -0.01956483 -0.03945578 0.011204451 0.10413032 -0.056518815 -0.0072337463 0.028167658
0.10256567 -0.034685716 -0.07335089 -0.067397416 0.03627231 -0.0030542612 -0.056780748 -0.008358233
-0.027951688 -0.0090529695 0.102844246 0.02443447 -0.008219555 0.10437582 0.029479347 -0.054157343
0.10527661 0.030329831 0.08874146 0.068286695 0.05596935 0.0109035 -0.037881866 -0.016551971
0.051323496 -0.06800211 0.08297189 -0.07633634 0.0981325 0.016500063 0.0612546 0.051764794
0.033784367 -0.054947253 -0.023390599 0.06908784 -0.031527676 0.030807488 -0.017715737 -0.046287443
-0.054454435 0.010334156 -0.034119964 -0.015482016 -0.0019171238 0.017741777 0.089489795 -0.011877395
0.010717511 -0.041073844 0.06972229 -0.090615645 -0.08798606 0.05584412 0.023306392 -0.05882335
-0.06995395 -0.0055603385 0.055994235 -0.093109496 0.08680823 0.03286507 -0.079476036 -0.008428775
-0.094037846 0.04407408 0.0038157925 -0.017790884 0.10423944 0.01409664 -0.044459514 -0.005491212

res1.bn2.weight f4 [10]
00000000: 0000 803f 0000 803f 0000 803f 0000 803f
00000010: 0000 803f 0000 803f 0000 803f 0000 803f
00000020: 0000 803f 0000 803f
1.0 1.0 1.0 1.0 1.0 1.0 1.0 1.0
1.0 1.0

res1.bn2.bias f4 [10]
00000000: 0000 0000 0000 0000 0000 0000 0000 0000
00000010: 0000 0000 0000 0000 0000 0000 0000 0000
00000020: 0000 0000 0000 0000
0.0 0.0 0.0 0.0 0.0 0.0 0.0 0.0
0.0 0.0

res1.bn2.running_mean f4 [10]
00000000: 0000 0000 0000 0000 0000 0000 0000 0000
00000010: 0000 0000 0000 0000 0000 0000 0000 0000
00000020: 0000 0000 0000 0000
0.0 0.0 0.0 0.0 0.0 0.0 0.0 0.0
0.0 0.0

res1.bn2.running_var f4 [10]
00000000: 0000 803f 0000 803f 0000 803f 0000 803f
00000010: 0000 803f 0000 803f 0000 803f 0000 803f
00000020: 0000 803f 0000 803f
1.0 1.0 1.0 1.0 1.0 1.0 1.0 1.0
1.0 1.0

res2.conv1.weight f4 [10, 10, 3, 3]
00000000: 7a9e 633d ad36 8f3d 2063 ebbc 4714 803d
00000010: 6f37 9dbd cb68 ce3d d3ef cf3d a2e7 3e3d
00000020: 20dd 9f3c a738 77bd b9c7 38bd 5cf9 acbd
00000030: d6ab 583d ae9f 11bd cc5f c73c 54f9 a23c
00000040: f893 b6bc 6a85 01bd 9a5e a8bd ac31 f63c
00000050: 80e9 0bbc 2402 86bd 3ab1 3cbd 0ef9 15bd
00000060: af75 ad3d d6e6 3d3d 769f 433d 0008 e9b8
00000070: 7eac 48bd 2827 70bc ff18 9b3d 78d0 02bd
00000080: 058b 51bd a4e6 ee3c 4052 023c fbc7 a53d
00000090: 9c63 e03c 50ab 7abd 08ad bcbd b160 45bd
000000a0: f690 cabd b677 aabd 2151 99bd 1e1d 72bd
000000b0: d556 83bd 9628 523d 5738 96bd 3ec4 283d
000000c0: 9ebd 6ebd 25f2 d4bd fce9 30bd 277d bd3d
000000d0: 940f 873c 1699 7c3d 9e2c 793d 5ad1 693d
000000e0: 458a a13d 6e23 73bd 7ee3 83bd b021 1b3c
000000f0: 4e85 1c3d 5225 7fbd 2aa6 4f3d 3cb0 d4bd
00000100: f9a9 ae3d b6f4 503d 95c6 a13d 445c e73c
00000110: 0c20 adbd 4865 8fbd e62f c5bd 09b8 69bd
00000120: 091b 9b3d 30e0 3f3c 7810 573c e006 40bb
00000130: a07c 71bc dc07 93bc ea1e 97bd 560a 81bd
00000140: ab97 b6bd 47ed c73d 882e 0fbc b646 8ebd
00000150: 789f 553c 0a0e 623d ea34 50bd 007b c1bc
00000160: a8c1 d3bd f042 353c 8aba b6bd 6003 263b
00000170: e85b 2dbd d1cd b6bd 552f 8d3d 8031 7fbb
00000180: c0b8 1abd c62e 6e3d b61d 3f3d e8f1 90bc
00000190: 8934 d0bd 6b3c c3bd 83ec 97bd f08e 97bc
000001a0: ac6a b73c 0046 7cbd 9cd8 a53c a299 373d
000001b0: 1527 a53d 70d2 cdbd ad37 b93d d089 e3bc
000001c0: 77a0 913d 00a8 84ba 0c68 c9bd ee02 363d
000001d0: e3a1 aabd c87b b6bd 54b3 e2bc 0115 aa3d
000001e0: d8ab a6bc 5d0e b2bd 581d 1bbd 73c6 963d
000001f0: 026d 69bd a6e5 423d c788 b73d 0316 a83d
00000200: f2dc 4c3d 00c0 133a 3037 82bd 0015 47bc
00000210: 4129 ca3d c79f b23d 28b2 89bd c7d7 c6bd
00000220: 67e7 873d 2c5d 2fbd 39e3 b53d 095e 9e3d
00000230: 22d6 6f3d e676 38bd 1c38 ef3c 8f96 60bd
00000240: 543c 903c 7c73 41bd 40bc e9ba 014a 5ebd
00000250: c025 ddbb ff1e d2bd e0ef 2ebd e4d0 82bc
00000260: 38fc f0bc 3246 c1bd 9038 943b 109e 17bc
00000270: 2257 6b3d 3472 c03c 34a6 cd3c 844b bc3c
00000280: 3ee4 47bd 2028 433c 0c37 f6bc 6466 e53c
00000290: 7c7f abbd b0ef 873c 60ac 7f3b 8eb7 5b3d
000002a0: 20d6 393b f6c4 12bd 939c 4bbd f4cc b9bc
000002b0: ca0e 503d c03b d73b 80a1 bfbc 16de c2bd
000002c0: 80c5 89bb 045d d0bd 203a 273c e055 3fbd
000002d0: fa9b 80bd dc5c d5bc d522 993d 704d 173c
000002e0: 0bbb d13d 3ed1 553d 0c26 903c 91ae 5dbd
000002f0: d4fd e73c 201c 7a3c d071 acbc 0058 6ebb
00000300: 007b e3bc a3b8 c93d ea79 743d a4f8 8cbd
00000310: 4ee8 4b3d 75f8 7cbd 97ca 42bd e38c 43bd
00000320: f5ca 843d 7f57 7fbd d0e9 c1bd d840 0e3c
00000330: 6a16 7c3d ec62 c0bc 28f3 3c3c 8ffa 95bd
00000340: 6396 d03d 70fa 70bc 3e8f 173d 7465 cabc
00000350: 5e3d 91bd c6a9 423d f83a a9bc f334 c1bd
00000360: 9687 67bd 7852 84bd 918a a7bd 679b b9bd
00000370: a460 aebd e5da 813d 0270 043d 04cb 77bd
00000380: c34d 893d b86c abbd 69a5 a93d 209a c83b
00000390: 2052 b6bd 1a1c 663d c095 deba 547d cfbc
000003a0: b504 963d 2018 533c e8f4 b0bd d0f9 7b3c
000003b0: f0cd e73b 9ddb d03d 1129 c13d bdf8 cd3d
000003c0: 946c 91bd e017 c9bb c355 bd3d 8fd9 903d
000003d0: 9df8 b13d 903d 0fbd 6565 823d d87b b3bc
000003e0: 6067 babc 91ee b13d 8ca7 c4bc 5e78 1a3d
000003f0: 63d0 b2bd f495 c13c 5ae4 363d 6232 0c3d
0.055571057 0.069928505 -0.02873379 0.062538676 -0.07676589 0.100785814 0.10153165 0.04660762
0.01951462 -0.060356762 -0.045112345 -0.08445999 0.05289825 -0.035552673 0.024337672 0.01989428
-0.022287354 -0.031621374 -0.08221169 0.030052982 -0.008539557 -0.06543377 -0.046067454 -0.03661447
0.08469712 0.04636272 0.047759496 -0.00011111796 -0.048992626 -0.014657773 0.07573127 -0.031937093
-0.05115797 0.029162712 0.00795418 0.08094784 0.027391247 -0.061198533 -0.092126906 -0.048187915
-0.0989093 -0.08323614 -0.07486177 -0.0591098 -0.06413046 0.051308237 -0.07334965 0.041202776
-0.0582863 -0.10397748 -0.043191895 0.092523865 0.01648692 0.06166943 0.060833566 0.05708442
0.07887701 -0.05935996 -0.06439875 0.009468481 0.038213067 -0.06229145 0.050695576 -0.103851765
0.085285135 0.051014625 0.07899205 0.028242238 -0.08453378 -0.0700174 -0.096282765 -0.057060275
0.07573516 0.011711165 0.013126485 -0.0029300973 -0.014739186 -0.017948084 -0.07378943 -0.063007995
-0.08915647 0.09762054 -0.008739121 -0.06947081 0.013038509 0.05518917 -0.050831713 -0.023618221
-0.103396714 0.011063322 -0.08922298 0.0025331602 -0.042323977 -0.08925975 0.068937935 -0.0038939416
-0.037773848 0.058150075 0.046659194 -0.017693475 -0.1016627 -0.09533008 -0.07418158 -0.018500775
0.022389732 -0.061590195 0.020244889 0.04482425 0.08064095 -0.100499034 0.090438224 -0.027775675
0.07110684 -0.0010120869 -0.098342985 0.044436388 -0.08331659 -0.08910328 -0.027673401 0.083047874
-0.020345613 -0.08694146 -0.03786978 0.0736207 -0.056988724 0.04758229 0.08961635 0.082073234
0.050015397 0.0005636215 -0.063581824 -0.012151003 0.0987115 0.08721881 -0.06723434 -0.09709125
0.06635933 -0.042813465 0.0888123 0.077327795 0.058553822 -0.045035265 0.02920156 -0.054831084
0.017606892 -0.047229275 -0.0017832592 -0.054269794 -0.006748885 -0.10259818 -0.04270923 -0.015968747
-0.029417142 -0.09437217 0.0045233443 -0.009253994 0.057456143 0.023491956 0.025103666 0.022985227
-0.048801653 0.011911422 -0.030055545 0.028002925 -0.08373925 0.016593784 0.0039012656 0.05364185
0.0028356388 -0.035832368 -0.049709868 -0.022680737 0.050795354 0.006568402 -0.023392439 -0.09515016
-0.004204452 -0.10173991 0.010206729 -0.046712756 -0.0627975 -0.026045255 0.07477347 0.009234771
0.10240754 0.052201502 0.017596267 -0.054121558 0.028319277 0.015265495 -0.021050364 -0.003636837
-0.027768612 0.0984967 0.05968658 -0.06883362 0.04978209 -0.061760385 -0.047556486 -0.047741782
0.064840235 -0.062339302 -0.09468424 0.008682452 0.061544813 -0.02348467 0.011532582 -0.07323181
0.10184934 -0.014708146 0.03700184 -0.02470658 -0.07091783 0.04752519 -0.020658001 -0.094339274
-0.05652579 -0.06461042 -0.08180726 -0.09062844 -0.085145265 0.06340579 0.03233338 -0.060496345
0.06704285 -0.08370346 0.082835026 0.0061218888 -0.08902383 0.056179143 -0.0016981885 -0.025328316
0.073251165 0.01288417 -0.08640462 0.015379384 0.00707411 0.10198138 0.09431661 0.10057209
-0.07100788 -0.0061368793 0.092448734 0.07072746 0.08689997 -0.03497082 0.06366996 -0.02190964
-0.022754371 0.08688081 -0.024005674 0.037712447 -0.08731153 0.023631074 0.044651367 0.034227736

res2.bn1.weight f4 [10]
00000000: 0000 803f 0000 803f 0000 803f 0000 803f
00000010: 0000 803f 0000 803f 0000 803f 0000 803f
00000020: 0000 803f 0000 803f
1.0 1.0 1.0 1.0 1.0 1.0 1.0 1.0
1.0 1.0

res2.bn1.bias f4 [10]
00000000: 0000 0000 0000 0000 0000 0000 0000 0000
00000010: 0000 0000 0000 0000 0000 0000 0000 0000
00000020: 0000 0000 0000 0000
0.0 0.0 0.0 0.0 0.0 0.0 0.0 0.0
0.0 0.0

res2.bn1.running_mean f4 [10]
00000000: 0000 0000 0000 0000 0000 0000 0000 0000
00000010: 0000 0000 0000 0000 0000 0000 0000 0000
00000020: 0000 0000 0000 0000
0.0 0.0 0.0 0.0 0.0 0.0 0.0 0.0
0.0 0.0

res2.bn1.running_var f4 [10]
00000000: 0000 803f 0000 803f 0000 803f 0000 803f
00000010: 0000 803f 0000 803f 0000 803f 0000 803f
00000020: 0000 803f 0000 803f
1.0 1.0 1.0 1.0 1.0 1.0 1.0 1.0
1.0 1.0

res2.conv2.weight f4 [10, 10, 3, 3]
00000000: 960a 113d f665 763d 6e19 523d 448b f6bc
00000010: 1bc0 d03d 370c ab3d 0aed 063d cbf5 ae3d
00000020: f429 fc3c 1890 d5bc e453 88bd f006 863b
00000030: 8c2b 0fbd 1c1b 7cbd 602b 993c 9b90 cd3d
00000040: 52bc 8cbd f4e8 cfbc feb7 413d d182 d23d
00000050: 1134 803d ac86 f53c 77a1 abbd d9ce ab3d
00000060: 7c9e f83c deac 04bd d070 bbbd 2691 95bd
00000070: 8a6f 3d3d e4d2 be3c 5202 2c3d e95b ba3d
00000080: 5cdc 853c b833 393c a321 bb3d 3efa 6f3d
00000090: 2330 a93d 00af dfba ae20 533d 1051 bdbb
000000a0: 4a3e 0e3d bd41 d53d 980e 80bd 3637 8ebd
000000b0: f78b b13d 3a40 513d f469 9b3c 811c bcbd
000000c0: dafe c2bd 7d24 bcbd 043c e1bc cafb 9abd
000000d0: b0eb 63bd c421 87bc 6279 573d ccc6 7cbd
000000e0: 10c0 acbc 7132 babd e878 22bc d46d e73c
000000f0: 6401 de3c feea 623d 4245 763d 8c85 29bd
00000100: 62a6 d1bd a583 c63d 49df a93d 5777 d23d
00000110: df70 8c3d ea35 083d a2b9 d3bd 36d8 d6bd
00000120: 7d38 d43d 9f3f b2bd 2627 503d f445 ae3c
00000130: aafb 383d d451 df3c 34d2 07bd f688 23bd
00000140: c063 e63b ab93 933d 5410 923c 8300 a23d
00000150: 7837 89bd d6ca abbd efca 983d 82a5 463d
00000160: a021 1ebb 5f36 bf3d 35a7 92bd 00ce 51bb
00000170: f240 043d b0d2 84bb 60e5 c33b d021 67bc
00000180: 0e3e 1a3d 5700 a7bd 1614 173d e404 adbd
00000190: 82cc 7c3d 20e6 ccbd ee2f 3ebd f832 4cbd
000001a0: e8f6 9abd 5818 2e3c 3019 dfbc d4ca 8ebd
000001b0: 4665 593d 4cfc c6bd e6d1 12bd 372b 3cbd
000001c0: c0ce d9bc 07e0 c5bd b24a 9abd 9700 b83d
000001d0: 5955 943d 0630 433d b7b7 c13d 84c5 f63c
000001e0: 4a68 2f3d 3335 853d e435 93bc e3d5 3bbd
000001f0: ef47 8c3d 6f8d b43d d071 86bb 5579 923d
00000200: 343a aa3c 92b4 a8bd 503f bfbd 59f3 8ebd
00000210: b00a c8bb 98e8 bfbc 280c 7cbd e056 5cbc
00000220: 0264 0e3d 5cc7 aabd 20ae 8c3c 2a51 cfbd
00000230: 8a3c 113d 16dd 283d a0c8 27bd 7aa2 413d
00000240: 2c2a d53c e47a cd3c 1227 0e3d 27d3 983d
00000250: ad48 a73d 9280 c4bd c05f 7cbc 1867 8fbd
00000260: 14b3 813c 56f1 613d 2241 113d 4a0d 96bd
00000270: c873 07bd 32b8 26bd 1df3 bfbd 692e ca3d
00000280: ca91 0c3d 60d4 d43b 09ee ab3d 0051 3ebb
00000290: a715 d13d f0bd b6bd 7c94 11bd c090 9d3b
000002a0: 768b 593d 3f5b c63d 1d4b 73bd b8be 76bc
000002b0: a0dd 95bc 8e86 5d3d dcaf 98bc b216 0d3d
000002c0: d863 19bc 27f7 b93d 63e5 bbbd 9099 92bc
000002d0: b0a7 0cbc 584f 193c 6b80 c13d c127 6abd
000002e0: a492 c6bd ca32 87bd ab56 c33d 9f67 68bd
000002f0: ce96 353d 109b 61bd c0c6 55bb 7cd3 debc
00000300: dcb6 c3bd c692 1e3d da53 c3bd 7441 7abd
00000310: 2c79 f63c d738 bc3d cb63 babd 14a6 e53c
00000320: 3e22 353d 548d 89bc daf8 8fbd 8670 773d
00000330: 708c ae3b e010 b7bc 22cf 383d fccc 14bd
00000340: f63a 773d 67c5 35bd a271 373d 04de e03c
00000350: 6e5d 5abd d17e ab3d 3e0a 09bd e8a3 80bc
00000360: ff01 9d3d 2e7f a1bd 27b3 b8bd 4027 a0bc
00000370: ef82 92bd bade 01bd 2711 c73d 6b75 b43d
00000380: c00f b5ba a1f4 a63d 216a c9bd 10e8 0fbd
00000390: 9ad1 9bbd cc15 c93c 9ca8 de3c 68c6 9f3c
000003a0: a38c b33d 60de d8bc 480a 06bd 5346 883d
000003b0: d5cf 873d 505c aabb 04ff 9b3c 0060 d5b9
000003c0: 7bde b83d a03b 81bd c910 97bd 316b b7bd
000003d0: 7235 053d 48bc 0abc 83b6 9b3d 824a 383d
000003e0: f677 c4bd 5768 a13d 4870 243c 40b7 c1ba
000003f0: 525c 94bd 49c7 b43d 5a18 333d 188a 043c
0.035410486 0.06015583 0.051293783 -0.030095704 0.10192891 0.08351939 0.0329409 0.08542975
0.030781724 -0.026069686 -0.06656626 0.0040901825 -0.03495364 -0.06154929 0.01869744 0.10037347
-0.06871857 -0.025379635 0.04729461 0.102788575 0.06259931 0.029971443 -0.08380406 0.083890624
0.030349009 -0.03239142 -0.09152377 -0.073030755 0.04624895 0.02329392 0.0419944 0.09099562
0.016340427 0.011303835 0.09137275 0.05858826 0.082611345 -0.0017065704 0.051544838 -0.0057774857
0.034727372 0.10412929 -0.062527835 -0.069441244 0.08669274 0.05108664 0.01897142 -0.09185124
-0.09521265 -0.09186647 -0.027494438 -0.07567556 -0.05564469 -0.016495593 0.052605994 -0.061713025
-0.021087676 -0.09091652 -0.009916522 0.028250612 0.027100272 0.055399887 0.060124643 -0.041387126
-0.10236813 0.09693078 0.082945414 0.102766685 0.06857466 0.03325454 -0.10338141 -0.10490458
0.10362337 -0.08703541 0.050818585 0.02127359 0.04516188 0.027260698 -0.03315945 -0.039925538
0.007030934 0.072059 0.017830051 0.07910254 -0.06700033 -0.08388297 0.074605815 0.048497684
-0.0024128929 0.09336542 -0.071607985 -0.0032013655 0.0322885 -0.004053436 0.0059782714 -0.014107183
0.037656836 -0.08154362 0.03688439 -0.084481984 0.06171847 -0.1000483 -0.046432428 -0.049853295
-0.07566625 0.010625921 -0.02723369 -0.0697228 0.053075098 -0.097160906 -0.035844706 -0.04593965
-0.026587844 -0.096618704 -0.07533778 0.089844875 0.07242841 0.04765322 0.09458869 0.03012348
0.042824067 0.065042876 -0.017970033 -0.045858275 0.06849658 0.08816039 -0.004102923 0.071520485
0.020779707 -0.08237566 -0.09338248 -0.06980009 -0.0061047897 -0.023426339 -0.06153503 -0.013448447
0.034763344 -0.08338806 0.017172873 -0.10122903 0.035458125 0.04122647 -0.040962815 0.04727409
0.026021086 0.025083013 0.03470523 0.07462149 0.08168159 -0.09594835 -0.015403688 -0.070020854
0.015832461 0.055161797 0.035462506 -0.073267534 -0.033069402 -0.040703006 -0.09372542 0.09872133
0.034318723 0.0064950436 0.08395011 -0.002903998 0.10209208 -0.089229465 -0.035541996 0.0048085153
0.053111516 0.096853726 -0.059397805 -0.015060119 -0.018294156 0.0540834 -0.018638544 0.034445472
-0.0093621835 0.09080344 -0.091746114 -0.01789549 -0.008584902 0.009357296 0.09448322 -0.05716682
-0.09695938 -0.06601484 0.09538015 -0.056739446 0.04433327 -0.05507952 -0.0032619685 -0.027200453
-0.09556362 0.038714193 -0.09537478 -0.061097577 0.030087076 0.09190529 -0.09101065 0.028033294
0.04422211 -0.016791023 -0.070298865 0.060410045 0.0053268 -0.022346914 0.045119412 -0.0363283
0.060358964 -0.04437771 0.044786103 0.027449615 -0.053311758 0.08373798 -0.033457033 -0.015703157
0.07666396 -0.07885586 -0.090185456 -0.019549966 -0.0715388 -0.03170655 0.097200684 0.08811458
-0.0013813898 0.08152128 -0.098346956 -0.03513342 -0.07608338 0.024546526 0.027180009 0.019503787
0.08767059 -0.026473224 -0.03272465 0.06654038 0.06631438 -0.005198993 0.0190425 -0.0004069805
0.0902681 -0.06310201 -0.073762484 -0.08955992 0.032521673 -0.008467741 0.07603171 0.04499293
-0.09593193 0.07881229 0.010036536 -0.0014779344 -0.07244171 0.08827073 0.043724395 0.008089565

res2.bn2.weight f4 [10]
00000000: 0000 803f 0000 803f 0000 803f 0000 803f
00000010: 0000 803f 0000 803f 0000 803f 0000 803f
00000020: 0000 803f 0000 803f
1.0 1.0 1.0 1.0 1.0 1.0 1.0 1.0
1.0 1.0

res2.bn2.bias f4 [10]
00000000: 0000 0000 0000 0000 0000 0000 0000 0000
00000010: 0000 0000 0000 0000 0000 0000 0000 0000
00000020: 0000 0000 0000 0000
0.0 0.0 0.0 0.0 0.0 0.0 0.0 0.0
0.0 0.0

res2.bn2.running_mean f4 [10]
00000000: 0000 0000 0000 0000 0000 0000 0000 0000
00000010: 0000 0000 0000 0000 0000 0000 0000 0000
00000020: 0000 0000 0000 0000
0.0 0.0 0.0 0.0 0.0 0.0 0.0 0.0
0.0 0.0

res2.bn2.running_var f4 [10]
00000000: 0000 803f 0000 803f 0000 803f 0000 803f
00000010: 0000 803f 0000 803f 0000 803f 0000 803f
00000020: 0000 803f 0000 803f
1.0 1.0 1.0 1.0 1.0 1.0 1.0 1.0
1.0 1.0
