SuperGo-master/saved_models/1584891248/1-policy_net.pth.tar (torch_old, 29568 bytes, 3 tensors)

conv.weight f4 [1, 10, 1, 1]
0	0xbdf338d0	-0.118760705
1	0x3e15c178	0.14624584
2	0x3e50a2ae	0.20374557
3	0xba993e00	-0.0011691451
4	0x3cdb37a0	0.026759923
5	0x3e529dda	0.20568028
6	0x3e66bc3a	0.2253274
7	0x3e3f0fc2	0.18658355
8	0x3dcbcb74	0.09950915
9	0xbe4cc3be	-0.19996545

fc.weight f4 [82, 81]
0	0xbd98362a	-0.07432206
1	0xbd112152	-0.035432167
2	0xbd4a7df5	-0.04943653
3	0x3db536ad	0.08848319
4	0x3d74bd52	0.059750862
5	0x3c385c10	0.011252418
6	0xbd36cb40	-0.044627428
7	0xbd1c54b6	-0.038166724
8	0xbd92e8e6	-0.07173328
9	0x3b4d54e0	0.0031331107
10	0xbdc503c9	-0.096198626
11	0xbc95cf80	-0.01828742
12	0x3d92955b	0.071573935
13	0x3dba71b1	0.09103716
14	0xbdbd4102	-0.09240915
15	0xbd9f78fe	-0.07786749
16	0x3db8c89b	0.090226375
17	0xbda3a666	-0.07990722
18	0xbd910a10	-0.070819974
19	0x3c6c4308	0.014420278
20	0x3de1d221	0.11026407
21	0x3ddd7661	0.108135946
22	0x3d390662	0.045172103
23	0xbb4c6ee0	-0.0031194016
24	0x3db4d96f	0.08830535
25	0xbdc167cb	-0.09443625
26	0x3c62ac80	0.0138350725
27	0x3d717742	0.058951624
28	0xbdca37c5	-0.098739184
29	0xbc3cab00	-0.011515379
30	0x3d9385b3	0.072032355
31	0xbdb0007b	-0.08593842
32	0xbb540e00	-0.0032356977
33	0xbca01c10	-0.019544631
34	0x3bb189e0	0.0054180473
35	0xbdb60cc7	-0.08889156
36	0x3d57b816	0.052665792
37	0x3dd5708b	0.104218565
38	0xbd40a592	-0.0470329
39	0xbdbe8902	-0.09303476
40	0x3d9e0fad	0.07717834
41	0x3d747662	0.05968321
42	0x3c8ebab4	0.017423011
43	0xbcb534ec	-0.022119962
44	0x3d2e5cf2	0.04256911
45	0x3cc9f204	0.024651535
46	0x3db507a7	0.0883935
47	0x3d42dac6	0.04757192
48	0xbd366458	-0.04452929
49	0xbd82d450	-0.06388152
50	0x3d76c062	0.060242064
51	0xbcb9aeac	-0.022666298
52	0xbc01cf20	-0.007922918
53	0xbdc62be7	-0.096763425
54	0x39883500	0.0002597943
55	0x3d838961	0.06422687
56	0xbd857792	-0.06516947
57	0xbd4cca04	-0.049997345
58	0x3d84b6c1	0.0648017
59	0xbd54f632	-0.051992603
60	0x3d69e852	0.057106324
61	0xbd2055aa	-0.039144196
62	0xbb554920	-0.0032544807
63	0xbd9d2f4a	-0.07675035
64	0x3dce80a1	0.10083128
65	0x3c89aa84	0.016804941
66	0xbd280c24	-0.041027203
67	0x3d659d12	0.056057997
68	0x3dc4374f	0.09580862
69	0xbd977f4a	-0.07397325
70	0xbdb0d046	-0.08633475
71	0xbd8b810e	-0.068117246
72	0xbcb34324	-0.021882601
73	0x3d5596ca	0.052145757
74	0x3dacdee7	0.08440953
75	0x3cafd204	0.021462448
76	0xbb2557c0	-0.0025229305
77	0xbda6d066	-0.081452176
78	0x3ca39f94	0.019973554
79	0x3dcab071	0.09896935
80	0x3daae57f	0.08344554
81	0xbdb894bb	-0.09012743
82	0xbd1a168a	-0.03761915
83	0x3d4d4bca	0.050121106
84	0xbda5a81b	-0.08088704
85	0xbcc02c64	-0.023458667
86	0xbd2d7a60	-0.042353034
87	0x3dcdb023	0.10043361
88	0x3d39958a	0.045308627
89	0x3d97eefd	0.0741863
90	0xbd67b092	-0.056564875
91	0xbb116600	-0.002218604
92	0xbd5eb1e0	-0.054368854
93	0x3d86ffa5	0.06591729
94	0xbd59df12	-0.053191252
95	0x3dc6d80d	0.09709177
96	0x3d77db42	0.060511835
97	0xb960ea00	-0.00021449476
98	0xbdb2d3fb	-0.08731838
99	0xbd4ae0c4	-0.04953076
100	0xbcd74cc8	-0.02628173
101	0x3d2be96a	0.041970648
102	0x3cbac8f4	0.0228009
103	0xbd0cfc44	-0.034420267
104	0xbaa3c540	-0.0012494698
105	0x3dbf707b	0.09347626
106	0x3c8b0d34	0.01697407
107	0xbd44f71c	-0.048087224
108	0x3d804b37	0.06264346
109	0x3dc61ca1	0.09673429
110	0xbce526dc	-0.027972631
111	0x3b64b9c0	0.0034900755
112	0xbd2ed52a	-0.042683758
113	0x3dc0d50f	0.09415638
114	0x3d8c9ce3	0.06865861
115	0x3da3780f	0.07981884
116	0x3ddcd003	0.107818626
117	0x3dd205f1	0.102550395
118	0xbd7a36f2	-0.061087556
119	0xbda40919	-0.08009548
120	0x3c893e84	0.016753443
121	0xbc499ab8	-0.012304954
122	0x3dbaba21	0.091175325
123	0x3d89f767	0.067366414
124	0xbd2d3f48	-0.042296678
125	0x3d62d6fa	0.0553808
126	0x3d97da21	0.07414652
127	0x3d5b5d4a	0.053555764
128	0x3d81a8a1	0.063309915
129	0x3cbdb764	0.023158737
130	0x3d545426	0.051838063
131	0xbca1ec94	-0.01976613
132	0x3ca994f4	0.02070091
133	0x3db760cf	0.08954012
134	0xbd9d78a9	-0.0768903
135	0x3db0b5ff	0.08628463
136	0x3d7528be	0.059853308
137	0xbd24bd00	-0.040219307
138	0xbd4c6f60	-0.049910903
139	0xbd3746ae	-0.04474514
140	0x3ddff937	0.10936206
141	0xbde31797	-0.11088484
142	0xbd561c0b	-0.052272838
143	0xbd8debb0	-0.069297194
144	0x3bf3e490	0.0074430183
145	0x3dc97b91	0.098380215
146	0xbc8a97ec	-0.016918145
147	0x3ceea0ec	0.029129468
148	0xbd1bdaf8	-0.03805062
149	0x3d056322	0.032565244
150	0x3da4859f	0.08033299
151	0xbd06b09c	-0.03288327
152	0xbd4ab0e7	-0.049485113
153	0x3de2d3ab	0.11075529
154	0xbdb73b34	-0.08946839
155	0xbc06c7f0	-0.00822638
156	0x3d27a82e	0.040931873
157	0xbcafcc2c	-0.021459661
158	0x3d6ebbe2	0.058284648
159	0xbda3d26c	-0.07999119
160	0x3dbbe0a1	0.09173704
161	0x3c5d6710	0.013513342
162	0xbd2249e0	-0.039621234
163	0xbdd1642c	-0.102241844
164	0xbc57bb90	-0.013167277
165	0xbd41cdc4	-0.047315374
166	0xbd3f2064	-0.04666175
167	0x3c785138	0.015156083
168	0xbd8e908e	-0.06961165
169	0x3bec0320	0.007202521
170	0xbde02374	-0.10944262
171	0xbd849349	-0.06473405
172	0xbd6f1555	-0.058369953
173	0x3dc675c9	0.096904345
174	0x3d390a4a	0.045175828
175	0x3d503e66	0.050840758
176	0x3db1417f	0.086550705
177	0x3cf89344	0.03034366
178	0xbdd6654d	-0.1046854
179	0x3d9eef61	0.07760502
180	0x3dc298b7	0.09501784
181	0xbc91d79c	-0.017803006
182	0x3dc93f6f	0.09826552
183	0x3c3577e0	0.011075944
184	0xbd567b24	-0.05236353
185	0x3dca8119	0.09887905
186	0x3dc7070d	0.09718142
187	0x3c4e01a8	0.012573637
188	0xbc97aa1c	-0.018513732
189	0xbd913c8c	-0.070916265
190	0xbdcbca69	-0.09950716
191	0xbdc0e0f0	-0.094179034
192	0xbd594ca7	-0.053051617
193	0x3d47af66	0.048751257
194	0x3d226c1a	0.039653875
195	0xbd35608a	-0.04428152
196	0xbc0f7060	-0.00875482
197	0x3cef59fc	0.029217713
198	0x3dd27dd1	0.10277904
199	0x3d329dde	0.043607585
200	0xbd7d9f9d	-0.061919797
201	0x3da2a9ef	0.079425685
202	0xbbb1deb0	-0.0054281577
203	0x3dd4d34b	0.103918634
204	0xbdbfe0e0	-0.093690634
205	0xbd64084e	-0.055671982
206	0xbd88fc8a	-0.06688793
207	0x3d8de547	0.06928497
208	0xbd966b9e	-0.07344745
209	0xbdbee6f4	-0.093213946
210	0xbcd35480	-0.025797129
211	0xbdb40372	-0.0878972
212	0x3d5a1a16	0.053247534
213	0xbde00045	-0.109375514
214	0xbd48083d	-0.04883598
215	0x3d7f82c6	0.062380575
216	0x3d62dd8a	0.055387057
217	0xbd4473aa	-0.04796187
218	0xbdc0c850	-0.094132066
219	0x3d34c316	0.04413136
220	0x3d792d16	0.060834013
221	0x3d528556	0.05139669
222	0xbdadecd9	-0.08492441
223	0xbdc7d1b5	-0.09756795
224	0xbccd5288	-0.025063768
225	0x3d6e710a	0.05821327
226	0xbd677da0	-0.05651629
227	0x3d5c9fe6	0.05386343
228	0x3dda346b	0.10654529
229	0x3dae3af5	0.08507339
230	0x3d860c9b	0.06545373
231	0xbdc79587	-0.09745317
232	0xbdc0707c	-0.09396455
233	0xbdc66b5e	-0.096884474
234	0x3dcc9731	0.09989775
235	0x3c520958	0.012819611
236	0x3b3e8c00	0.0029075146
237	0x3bb5cbe0	0.0055479854
238	0xbc9eb3b0	-0.019372791
239	0x3de35257	0.110996895
240	0xbc514480	-0.012772679
241	0xbdb3faf4	-0.087881
242	0x3c1bfe00	0.009521008
243	0xba6ac480	-0.00089556724
244	0x3d9a7c1b	0.075432025
245	0x3d9b9f9d	0.07598803
246	0x3d90963f	0.07059907
247	0x3da7b98d	0.08189688
248	0xbb903d70	-0.004401855
249	0x3c93b2ec	0.018029653
250	0xbd50c915	-0.050973017
251	0xbde25c2b	-0.11052736
252	0x3ca70a04	0.020390518
253	0xbd875c20	-0.06609368
254	0x3d99822f	0.07495534
255	0x3c034ee0	0.008014411

fc.bias f4 [82]
0	0x3d68426a	0.056703962
1	0xbd4f0dc0	-0.050550222
2	0x3d596542	0.053075083
3	0x3d897b2d	0.06712947
4	0x3c5e9a90	0.013586655
5	0xbcf2ef88	-0.029655233
6	0x3dc4a615	0.0960199
7	0xbbaaca70	-0.0052121207
8	0x3b31f360	0.002715312
9	0x3de01bd7	0.1094281
10	0xbd62ec6e	-0.05540126
11	0x3d964059	0.07336492
12	0x3c0d1990	0.008612052
13	0xbd409918	-0.047021
14	0x3dd94cb5	0.10610334
15	0x3d5eb7c2	0.054374464
16	0x3d786652	0.060644455
17	0xbce0ead0	-0.027455717
18	0x3d939eb1	0.07208002
19	0x3d8b6621	0.06806589
20	0x3adbbb00	0.0016764104
21	0xbdca7de0	-0.0988729
22	0xbd8610c7	-0.06546169
23	0x3d03a7a6	0.032142304
24	0xbd6d9655	-0.058004696
25	0xbda954ee	-0.08268152
26	0x3d875e01	0.06609727
27	0x3d684716	0.056708418
28	0xbd7983dd	-0.06091677
29	0x3d1aa722	0.037757047
30	0xbd7ea96b	-0.06217329
31	0x3c8c55ac	0.017130695
32	0x3ddad4e3	0.10685136
33	0xbd86fba4	-0.065909654
34	0xbdb0d39b	-0.086341105
35	0xbd0abd9c	-0.03387223
36	0xbcd0f02c	-0.025505148
37	0x3dcf7ea1	0.101315744
38	0xbcec2048	-0.028823987
39	0x3bb1d220	0.00542666
40	0xbd9bd294	-0.07608524
41	0xbd611792	-0.05495412
42	0x3dc4d7a9	0.096114464
43	0x3dbdb809	0.092636175
44	0xbd50db47	-0.05099037
45	0x3d568202	0.05237008
46	0xbd91c9b9	-0.07118554
47	0xbcd3775c	-0.02581375
48	0xbde0d3fb	-0.10977932
49	0xbda5b444	-0.080910236
50	0x3da71baf	0.08159577
51	0x3d985dc1	0.07439757
52	0xbd5ff515	-0.054677088
53	0xbcd22594	-0.025652684
54	0xbdb74284	-0.08948234
55	0xbd951be2	-0.07280709
56	0x3d53b242	0.05168367
57	0xbcb1d188	-0.021706358
58	0xbd566e4b	-0.052351277
59	0xbd5734dd	-0.05254065
60	0x3ceb76ec	0.02874323
61	0x3c168bc8	0.0091886
62	0xbcced5e4	-0.025248475
63	0xbddd1602	-0.10795213
64	0x3db7c541	0.0897317
65	0xbda1676c	-0.07881054
66	0x3c1bf4e0	0.009518832
67	0x3d57d4da	0.052693225
68	0xbb52b0a0	-0.0032148734
69	0x3ca589fc	0.020207398
70	0x3d7df952	0.06200535
71	0x3c7294d8	0.014805995
72	0xbd9915ac	-0.07474837
73	0x3dd77d79	0.10521979
74	0xbd42038e	-0.04736667
75	0xbdc9a11b	-0.098451816
76	0xbd9474c0	-0.07248831
77	0x3ccf6bd4	0.025319971
78	0xbd9cbf10	-0.0765363
79	0xbdd2db94	-0.102957875
80	0x3d0a86c2	0.03381992
81	0x3d0c3c02	0.034236915
