SuperGo-master/saved_models/1584891248/1-value_net.pth.tar (torch_old, 87912 bytes, 4 tensors)

conv.weight f4 [1, 10, 1, 1]
0	0x3de823f4	0.113349825
1	0x3d34aad8	0.04410824
2	0xbe230a1a	-0.15921822
3	0xbe0a2907	-0.13492213
4	0xbe73dcba	-0.23814669
5	0x3e43f08e	0.19134733
6	0xbdb97262	-0.0905502
7	0x3df8f7d8	0.121566474
8	0x3d2a42b0	0.041567504
9	0x3e92afd3	0.28649768

fc1.weight f4 [256, 81]
0	0xbbe0a050	-0.0068550482
1	0xbbbb92b0	-0.0057242736
2	0x3cc0ecec	0.023550473
3	0xbdcf256b	-0.10114559
4	0xbdce6ba5	-0.10079125
5	0xbda3ed27	-0.080042176
6	0xbd8a7344	-0.067602664
7	0xbc6ceca8	-0.01446072
8	0x3ccfbd34	0.025358774
9	0x3d5eb48a	0.054371394
10	0x3da596f5	0.080854334
11	0xba2b5a80	-0.0006536618
12	0x3d4bcce6	0.049755953
13	0xbddc0c05	-0.1074448
14	0x3d16233e	0.036654703
15	0x3cb8a664	0.022540279
16	0xbd29800a	-0.041381873
17	0x3c1d9558	0.009618126
18	0xbd9cc447	-0.076546244
19	0x3ddf6bc3	0.10909226
20	0x3d8f1e41	0.06988192
21	0xbd4909fd	-0.04908179
22	0xbdceff6e	-0.10107313
23	0xbd9fd4ea	-0.07804282
24	0xbdb7a2de	-0.08966611
25	0x3d1ed962	0.03878153
26	0x3dc03221	0.09384561
27	0x3db4f2c7	0.088353686
28	0x3dc1848b	0.09449109
29	0xbda48b39	-0.08034367
30	0xbd25a9ae	-0.040445022
31	0x3db14f91	0.08657754
32	0x3d1eff0e	0.038817458
33	0xbdb4a8d2	-0.088212624
34	0xbda01870	-0.07817161
35	0x3dcbaef3	0.09945478
36	0xbdb9b10b	-0.090669714
37	0x3d1ae76a	0.03781835
38	0x3c5adc28	0.013358153
39	0xbd8fbb2e	-0.070181236
40	0x3c8eacf4	0.017416455
41	0xbcfd23ec	-0.030900918
42	0xbd23f3aa	-0.040027298
43	0x3d2115d6	0.039327465
44	0xbd05859c	-0.032598123
45	0x3dc04a29	0.09389145
46	0xbdbf5870	-0.0934304
47	0x3dd273c3	0.10275986
48	0xbd26edf8	-0.04075429
49	0xbcfe5b38	-0.031049356
50	0xbde1120d	-0.10989771
51	0xbdab78fc	-0.08372685
52	0x3d738ec2	0.059462316
53	0x3ce142d4	0.027497686
54	0x3db56013	0.08856215
55	0xbd8f44cc	-0.06995544
56	0x3db5b581	0.0887251
57	0xbd8c5782	-0.06852628
58	0x3ddf8eb3	0.109158896
59	0x3dd820a1	0.105530985
60	0x3dd8efe5	0.10592631
61	0xbd8dea47	-0.069294505
62	0x3d859831	0.06523169
63	0x3bb035e0	0.005377516
64	0xbd5dd4dd	-0.05415808
65	0x3ddf63e3	0.10907724
66	0xbc5e97a0	-0.013585955
67	0x3d6f184a	0.058372773
68	0xbb36dd80	-0.002790302
69	0x3d2f0af2	0.042735048
70	0xbd84e53c	-0.064890355
71	0x3d8ab021	0.06771875
72	0x3b9321e0	0.004490122
73	0xbdde0a80	-0.108418465
74	0x3dd66809	0.10469062
75	0x3dcc33ab	0.099707924
76	0xbcad6dec	-0.021170579
77	0xbcbc4708	-0.02298309
78	0xbddfdf7b	-0.109312974
79	0xbd000304	-0.031252876
80	0xbd9c2116	-0.07623498
81	0xbbff4ce0	-0.0077911466
82	0x3d1d0196	0.03833159
83	0x3dab00c9	0.08349759
84	0xbd2be728	-0.041968495
85	0xbdbad49b	-0.091225825
86	0xbc1ba0f0	-0.00949882
87	0x3cdec02c	0.027191244
88	0x3d6d3076	0.057907544
89	0x3dc0443b	0.09388014
90	0x3db201d1	0.08691753
91	0x3cb0a704	0.021564014
92	0x3ddb49a5	0.10707406
93	0xbb95aa50	-0.004567422
94	0x3d37b8e2	0.044854052
95	0x3d787faa	0.060668625
96	0xbd15eb5c	-0.03660141
97	0xbd987a56	-0.07445209
98	0x3b244520	0.0025065616
99	0xbddd444d	-0.10804043
100	0x3dd51221	0.104038484
101	0xbdd6c3e5	-0.10486583
102	0x3ae3d700	0.00173828
103	0x3cd639ec	0.026150666
104	0xbdd63067	-0.10458451
105	0xbd222fb6	-0.039596282
106	0x3ce3c984	0.027806051
107	0x3da48e75	0.08034984
108	0x3cead844	0.028667577
109	0xbde1c5cb	-0.11024054
110	0x3c8be53c	0.01707708
111	0xbd010472	-0.03149838
112	0xbd7503b5	-0.05981799
113	0x3d4113ce	0.047138028
114	0x3d570b36	0.052500926
115	0xbd75f044	-0.06004359
116	0xbccf50b8	-0.025307044
117	0x3dceb0bf	0.100923054
118	0xbd587880	-0.052849293
119	0xbd78e0b9	-0.060761187
120	0x3d30e43a	0.043186404
121	0xbc09e860	-0.008417219
122	0x3da3a6dd	0.07990811
123	0x3c0d45a0	0.008622557
124	0x3d1d36c6	0.038382314
125	0x3c2ec390	0.010666743
126	0xbcee3930	-0.029080003
127	0x3d470e6a	0.04859773
128	0x3d958f2b	0.07302698
129	0x3d01c9e2	0.03168667
130	0xbdc20664	-0.09473875
131	0xbd1f9e44	-0.038969293
132	0x3ca5a904	0.020222194
133	0x3d43efe2	0.047836192
134	0x3b6260e0	0.0034542605
135	0x3cf691c4	0.030098803
136	0x3d63d00e	0.05561834
137	0xbcefe9c8	-0.02928628
138	0xbcadd72c	-0.021220766
139	0x3d1f8d76	0.038953267
140	0x3ca4b7c4	0.020107158
141	0xbd066b72	-0.03281731
142	0x3da10b45	0.078634776
143	0x3d8c1fff	0.0684204
144	0xbb6006e0	-0.0034183785
145	0xbdd7ccb0	-0.10537088
146	0xbb2cce80	-0.00263682
147	0xbd4b28c0	-0.04959941
148	0x3cb669c4	0.02226723
149	0xbdb00210	-0.085941434
150	0x3d054fa2	0.032546647
151	0xbc54b880	-0.012983441
152	0xbd1da356	-0.038485847
153	0xbd7e2155	-0.062043507
154	0x3ddedff3	0.10882559
155	0xbd8be9b7	-0.06831687
156	0x3d939001	0.07205201
157	0xbbb2d9c0	-0.0054580867
158	0x3d747d62	0.059689887
159	0x3dab5cad	0.08367286
160	0x3d39eb8e	0.045390658
161	0x3c1dfc58	0.009642683
162	0x3d8fb345	0.07016615
163	0x3ca9f084	0.02074457
164	0xbd3f1c64	-0.046657935
165	0x3daa279f	0.083083384
166	0xbd57aac7	-0.0526531
167	0xbdd6f10b	-0.10495194
168	0xbdc3d997	-0.09562986
169	0x3d98db65	0.07463721
170	0xbd847757	-0.06468075
171	0xbdbe5aa7	-0.09294634
172	0x3da234cf	0.07920229
173	0xbddb6bfb	-0.10713955
174	0xbb68bea0	-0.0035514012
175	0x3dc2e65f	0.09516596
176	0x3d0b8286	0.034060024
177	0xbda36d99	-0.079798885
178	0x3dc04e19	0.09389896
179	0x3c1a91a0	0.009434134
180	0x3b031a80	0.002000481
181	0xbb87c120	-0.0041428953
182	0xbd619ac7	-0.055079248
183	0x3d210d3e	0.03931927
184	0xbdd7314b	-0.10507449
185	0x3bac7920	0.0052634627
186	0xbdb0be06	-0.08629994
187	0xbca9e838	-0.020740613
188	0xbd60450e	-0.054753356
189	0x3cff03d4	0.031129755
190	0x3dc61a2f	0.09672963
191	0xbbe57b40	-0.007003218
192	0x3bf3abe0	0.0074362606
193	0xbd2e731c	-0.042590246
194	0x3da79d03	0.081842445
195	0x3d52a1da	0.051423885
196	0xbda111e4	-0.078647405
197	0xbaf33800	-0.0018556118
198	0xbd9a3b5c	-0.07530853
199	0x3dc36c7f	0.09542178
200	0x3c7fc238	0.01561027
201	0xbb500c80	-0.0031745732
202	0xbd29ca8a	-0.041452922
203	0xbcb0672c	-0.021533571
204	0xbd824da6	-0.063624665
205	0x3dacae27	0.084316544
206	0x3c2635e0	0.010144681
207	0x3d8c75f1	0.06858433
208	0x3dd39439	0.103310056
209	0xbc71fb20	-0.0147693455
210	0xbbacafe0	-0.0052699894
211	0xbd00a872	-0.031410642
212	0xbd5db8f9	-0.05413148
213	0xbd4427a4	-0.047889367
214	0x3db4dcc1	0.08831168
215	0xbdd24914	-0.10267845
216	0xbd7ae687	-0.061255004
217	0xbcf8b038	-0.030357465
218	0xbd4c73b5	-0.049915034
219	0xbda5e0d6	-0.08099525
220	0xbcafcbf8	-0.021459565
221	0x3cc124ec	0.023577176
222	0x3c983d3c	0.018583886
223	0xbd8f1c2a	-0.06987794
224	0x3cb45f0c	0.022017978
225	0xbddfe819	-0.10932941
226	0xbd45f184	-0.04832603
227	0x3c6b6e08	0.014369495
228	0x3db2e3b1	0.08734835
229	0x3c6f5b18	0.014609121
230	0xbd86954c	-0.06571445
231	0xbcd5609c	-0.026047044
232	0xbd9b7b49	-0.07591874
233	0x3d809149	0.06277711
234	0xbd165ec4	-0.03671147
235	0xbd11042a	-0.03540436
236	0xbc8b6b9c	-0.017019086
237	0xbbdf3470	-0.006811671
238	0xbb79ae00	-0.0038098097
239	0xbd89f1ec	-0.06735596
240	0xbcadf410	-0.021234542
241	0xbd1b969c	-0.03798543
242	0x3d07f4ce	0.03319245
243	0xbbb57de0	-0.005538687
244	0x3d5e35e2	0.054250605
245	0xbdbd9860	-0.09257579
246	0x3dc28baf	0.09499299
247	0xbde08d10	-0.109644055
248	0x3cd5ec64	0.026113696
249	0x3d66202e	0.056183033
250	0xbd742c4e	-0.059612565
251	0xbbd86ce0	-0.006604776
252	0xbccfb7c0	-0.025356174
253	0xbd39e404	-0.04538347
254	0xbdd5e5e9	-0.104442425
255	0xbcd028a4	-0.025410004

fc1.bias f4 [256]
0	0x3da35be3	0.079765104
1	0xbdd01537	-0.101602964
2	0x3db3c879	0.087784715
3	0x3cf88e6c	0.03034135
4	0x3c49b2c8	0.012310691
5	0x3d661f8e	0.056182437
6	0x3d6583b6	0.056033812
7	0x3dcde0cd	0.10052643
8	0xbda20b2e	-0.079122886
9	0x3cc7665c	0.024340801
10	0x3d98cc2d	0.074608184
11	0xbd95b2e0	-0.07309508
12	0xbd840f19	-0.06448192
13	0xbd551907	-0.05202582
14	0x3d9f6841	0.07783557
15	0xbd77804b	-0.060425084
16	0xbd88b009	-0.06674201
17	0xbcc9af38	-0.024619684
18	0xbdd27364	-0.10275915
19	0xbd13fcb2	-0.03612966
20	0xbd8dca06	-0.069232985
21	0xbd272c6e	-0.040813856
22	0xbd4fc144	-0.05072142
23	0xbc03d610	-0.008046642
24	0xbc98ff64	-0.018676467
25	0x3d5f17e6	0.05446615
26	0xbda2ef1c	-0.07955763
27	0xbd902162	-0.07037617
28	0xbbee8500	-0.0072790384
29	0x3dd1098f	0.10206901
30	0xbcd57080	-0.02605462
31	0xbcea329c	-0.028588586
32	0x3d9aa1c1	0.07550383
33	0xbd495b1d	-0.049159158
34	0xbb37ab20	-0.0028025582
35	0xbd9d6f6a	-0.07687266
36	0xbdccaca0	-0.09993863
37	0xbd58dda4	-0.052945748
38	0x3c5d6f58	0.013515316
39	0xbd362318	-0.04446706
40	0xbd6c4bb9	-0.057689402
41	0x3d556722	0.05210031
42	0x3cff68ec	0.03117796
43	0xbcefe464	-0.02928371
44	0xbda34899	-0.07972831
45	0x3d09c2e6	0.033633135
46	0xbc5a5738	-0.013326459
47	0x3d000762	0.03125704
48	0x3c9b024c	0.018921994
49	0xbc27d158	-0.0102427825
50	0xbde34fc0	-0.110991955
51	0x3daaca6b	0.083393894
52	0x3dd597f9	0.10429377
53	0xbdc00fb9	-0.09377999
54	0xbd9ebda6	-0.07751016
55	0x3cd40aac	0.025883995
56	0x3d22cb32	0.039744563
57	0x3cf17d5c	0.029478721
58	0xbd18fcb6	-0.03735038
59	0xbd959227	-0.07303267
60	0xbdd96384	-0.10614684
61	0xbdd61b1b	-0.10454389
62	0xbcae4ec0	-0.021277785
63	0xbd4cc699	-0.049994085
64	0xbd1717aa	-0.036887802
65	0x3d14d306	0.03633406
66	0xbd5949f9	-0.05304906
67	0x3cc90484	0.024538286
68	0x3d1749ea	0.036935724
69	0xbd36408e	-0.044495158
70	0xbc154ab8	-0.009112053
71	0x3db016f7	0.0859813
72	0xbcc4ce64	-0.024024196
73	0xbd1a5848	-0.037681848
74	0x3cacc404	0.021089561
75	0x3d4153ea	0.047199167
76	0x3d23fb42	0.04003454
77	0x3ccb2fd4	0.02480308
78	0x3d9cc611	0.07654966
79	0xbd4d478b	-0.050117057
80	0x3dbe2dd3	0.09286084
81	0xbd827790	-0.06370461
82	0x3c1c1a70	0.009527788
83	0x3cdfc234	0.027314283
84	0xbc19f3e0	-0.009396523
85	0x3ccbae0c	0.024863265
86	0xbdcd0ea7	-0.1001256
87	0xbdbe8324	-0.09302357
88	0x3dceed2b	0.1010383
89	0xbd8f06d7	-0.069837265
90	0xbdc36626	-0.09540968
91	0xbdd83c6b	-0.10558399
92	0xbbdf70e0	-0.0068188757
93	0x3d02f196	0.031968676
94	0x3c88559c	0.016642384
95	0x3d23af96	0.039962374
96	0xbc742020	-0.014900237
97	0xbd8def07	-0.069303565
98	0xbd86c772	-0.0658101
99	0xba9a7480	-0.0011783987
100	0x3dad8869	0.08473284
101	0x3d51538a	0.05110506
102	0xbdc9c3d7	-0.098518066
103	0xbd6fefae	-0.058578186
104	0x3d82191f	0.06352448
105	0x3d164d22	0.036694653
106	0x3d00953e	0.03139233
107	0xbcb4e210	-0.022080451
108	0xbd2705ee	-0.04077714
109	0x3c7c2928	0.015390672
110	0xbcabbf78	-0.020965323
111	0x3db5fa19	0.08885593
112	0x3d82da9d	0.063893534
113	0xbc1decd8	-0.0096389875
114	0x3d5692c2	0.052386053
115	0xbdc0c0ae	-0.09411751
116	0x3d8618bf	0.06547689
117	0xbd2a0320	-0.041506886
118	0xbc550b00	-0.013003111
119	0x3d598fce	0.05311566
120	0xbd461648	-0.048361093
121	0x3dd43b2b	0.10362848
122	0x3dbfe975	0.093707
123	0x3cce156c	0.0251567
124	0xbdbf6284	-0.09344962
125	0x3d12b726	0.035819195
126	0x3dde56b1	0.10856379
127	0x3d437f7e	0.047729008
128	0xbb469040	-0.0030298382
129	0x3c1516f0	0.009099707
130	0xbd31ad84	-0.043378368
131	0xbcb6e954	-0.022328056
132	0xbdb4d3db	-0.08829471
133	0x3d9f51a3	0.07779243
134	0xbc1e4760	-0.009660572
135	0xbc0ce2e0	-0.008599013
136	0x3d22ecbe	0.039776556
137	0x3dbd53f1	0.09244526
138	0xbd321316	-0.043475233
139	0xbd6bd35d	-0.05757462
140	0x3b4dbce0	0.0031393096
141	0xbdcb3cf4	-0.09923735
142	0xbd4a6e60	-0.049421668
143	0xbdab1544	-0.083536655
144	0x3b36f6a0	0.0027917996
145	0x3d9fa0fd	0.07794378
146	0x3ce6235c	0.028093033
147	0x3d733256	0.059374176
148	0xbd5f61a7	-0.054536488
149	0xbd390388	-0.045169383
150	0xbdb3a692	-0.08772005
151	0xbd5f06a7	-0.054449704
152	0xbdc5f47c	-0.09665772
153	0x3dbb3c79	0.091423936
154	0xbdd3bc6e	-0.103386745
155	0xbdd5240b	-0.10407265
156	0xbcce6aac	-0.02519735
157	0x3d85b85b	0.06529304
158	0xbd8bb747	-0.06822067
159	0x3dc37573	0.09543886
160	0xbd945afe	-0.07243918
161	0x3db42705	0.08796505
162	0x3dbeaa89	0.09309871
163	0x3da6cb8f	0.081442945
164	0xbd5fc0ee	-0.05462735
165	0xbd04a56a	-0.032384314
166	0x3d56e88a	0.05246786
167	0x3cb2191c	0.021740489
168	0xbca36e9c	-0.019950204
169	0x3d016b86	0.031596683
170	0x3d923091	0.071381696
171	0x3af3ec80	0.0018609911
172	0xbd679b99	-0.056544874
173	0x3d9328bb	0.07185503
174	0xbd11708e	-0.03550773
175	0x3d1017ee	0.03517907
176	0xbdde1ce7	-0.108453564
177	0xbbc6e390	-0.006069608
178	0xbd004a48	-0.03132084
179	0xbd1f4380	-0.038882732
180	0x3dbbf069	0.09176714
181	0xbde04239	-0.10950131
182	0xbd0904f2	-0.03345198
183	0xbddffe70	-0.10937202
184	0xbd50c660	-0.050970435
185	0x3d0b674a	0.03403405
186	0x3d984959	0.07435865
187	0x3cc19fcc	0.023635767
188	0x3c185770	0.0092981905
189	0xbb6987c0	-0.0035633892
190	0x3d045db2	0.032315917
191	0x3d7e9282	0.06215144
192	0xbbd45640	-0.0064800084
193	0xbdb37ad7	-0.08763664
194	0x3d8e1901	0.06938363
195	0xbd8be264	-0.0683029
196	0xbdd2a2cc	-0.10284957
197	0x3cc3b19c	0.023888402
198	0x3d2684ee	0.040654115
199	0x3dc2b9cf	0.095080964
200	0xbd66bac7	-0.05633047
201	0x3c667e78	0.014068238
202	0x3d01b936	0.03167077
203	0xbc839eec	-0.01606699
204	0xbdbd9926	-0.09257726
205	0x3db12d71	0.086512454
206	0x3d2c65aa	0.042089142
207	0x3c0b5960	0.008505195
208	0xbd845efa	-0.06463428
209	0x3d960e1b	0.07326909
210	0x3bdfffc0	0.0068359077
211	0x3d97d913	0.074144505
212	0xbddd116b	-0.10794338
213	0x3d3844fe	0.04498767
214	0xbc859408	-0.016305938
215	0x3b9d92e0	0.0048087686
216	0x3d5bd0a6	0.05366578
217	0x3d3f56de	0.046713702
218	0x3db470a3	0.08810546
219	0xbd70cca4	-0.05878891
220	0xbdc333f9	-0.09531397
221	0xbd09c832	-0.033638187
222	0xbde08dde	-0.10964559
223	0x3c5f8a58	0.013643824
224	0xbdcef5ae	-0.101054534
225	0x3dd800cf	0.10547029
226	0xbd5d945d	-0.05409657
227	0xbdd4d5ad	-0.10392318
228	0xbd7da23d	-0.0619223
229	0x3d54545e	0.05183827
230	0x3dbf73e5	0.09348277
231	0x3db101af	0.08642899
232	0x3c483310	0.0122192055
233	0xbdb023f2	-0.08600606
234	0x3dd85d07	0.105646186
235	0xbca8e614	-0.020617522
236	0xbcc2e2b0	-0.023789734
237	0xbd4167c4	-0.0472181
238	0xbd877e42	-0.06615879
239	0x3dc5b23b	0.096531354
240	0xbd416e04	-0.04722406
241	0x3cea7f04	0.028625019
242	0x3cd1e34c	0.025621079
243	0x3cdf90fc	0.027290814
244	0x3dc61b19	0.09673137
245	0x3c86bb04	0.016446598
246	0xbdb609be	-0.08888577
247	0xbd630fdd	-0.05543505
248	0x3d9ced31	0.07662428
249	0xbd09c038	-0.03363058
250	0x3cc6ef5c	0.024284057
251	0x3cfd4534	0.030916788
252	0x3dbe319f	0.09286808
253	0xbd84f8a4	-0.06492737
254	0x3d8ceb67	0.06880837
255	0x3d4545b2	0.04816217

fc2.weight f4 [1, 256]
0	0xbd4743dc	-0.0486487
1	0xbd629ad0	-0.055323422
2	0x3d1673da	0.03673158
3	0xbcf762d8	-0.0301985
4	0xbd7e1a70	-0.06203693
5	0xbd68254a	-0.056676187
6	0xbd5f60d4	-0.054535702
7	0x3c1f5630	0.009725139
8	0xbd4b08ae	-0.049568824
9	0x3d5bd9c2	0.053674467
10	0x3d2abe16	0.041685186
11	0x3d10746c	0.03526728
12	0x3cfa3b70	0.03054592
13	0xbd650bb8	-0.05591938
14	0xbc6435f8	-0.013928883
15	0x3d381686	0.044943355
16	0xbbcf65b0	-0.0063292608
17	0xbc2b3e28	-0.010451831
18	0xbd681ca8	-0.056667954
19	0xbd311ea0	-0.043242097
20	0xbd7f46fe	-0.062323563
21	0x3d35522c	0.04426782
22	0x3ce7affc	0.028282158
23	0x3d13ed18	0.036114782
24	0xbb20e1c0	-0.002454862
25	0xbcb11150	-0.0216147
26	0x3c3e1f10	0.011604086
27	0x3d788dee	0.06068223
28	0xbd4b5dac	-0.04964988
29	0xbd5501da	-0.05200372
30	0xbbb67250	-0.0055678263
31	0x3d507d56	0.05090078
32	0xbd43013a	-0.04760859
33	0x3d3f6052	0.046722718
34	0xbb30ca00	-0.002697587
35	0xbc643790	-0.013929263
36	0xbd01c01a	-0.031677343
37	0xbd65fc52	-0.056148835
38	0xbd15333c	-0.036425814
39	0xbd5aef26	-0.053450726
40	0x3d4b2c9e	0.049603097
41	0xbd2bbc74	-0.04192777
42	0xbd607902	-0.054802902
43	0x3cadf980	0.021237135
44	0x3cf00704	0.02930022
45	0x3d667bd6	0.056270443
46	0x3d4bb1d8	0.049730152
47	0xbc970538	-0.018435106
48	0xbcd6445c	-0.026155643
49	0xbcc5b1e8	-0.024132684
50	0x3d380d12	0.04493434
51	0x3c959b9c	0.018262677
52	0x3c9754dc	0.018473081
53	0x3cd1c684	0.025607355
54	0x3d31e29a	0.043428995
55	0xbd34a082	-0.044098385
56	0xbd4cbb7a	-0.04998348
57	0x3d3f4b96	0.046702944
58	0xbd238f26	-0.03993144
59	0x3c7c50f8	0.015400164
60	0xbcba19a8	-0.022717312
61	0xbd385e32	-0.045011707
62	0xbcb4ea04	-0.022084244
63	0x3cd260c8	0.025680915
64	0x3d5518fc	0.05202578
65	0xbd17a25a	-0.037020065
66	0xbca5e078	-0.020248637
67	0x3cb4cfb0	0.02207169
68	0x3ade4700	0.0016958416
69	0xbd429f58	-0.047515243
70	0xbd45cbc6	-0.048290037
71	0x3cf540ac	0.029938065
72	0xbd4edeaa	-0.050505318
73	0x3a2cb480	0.0006588176
74	0x3c166218	0.009178661
75	0xbbeb2a40	-0.0071766675
76	0xbd70a8c6	-0.058754705
77	0xbd6337e4	-0.055473223
78	0x3d6022ba	0.054720618
79	0xbd04362e	-0.032278232
80	0x3d7ee65e	0.062231414
81	0xbd0847ee	-0.033271722
82	0x3c86244c	0.01637473
83	0x3b781500	0.0037854314
84	0x3c834d78	0.01602815
85	0xbbcc3880	-0.0062323213
86	0x3c356cd0	0.011073306
87	0x3cd33f48	0.02578701
88	0xbb525300	-0.003209293
89	0x3d6ca0ae	0.057770424
90	0x372e6000	1.039356e-05
91	0x3d06cc1c	0.032909498
92	0xbd4359f4	-0.047693208
93	0xbb856520	-0.004070893
94	0x3a0ec580	0.00054463
95	0xbd2d054a	-0.042241372
96	0xbd0fe816	-0.035133444
97	0x3d49f4da	0.049305774
98	0x3c091d08	0.008368738
99	0xbcadad38	-0.021200761
100	0x3bc7b820	0.0060949475
101	0xbbd8a570	-0.0066115186
102	0x3b9ccf60	0.004785463
103	0x3d6615a0	0.056172967
104	0xbcc231a4	-0.023705311
105	0x3d3269fe	0.043558113
106	0x3d4bf178	0.04979083
107	0x3d36b04c	0.044601724
108	0x3cd3f438	0.025873289
109	0xbc875c80	-0.0165236
110	0x3b6d0400	0.0036165714
111	0x3ca46888	0.020069376
112	0xbd3c4958	-0.045968384
113	0xbc524b30	-0.012835309
114	0xbcbac230	-0.022797674
115	0x3d7fc538	0.06244394
116	0x3c589dd0	0.013221219
117	0x3d48a798	0.048987955
118	0x3d3d7b68	0.046260267
119	0x3d7cb15a	0.061692573
120	0x3d634448	0.05548504
121	0x3d4cc8c2	0.049996145
122	0xbd73052c	-0.059331104
123	0xbd03fd1c	-0.032223806
124	0xbb894e00	-0.0041902065
125	0xbd12c17e	-0.03582906
126	0x3ca7b248	0.020470753
127	0xbd7137d2	-0.058891125
128	0x3d1ceef2	0.038313814
129	0x3cec5de4	0.028853364
130	0xbd09e158	-0.03366217
131	0xbc8f034c	-0.017457627
132	0x3cbc3064	0.022972293
133	0xbd7144bc	-0.05890344
134	0xbd6d0eca	-0.057875432
135	0x3d341a9c	0.04397069
136	0xbd508a5e	-0.050913207
137	0xbd4621e2	-0.048372157
138	0x3c614138	0.0137484595
139	0x3b2b3fa0	0.0026130453
140	0x3d7fdf1a	0.062468626
141	0x3ce2b92c	0.027676187
142	0xbca0fbfc	-0.019651406
143	0x3ca1aee4	0.019736715
144	0x3b90ba10	0.0044167116
145	0x3c3baaf8	0.011454336
146	0x3d307e7a	0.043089367
147	0x3ada5600	0.001665771
148	0xbd5bdfc0	-0.05368018
149	0x3d37c906	0.044869445
150	0xbd026890	-0.031838
151	0xbcde77a0	-0.027156651
152	0xbcf77c14	-0.030210532
153	0xbd4b52fa	-0.04963968
154	0x3d0d4c36	0.03449651
155	0x3d190976	0.03736254
156	0x3c2a1200	0.010380268
157	0x3d02a94c	0.031899735
158	0x3c937f38	0.018004999
159	0x3d7214d0	0.05910188
160	0x3a9bcac0	0.0011885986
161	0x3c713e10	0.0147242695
162	0x3d4325d0	0.047643483
163	0x3ac9bf80	0.0015392154
164	0x3d572b0a	0.05253128
165	0x3d41ee7a	0.04734657
166	0x3b818560	0.003952667
167	0xbd03f660	-0.032217383
168	0xbc824778	-0.01590322
169	0x3ca20514	0.019777812
170	0xbbd271e0	-0.0064222664
171	0xbd7d2402	-0.061801918
172	0xbd403d6a	-0.04693357
173	0xbd34b962	-0.044122107
174	0x3d594ede	0.05305373
175	0xbd7cab34	-0.06168671
176	0xbc3367d0	-0.010950044
177	0x3c4af6f8	0.0123879835
178	0xbadee7c0	-0.0017006323
179	0xbd1d4c80	-0.038403034
180	0x3c3794a0	0.011204869
181	0x3d553f7a	0.05206249
182	0x3d5ce53a	0.053929545
183	0x3d1c765a	0.038198806
184	0xbb768a40	-0.0037619025
185	0x3d0b880c	0.03406529
186	0xbd29d894	-0.04146631
187	0x3d1156ee	0.035483293
188	0xbd0c1696	-0.034201227
189	0x3d664192	0.056214876
190	0x3bb2f110	0.005460866
191	0x3cc87ca4	0.024473496
192	0x3d731328	0.05934444
193	0xbb9bdbb0	-0.0047564134
194	0x3cca5338	0.024697885
195	0xbd718432	-0.058963962
196	0x3c938628	0.018008307
197	0xbb397960	-0.0028301105
198	0x3d02977e	0.031882755
199	0x3d66da64	0.056360617
200	0x3d40d260	0.04707563
201	0xbcd662b8	-0.02617012
202	0x3cad61b0	0.021164745
203	0xbcf86a48	-0.030324116
204	0xbd3880ea	-0.045044817
205	0x3bd825e0	0.006596312
206	0x3cd60c98	0.026129052
207	0xbd6e5f42	-0.058196314
208	0x3d077b36	0.033076487
209	0xbcf09ec8	-0.029372588
210	0xbcbd3094	-0.023094453
211	0xbd43217e	-0.047639363
212	0x3d256bcc	0.040386006
213	0xbd4e43d6	-0.050357662
214	0xbca476b0	-0.020076126
215	0xbd14e712	-0.03635318
216	0x3d60aa2c	0.05484979
217	0x3cf5719c	0.0299614
218	0x3be283b0	0.006912671
219	0xbd7f27c8	-0.062293798
220	0xbd56647c	-0.052341923
221	0x3bf85ef0	0.007579677
222	0xbcb27104	-0.021782406
223	0x3b931cd0	0.0044895187
224	0xbbd45450	-0.0064797774
225	0x3c29a460	0.010354131
226	0xbb808010	-0.0039215162
227	0x3d632d58	0.055463165
228	0xbca40cd4	-0.020025648
229	0x3d131306	0.035906814
230	0x3d0c8618	0.03430757
231	0x3cfcac2c	0.030843817
232	0x3d0e0c9c	0.034679994
233	0xbc65ee18	-0.014033817
234	0xbd2505e4	-0.04028882
235	0x3d7ae5bc	0.061254248
236	0x3d355a5c	0.044275627
237	0x3d609de2	0.05483807
238	0x3bb3c2a0	0.0054858476
239	0xbcf6e39c	-0.03013783
240	0x3c9ddb2c	0.019269548
241	0x3d2ccd4c	0.042187974
242	0x3d72e428	0.059299618
243	0x3d07f0dc	0.033188686
244	0x3d6adca6	0.057339333
245	0xbb246480	-0.0025084317
246	0xbce6182c	-0.028087698
247	0xbcf5b09c	-0.02999144
248	0x3d7e3f28	0.06207195
249	0xbceeef6c	-0.0291669
250	0xbc8a7a80	-0.016904116
251	0x3d3832f4	0.044970468
252	0xbd571714	-0.052512243
253	0xbd736f8c	-0.05943255
254	0xbcfe04b0	-0.031008095
255	0xbd2bccce	-0.041943364
