SuperGo-master/saved_models/1584891248/2-extractor.pth.tar (torch_old, 640277 bytes, 355 tensors)

exp_avg f4 [10, 10, 3, 3]
00000000: 2e47 8239 c831 39bb 5240 edba 44dd 253b
00000010: 84ff 6d3b 7f78 dc3a 0ac9 603b 2cb3 4bba
00000020: 783a d9ba 523d 08bb 905c 9eba f7c0 afba
00000030: 26d2 98bb fe4b 6dbb da1e d7ba 9d9c babb
00000040: d873 1cbc 39fc a0bb 8263 9c3b 6d12 8e3b
00000050: 84b5 523b aa95 413b b714 e43a d991 ab3b
00000060: 284f 763b 24a3 633b 5447 2f3a 742c a1bb
00000070: 637b 033b ca24 e4ba 2731 3cbb da99 1bbb
00000080: 27ea d3bb 51e8 ddba 8684 20bb 2162 dcbb
00000090: 69cc bf3b d431 f13b 5fab e83b 9467 743b
000000a0: e3f4 b13b 0d17 623b 9344 f23a 6086 6b3b
000000b0: f0fb 39ba 0fd1 ad3b 9bf5 793a 4dab c63b
000000c0: 51b7 193b 15ce 993a 5a59 0f3b cabc 623b
000000d0: fea5 adba 4237 623b 0907 84bb 42ab 66bb
000000e0: 7c18 aebb 3c49 b1bb 4be4 4ebb 5532 97bb
000000f0: 9db0 c4bb 0933 fbbb 57cf 8ebb 9468 f9ba
00000100: 4e55 eb3a cf6e 043b 3916 1c3b f2d1 d1b7
00000110: b9b3 e93a 4d17 f8b9 81a2 2f3b f0ac 37bb
00000120: e373 243a a19f de3a c34f c23a 126b 173b
00000130: f942 073b 64f6 8fb9 117f 2439 4a90 95ba
00000140: 4982 b53a bed5 b23a c1a0 b7b9 3433 8e3a
00000150: c432 75b7 3e91 acb9 1ade 3dbb 503d 1f3a
00000160: bf05 213b 52aa d8b9 dcf3 46bb 41ce f4ba
00000170: 09f4 523b 5b14 6c3b 5c79 15b8 9ba3 2d3b
00000180: 7059 6db9 8a92 303a 7e20 873b d03d 8ab9
00000190: 4f15 0ebb 0da4 98b9 8a2d 18ba be35 8cba
000001a0: 9d51 5c3a a987 39bb af9d e7bb df85 ce3a
000001b0: a7db fe3a 2540 48bb 5a63 0dbb d361 863b
000001c0: e9e3 83ba e99a 023b 8f1c 3eb9 0121 ab3a
000001d0: 3a0d cb39 c25c 95ba 1470 833a 3853 7aba
000001e0: d43a 5f3a bc41 01ba 295a a33b 8ac3 f8ba
000001f0: ff31 9b39 f448 cdba 82cb 9cba 7b4a 003b
00000200: 8952 0f3b 4917 1cbb 0582 1cba b61e 793b
00000210: 0ac3 e1b9 433c 4abb e01e 2c3b d464 9a3a
00000220: 3521 a5bb 634d 8bb9 1d54 5cba a09e 87bb
00000230: fdda 45ba 4606 b13a 7c21 89b9 3013 6abb
00000240: 2466 a4bb 64f0 1ebb b90d daba 7be4 88ba
00000250: 0279 87bb f8af 18bb 0273 f3ba 6485 eeba
00000260: c38b 19ba 0617 8bba 655e 17bb 06c1 dcba
00000270: a0f5 7abb e718 0fbb 4278 23bb 75e0 a7bb
00000280: 2689 c0ba 549c cab8 454e 9d39 3cf7 34ba
00000290: 0c1a cc3a 528a 953a 40c9 80bb 3313 a73a
000002a0: aaf7 d839 806b 7139 0d09 783a 999e e4ba
000002b0: 4212 093b 7375 52ba cd2f 92ba 4999 353b
000002c0: 7a97 133b 9b08 17bb 3c59 873b 084c d6ba
000002d0: 8591 dfbb 67a3 f7ba 13b9 cabb 171a 0c3a
000002e0: 2afa acbb 0ff3 abba 4206 dfbb 018c 03ba
000002f0: 6590 85bb c193 06bc bd81 e6bb b933 0fbb
00000300: b661 05bc 6b4d be39 0955 babb eeb8 2bbc
00000310: 6e8e 8cbb cc49 dbbb ab3f 0a3c 0f11 93ba
00000320: e632 653a 94e8 553b fb85 003b eb53 5c3a
00000330: d3d3 1d3a 18ec a0b9 3e68 79bb 7a4f 323b
00000340: 3cfb e93a 3a18 b13b dce8 a2bb 8379 59bb
00000350: 4725 02ba 5feb 0b3b a0c1 453b e506 753a
00000360: 5e57 183c 1622 893a 25eb eb3b 4def f93b
00000370: 92d1 d13b 5d93 2b3b 4dcd a03b 0308 c23a
00000380: a52c 6bba 13de 013b 8b61 d0bb 0855 bb39
00000390: 6863 77ba 3301 9cb9 3cf8 33bb 05a0 073b
000003a0: 2935 5cbb add9 283b e5f2 87bb 6ce1 6abb
000003b0: bdba adbb 8e86 5fbb 66ff 64bb c463 95bb
000003c0: 8306 eeba 8ba0 52bb 2bff ccba 5a73 5f3b
000003d0: 6e64 d33a 7293 e6bb 1d84 273a 30d7 3c3b
000003e0: 4704 c0ba 2d2e 47bb 8457 3dbb 3b26 d3bb
000003f0: e3d8 b639 1525 efba c5d6 80bb 1817 c639
0.00024848565 -0.0028258432 -0.0018100834 0.0025308887 0.003631563 0.0016820579 0.0034299516 -0.0007770534
-0.0016573211 -0.0020788503 -0.0012082029 -0.0013408948 -0.0046637235 -0.0036208625 -0.0016412393 -0.0056949393
-0.009549104 -0.00491288 0.0047726044 0.0043356926 0.0032151649 0.002953867 0.0017401193 0.0052358923
0.0037583802 0.003473469 0.0006686349 -0.0049186293 0.0020062558 -0.0017405984 -0.002871582 -0.0023742826
-0.006467122 -0.0016930198 -0.0024493053 -0.006725565 0.005853225 0.0073606763 0.007100507 0.0037293183
0.005430804 0.0034498603 0.0018483571 0.0035938248 -0.00070947316 0.0053044627 0.0009535194 0.006062901
0.0023455212 0.0011734391 0.0021873326 0.003459739 -0.0013248322 0.00345178 -0.004029159 -0.0035197292
-0.0053129774 -0.0054103415 -0.0031569179 -0.0046141543 -0.0060024993 -0.007665996 -0.004358213 -0.0019028359
0.00179545 0.0020207649 0.0023816957 -2.5012505e-05 0.0017830051 -0.00047319607 0.002679974 -0.0028026663
0.0006273372 0.0016984829 0.0014824796 0.002310459 0.0020639284 -0.0002745866 0.00015687595 -0.0011410799
0.0013848032 0.0013644022 -0.0003502425 0.0010849 -1.4614958e-05 -0.0003291461 -0.0028971494 0.0006074505
0.0024570075 -0.0004132563 -0.0030357754 -0.0018677191 0.0032188913 0.0036022875 -3.5637393e-05 0.0026495222
-0.000226354 0.0006735703 0.0041237464 -0.00026367465 -0.0021680181 -0.00029113927 -0.00058051257 -0.0010697169
0.00084044953 -0.002830962 -0.007068358 0.001575645 0.0019444124 -0.0030555811 -0.002157411 0.004101017
-0.0010062429 0.001992876 -0.00018130451 0.00130561 0.00038729032 -0.0011395442 0.0010027909 -0.0009549144
0.0008515541 -0.00049307547 0.004985113 -0.0018979174 0.00029601154 -0.0015662 -0.0011962506 0.0019575644
0.0021869263 -0.002381759 -0.0005970302 0.003801269 -0.0004306066 -0.0030858673 0.002626352 0.0011779317
-0.005039359 -0.00026569804 -0.0008404868 -0.0041387826 -0.00075475854 0.0013505898 -0.00026155624 -0.0035717003
-0.005017059 -0.002425217 -0.001663617 -0.0010444069 -0.0041342983 -0.0023298245 -0.0018573704 -0.0018197712
-0.0005857313 -0.001061172 -0.0023097035 -0.0016842193 -0.0038293377 -0.0021834911 -0.0024943505 -0.005123193
-0.0014689311 -9.661229e-05 0.0003000369 -0.0006903296 0.0015571727 0.001140902 -0.003930241 0.0012746811
0.00041383255 0.00023023598 0.0009461798 -0.0017442285 0.0020915424 -0.00080283656 -0.0011153162 0.0027709773
0.0022520707 -0.00230459 0.0041305106 -0.0016349563 -0.006822767 -0.0018893302 -0.0061866133 0.0005344464
-0.0052788453 -0.0013118702 -0.006806166 -0.00050181156 -0.004076051 -0.008213938 -0.007034509 -0.0021850897
-0.008140972 0.00036297305 -0.0056864065 -0.010481102 -0.00428944 -0.006692147 0.008438031 -0.0011220294
0.0008743241 0.0032639848 0.0019611109 0.0008404839 0.0006020639 -0.00030693482 -0.0038056518 0.0027208016
0.0017851363 0.0054044994 -0.0049716067 -0.0033184 -0.0004964661 0.002135001 0.0030175224 0.00093470357
0.009298174 0.0010462429 0.0071996623 0.007627404 0.0064031566 0.0026180365 0.0049072863 0.0014803413
-0.0008971191 0.0019816204 -0.0063592843 0.00035730773 -0.0009437115 -0.00029755532 -0.0027461192 0.0020694744
-0.0033601022 0.002576451 -0.0041488283 -0.0035839928 -0.005301802 -0.00341073 -0.0034942268 -0.004559012
-0.00181599 -0.0032139148 -0.0015640011 0.0034095854 0.0016127953 -0.00703662 0.0006390231 0.0028814785
-0.0014649712 -0.0030392513 -0.0028891275 -0.0064437664 0.00034875338 -0.0018245304 -0.0039318525 0.0003778271

exp_avg_sq f4 [10, 10, 3, 3]
00000000: fbd0 0c3a 7d87 363a fb18 d139 94b0 f639
00000010: 8693 b439 9fb3 9b39 1788 8639 ff6e 8a39
00000020: 6996 fa39 74ed 743a da75 573a 0183 113a
00000030: 4d47 533a fe52 1f3a 4190 403a b278 9a3a
00000040: c581 0a3b f98e ab3a 9728 ca39 c9f3 cc39
00000050: c57a 9b39 7d19 ea39 41f4 0f3a 2eae ae39
00000060: e9d7 1d3a f5cc 353a d671 8f39 aa64 213a
00000070: ba53 143a 5ac8 f439 ed8e 143a 5eeb 193a
00000080: d621 be39 645a be39 771f a139 4261 5039
00000090: afaf ab39 52d6 b239 7354 b139 1940 3c3a
000000a0: 160b f839 e624 d839 a338 113a 738e b039
000000b0: 1230 da39 e0e8 d039 aed7 8839 9f23 193a
000000c0: cff6 083a db99 c339 3e75 ea39 5212 f239
000000d0: 279c 5739 e9b8 e539 e016 0b3a 9c5f 3d3a
000000e0: 16d1 5e3a 026f dd39 14c6 143a 996d 843a
000000f0: 5781 233a 7680 003a fd3e 653a 8f2f ab39
00000100: a9df d239 bf91 ca39 844b b839 c95f 113a
00000110: 05bd cc39 3ff2 0f3a 447a bd39 c0c7 533a
00000120: cbcb 113a 3817 8339 e9f5 a439 cb69 d139
00000130: 3f65 ed39 eab0 183a 1321 8139 4e24 b039
00000140: 1d09 fb39 3259 253a 7cf3 ff39 70d8 8f39
00000150: 910f 023a 36b5 f739 556d cb39 cc02 b939
00000160: b978 a539 f6d8 9639 f715 d439 efe1 b739
00000170: c66a 8b39 ed36 e239 ef69 3c3a 93d9 203a
00000180: 2cd5 cb39 a630 2a3a afd4 d639 df5e d439
00000190: 9f2c fb39 51c0 823a 6cd6 d939 4ed0 f639
000001a0: f9a0 863a b1d8 223a 9c25 0d3a 3ed9 cb39
000001b0: 1af4 023a 434a e739 9ef6 283a e4f5 083a
000001c0: c416 243a c18d 5b3a 269d 123a 5a38 8b3a
000001d0: 9fd2 c339 91c3 223a 1001 143a fd56 0f3a
000001e0: 2f5a b639 d8b3 153a 0c1f e139 9e86 a739
000001f0: 80d8 b239 63f2 b739 fc3a 0b3a 1572 ed39
00000200: f584 0b3a 9098 103a 307e 193a ab8c 3b3a
00000210: 521e 053a d07f f63a ead7 433a bf17 5f3a
00000220: a0e7 8a3a e683 8c3a c7c7 d139 1c01 e039
00000230: a80a d739 3ebc 0e3a 784b b639 c3b5 7239
00000240: 9304 bd39 12b8 f939 b6b8 383a 6ca3 d039
00000250: 7c75 173a fce3 e139 6ab2 fa39 3d26 053a
00000260: b101 3a3a 96e8 bf39 3fb3 c939 b5fe af39
00000270: 5ea7 023a bf07 623a 09e1 e739 6eae 003a
00000280: 3eed d439 3e6d 2a3a e4e6 143a 21a2 443a
00000290: ed7b 1a3a 4717 e939 533f 2b3a a0ad 0f3a
000002a0: d0ba 2f3a c928 0c3a 823e 3f3a 598c c039
000002b0: 0b31 2c3a 31e1 a939 b67c 203a e5e8 e039
000002c0: 66c1 d039 19a9 103a 2729 fd39 9e8e f939
000002d0: 9707 893a 0d89 473a 5e8d 983a cb72 443a
000002e0: 2826 313a 2f6d c939 6cc2 4e3a c463 0c3a
000002f0: b25d 4b3a 4f24 913a a7a2 1a3a 38cd 073b
00000300: 0017 073a c25b 873a cfc7 e33a 87aa 8a3a
00000310: f49a 9e3a 4c91 d23a 2167 5d3a ca4e 493a
00000320: d880 263a 0d53 f33a d2c5 ae3a 0f4e 733a
00000330: 6fef b93a 47b5 533a b740 723a cf5e 223a
00000340: 6067 603a 0085 323a 6cd2 333a 00b0 083a
00000350: ecb5 0d3a c19f 363a c2e2 353a 7563 6e3a
00000360: ee56 383a 7b59 c539 9149 033a a42a 193b
00000370: 1572 303a c431 5a3a 2ef8 5a3a 652c f839
00000380: c21b 4e3a 517d c239 eb3d 083a 7928 f739
00000390: bb3a a739 2942 3d3a 39cb 083a 9220 193a
000003a0: 46b3 e739 55b9 ae39 4c89 123a c507 f239
000003b0: de4a 303a 1f17 0e3a 1020 283a d770 183a
000003c0: 67af d839 e8a1 e239 dc67 573a a721 2a3a
000003d0: cc79 573a 7934 2b3a 7358 223a 0582 6f3a
000003e0: 3b5f ba39 190f 183a 4876 093a 1b38 3d3a
000003f0: bca5 1c3a 33cc 5b3a cd5e eb39 fdc4 1e3a
0.00053717167 0.00069629384 0.00039882198 0.00047052337 0.0003444219 0.00029697732 0.00025659867 0.0002640411
0.0004779578 0.00093432446 0.00082191604 0.0005550832 0.0008059636 0.00060777355 0.0007345714 0.0011785238
0.0021134478 0.0013088874 0.00038558684 0.00039091546 0.00029655374 0.00044650948 0.0005491414 0.0003331764
0.0006021248 0.0006935143 0.000273599 0.0006156663 0.0005658228 0.0004668858 0.00056670496 0.0005871559
0.00036264834 0.0003630697 0.00030731756 0.00019872657 0.00032746556 0.00034110487 0.0003382299 0.0007181182
0.00047310506 0.00041226222 0.00055397506 0.0003367547 0.00041616015 0.00039846357 0.00026100635 0.0005841795
0.00052247656 0.0003730793 0.0004471931 0.00046171487 0.00020562169 0.00043816052 0.0005305838 0.0007224025
0.0008499784 0.00042235112 0.0005675268 0.0010103463 0.00062372297 0.00049019547 0.0008745043 0.00032651096
0.0004022096 0.00038637032 0.00035151478 0.0005545584 0.00039050743 0.00054911146 0.00036139984 0.00080787763
0.00055616786 0.00025003566 0.00031463735 0.00039942408 0.00045279597 0.0005824702 0.0002462944 0.00033596385
0.0004788124 0.00063075416 0.000488188 0.00027436344 0.0004961426 0.00047246524 0.00038800636 0.00035288034
0.00031561198 0.00028771878 0.00040452156 0.00035072814 0.00026591698 0.00043147002 0.0007187416 0.0006135937
0.00038878003 0.00064922345 0.00040975722 0.00040506475 0.00047907696 0.0009975528 0.00041549222 0.00047075975
0.0010271362 0.0006212099 0.00053843274 0.00038881035 0.00049954804 0.00044115083 0.000644544 0.0005224629
0.0006259496 0.000837531 0.0005592875 0.0010621652 0.00037350223 0.0006208951 0.000564591 0.00054679794
0.00034780937 0.0005710698 0.00042938476 0.0003195302 0.0003411211 0.00035085072 0.00053112186 0.0004528916
0.00053222413 0.00055158976 0.000585529 0.0007154445 0.00050780654 0.0018806402 0.00074708334 0.00085103133
0.0010597594 0.0010720461 0.00040012432 0.00042725436 0.00041015935 0.00054449204 0.00034769974 0.0002314663
0.00036052297 0.00047630124 0.0007046567 0.0003979461 0.00057776994 0.00043085206 0.00047816645 0.00050792453
0.0007095589 0.0003660365 0.00038471256 0.00033568373 0.0004984046 0.000862237 0.00044227418 0.00049088045
0.0004061255 0.00065012637 0.00056801573 0.0007500966 0.00058931 0.00044458566 0.00065325684 0.0005480889
0.00067035574 0.00053466536 0.0007295386 0.0003672566 0.0006568587 0.00032401973 0.0006122099 0.0004289813
0.00039816945 0.00055183616 0.0004828658 0.0004759924 0.0010454532 0.000761167 0.001163881 0.0007493912
0.00067577 0.00038419056 0.00078872475 0.00053554424 0.0007757797 0.0011073443 0.0005898871 0.0020721685
0.00051532686 0.0010327029 0.0017378273 0.0010579386 0.0012100623 0.001606503 0.00084458484 0.0007679282
0.00063515967 0.001856418 0.0013334102 0.0009281346 0.0014185737 0.00080760237 0.00092412106 0.0006193937
0.0008560326 0.00068099797 0.00068596634 0.00052142143 0.00054058316 0.0006966554 0.00069383916 0.00090938
0.00070319965 0.00037641436 0.00050082157 0.0023371363 0.0006730867 0.00083234557 0.00083530217 0.00047335323
0.00078624126 0.00037095931 0.0005197215 0.00047141666 0.0003189648 0.00072196365 0.0005218271 0.000584134
0.00044193323 0.0003332595 0.0005589917 0.00046163626 0.0006725023 0.00054203154 0.0006413469 0.0005815154
0.00041329415 0.0004322671 0.00082170754 0.000649 0.0008219748 0.00065309514 0.00061929895 0.0009136501
0.00035547637 0.00058005896 0.00052437605 0.0007218138 0.0005975624 0.0008384615 0.00044893325 0.0006056575

exp_avg f4 [10, 10, 3, 3]
00000000: 7791 9a39 adef 9839 5050 9a39 bb48 b5ba
00000010: 9d8d e5ba 6b38 72ba 27fe 42ba 60eb 2fba
00000020: bc56 66ba b466 16ba f0a6 a838 5a19 8fba
00000030: 8902 a1ba 166a fe38 f48c b1ba 3207 36ba
00000040: d9f0 a03a e6ac 7bb9 0562 a039 31e7 44ba
00000050: 745b 1839 ff7b b0b9 cbb3 94ba 0517 6b39
00000060: 0cfc 49ba ebcc 8239 6bed 8cb9 765b 22b9
00000070: bd4e d8b9 977d 4539 379e 66b9 32b9 ccb8
00000080: 0d67 af39 4ccb 44ba b894 82b8 94e5 8138
00000090: d6f3 7aba ce25 413a c985 25b9 b7c8 eeba
000000a0: bd89 08ba 2a8d 87ba fe00 6dba 2b78 24b9
000000b0: 9ff0 b1ba 863d aab9 b5ea aab8 9faa 73ba
000000c0: f814 35b9 f1fc abba f386 a3b9 11c4 39b7
000000d0: 5882 09bb 1149 0aba 0434 353a 3100 0dba
000000e0: 5cba 0db9 a214 913a 2e99 80b9 2857 e139
000000f0: 6f13 903a b2ca 5037 b844 b439 3828 82ba
00000100: b96a efb9 fd47 3eba 8451 72ba 5efe 1f3a
00000110: beea 8bba 570a b639 0388 55ba 2806 91b9
00000120: c552 99ba 0cdc 17ba 7143 98ba 483e c7ba
00000130: 4443 9aba 6946 79ba 8545 aeba 498c 93ba
00000140: 8527 ccb9 69d4 74ba dc75 ea39 32ad d2ba
00000150: dd8a b0b9 68bb 0f39 813d 1035 6bd5 fbb9
00000160: 4a6b 033a cbcf 3eb9 8284 07bb f12c 6dba
00000170: fad6 96b9 d680 6bbb d9d6 5dbb 66ba caba
00000180: 7a96 123a e7bc 053b 9d96 c339 0e7e 2fbb
00000190: e41d 5bb9 a1a7 a1ba 2db8 09bb fee1 28ba
000001a0: c15e 02ba 9d77 d03a 1027 09ba 4ac8 503a
000001b0: 4920 8fba 5c82 8f38 0585 2eba 800a c43a
000001c0: 4c4e 1dba e8c7 baba 422d 8039 6cef 153b
000001d0: a030 db39 6c69 7fb9 3f5d 05ba faa3 dd39
000001e0: 6f6a cf3a 4790 f23a 759d 69b8 11d5 c33a
000001f0: 8c25 263b 8824 eb3a 99c2 97ba 1f00 fe39
00000200: ba66 ad3a 7b74 5cbb 4c3b 46bb 1de8 09bb
00000210: 4dac 303a 15f9 a73a db80 153b 124e c63a
00000220: b2c9 9fb8 7fbb d2b9 0e2d fe39 7af6 e13a
00000230: d6b8 a2b7 f2e2 5f3b e0d0 313b 50ea ac3a
00000240: 38fd 23bb 5144 9fba 6249 aeba 9889 b5ba
00000250: 3f3c 5639 fa36 473a 1310 5f3a 8951 ee39
00000260: 9403 e4b9 d4d3 5b3a 0f99 86bb a85d f9b8
00000270: 5103 b03a 789e f639 65af 03bb 5841 8f3a
00000280: 14ef d53a 5a09 843a 4185 ecba efa3 64bb
00000290: 8f5d d1ba 1e4d e138 57f1 d6b9 add9 1eba
000002a0: d1de 213b bff9 a13a 1e06 4fba 269b 82ba
000002b0: 34b6 e439 c42d 22b8 b34a 3eba 2122 913a
000002c0: 86ea 293b e86e 97ba 1a76 7d3a 9451 2fba
000002d0: c6d7 5dba 1485 acba 12ad 99ba 6f85 9aba
000002e0: 600e a439 54e0 60ba 10f5 ad3b 67a1 8e3b
000002f0: b614 953b e9f8 3e3a c901 efb9 74ed 0d3a
00000300: 2841 183b 861c 1a3a b2c5 183b 17d0 523b
00000310: 0e5a 0d3b eb3b 1a3b 8047 a9ba f261 3bba
00000320: 28ff 9bb8 51c2 84b8 ef41 88ba fbe5 d839
00000330: 4066 a939 da13 37ba 06c8 953a 07ce feb9
00000340: 8242 d839 a274 5e39 a7bc b53a 279e 973a
00000350: 72de 133a d160 f23a 8a22 fa3a 413c cf3a
00000360: ae5d 8039 48b6 93ba d67d f5b9 5aed 9d39
00000370: 5cd3 60ba e975 1c39 e4e5 c23b 5b90 8f3b
00000380: 8738 983b 3e27 db3a c0c0 2b3b 98b5 3a3b
00000390: c77c cd3a f324 c53a 596c 993a b820 17ba
000003a0: abd1 463a 99b0 91ba 603b 7139 27cf 0138
000003b0: bdeb 873a d68a 9539 56f0 01bb fa77 7a3a
000003c0: 655f fdb9 b8fd 6eba 9cb7 4ab9 7fef 833a
000003d0: d87e 0e3b 3e68 033a ab8a 2f3b 1927 a93a
000003e0: a488 8f3a cb75 dd38 028e 29ba af0e 30ba
000003f0: 75c8 9b3a b28a 493a b2c6 ce3a 2e2b 653b
0.0002948155 0.00029170272 0.00029433006 -0.001383088 -0.0017513518 -0.00092399743 -0.00074383843 -0.0006710794
-0.0008786728 -0.000573735 8.041959e-05 -0.001091759 -0.0012284081 0.00012131424 -0.0013546036 -0.0006943821
0.001227881 -0.00024001635 0.00030590608 -0.0007511257 0.00014529919 -0.0003366172 -0.0011345086 0.00022419922
-0.00077050994 0.00024948208 -0.0002687977 -0.00015483596 -0.00041257395 0.0001883417 -0.00021993449 -9.761973e-05
0.0003345538 -0.00075071 -6.226584e-05 6.1939616e-05 -0.00095730776 0.0007367999 -0.00015785465 -0.0018217777
-0.0005208513 -0.0010341753 -0.00090409804 -0.00015685025 -0.0013575739 -0.00032470765 -8.149949e-05 -0.0009295139
-0.00017269317 -0.0013121647 -0.00031190328 -1.107251e-05 -0.0020982232 -0.000527517 0.0006912353 -0.00053787517
-0.00013516232 0.0011068771 -0.0002452819 0.0004298028 0.001099212 1.244496e-05 0.00034383475 -0.0009930199
-0.00045665147 -0.0007258652 -0.0009243714 0.00061032723 -0.0010674817 0.0003472145 -0.00081455725 -0.00027661142
-0.0011697641 -0.00057929824 -0.0011616779 -0.0015201056 -0.0011769314 -0.0009509088 -0.0013295865 -0.0011257018
-0.00038939356 -0.0009339513 0.0004471977 -0.0016073345 -0.00033672797 0.00013707357 5.373368e-07 -0.0004803346
0.0005013241 -0.00018197221 -0.0020678346 -0.00090475293 -0.000287704 -0.0035934946 -0.0033849983 -0.0015466928
0.0005591881 0.0020406784 0.00037305514 -0.0026778015 -0.00020896603 -0.0012333283 -0.0021014318 -0.0006442367
-0.0004973226 0.0015904788 -0.0005231956 0.00079644157 -0.0010919656 6.843053e-05 -0.00066573947 0.0014956743
-0.0006000742 -0.001425025 0.00024447782 0.0022878302 0.00041807164 -0.00024357968 -0.0005087442 0.00042274577
0.0015824566 0.0018506133 -5.5698172e-05 0.0014940818 0.002535197 0.0017939964 -0.001157838 0.00048446745
0.0013229467 -0.0033638764 -0.0030247746 -0.0021042891 0.0006739542 0.0012815321 0.00228124 0.0015129468
-7.6192795e-05 -0.00040194017 0.00048480224 0.0017239593 -1.9397976e-05 0.003416237 0.0027132556 0.0013192389
-0.0025022756 -0.0012151097 -0.0013297016 -0.001385021 0.00020431074 0.00075994397 0.000850917 0.00045455646
-0.00043490215 0.0008385752 -0.0041076015 -0.0001189069 0.0013428723 0.00047038845 -0.0020093557 0.0010929508
0.0016321861 0.0010073588 -0.0018045084 -0.003488775 -0.0015973317 0.000107432 -0.00040997073 -0.0006059658
0.002469946 0.0012357755 -0.0007897335 -0.0009964451 0.000436233 -3.8666432e-05 -0.0007259056 0.0011072793
0.002592714 -0.0011553438 0.00096687826 -0.00066878763 -0.00084626337 -0.0013162219 -0.0011724553 -0.0011789034
0.00031291228 -0.00085783494 0.0053087547 0.0043527368 0.004549588 0.00072850153 -0.00045586962 0.00054141064
0.0023232196 0.0005878884 0.0023311195 0.0032167488 0.002156857 0.002353425 -0.0012914985 -0.0007148079
-7.4385025e-05 -6.330445e-05 -0.0010395626 0.0004137008 0.00032310374 -0.0006983854 0.001142741 -0.00048600158
0.00041248283 0.00021215019 0.0013865427 0.0011567519 0.0005640752 0.0018491988 0.001908378 0.0015810804
0.0002448386 -0.0011269534 -0.00046823797 0.00030122214 -0.0008576417 0.00014921244 0.0059478153 0.004381222
0.0046454105 0.0016720069 0.0026207417 0.0028489586 0.0015677445 0.0015040919 0.0011705264 -0.00057650683
0.00075843435 -0.0011115252 0.0002300567 3.0948922e-05 0.0010369938 0.00028522935 -0.001982709 0.0009554621
-0.00048326995 -0.00091167865 -0.00019332621 0.0010065882 0.0021743085 0.0005012787 0.0026785533 0.0012905329
0.0010950756 0.00010560042 -0.0006467999 -0.0006716055 0.0011885302 0.0007688209 0.0015775769 0.0034968364

exp_avg_sq f4 [10, 10, 3, 3]
00000000: 25d5 9d36 91e3 8c36 8648 7936 439e 8237
00000010: bfd8 1737 4195 1c37 d1e0 1337 7a3a 1237
00000020: 7726 2e37 750d b936 c0a0 b436 1067 0737
00000030: f0b0 2037 c638 cc36 5005 0137 03fa 1037
00000040: 8073 4437 cfc6 3137 fb74 b537 8497 a237
00000050: 893b 3937 5899 9537 fb85 5537 e8b8 5f37
00000060: db3a 8237 a25d 9837 b655 df37 64f2 f936
00000070: dc13 4d37 4718 9037 4169 9a37 2870 3437
00000080: e2a1 3237 c95c 5637 f461 4637 b071 5f37
00000090: 7326 bf36 b84c 5936 13c6 9c36 61ff fe36
000000a0: 8cbb e536 c2a0 a036 3d3f f536 57d9 a836
000000b0: d510 1a37 fc41 ef37 4e8d bd37 6991 aa37
000000c0: ed30 b437 371f d237 7fc9 9137 f899 5838
000000d0: 5411 a037 1eb7 5637 74fc 8337 75cb f037
000000e0: 8c53 cb37 0d9c 8e37 2c6f 7037 b1e3 da37
000000f0: 5f6c 8337 9336 9337 5726 8137 d12a 4d37
00000100: a05d 6c37 e1d0 5437 40ba ff37 294d 8137
00000110: 46c3 8837 01ee b237 659e ae37 4b0e a337
00000120: 3d22 e937 ecc8 8e37 313f eb37 d16e fa37
00000130: b52b c637 c657 1638 f232 1238 7417 f237
00000140: 8673 ed37 7992 b437 f572 5d37 5d38 5f37
00000150: 88e9 8437 924c 5537 3603 1c37 fb32 1e37
00000160: 94ec 2837 57ac 6b37 b17f 6e37 d9ac 4a37
00000170: 7716 6237 bcee fa37 be6e 1538 7bfd e437
00000180: 3cca 2c38 e00e 5938 b1d0 4838 18bd 9c37
00000190: 9926 7637 edd2 dd37 b5cf 0d38 da7f e137
000001a0: 2d78 db37 fdde da37 8f9c c337 daaf ca37
000001b0: 3e9f 3e38 ecb2 1f38 8e21 0d38 c31e 5238
000001c0: 73ed 0d38 1e72 4238 e0f6 f237 eb6b 2738
000001d0: c4af 0238 679b ec37 9eea 7838 ecbe c138
000001e0: 54b0 8b38 1593 3338 8f88 5638 b023 5138
000001f0: 3658 1d38 0d9f 0c38 9a92 8737 4ebc 9537
00000200: 4018 9937 a352 f637 f35d ef37 986d 0c38
00000210: 72b1 0938 8abe 3738 c53e 2938 bbec 9a38
00000220: 3cd6 5238 66cf 2f38 5005 5038 6d2e 8338
00000230: 1749 7438 5e7e 9e38 60ce 2738 bd9c 3d38
00000240: b0a1 2038 b6fb 8038 1cd8 ad38 21dc 0738
00000250: 1562 7838 62cf 3a38 0659 e437 dff6 3e38
00000260: 6203 1938 9b08 2838 6f14 3038 b4f4 d637
00000270: 697d 3638 c14a 0f38 ce55 0338 a9c8 7738
00000280: 4136 d637 6980 e637 d5eb 4638 4063 4e38
00000290: 07c6 6938 b30a 3538 f6fa 5938 f2b0 6038
000002a0: 93f0 3238 edc1 1b38 19e7 2f38 e2fc 0a38
000002b0: 6b5a 2438 da1b 7438 000c 0638 02fe 1338
000002c0: 411e 1938 7df7 ed37 423e b337 e353 cf37
000002d0: 6169 4b37 aeae 6c37 d788 2d37 7744 c337
000002e0: ba22 f937 53ef 0138 82ec 7838 3772 7c38
000002f0: 5710 8338 6c81 3737 2ff0 3837 a6ef 5937
00000300: 81b0 8c37 82be 5d37 f187 ee37 11b4 c937
00000310: 9261 8737 4021 0338 c5e6 7537 0fa9 3d37
00000320: de09 8d37 c35d 3837 7878 8537 cbc6 6937
00000330: f20a 6837 d0be 5837 edc8 8d37 257c 4e37
00000340: 9085 8037 3b69 4e37 692c b737 4064 a937
00000350: 47ae 9a37 2fa4 d937 229b a637 c2ea d537
00000360: 6716 6a37 76ab 4137 ae0a 4c37 0c8f a237
00000370: 5b73 7537 6e75 b237 2418 2938 ff7f 2538
00000380: 8f32 5438 0306 bd37 40f7 a337 f396 c537
00000390: 9249 6b37 ee55 a037 f231 c037 2f04 8637
000003a0: 8f17 6337 d8b8 a537 2b8c c937 eba6 9937
000003b0: 0f2b 1238 17c1 9037 b7bb e037 95c9 a237
000003c0: 286b d037 5ef7 9537 097c 8b37 814c 7c37
000003d0: 6f9e a337 53a1 8637 d7b8 5837 34b7 8437
000003e0: 09b9 8337 ba85 6637 418e 9d37 7655 8837
000003f0: e030 7237 7bd2 a237 3376 0b38 a6b5 b937
4.703778e-06 4.1988174e-06 3.7146106e-06 1.5570904e-05 9.0507665e-06 9.3330755e-06 8.814227e-06 8.715893e-06
1.0380164e-05 5.5149962e-06 5.383132e-06 8.070623e-06 9.57794e-06 6.086283e-06 7.690236e-06 8.641279e-06
1.1709402e-05 1.0596311e-05 2.1631355e-05 1.938246e-05 1.1040721e-05 1.783359e-05 1.2726984e-05 1.3334888e-05
1.5524614e-05 1.8163413e-05 2.6623584e-05 7.4489963e-06 1.2223576e-05 1.7177443e-05 1.8407243e-05 1.07549495e-05
1.0647318e-05 1.2776997e-05 1.1824526e-05 1.3318306e-05 5.6967197e-06 3.2380176e-06 4.672221e-06 7.59952e-06
6.846565e-06 4.7870863e-06 7.308931e-06 5.032092e-06 9.183034e-06 2.8521747e-05 2.2596356e-05 2.0333291e-05
2.1480455e-05 2.5048486e-05 1.7379176e-05 5.1641808e-05 1.9081555e-05 1.2798029e-05 1.5733975e-05 2.8704972e-05
2.423839e-05 1.7000386e-05 1.4330999e-05 2.6093652e-05 1.5666881e-05 1.7549179e-05 1.5395852e-05 1.2228921e-05
1.4088495e-05 1.2684818e-05 3.0485098e-05 1.5413929e-05 1.6303395e-05 2.1330083e-05 2.0816175e-05 1.943777e-05
2.7791708e-05 1.702128e-05 2.8043609e-05 2.9853925e-05 2.3623792e-05 3.5844532e-05 3.485656e-05 2.885957e-05
2.8306396e-05 2.1525879e-05 1.3199392e-05 1.3304959e-05 1.5844373e-05 1.2713617e-05 9.299072e-06 9.429404e-06
1.0068663e-05 1.40472175e-05 1.4215636e-05 1.20803825e-05 1.347588e-05 2.9913492e-05 3.5627505e-05 2.7297754e-05
4.119634e-05 5.1750685e-05 4.7878075e-05 1.8684703e-05 1.4671729e-05 2.6443473e-05 3.3810462e-05 2.6881626e-05
2.6162796e-05 2.6091462e-05 2.3318715e-05 2.4162164e-05 4.5447836e-05 3.8075188e-05 3.364827e-05 5.009655e-05
3.383816e-05 4.6359484e-05 2.8963608e-05 3.991641e-05 3.115811e-05 2.8205757e-05 5.9346312e-05 9.238519e-05
6.66088e-05 4.2813906e-05 5.1148756e-05 4.986272e-05 3.751387e-05 3.352673e-05 1.616152e-05 1.784987e-05
1.8250314e-05 2.9363966e-05 2.8534769e-05 3.348067e-05 3.2828604e-05 4.3808053e-05 4.03512e-05 7.387387e-05
5.0267423e-05 4.1916406e-05 4.9596012e-05 6.255214e-05 5.8242204e-05 7.557565e-05 4.0008104e-05 4.5207085e-05
3.8297556e-05 6.1504004e-05 8.289536e-05 3.239152e-05 5.9219154e-05 4.4538996e-05 2.7221173e-05 4.5529447e-05
3.6481193e-05 4.0062336e-05 4.19807e-05 2.5624737e-05 4.350898e-05 3.4163477e-05 3.1312746e-05 5.907627e-05
2.5536052e-05 2.7477932e-05 4.7426514e-05 4.920666e-05 5.5735956e-05 4.3163727e-05 5.1970557e-05 5.3570555e-05
4.266256e-05 3.7135487e-05 4.1938478e-05 3.313728e-05 3.9184855e-05 5.8200072e-05 3.1959265e-05 3.5284094e-05
3.650622e-05 2.8367847e-05 2.1367454e-05 2.4715386e-05 1.2124278e-05 1.4107367e-05 1.0343464e-05 2.3277693e-05
2.9699284e-05 3.0978885e-05 5.9348073e-05 6.0187853e-05 6.24961e-05 1.0937783e-05 1.1023177e-05 1.2990005e-05
1.6771492e-05 1.3216983e-05 2.8435114e-05 2.4044917e-05 1.6138689e-05 3.12638e-05 1.4656868e-05 1.130464e-05
1.6813105e-05 1.0989085e-05 1.5910933e-05 1.3934167e-05 1.3830826e-05 1.291903e-05 1.6902073e-05 1.23074615e-05
1.5320984e-05 1.2303058e-05 2.183598e-05 2.0193052e-05 1.8439385e-05 2.594487e-05 1.9860981e-05 2.5500896e-05
1.3952703e-05 1.1543618e-05 1.2161834e-05 1.9378516e-05 1.4629996e-05 2.1273936e-05 4.0315223e-05 3.945827e-05
5.0591825e-05 2.2533355e-05 1.9546249e-05 2.3554521e-05 1.4024221e-05 1.91135e-05 2.2911441e-05 1.5975993e-05
1.35357395e-05 1.9755607e-05 2.4026338e-05 1.8316749e-05 3.4849214e-05 1.7256052e-05 2.6790292e-05 1.9405774e-05
2.484543e-05 1.7877373e-05 1.662785e-05 1.5038183e-05 1.950489e-05 1.6049167e-05 1.291764e-05 1.5820937e-05
1.570258e-05 1.3740204e-05 1.87821e-05 1.625226e-05 1.4435704e-05 1.9409918e-05 3.3250264e-05 2.2138305e-05

exp_avg f4 [10]
00000000: 4c4a 98b9 55ec cdb9 2433 deb9 3e20 82b9
00000010: 35e3 8c38 5a1e 513a 2935 8fba 7537 ae3a
00000020: e0c7 183a 21aa 73ba
-0.00029047055 -0.00039276728 -0.00042381242 -0.00024819555 6.718041e-05 0.000797724 -0.0010925877 0.0013291674
0.00058281235 -0.00092950655

exp_avg_sq f4 [10]
00000000: b139 fb37 c7c0 7f37 e111 2538 f7cb 9537
00000010: 1179 fa37 f23c c837 c06d 2a38 b5cc 8d37
00000020: f988 1637 e639 9837
2.9948396e-05 1.5244069e-05 3.9355717e-05 1.7857163e-05 2.9858698e-05 2.3870238e-05 4.063337e-05 1.6903834e-05
8.972588e-06 1.8146773e-05

exp_avg f4 [10, 10, 3, 3]
00000000: b570 adba 3853 3a39 a810 ebb9 b1d7 d2b9
00000010: 662f 04ba b517 dfb9 8ec3 e1b9 d415 c039
00000020: 5c57 0eba 582d 2e39 99a0 d6ba a1d3 b3b9
00000030: a580 e3b8 5d73 d6b9 a342 613a 0b7d 81ba
00000040: 9041 4bba 934c 633a 98e3 b038 73b2 12ba
00000050: 1949 ce39 c6b4 eb39 4dc0 9aba bb56 6c3a
00000060: ee7c 04ba 7462 47ba c428 613a d9fa 9ab8
00000070: 3c29 1f3a 8396 8039 655f 00b9 4939 b639
00000080: 5776 c8b9 79b5 60ba 854a 23ba 93c6 c5ba
00000090: e18a 823a 7cbf 063a 8f8d 51b8 2f8d 903a
000000a0: b027 6b3a 1737 f938 e069 5b38 f96a 173a
000000b0: f489 65b9 4ec6 acb8 4d43 0ab9 cd7c 8eba
000000c0: 67cb 64ba f589 213a 03f7 0fb8 bcc9 a638
000000d0: c543 be38 20eb 7f3a 35d2 d2ba 9c76 cdba
000000e0: d922 00bb 10c3 f1ba 2346 f2ba 9cb3 1dbb
000000f0: c609 cbb7 f639 27b9 e1e9 d3b9 47be b3ba
00000100: 298f 1bba 4c18 86ba f5e0 2539 9b63 b93a
00000110: 5a96 38b9 1e61 bbba b982 97ba b663 06bb
00000120: 798d 36ba a624 9f39 1501 d439 5d85 59ba
00000130: 08e6 26ba 0c84 8939 0c13 9539 6095 4ab8
00000140: 92d5 25b9 e74d 5e39 3c4c 543a 051a 773a
00000150: 40ea ac39 ace0 ceb9 c20b 7e3a 1be2 c638
00000160: ea2e 853a a9d6 9b3a ee39 f3ba 2a44 d0ba
00000170: 72fd dfb9 9727 8bb9 b522 efb7 4643 ad3a
00000180: 5279 9239 2be6 1d3b 5a81 ce3a d2f4 1a3b
00000190: 91fd da3a 94a6 743a 44c9 223b 12e4 003b
000001a0: 719d 6239 fc1f b93a cbef 1b39 3f3d c8ba
000001b0: afad f4b9 d7a6 d13a 0472 c13a 1e3c f53a
000001c0: c43b 533a ed0e d93a 61b7 e93a 3201 063b
000001d0: f5b0 eb39 d6d6 33ba 98fa 55ba a36f 81ba
000001e0: 7322 5fbb 2c30 36bb 926a 07bb 6060 1b3b
000001f0: cc0e 313b c1cc 3e3b 3727 563a 5ffb cd3a
00000200: 9aa7 823a 371d 8dba 7744 cb39 996b b03a
00000210: 49c6 f6b9 ae12 f83a d770 053b 7671 aeb9
00000220: 7d1f 5739 4396 ac37 cc3b 8f3a e75d ed39
00000230: 5308 963a 84e6 ca3a 8cd6 1a39 a21e 1e39
00000240: ec04 3dba d9c1 34bb 1ebd c3ba 3420 203b
00000250: 5a8a bd3a 0588 943a b3eb f33a 3fce 713a
00000260: e1ca 143b 9ff2 02b8 0e63 873a 036e e339
00000270: e33a 2fba 176f b6b9 d673 a239 3905 0b3a
00000280: 3b51 f63a dbcb da3a fbbd b23a bec3 a03a
00000290: 1ae5 a2b9 cf58 6d3a 9d7f 78ba fc33 5aba
000002a0: 75be e33a 7f0e d139 f744 d6b9 88d0 f43a
000002b0: 9ca9 ce3a ee1b bb3a c69f 073b fccb 473b
000002c0: 22dc 053b 7d2d ef3a 4130 173b 23b4 d53a
000002d0: bdd6 93ba 1bfb 5bbb 58ce 1fbb 6afd 9139
000002e0: 6445 f23a 12c3 3fba da21 383b fb19 1d3b
000002f0: 423d b13a e532 583a dbc5 503b 85cb fe3a
00000300: a525 34ba 2272 0fbb 81a6 b4ba c36f 2aba
00000310: df99 65bb ba50 4ebb c416 e0b9 59f6 6c3b
00000320: 71a2 243b 446f f23a 5a2f 5d3b e8a7 103b
00000330: 4851 0f3b b3aa 3f3b 52e3 003b 49a1 8db9
00000340: 35e5 48bb a79e 9bba b681 d1ba a06e 9bba
00000350: abab aa39 ba59 c23b 453d c33b 81dc fc3b
00000360: 524b f239 6628 a1b9 4ffa 003b 9f32 8b39
00000370: da88 4ab9 aafa 213b d49d 4c3a 8027 ccba
00000380: 671e 0d3b 40e9 d637 cff4 453a 594c d33a
00000390: 2f4a fcb8 4ee3 e83a 32c1 9b3a 2b06 1c3b
000003a0: aaf9 e03a c12b cbba 0638 b439 5075 4fba
000003b0: 3450 d6ba 9fe3 723b 4cec 853b dc3f ac3b
000003c0: a651 213a f345 84ba dfa1 b339 71fa 043b
000003d0: f9cf 15bb e8b8 6739 2b35 3ab8 5b0a 3cbb
000003e0: 642d 623a 4df9 113a a306 13bb a09b a739
000003f0: 2f76 41b9 dfa1 c1ba bffd 09bb eb43 afba
-0.0013232442 0.00017769344 -0.00044835103 -0.00040215024 -0.00050424633 -0.00042551538 -0.00043061044 0.00036637357
-0.00054298877 0.00016610825 -0.0016374766 -0.00034299216 -0.000108481654 -0.00040903213 0.00085929985 -0.0009879185
-0.0007753605 0.0008670773 8.4347266e-05 -0.0005596049 0.00039345844 0.0004495738 -0.0011806578 0.00090156094
-0.00050540164 -0.0007605918 0.00085891434 -7.390016e-05 0.0006071513 0.00024526202 -0.00012242568 0.00034756426
-0.00038235143 -0.00085719634 -0.0006229061 -0.0015089087 0.0009959602 0.0005140228 -4.996132e-05 0.0011028404
0.00089704525 0.000118835065 5.2312273e-05 0.0005776133 -0.00021890533 -8.238536e-05 -0.00013185777 -0.0010870934
-0.0008727819 0.000616222 -3.4323904e-05 7.953073e-05 9.072529e-05 0.00097625144 -0.0016084375 -0.0015675607
-0.001955202 -0.0018444974 -0.0018484037 -0.0024063354 -2.4204037e-05 -0.00015947953 -0.0004041931 -0.0013713323
-0.0005934113 -0.001023063 0.00015819429 0.0014144065 -0.00017603618 -0.0014295911 -0.0011559344 -0.002050621
-0.000696383 0.00030354148 0.00040436597 -0.0008297766 -0.0006366675 0.0002622906 0.00028433686 -4.829967e-05
-0.00015815187 0.0002120059 0.0008098518 0.00094261795 0.00032980926 -0.00039458775 0.0009691083 9.483491e-05
0.0010161076 0.0011889535 -0.0018556693 -0.0015889455 -0.00042722706 -0.00026541643 -2.8507182e-05 0.0013218902
0.0002793768 0.002409349 0.0015755103 0.002364446 0.0016707649 0.00093326834 0.0024839202 0.001966719
0.00021611691 0.0014123912 0.00014871282 -0.0015277042 -0.0004666871 0.0015995157 0.0014758711 0.0018709933
0.0008057917 0.0016560234 0.001783114 0.002044749 0.00044954536 -0.0006860321 -0.00081626466 -0.0009875189
-0.0034047633 -0.0027799709 -0.0020662886 0.0023708567 0.0027016876 0.0029113742 0.00081692956 0.0015715173
0.0009968162 -0.0010766153 0.00038770188 0.0013459801 -0.0004706851 0.0018926465 0.0020361447 -0.000332724
0.00020515728 2.0573969e-05 0.0010927855 0.00045274125 0.0011446573 0.0015480076 0.0001476651 0.00015079466
-0.0007210511 -0.0027581363 -0.0014933681 0.0024433257 0.0014460788 0.0011332041 0.0018609673 0.00092241535
0.0022703933 -3.1220374e-05 0.0010329203 0.0004337878 -0.0006684495 -0.00034796514 0.00030985352 0.00053032074
0.0018792519 0.0016692834 0.0013636941 0.0012265367 -0.00031069742 0.0009054066 -0.0009479465 -0.00083237863
0.0017375486 0.00039874387 -0.00040868644 0.001867787 0.00157671 0.0014275291 0.0020694598 0.0030486574
0.0020425399 0.001824781 0.0023069533 0.0016304295 -0.0011279207 -0.0033566419 -0.0024384465 0.00027845363
0.0018483815 -0.00073151395 0.002809635 0.0023971784 0.0013522285 0.000824733 0.0031856212 0.0019439316
-0.00068720646 -0.0021888097 -0.0013782532 -0.0006501639 -0.0035034341 -0.0031481222 -0.0004274157 0.0036157577
0.0025121237 0.0018496295 0.0033750148 0.0022072736 0.0021868516 0.0029246032 0.0019666743 -0.00027013783
-0.0030654196 -0.0011872844 -0.0015984091 -0.001185853 0.0003255283 0.0059311064 0.0059582316 0.007716716
0.00046213955 -0.00030738412 0.0019680446 0.00026549862 -0.00019315202 0.0024716058 0.00078055006 -0.0015575737
0.0021533014 2.5619403e-05 0.0007551433 0.0016120776 -0.00012030114 0.0017767937 0.0011883138 0.0023807387
0.001716425 -0.001550071 0.00034374016 -0.0007913904 -0.0016350807 0.0037061942 0.0040870067 0.005256636
0.0006153829 -0.0010091647 0.00034262144 0.0020290876 -0.0022859557 0.0002209876 -4.4395372e-05 -0.0028692696
0.00086279796 0.000556846 -0.0022434376 0.00031968672 -0.00018449941 -0.0014772973 -0.0021055785 -0.0013371682

exp_avg_sq f4 [10, 10, 3, 3]
00000000: de8d 3737 3ddc 0a37 1247 e136 1a30 2537
00000010: b832 b036 b9ae be36 d6fa 2237 9437 1237
00000020: 291e ef36 06c0 ad37 81cf ae37 9423 f137
00000030: 8564 b737 db28 9337 9a58 7137 738d 9437
00000040: 57dc 7e37 7439 6737 27b9 e636 b071 5437
00000050: 7ee3 5537 c39f a137 e8d4 4437 858c 4c37
00000060: af80 4437 2464 ad37 0026 7e37 73ae f236
00000070: d0cb d636 e2bc 9836 eb64 dc36 c105 9b36
00000080: 1ba5 eb36 1881 1d37 086e 0337 4dd3 4337
00000090: 8e02 ae36 2f49 1e37 4b97 df36 200c de36
000000a0: 8a4a 4837 b603 0237 7f5d 1137 0550 fe36
000000b0: 9dd7 f436 b16b 5837 a14d 3f37 56e7 2237
000000c0: ef91 4d37 f006 2e37 619b 0d37 5b08 0338
000000d0: 854d bb37 7a93 7337 7e4f 3737 81b0 a437
000000e0: 1c0b 3a37 43b1 6d37 33a1 a937 cbde b137
000000f0: 7327 9737 1ce1 8e37 f397 8637 bd1c 8f37
00000100: a346 6b37 a8be 6937 3d30 1637 dd4d 4c37
00000110: c3b7 3837 a4df 3d37 5620 1737 9888 2637
00000120: 2510 5737 2a49 3337 eaf2 6037 0506 4837
00000130: 1b88 6f37 43e4 5337 4bd0 2a37 8b41 5737
00000140: b138 4237 ad8f 2b37 d80c 1e37 9c1f ba37
00000150: 7206 b536 4aa9 f236 e592 5e37 7e82 0c37
00000160: 4366 3437 4b15 9337 6112 a337 be89 c837
00000170: 330e 9037 3ca9 a837 027b 8b37 322b 9337
00000180: 014b e237 ef52 ae37 5a8b da37 d4b1 2d38
00000190: 2a32 2238 2cae de37 5e97 1438 b686 dd37
000001a0: d440 1e38 bf22 cc37 42e6 1938 1662 d037
000001b0: b6d7 b937 b355 c137 4eee 9c37 2113 e537
000001c0: 3493 9f37 c90d ba37 8e5d fc37 6884 e637
000001d0: 75b9 f937 632f 2237 afb7 5937 f662 2037
000001e0: 2cbf e837 9658 2d38 798b 2938 c6fb 2b38
000001f0: e28e 1c38 f4e2 1838 177f 4537 88e9 8737
00000200: a435 a937 c605 5137 e28b 6b37 4c73 b737
00000210: 9798 7837 ae37 5537 39ec 7e37 b91b 0c38
00000220: a743 bc37 d7d8 b637 45e3 ed37 2dde cb37
00000230: 173e be37 821f eb37 0cfa d137 3471 df37
00000240: 8be4 2738 1d54 1338 ae19 f337 c812 1138
00000250: ab4e 3938 4072 2138 df62 1c38 7af3 c137
00000260: 88a6 c837 83b7 0e38 a02c 1538 93a6 0f38
00000270: 6473 8037 9297 8637 b129 8637 94ab 6837
00000280: cf6e 6d37 3b7b 7c37 ecfc f937 0c4b 0238
00000290: f903 e337 bc78 0538 e04f 0438 07b3 1c38
000002a0: 8dc2 e137 f5c7 e137 dd9e c937 6aa9 dd37
000002b0: 057c 1438 6c38 c137 a387 be37 6dbf 2038
000002c0: ee86 ee37 362b a537 80e0 ee37 744c 0c38
000002d0: cf79 cb37 7529 c237 f0b5 6d37 3f1e c037
000002e0: d212 f437 acd8 c337 17bc fa37 3bdf e037
000002f0: 9fab e237 f679 9937 b1ac bc37 706c 9137
00000300: ed2e 8d37 1d27 a137 2648 c937 a4aa 9037
00000310: 60e4 a537 c75a 9e37 192a 8337 fb2c a437
00000320: fb3c 8737 f7c8 9437 415f bc37 e5f3 ad37
00000330: 8aea c437 8333 0438 74a1 8237 a677 2c37
00000340: 4f2e 6237 4f43 4237 78e6 ba37 b960 c137
00000350: d871 f737 d3f1 1f38 a777 3538 2a73 5d38
00000360: 3eee 6237 7026 8737 5080 8237 eb5a 6c37
00000370: 2f0f 5337 35fa 7137 8efe 2637 6a85 5237
00000380: 80e2 8637 08c9 6237 614f 3737 d1fe 7937
00000390: 5ea6 8137 9374 5a37 43b5 b637 2c72 9637
000003a0: 1515 9237 7bf9 6537 33af ff37 cb00 3138
000003b0: e529 0038 66e6 1f38 fa6f 2738 519d 3f38
000003c0: e5f3 0b38 3e8e d637 c7f5 2c38 d14a 5738
000003d0: b190 1738 72d7 2d38 b471 3b38 7901 d737
000003e0: a6b3 f837 4845 ad37 c2e8 b637 b1a2 aa37
000003f0: 83f2 9437 157e 9137 e062 f837 0f7f bc37
1.0940681e-05 8.276719e-06 6.713796e-06 9.845966e-06 5.251113e-06 5.6827816e-06 9.714355e-06 8.715218e-06
7.126266e-06 2.0712625e-05 2.0839043e-05 2.8746006e-05 2.1862108e-05 1.754279e-05 1.4385349e-05 1.7708842e-05
1.5190882e-05 1.378205e-05 6.8760887e-06 1.2662655e-05 1.27487565e-05 1.926709e-05 1.17320815e-05 1.2192065e-05
1.1712472e-05 2.0669839e-05 1.5148427e-05 7.2324706e-06 6.401424e-06 4.551942e-06 6.5682593e-06 4.62003e-06
7.0227666e-06 9.387986e-06 7.833827e-06 1.1672103e-05 5.1859015e-06 9.434573e-06 6.6635307e-06 6.617527e-06
1.1938284e-05 7.749468e-06 8.664442e-06 7.5791054e-06 7.2968674e-06 1.2899677e-05 1.14025615e-05 9.709815e-06
1.225293e-05 1.0372823e-05 8.440432e-06 3.1240615e-05 2.2328235e-05 1.4518266e-05 1.0926158e-05 1.9632515e-05
1.10890505e-05 1.4167573e-05 2.0221434e-05 2.120379e-05 1.8018973e-05 1.7032544e-05 1.6044802e-05 1.706031e-05
1.4023538e-05 1.3932273e-05 8.951928e-06 1.21774765e-05 1.101004e-05 1.1317348e-05 9.00783e-06 9.926174e-06
1.2818758e-05 1.0686266e-05 1.3407998e-05 1.19223305e-05 1.42772e-05 1.2629726e-05 1.0181287e-05 1.2830259e-05
1.1576501e-05 1.0225846e-05 9.420524e-06 2.2187647e-05 5.3949707e-06 7.23187e-06 1.3266433e-05 8.375033e-06
1.0752646e-05 1.753368e-05 1.9439673e-05 2.3906e-05 1.717275e-05 2.0105967e-05 1.6627371e-05 1.754388e-05
2.6976226e-05 2.0781035e-05 2.6052516e-05 4.141203e-05 3.867053e-05 2.6545567e-05 3.542692e-05 2.6407983e-05
3.773051e-05 2.4334875e-05 3.6692487e-05 2.4841207e-05 2.2154167e-05 2.30473e-05 1.8707618e-05 2.7307835e-05
1.9022824e-05 2.2179347e-05 3.0084306e-05 2.7479793e-05 2.9769473e-05 9.6669855e-06 1.2976975e-05 9.559784e-06
2.7745577e-05 4.1328916e-05 4.0422634e-05 4.100406e-05 3.732637e-05 3.645099e-05 1.1771705e-05 1.6202e-05
2.0171348e-05 1.2458715e-05 1.40396605e-05 2.186899e-05 1.48174795e-05 1.2708753e-05 1.519458e-05 3.340442e-05
2.244285e-05 2.1797065e-05 2.8358432e-05 2.4302944e-05 2.2678678e-05 2.8028855e-05 2.5031179e-05 2.6636386e-05
4.002875e-05 3.5125868e-05 2.8979815e-05 3.4588185e-05 4.4180702e-05 3.8491795e-05 3.728538e-05 2.312077e-05
2.3919405e-05 3.4026347e-05 3.556593e-05 3.424899e-05 1.5312522e-05 1.6044625e-05 1.5993459e-05 1.3868226e-05
1.41521e-05 1.5049062e-05 2.9800889e-05 3.1064308e-05 2.7062359e-05 3.1822114e-05 3.1545642e-05 3.736003e-05
2.6912685e-05 2.6915202e-05 2.4035044e-05 2.6424143e-05 3.5401452e-05 2.3033666e-05 2.2712926e-05 3.832525e-05
2.8434642e-05 1.9689654e-05 2.8476352e-05 3.3449804e-05 2.4256207e-05 2.3145907e-05 1.4168661e-05 2.2902268e-05
2.909583e-05 2.3346707e-05 2.9889909e-05 2.680683e-05 2.7021217e-05 1.8295814e-05 2.2491762e-05 1.7335842e-05
1.6830361e-05 1.921091e-05 2.3994664e-05 1.7245598e-05 1.9775878e-05 1.887734e-05 1.563602e-05 1.957127e-05
1.612165e-05 1.7736556e-05 2.2455702e-05 2.073678e-05 2.3474237e-05 3.1519226e-05 1.557239e-05 1.0279857e-05
1.3481432e-05 1.1578973e-05 2.2280248e-05 2.3052433e-05 2.9497707e-05 3.813377e-05 4.3265198e-05 5.279776e-05
1.352612e-05 1.6111153e-05 1.5556958e-05 1.4087865e-05 1.2580115e-05 1.4422975e-05 9.953639e-06 1.2548038e-05
1.6079517e-05 1.3517456e-05 1.0926132e-05 1.4900886e-05 1.545547e-05 1.3020955e-05 2.1780497e-05 1.7934559e-05
1.7414373e-05 1.370755e-05 3.0479952e-05 4.2200827e-05 3.0556595e-05 3.812313e-05 3.992019e-05 4.568446e-05
3.3367327e-05 2.5577025e-05 4.1236894e-05 5.1329673e-05 3.613596e-05 4.1447063e-05 4.469017e-05 2.5630683e-05
2.964756e-05 2.0655469e-05 2.1804477e-05 2.0341338e-05 1.7755903e-05 1.7344059e-05 2.9609946e-05 2.2470513e-05

exp_avg f4 [10]
00000000: 347a f2bb 59a3 5ebb 44fd bd3a 1aff cd3a
00000010: a500 003b b1ee 503b 6b7c e9b9 b31a 11bb
00000020: 1ca3 543b df45 0e3b
-0.0073998217 -0.0033971875 0.0014495035 0.0015716285 0.0019531634 0.0031880552 -0.00044533922 -0.0022141158
0.0032445854 0.0021709127

exp_avg_sq f4 [10]
00000000: a877 c039 1cd2 c039 f937 9039 7cf9 5a39
00000010: 1092 8239 ed83 ce39 adb2 0939 5e45 e439
00000020: b514 3139 80fb 3a39
0.00036710245 0.00036777637 0.00027507523 0.0002088304 0.00024904357 0.00039389674 0.000131319 0.0004353923
0.0001688775 0.00017832033

exp_avg f4 [10]
00000000: 9f79 e03a 696f 223a e2ef 22ba df1e 6e3a
00000010: 6b3b 41b8 8937 abba f860 44ba ba14 bf38
00000020: 97b8 0f3a a95c 0b39
0.001712609 0.0006196411 -0.0006215555 0.00090835796 -4.6070123e-05 -0.0013062815 -0.0007491256 9.11145e-05
0.0005482523 0.00013290592

exp_avg_sq f4 [10]
00000000: 4436 b637 84e5 6b37 bf5e 3037 6844 c337
00000010: 0ee6 8c37 1c1d 0937 d971 6b37 6384 4a37
00000020: da89 4c37 16b5 0437
2.172136e-05 1.406053e-05 1.0512477e-05 2.3277666e-05 1.6796428e-05 8.172614e-06 1.4033599e-05 1.2070962e-05
1.2191444e-05 7.9099755e-06

exp_avg f4 [10, 10, 3, 3]
00000000: 06c0 953a 57a1 043a 9060 8dba 0500 273a
00000010: b360 45ba 0d13 2cbb 924b a43a 1864 47ba
00000020: 865f e1ba 970a e539 10a2 473a fc42 b03a
00000030: e5f3 393b 906a 423b edb1 183b dfb0 f63a
00000040: 2fa3 093b 5902 153b bb72 803a 541d 1539
00000050: 80a6 4b38 5b33 3238 6e40 1bbb 6b01 89ba
00000060: 0162 b13a 5e7a 393a 50fe 87ba c773 8e3a
00000070: e94d 413a 23fd 683a 030b b93a 6f7c d83a
00000080: 5625 ac3a 7996 6db9 2859 373a 260e 52b8
00000090: 8fc4 ec3a ad06 fe39 a1e3 b33a 7ff2 f23a
000000a0: a4b5 8039 292e c43a 0d7a 133b cb4b 723a
000000b0: 5d48 753a 0f15 373a be8e 983a d9bf 4b39
000000c0: e25c 43b9 5cd7 a53a b7cc bdba dbf4 8c3a
000000d0: 949d 883a b248 033a fea7 ed3a d8c9 f73a
000000e0: a76b 783a 4130 3d3a 94a9 05b9 6a9f f9b9
000000f0: f0a0 0c3a d152 c638 e112 19bb 5890 ca39
00000100: 2ca2 003a 316a 723a 50a5 d33a 5efb 993a
00000110: aeab 123b 0ae0 9f3a ee31 2c3a 1911 e43a
00000120: 3d37 cb3a 6886 5d39 296b 9c3a ef94 6e3b
00000130: c8ba 963a 465e a63a c841 533b 2887 323a
00000140: 1ef6 083b 1038 9a3a cbf1 033b 6e06 523a
00000150: f5ec 423a e46c 143b bd23 97ba 0863 253a
00000160: 3439 28b9 e3a4 2fba 5a6c dbba 489a a3b9
00000170: 555d 95ba 7174 18ba 170d c339 704a 03ba
00000180: aea5 86b8 7706 8eb9 9339 a83a afcc 78ba
00000190: c523 1aba da38 ccba 693e 5abb 1a64 0ebb
000001a0: 6858 82bb 515f 5e3b 6e5c 353b f7c3 31ba
000001b0: cb07 e6ba 9bc6 b83a b072 cfb8 84a7 8fba
000001c0: 8380 59b9 818a 8f39 5092 88ba dff4 1b3b
000001d0: 9c7c 12ba 5f18 95ba 1027 86ba 1dc9 0eba
000001e0: 61e7 1dba 69a0 413a 334d 9cb9 5311 283b
000001f0: 9997 3d3b 0438 ff3a afe4 d4ba b220 49ba
00000200: a99f dfba ffea e9ba 63bd d9ba 44bd abb9
00000210: 8469 cbba 5d5e 8239 b8f8 923a 59a3 d239
00000220: 3d53 d9ba 86e3 913a 32ba 4739 48c2 bfb9
00000230: 8bce 5c3a 9f96 0db9 b445 e8ba d916 ceb9
00000240: f89c a3ba 805d 07b9 252b 5137 d3fa 6737
00000250: 8412 97ba 4522 1639 0e32 9db9 7522 f439
00000260: a712 7cb8 c0cb 0cb9 59ec 35b8 87cc 29bb
00000270: 9187 bb3a 779e 56ba 105b 8fba 0af9 063b
00000280: e5fb 893a b2fb 5c39 71cd 853a b851 5eb9
00000290: 69b4 1dbb ee0d 673a d688 96bb 7f6d 3ebb
000002a0: 5469 3f3a f626 42b9 0f03 1abb 5080 99ba
000002b0: 05b2 04bb 5e4d 18ba a857 07bb 8bb5 00ba
000002c0: 8e98 90ba df05 6bb9 3a45 7439 a4d3 b43a
000002d0: a3f9 05bb 4627 d7ba bed0 b83a 1408 a1ba
000002e0: 9d1c b1ba 9304 8fba 5f2c 5cba d14c c0ba
000002f0: 4102 c9b9 964f 613b 5a77 283b 14f8 cc3a
00000300: 93f4 a6ba e19a 23bb 9b67 abba 93d4 b53a
00000310: a1a6 faba 6d02 8db9 5033 2d3a d768 4eba
00000320: 88e3 1a3b 4aff c8ba ba87 9b3a 1016 d53a
00000330: deb6 1cbb 2e1b 92bb 6b3a 88ba 4486 bcb9
00000340: 5bb5 e139 8d8c 8539 5990 3dba 46bb b0ba
00000350: 9bad bdba a1f7 3139 1af1 81ba 56ae 1fbb
00000360: 39cb 6bb9 052d fe39 ede1 99ba 6822 88b9
00000370: 7163 d1b9 3820 a0b8 36ba 78ba 0948 b93a
00000380: c35a 683a fd04 17bb 3bb1 223b fc74 93b8
00000390: f1b6 39ba d491 183b 5cf0 78b9 a88e bdba
000003a0: 2b48 67ba 3688 8dba 938e e0b8 1c99 c438
000003b0: 8c04 98b9 d554 b23a fd89 983a fcba 2f39
000003c0: 868b 963a 53d5 34ba c01a ceba 8d4e 633a
000003d0: c5b0 793a 8712 49ba 8396 30b7 711f 63ba
000003e0: d0e3 21ba 7dd9 073a 908c e93a 365c a739
000003f0: 9645 1abb 7ed2 15ba 7e2d 313b 1bb3 52bb
0.0011425025 0.0005059442 -0.0010786224 0.00063705473 -0.0007529363 -0.0026256472 0.0012534729 -0.00076061627
-0.0017194606 0.00043686174 0.0007615397 0.0013447697 0.0028374132 0.0029665567 0.0023299411 0.0018821022
0.0021001806 0.0022736995 0.0009799817 0.00014220673 4.8554037e-05 4.2486336e-05 -0.0023689526 -0.0010452693
0.0013533236 0.0007075424 -0.0010375474 0.0010868245 0.0007373975 0.0008887818 0.0014117662 0.0016516576
0.0013133686 -0.00022658137 0.00069941813 -5.008108e-05 0.001806395 0.0004845163 0.0013724455 0.0018535404
0.00024549395 0.001496737 0.0022503168 0.00092428614 0.0009356791 0.0006984034 0.001163922 0.00019431057
-0.0001863125 0.0012652683 -0.0014480565 0.0010754125 0.0010422939 0.0005008086 0.0018131731 0.0018904759
0.00094764907 0.0007216968 -0.00012747041 -0.00047611754 0.0005364558 9.4568015e-05 -0.00233572 0.00038635987
0.0004906978 0.0009247391 0.001614729 0.0011747887 0.002238016 0.0012197506 0.00065687194 0.0017400115
0.0015504133 0.00021126273 0.0011933792 0.003640469 0.0011499757 0.0012692891 0.0032235254 0.0006810301
0.002089865 0.0011765976 0.0020133134 0.00080118224 0.0007435822 0.0022647912 -0.0011531037 0.00063090073
-0.00016043038 -0.000670029 -0.0016740665 -0.0003120473 -0.0011395613 -0.0005815691 0.0003720305 -0.00050083455
-6.420478e-05 -0.00027089167 0.0012834541 -0.00094909495 -0.0005879964 -0.0015580908 -0.003330136 -0.0021727146
-0.003977824 0.0033931325 0.00276735 -0.0006781215 -0.001754993 0.0014097275 -9.8918914e-05 -0.0010959958
-0.00020742607 0.0002737828 -0.0010419581 0.0023797078 -0.0005588026 -0.0011375061 -0.001023503 -0.00054468383
-0.0006023553 0.00073862687 -0.00029812157 0.0025645092 0.002892947 0.001947165 -0.001624247 -0.00076724135
-0.0017061132 -0.0017846524 -0.0016612228 -0.00032756676 -0.0015519117 0.00024865838 0.001121304 0.00040176025
-0.0016580593 0.0011130429 0.00019047482 -0.0003657511 0.0008423111 -0.00013502919 -0.0017720968 -0.00039308405
-0.0012482693 -0.00012909435 1.2467416e-05 1.38270725e-05 -0.0011525904 0.00014317881 -0.00029982667 0.0004656498
-6.0098853e-05 -0.00013427343 -4.337388e-05 -0.0025909261 0.001430737 -0.0008187065 -0.0010937173 0.0020595216
0.0010527341 0.00021074599 0.0010208321 -0.00021202012 -0.0024063832 0.00088140264 -0.004593949 -0.0029056964
0.0007301767 -0.00018515796 -0.0023500358 -0.0011711214 -0.002024771 -0.00058098685 -0.0020651612 -0.00049098645
-0.0011031793 -0.00022413534 0.00023295442 0.0013795984 -0.0020442985 -0.0016414903 0.0014100296 -0.0012285733
-0.0013512556 -0.0010911397 -0.0008398946 -0.001467133 -0.00038339387 0.0034379712 0.0025705905 0.0015637898
-0.0012737684 -0.0024964141 -0.0013077141 0.0013872556 -0.0019123146 -0.00026895423 0.00066070724 -0.0007873899
0.0023634154 -0.0015334871 0.0011866011 0.0016257185 -0.0023912708 -0.0044588065 -0.0010393386 -0.0003595819
0.00043050465 0.00025472455 -0.00072312873 -0.0013483546 -0.0014471294 0.00016972284 -0.0009913773 -0.0024365387
-0.00022487053 0.00048480197 -0.0011740305 -0.00025965576 -0.00039937676 -7.635396e-05 -0.0009488197 0.0014135848
0.0008863622 -0.0023043745 0.0024824876 -7.031296e-05 -0.00070844503 0.002328028 -0.00023740664 -0.001446207
-0.00088227045 -0.001079804 -0.00010707709 9.374527e-05 -0.00028995087 0.0013605604 0.0011637803 0.00016758958
0.0011485673 -0.0006898243 -0.0015724525 0.0008671068 0.0009524937 -0.00076703023 -1.0525461e-05 -0.0008664048
-0.00061756093 0.00051822496 0.001781838 0.00031921425 -0.0023540012 -0.00057152647 0.0027035172 -0.0032150212
