SuperGo-master/saved_models/1584891248/3-extractor.pth.tar (torch_old, 640287 bytes, 355 tensors)

exp_avg_sq f4 [10]
8.259164e-05 5.1546886e-05 4.1834835e-05 7.201934e-05 9.319756e-05 0.000115184455 6.57793e-05 0.00016443628
7.3787334e-05 8.9978865e-05
00000000: 0d35 ad38 0c34 5838 d077 2f38 1709 9738
00000010: 0f73 c338 2f8f f138 fef2 8938 876c 2c39
00000020: 46be 9a38 09b3 bc38

exp_avg f4 [10]
-0.002979603 0.00016083563 -0.0008332515 0.0010562144 -0.0015117527 0.0014459391 -0.0005910402 0.0010128684
0.0006916053 0.001991267
00000000: 7145 43bb fca5 2839 906e 5aba ad70 8a3a
00000010: 0126 c6ba aa85 bd3a 09f0 1aba 39c2 843a
00000020: d94c 353a eb7f 023b

exp_avg_sq f4 [10]
1.4077851e-05 2.9544382e-05 2.802162e-05 2.8817472e-05 9.371618e-06 1.8543324e-05 8.085633e-06 1.29697755e-05
1.3854887e-05 1.4348225e-05
00000000: e92f 6c37 14d6 f737 f90f eb37 0dbd f137
00000010: cb3a 1d37 7c8d 9b37 88a7 0737 c398 5937
00000020: 4972 6837 28b9 7037

exp_avg f4 [10]
-0.0008199107 -0.0009851657 0.0011019047 0.0032309291 -0.00048715944 -0.00031260654 -0.00023401112 0.0014781936
-0.0018992834 0.00030425892
00000000: 47ef 56ba ad20 81ba c96d 903a ffbd 533b
00000010: 6f69 ffb9 57e5 a3b9 e260 75b9 f2bf c13a
00000020: 60f1 f8ba f184 9f39

exp_avg_sq f4 [10, 10, 3, 3]
0.00041440837 0.00030448145 0.00050355226 0.00032589538 0.00023958326 0.00036933104 0.0004403554 0.00027151703
0.00027856126 0.00034594457 0.0003267252 0.00043375185 0.00033405403 0.00022269718 0.00021025907 0.00032377895
0.00050263276 0.0002442607 0.00022193942 0.0004478904 0.00012969758 0.000115789815 0.00018378568 0.00013590578
0.00022634892 0.00017691957 0.00014436654 0.00041711133 0.0002031318 0.00035745022 0.00029805594 0.00053590076
0.00023047398 0.00048116167 0.00028072705 0.00040929503 0.00011307863 0.00027107378 0.00020768707 0.00032334216
0.00016626854 0.00013427399 0.00015946367 0.00014907417 0.000118953096 0.0003225003 0.00025950538 0.0001747178
0.00027378855 0.0003040552 0.00025645393 0.00024815564 0.00022035695 0.00019694635 0.00083802675 0.0006741249
0.0004006745 0.00042177923 0.0005519842 0.0004058132 0.0004248008 0.00024102788 0.00049576355 0.00025034652
0.00036305698 0.00031612438 0.0003706788 0.00018126094 0.0004129068 0.00026317462 0.00024740034 0.00024572524
0.00024327962 0.0002950137 0.00025974307 0.0003643696 0.0003667511 0.00025324067 0.00033808243 0.00043272585
0.0003338129 0.00029256818 0.00060864835 0.00026365378 0.00034441106 0.0002932972 0.00046040068 0.00030023136
0.0006195074 0.0001382962 0.00029970118 0.00031823813 0.00051757257 0.00027302286 0.0003001758 0.00029078606
0.00054457865 0.00046208285 0.00035915687 0.00016000003 0.00016838853 0.00016350561 0.00020197078 0.00021826713
0.0001451615 0.00021887918 0.00022824564 0.00026820358 0.00019002304 0.00020934198 0.00019019814 0.00013226554
0.00010968193 0.000105989806 0.00018575536 0.00013760138 0.00020076658 0.00037303436 0.00031757235 0.00025277227
0.00029404956 0.0002465188 0.00025284375 0.0003176584 0.00025852374 0.00026712488 8.820768e-05 0.00017673336
0.00015850672 0.00010203054 0.0002256003 0.00013210875 0.00016230921 8.601731e-05 0.00011834772 0.00024312119
0.00038337696 0.00024147485 0.0003609623 0.00030218443 0.00026791086 0.00014240033 0.00022550057 0.00016335797
0.0003416694 0.00035370255 0.0003633133 0.0004214525 0.00035901746 0.00020632481 0.00036378895 0.00036768732
0.0001991863 0.00016934164 0.00018914041 0.00028145313 0.0002244667 0.00022189216 0.00019304662 0.00023401929
0.00023750284 0.00019234556 0.00034854905 0.00028721694 0.00032486123 0.00018831065 0.00021850903 0.00028379678
0.0003038922 0.00026511605 0.00023295038 0.00016702079 0.00038578745 0.00018998056 0.00038295647 0.00029155653
0.0002454577 0.00026534038 0.00016961613 0.00032960036 0.00036216984 0.00016454836 0.00028138366 0.00017280558
0.00020154008 0.0002949906 0.00018305716 0.00019942196 0.00026407113 0.00022789002 0.00016872474 0.00016336377
0.00021710903 0.00018528261 0.00015641659 0.00024293963 0.00023713025 0.00018099282 0.00012903809 0.00012943207
0.00010476356 0.00020750152 0.00027236552 0.000119579265 0.00015091266 0.00016518742 0.00011099554 0.0002259734
0.00027681814 0.00016668373 0.00027824257 0.00016104023 0.00018255522 0.0002817747 0.00010597948 0.00032304137
0.00010164119 0.00016884321 0.000133784 0.00013237017 0.00016005276 0.0001977042 0.00016243439 0.00016773438
0.00013701242 0.00016101387 0.00014869231 0.00015257068 0.00018155521 0.00016341069 0.000111333124 0.000187332
0.000100082325 9.069465e-05 0.00017453887 0.00025186496 0.00026688288 0.00012298969 0.00021720973 0.00018861638
0.00013993797 0.00024209119 0.00014294476 0.00022896373 0.00015729068 0.00014652795 0.00013777327 0.00015283
9.205368e-05 7.055336e-05 8.1717466e-05 0.00016705446 0.00027196703 0.00016956324 0.0002387193 0.00015173633
00000000: f344 d939 cfa2 9f39 d200 043a f0dc aa39
00000010: a438 7b39 c6a2 c139 80df e639 665a 8e39
00000020: dc0b 9239 e55f b539 504c ab39 3069 e339
00000030: f923 af39 d283 6939 fd78 5c39 e0c0 a939
00000040: 1dc3 033a 1e10 8039 69b8 6839 d5d2 ea39
00000050: 6eff 0739 2fd4 f238 98b6 4039 ee81 0e39
00000060: 1358 6d39 7c83 3939 1961 1739 bcaf da39
00000070: c7ff 5439 2868 bb39 6444 9c39 b17b 0c3a
00000080: 63ab 7139 6d44 fc39 8c2e 9339 a696 d639
00000090: a124 ed38 e81e 8e39 93c6 5939 4086 a939
000000a0: 5f58 2e39 e6cb 0c39 b435 2739 cb50 1c39
000000b0: 7576 f938 4215 a939 390e 8839 7434 3739
000000c0: 478b 8f39 9969 9f39 aa74 8639 e31a 8239
000000d0: 9e0f 6739 6283 4e39 06af 5b3a c2b7 303a
000000e0: 9f11 d239 4022 dd39 08b3 103a 53c3 d439
000000f0: ccb7 de39 6ebc 7c39 21f6 013a f140 8339
00000100: af58 be39 7fbd a539 ab57 c239 dd10 3e39
00000110: 6a7b d839 b3fa 8939 83b5 8139 afd4 8039
00000120: e018 7f39 12ac 9a39 202e 8839 dc08 bf39
00000130: 8048 c039 63c5 8439 a840 b139 7bdf e239
00000140: 9c03 af39 d663 9939 b38d 1f3a 033b 8a39
00000150: 1292 b439 afc5 9939 ef61 f139 5f68 9d39
00000160: 7066 223a 9a03 1139 3621 9d39 33d9 a639
00000170: b5ad 073a 8224 8f39 ea60 9d39 a574 9839
00000180: 0ec2 0e3a b643 f239 384d bc39 aec5 2739
00000190: 7491 3039 b472 2b39 1ec8 5339 a3de 6439
000001a0: 7e36 1839 ef82 6539 3955 6f39 ad9d 8c39
000001b0: ec40 4739 cf82 5b39 ed6f 4739 c3b0 0a39
000001c0: 0a05 e638 d846 de38 53c7 4239 1749 1039
000001d0: de84 5239 d393 c339 d77f a639 8586 8439
000001e0: aa2a 9a39 313f 8139 1d90 8439 648b a639
000001f0: 788a 8739 e50c 8c39 23fc b838 8051 3939
00000200: d334 2639 3bf9 d538 1f8f 6c39 ac86 0a39
00000210: 8c31 2a39 3164 b438 7331 f838 59ee 7e39
00000220: fcff c839 6934 7d39 8a3f bd39 826e 9e39
00000230: 6376 8c39 4c51 1539 5974 6c39 124b 2b39
00000240: 1722 b339 2771 b939 167b be39 66f6 dc39
00000250: 823a bc39 e558 5839 edba be39 28c6 c039
00000260: aadc 5039 4d91 3139 fe53 4639 0090 9339
00000270: d25e 6b39 b9ab 6839 8f6c 4a39 1363 7539
00000280: 2f0a 7939 5eb0 4939 76bd b639 9b95 9639
00000290: 2352 aa39 4175 4539 921f 6539 8fca 9439
000002a0: b853 9f39 46ff 8a39 2444 7439 4d22 2f39
000002b0: 8443 ca39 8535 4739 8cc7 c839 0edc 9839
000002c0: c6b0 8039 621d 8b39 fcda 3139 36ce ac39
000002d0: 9de1 bd39 9d8a 2c39 ad86 9339 2533 3539
000002e0: 8154 5339 f8a8 9a39 08f3 3f39 ed1b 5139
000002f0: 0773 8a39 c3f5 6e39 b4eb 3039 a14c 2b39
00000300: c3a7 6339 6c48 4239 c203 2439 9cbd 7e39
00000310: 2ba6 7839 e4c8 3d39 664e 0739 28b8 0739
00000320: 82b4 db38 c494 5939 48cc 8e39 a1c6 fa38
00000330: 4f3e 1e39 2936 2d39 47c6 e838 46f3 6c39
00000340: e721 9139 d3c7 2e39 16e1 9139 e8dc 2839
00000350: 4b6c 3f39 29bb 9339 4d41 de38 e15d a939
00000360: 3328 d538 810b 3139 5e48 0c39 d9cc 0a39
00000370: d6d3 2739 d14e 4f39 2653 2a39 dbe1 2f39
00000380: feaa 0f39 d5d5 2839 4aea 1b39 61fb 1f39
00000390: db5f 3e39 3959 2b39 847b e938 8d6e 4439
000003a0: 4ae3 d138 5233 be38 6c04 3739 be0c 8439
000003b0: 6aec 8b39 cbf6 0039 cbc2 6339 53c7 4539
000003c0: 50bc 1239 dcd9 7d39 71e3 1539 fc15 7039
000003d0: 65ee 2439 4ca5 1939 3b77 1039 fe40 2039
000003e0: f10c c138 0cf6 9338 bb5f ab38 572b 2f39
000003f0: cc96 8e39 c9cc 3139 b950 7a39 691b 1f39

exp_avg f4 [10, 10, 3, 3]
0.0008305045 0.0013972198 -0.0014588214 0.01778763 0.005749031 0.013164294 0.009329682 0.0025667779
-0.003374837 -0.0044718245 -0.005663252 -0.0076973876 -0.0020307195 -0.0038926012 -0.005806863 0.003759898
-0.0013016545 0.00013803005 -0.0060494896 -0.0061681997 0.003018805 -0.0018460186 0.00097378576 -0.0006045269
0.0028674153 -0.003505247 0.006599696 -0.0039582625 -0.00043911728 -0.008864628 -0.0025861156 0.003482743
-0.005104211 0.0013532807 0.009667724 0.0041070986 0.0049619963 -0.0004345656 0.0070978305 0.0005099975
0.0019170246 -0.0013815932 0.006916125 -0.002363099 0.0022027786 -0.0019808023 -0.00015578269 -0.0022132385
0.0014332844 -0.001393205 -0.00034105574 0.002003823 0.0055493573 0.0016917768 0.0070657968 -0.00015374058
-0.0054289964 0.0035970917 0.0014884492 -0.00031737259 -0.0011469054 -0.0017970006 -0.0009824962 0.0066262893
0.0016287047 -0.0030736632 -0.00026472867 0.0022835573 -0.00013774088 0.0048928647 -0.0022280668 0.00027590888
0.007001923 -0.002729399 -0.005116741 0.0020001137 0.011366689 0.0015458982 0.017320279 0.0041250815
0.0058584916 -0.001397987 -0.007001594 0.0003275831 -0.0062620775 -0.0022679411 -0.005112012 0.006604448
0.0014368843 0.002946455 0.0010745062 0.0066109477 0.007909983 0.0069979853 -0.0014091064 0.00041601813
-0.009420006 -0.00527416 -0.0038683433 -0.002122534 0.0025220553 0.0013952758 0.002430927 0.0017416839
-0.0011038978 0.0008573373 0.0019876857 -3.261969e-05 -0.0013066166 0.003547172 -0.007435513 -0.00068530993
0.00034591413 0.00020887108 0.004467036 -0.002983873 0.006844433 0.008389089 -0.0032789093 -0.0018656478
-0.008547777 0.0021200078 -0.0004005889 -0.003186762 0.00055358774 0.0059597082 0.00096500776 0.0036861592
0.00021232477 2.3823035e-05 -0.0041158097 0.0062209214 -0.00095038937 0.0016362957 0.0029508965 -0.004404309
-0.0020011954 -0.0026412772 0.00059157476 -0.00047617403 0.007986378 0.0010707354 0.0031267714 -0.00057998975
-0.0031916597 0.0030753969 -0.00068194466 -0.0070054424 0.00079360005 -0.00037375887 -0.0015459579 -0.0016586948
0.0011696089 -0.002696622 -0.0010748487 -0.0016542544 0.001923653 -0.0020830524 -0.0035308257 -0.0054854946
0.0024162328 -0.0027148793 0.003970229 -0.002113128 -0.0027090283 0.0044536274 0.006804928 -0.00014968874
-0.008000518 0.001625393 0.00415651 -0.0012278737 0.0006509199 -0.0015346076 -0.004045367 -0.003741233
-0.004928283 -3.5124373e-05 0.001159317 -0.0025837116 -0.00452048 -0.0030018443 -0.002559925 -0.0036119516
-0.00683637 -0.0043712114 0.0035207109 0.0047390787 0.0012760491 -0.0012044342 -0.00095201493 -0.003316232
-0.0013855894 -0.0004958039 -0.006446245 6.6825305e-05 -0.0020702323 -0.0013705714 0.0017933366 0.00046872706
0.000587704 -0.004711516 -0.0058786753 -0.005326421 0.0039408896 0.0020727275 0.0038882454 0.0030306098
-0.0009237804 0.002104957 0.0003039967 -0.00042153528 0.0045936536 -0.001054383 -0.00036641042 0.0062261275
-0.00042123816 -0.0018453522 -0.0025839682 -0.003777585 -0.0048663607 -0.0026584817 0.0033606351 0.0055064233
0.004938062 0.0015766888 -0.00036118858 -0.0023409664 -0.00360273 0.000754138 -0.0009373459 -0.00090445246
0.0048179883 0.0037080825 0.001258397 -0.0015017551 0.0026584796 0.00097093196 0.0035411117 0.00286599
0.0013856894 0.0064134537 0.003387788 0.0018866264 0.0024295335 0.00614851 -2.3931481e-05 -0.0010623724
0.0038996914 -0.0018105577 -0.0019926839 -0.0011613701 0.006258161 0.006016264 0.0023418413 0.0010823616
00000000: 37b6 593a eb22 b73a ec35 bfba 5db7 913c
00000010: 5e62 bc3b 0daf 573c 86db 183c 6337 283b
00000020: 5f2c 5dbb 6288 92bb cd92 b9bb 5e3a fcbb
00000030: d215 05bb 031b 7fbb 7f47 bebb 9f68 763b
00000040: 479c aaba 29bc 1039 cc3a c6bb 9c1e cabb
00000050: 25d7 453b 1bf6 f1ba a845 7f3a 1d79 1eba
00000060: 3feb 3b3b 49b8 65bb 4342 d83b 50b4 81bb
00000070: 5339 e6b9 f23c 11bc d27b 29bb bb3e 643b
00000080: 3a41 a7bb 9160 b13a 6065 1e3c d794 863b
00000090: 3e98 a23b 68d6 e3b9 eb94 e83b 5ab1 053a
000000a0: ac44 fb3a 9316 b5ba a9a0 e23b 39de 1abb
000000b0: 7e5c 103b 59d0 01bb 9959 23b9 fb0b 11bb
000000c0: 0bdd bb3a 349c b6ba bacf b2b9 9252 033b
000000d0: 62d7 b53b 9cbe dd3a 3388 e73b 6c35 21b9
000000e0: b9e5 b1bb 2fbd 6b3b 1118 c33a 0765 a6b9
000000f0: c253 96ba 5689 ebba 1ac7 80ba 5821 d93b
00000100: 437a d53a 836f 49bb 48cb 8ab9 bca7 153b
00000110: 896e 10b9 5354 a03b c204 12bb dda7 9039
00000120: 6370 e53b b7df 32bb 56aa a7bb 5714 033b
00000130: 593b 3a3c bc9f ca3a 42e3 8d3c b12b 873b
00000140: 97f8 bf3b a93c b7ba a16d e5bb 76bf ab39
00000150: 1d32 cdbb bda1 14bb aa82 a7bb 206a d83b
00000160: d655 bc3a 5019 413b 72d6 8c3a a6a0 d83b
00000170: e098 013c 5b4f e53b c4b1 b8ba 021d da39
00000180: 5e56 1abc dcd2 acbb 0884 7dbb 361a 0bbb
00000190: 1149 253b b0e1 b63a 3050 1f3b 3749 e43a
000001a0: aab0 90ba efbe 603a d543 023b 20d1 08b8
000001b0: c742 abba ac77 683b 9ba5 f3bb 5fa6 33ba
000001c0: cf5b b539 6704 5b39 3760 923b 158d 43bb
000001d0: 4447 e03b 6472 093c f8e2 56bb c188 f4ba
000001e0: fa0b 0cbc d4ef 0a3b 2206 d2b9 ffd8 50bb
000001f0: a51e 113a a849 c33b 93f8 7c3a 7d93 713b
00000200: 7fa3 5e39 94d7 c737 eadd 86bb dfd8 cb3b
00000210: 8d23 79ba f978 d63a d463 413b 0652 90bb
00000220: 7d26 03bb 4719 2dbb e913 1b3a ffa6 f9b9
00000230: 4cd9 023c eb57 8c3a 85ea 4c3b 740a 18ba
00000240: 2a2b 51bb 998c 493b 88c4 32ba e98d e5bb
00000250: 9909 503a 11f5 c3b9 bda1 caba 9068 d9ba
00000260: 904d 993a cfb9 30bb f0e1 8cba 91d3 d8ba
00000270: 1523 fc3a d283 08bb 6d65 67bb aabf b3bb
00000280: a959 1e3b 1eec 31bb b218 823b 687c 0abb
00000290: f489 31bb bcef 913b e0fb de3b c4f5 1cb9
000002a0: 9b14 03bc 240b d53a 5533 883b 9bf0 a0ba
000002b0: 7fa2 2a3a e324 c9ba ff8e 84bb 792f 75bb
000002c0: 6f7d a1bb 8252 13b8 39f4 973a 7d53 29bb
000002d0: 8920 94bb 97ba 44bb 6ac4 27bb 7eb6 6cbb
000002e0: a103 e0bb 613c 8fbb babb 663b 464a 9b3b
000002f0: 1a41 a73a 1bde 9dba a490 79ba 2455 59bb
00000300: aa9c b5ba d6f8 01ba 063b d3bb 9024 8c38
00000310: bcac 07bb bfa4 b3ba 640e eb3a 7bbf f539
00000320: 2610 1a3a 1063 9abb e7a1 c0bb 4289 aebb
00000330: 9422 813b 99d6 073b efd1 7e3b 329d 463b
00000340: da29 72ba 51f3 093b bf61 9f39 8201 ddb9
00000350: 5c86 963b 3933 8aba c61a c0b9 8b04 cc3b
00000360: a1d9 dcb9 bfdf f1ba cb57 29bb 5c91 77bb
00000370: fe75 9fbb ec39 2ebb 1a3e 5c3b 3a6f b43b
00000380: 77cf a13b e6a8 ce3a e95d bdb9 e66a 19bb
00000390: c81b 6cbb 58b1 453a 38b8 75ba c718 6dba
000003a0: 37e0 9d3b 4d03 733b ccf0 a43a 8ad6 c4ba
000003b0: e339 2e3b 2486 7e3a ff11 683b 55d3 3b3b
000003c0: 05a0 b53a f327 d23b a705 5e3b ad48 f73a
000003d0: cf38 1f3b 7179 c93b 77c0 c8b7 4d3f 8bba
000003e0: f791 7f3b 3c50 edba b097 02bb 1d39 98ba
000003f0: 4211 cd3b 1524 c53b 9479 193b 07de 8d3a

exp_avg_sq f4 [10]
0.0005021738 0.0007433886 0.00049308495 0.00033133163 0.0007035496 0.00047073446 0.0004357968 0.0006531403
0.0002661242 0.00029655435
00000000: 50a4 033a f7df 423a 5f42 013a 94b6 ad39
00000010: 6a6e 383a e9cc f639 a87b e439 8137 2b3a
00000020: 9686 8b39 da7a 9b39

exp_avg f4 [10]
-0.00046122068 0.00083418324 0.010490114 -0.0046821255 0.0011913341 0.0034481483 -0.015977262 0.010465476
0.0029516069 -0.008487543
00000000: fecf f1b9 17ad 5a3a bade 2b3c 846c 99bb
00000010: 8a26 9c3a 54fa 613b bfe2 82bc 6377 2b3c
00000020: bf6f 413b 560f 0bbc

exp_avg_sq f4 [10]
2.4898857e-06 3.2785406e-06 4.5748566e-06 2.4934222e-06 3.2467553e-06 9.312883e-07 3.0062715e-06 2.533067e-07
2.120662e-06 2.125005e-06
00000000: e917 2736 e604 5c36 b881 9936 ab54 2736
00000010: d5e2 5936 a5fd 7935 5abf 4936 35fe 8734
00000020: b250 0e36 4f9b 0e36

exp_avg f4 [10]
0.000556472 0.00027910326 -0.00048971234 0.0003286531 -0.00073814107 -0.00043846344 -0.00028008857 1.896888e-05
-0.0005898206 0.0009460394
00000000: 34e0 113a 9b54 9239 0a60 00ba 134f ac39
00000010: cf7f 41ba 91e1 e5b9 dad8 92b9 5c1f 9f37
00000020: 319e 1aba a1ff 773a

exp_avg_sq f4 [10]
0.0002996785 0.00022542734 0.00016119627 0.00018507354 0.00022964021 0.00033569647 0.00045649003 0.00020102765
0.00017135091 0.0003763304
00000000: 2b1e 9d39 b160 6c39 cb06 2939 4d10 4239
00000010: 93cb 7039 6b00 b039 0e55 ef39 f3ca 5239
00000020: a9ac 3339 364e c539

exp_avg f4 [10]
-0.0074757254 0.002267303 -0.00013430095 -0.003542812 0.0062175817 0.0001512891 -5.695551e-05 -0.004146726
0.0016288088 -0.00240393
00000000: eef6 f4bb 0897 143b 23d3 0cb9 862e 68bb
00000010: dbbc cb3b 5ca3 1e39 83e3 6eb8 42e1 87bb
00000020: c17d d53a 418b 1dbb

exp_avg_sq f4 [10]
0.00029678314 0.00032898606 0.00023313411 0.00035030468 0.00020325696 0.00029450492 0.0004410819 0.00029578028
0.00026190153 0.00042278736
00000000: 8f99 9b39 c37b ac39 7675 7439 19a9 b739
00000010: 6021 5539 c867 9a39 0341 e739 f512 9b39
00000020: d44f 8939 8fa9 dd39

exp_avg f4 [10]
-4.5147794e-05 -0.0021788853 0.009630591 0.010211267 -0.008490185 -0.011484598 0.009695852 -0.0035939487
-0.0023140172 -0.0006034343
00000000: 135d 3db8 a1cb 0ebb a0c9 1d3c 284d 273c
00000010: 6b1a 0bbc e529 3cbc 5adb 1e3c 7488 6bbb
00000020: c4a6 17bb ca2f 1eba

exp_avg_sq f4 [82, 81]
1.4811883e-05 2.0364136e-05 2.8306973e-05 2.5563628e-05 3.326479e-05 2.4670273e-05 1.538454e-05 1.0289902e-05
1.5919039e-05 1.7232402e-05 1.1316141e-05 1.8300469e-05 1.8234596e-05 3.472173e-05 2.7279508e-05 2.211457e-05
2.1593041e-05 2.337724e-05 1.5106918e-05 1.1350714e-05 1.2800483e-05 1.8160224e-05 1.5824471e-05 1.9007906e-05
2.4933872e-05 4.252263e-05 2.6878757e-05 1.5755448e-05 6.657995e-06 1.2827347e-05 9.482302e-06 2.4709314e-05
1.6871021e-05 1.6514088e-05 3.976021e-05 2.264799e-05 1.2317392e-05 1.41794435e-05 1.1433988e-05 1.4596818e-05
1.6708536e-05 1.5920086e-05 1.1913586e-05 2.5561878e-05 2.0753792e-05 1.3884305e-05 4.875903e-06 7.1828313e-06
5.205989e-06 1.759566e-05 1.724934e-05 1.2033354e-05 2.0962863e-05 1.381333e-05 8.366282e-06 2.7374665e-06
5.341234e-06 4.931403e-06 1.2331799e-05 9.453386e-06 7.023567e-06 1.2205982e-05 7.422888e-06 6.1504707e-06
1.0847901e-05 6.2065724e-06 3.1433633e-06 6.3608727e-06 6.8461627e-06 6.962659e-06 7.3141878e-06 9.935479e-06
1.0413446e-05 1.4211927e-05 7.041501e-06 1.12703265e-05 9.090461e-06 1.7891105e-05 8.020257e-06 8.421305e-06
3.0180852e-06 1.2572817e-05 1.6200765e-05 1.6928783e-05 2.2202406e-05 2.4107736e-05 1.8958279e-05 1.2043595e-05
8.399621e-06 1.46476405e-05 1.0061849e-05 7.893199e-06 1.2742395e-05 1.1316786e-05 2.3836996e-05 1.553798e-05
1.9521201e-05 1.899301e-05 2.5645662e-05 9.314345e-06 7.806985e-06 7.2817716e-06 1.1712666e-05 1.1874387e-05
2.3329496e-05 2.3154798e-05 3.6944904e-05 2.7582388e-05 8.437846e-06 2.9464422e-06 8.527844e-06 6.8969957e-06
1.993576e-05 1.12838825e-05 1.5611931e-05 3.651338e-05 2.2210157e-05 7.7488085e-06 6.84334e-06 6.150221e-06
9.890036e-06 9.3237e-06 1.7608661e-05 1.2614846e-05 2.0412524e-05 2.005426e-05 1.0141232e-05 4.4911794e-06
5.4240822e-06 4.33785e-06 1.2222217e-05 1.054441e-05 1.1290815e-05 2.0176187e-05 1.3858359e-05 5.3843264e-06
2.6351315e-06 2.824433e-06 2.558225e-06 6.8190016e-06 7.5913886e-06 7.5278117e-06 1.1798224e-05 6.9329526e-06
5.684977e-06 1.2150924e-05 6.4346677e-06 3.885088e-06 5.809083e-06 5.7395728e-06 5.8858345e-06 7.1663853e-06
1.273317e-05 1.0577061e-05 1.1773538e-05 3.932679e-06 5.5467804e-06 7.355264e-06 1.2049507e-05 6.988753e-06
8.542067e-06 2.835596e-06 8.779157e-06 1.3840111e-05 1.40914235e-05 1.8790888e-05 2.0636908e-05 1.685193e-05
9.202742e-06 7.153027e-06 1.1344832e-05 6.808974e-06 9.175728e-06 1.0602344e-05 6.6079865e-06 1.9432544e-05
1.075805e-05 1.4856223e-05 1.3702199e-05 1.8175788e-05 7.151332e-06 6.9259804e-06 4.6040823e-06 1.0121475e-05
7.898425e-06 1.3241047e-05 1.5325013e-05 2.7576749e-05 2.0116318e-05 8.635503e-06 2.8246293e-06 5.509813e-06
3.3238996e-06 1.603929e-05 7.76605e-06 9.104035e-06 2.410105e-05 1.6344635e-05 6.302878e-06 7.5348657e-06
3.7581576e-06 5.687888e-06 7.331706e-06 9.043626e-06 7.561979e-06 1.5625097e-05 1.5555896e-05 7.25056e-06
3.5237767e-06 3.1117193e-06 2.7150747e-06 8.122647e-06 6.608308e-06 7.0600036e-06 1.2115325e-05 9.74097e-06
4.119868e-06 1.993127e-06 2.3609753e-06 2.4506267e-06 6.124586e-06 4.5638935e-06 4.470715e-06 7.052465e-06
5.5614473e-06 8.140591e-06 2.821484e-05 2.1012886e-05 1.38223995e-05 1.4397364e-05 1.2536352e-05 7.2200755e-06
5.577284e-06 8.116618e-06 8.103302e-06 9.580084e-06 3.4061216e-06 4.93921e-06 6.3288344e-06 8.650823e-06
5.337248e-06 5.566724e-06 2.4481205e-06 1.1091049e-05 1.0698151e-05 1.717508e-05 1.9946516e-05 2.295915e-05
1.9602157e-05 1.5576485e-05 9.825162e-06 1.7383332e-05 1.4587943e-05 8.688002e-06 1.8536322e-05 9.1679285e-06
00000000: 8e80 7837 a6d3 aa37 c374 ed37 7971 d637
00000010: cc85 0b38 02f3 ce37 0c0e 8137 cba2 2c37
00000020: e089 8537 4d8e 9037 75da 3d37 f583 9937
00000030: 7ff6 9837 2ca2 1138 4cd6 e437 ad82 b937
00000040: b422 b537 3e1a c437 b873 7d37 f26e 3e37
00000050: a8c1 5637 c956 9837 cbbe 8437 2b73 9f37
00000060: 1529 d137 545a 3238 b179 e137 912a 8437
00000070: be67 df36 0935 5737 2d16 1f37 d946 cf37
00000080: 3e86 8d37 bc87 8a37 33c4 2638 30fc bd37
00000090: cca6 4e37 3fe4 6d37 9bd4 3f37 dbe4 7437
000000a0: 4f29 8c37 208c 8537 76e0 4737 b76d d637
000000b0: 6e18 ae37 a3f0 6837 b09b a336 0d04 f136
000000c0: 1baf ae36 649a 9337 adb2 9037 dde2 4937
000000d0: 68d9 af37 cdbf 6737 e85c 0c37 51b5 3736
000000e0: da38 b336 6e78 a536 ace4 4e37 fc99 1e37
000000f0: fbab eb36 4bc8 4c37 1f12 f936 2460 ce36
00000100: 61ff 3537 0d42 d036 92f2 5236 7b6f d536
00000110: 17b8 e536 c9a0 e936 656c f536 8fb0 2637
00000120: 69b5 2e37 c36f 6e37 0846 ec36 af15 3d37
00000130: 3c83 1837 db14 9637 be8e 0637 3b49 0d37
00000140: 4f8a 4a36 d6ef 5237 e1e6 8737 4902 8e37
00000150: 4e3f ba37 f83a ca37 9808 9f37 d90e 4a37
00000160: 19ec 0c37 23bf 7537 50cf 2837 086d 0437
00000170: 2bc8 5537 3add 3d37 8ff5 c737 8f57 8237
00000180: 76c1 a337 2e53 9f37 a421 d737 cf44 1c37
00000190: bffa 0237 f155 f436 8481 4437 1b38 4737
000001a0: b6b3 c337 8d3c c237 4af5 1a38 ba60 e737
000001b0: 4690 0d37 7ebb 4536 d012 0f37 be6c e736
000001c0: b83b a737 e84f 3d37 5ef6 8237 f125 1938
000001d0: f34f ba37 e100 0237 d89f e536 ff5d ce36
000001e0: 62ed 2537 fd6c 1c37 50b6 9337 5aa4 5337
000001f0: 903b ab37 323a a837 4324 2a37 f0b2 9636
00000200: 8300 b636 d98d 9136 060e 4d37 e5e7 3037
00000210: ae6d 3d37 0840 a937 3381 6837 03ab b436
00000220: 37d7 3036 648b 3d36 f9ad 2b36 c7ce e436
00000230: 88b9 fe36 6997 fc36 fcf0 4537 9ca1 e836
00000240: 95c1 be36 d2db 4b37 60e9 d736 a75c 8236
00000250: a5eb c236 8e96 c036 ef7e c536 c876 f036
00000260: 8ca0 5537 2274 3137 f686 4537 75f5 8336
00000270: 7b1e ba36 3dcd f636 3d28 4a37 ee80 ea36
00000280: e64f 0f37 2b4b 3e36 314a 1337 d332 6837
00000290: 346a 6c37 20a1 9d37 6c1d ad37 3e5d 8d37
000002a0: 7a65 1a37 0904 f036 af55 3e37 a478 e436
000002b0: 74f1 1937 b9e0 3137 2cba dd36 1203 a337
000002c0: 797d 3437 fe3e 7937 7fe2 6537 3578 9837
000002d0: 79f5 ef36 b865 e836 c47c 9a36 67cf 2937
000002e0: 7a83 0437 dd25 5e37 378e 8037 9e54 e737
000002f0: 77bf a837 34e1 1037 c38e 3d36 efe0 b836
00000300: 2910 5f36 1d8c 8637 ee4a 0237 88bd 1837
00000310: 9c2c ca37 d61b 8937 4f7d d336 01d4 fc36
00000320: a834 7c36 96da be36 e002 f636 14ba 1737
00000330: e8bc fd36 a412 8337 087e 8237 d649 f336
00000340: 067a 6c36 eed2 5036 a134 3636 8146 0837
00000350: efbc dd36 f8e4 ec36 ed42 4b37 266d 2337
00000360: 663d 8a36 a9c1 0536 3f71 1e36 7275 2436
00000370: cb81 cd36 8c23 9936 2603 9636 37a4 ec36
00000380: 789c ba36 9293 0837 e8ae ec37 d444 b037
00000390: c1e6 6737 358c 7137 3953 5237 fa43 f236
000003a0: 8124 bb36 9c2c 0837 6bf3 0737 26ba 2037
000003b0: b994 6436 7ebb a536 465c d436 0023 1137
000003c0: 9c16 b336 ccc9 ba36 644a 2436 b113 3a37
000003d0: 357c 3337 3413 9037 d152 a737 6698 c037
000003e0: 506f a437 3faa 8237 c0d6 2437 6cd2 9137
000003f0: bdbe 7437 afc2 1137 737e 9b37 f4cf 1937

exp_avg f4 [82, 81]
0.0008522322 0.0005358783 0.0006657334 0.00027631424 0.00051360787 0.00038876268 0.00022898971 0.00016697637
0.0005276105 0.00039043505 0.0015869522 0.0020090544 0.00048762423 0.001669673 0.0007971486 0.00065357104
0.0010060819 0.0011232637 0.0005054797 1.9509946e-05 0.00053441053 0.0007892591 0.0017888868 0.0014196679
0.0007168641 0.00063789095 0.00025911824 0.00024175204 0.0003389776 0.0004985314 0.00056476315 0.0011610928
0.00067060086 0.0005593693 0.0004917096 0.00058092317 0.00055287883 -0.00017268366 -0.00014414942 -0.00041666333
0.0010998561 0.0007950792 0.0005756157 0.00033748595 0.00031319636 0.00046495293 -4.614596e-05 0.0005623746
0.00078241125 0.00021424393 0.00042481459 0.0002599682 0.0005370238 0.00015749583 0.00018146654 0.00035539045
0.000349332 -0.00040428402 0.0006228399 0.00034050728 0.00028199423 0.00040048506 0.00034936573 -5.612124e-05
0.00016128666 0.00037573976 0.00033398383 0.00048262847 2.422298e-05 -1.5610436e-05 0.00036259857 0.00082148425
0.0003454025 -4.205565e-06 -7.448268e-05 0.00010345878 -2.7916616e-05 1.7516266e-05 -2.1525586e-05 1.2447896e-05
9.9876976e-05 0.001225897 0.002578834 0.0021804369 0.0025172597 0.0015725106 0.001744407 0.0007899271
6.4926986e-05 0.0010292989 -7.396138e-05 0.000585368 0.00021759335 5.3992786e-05 0.0016044405 0.000386544
0.00063294184 0.0008491266 0.0018292954 -4.3757052e-05 0.00060960633 -0.00018819122 0.0014806004 0.00038793788
0.001415458 0.0016724698 0.0014798897 0.001250724 0.000296973 0.0004502701 0.00031352462 0.0004919565
0.00037666623 0.00057125016 0.000526851 0.0003987733 0.0011027257 7.641408e-05 0.0004005631 -0.0001710734
9.39452e-05 0.00036200686 0.0011714685 0.00047683276 0.0007683837 0.0013636134 0.00055328495 0.00084317307
0.00069651793 0.00055423676 0.0011260313 0.00018262028 0.0006833361 0.0003389246 0.0020795958 0.00037281698
0.00056728016 0.0005282711 0.0004330469 0.00082286546 0.0010860857 0.00074683176 0.0005910357 0.00075698324
0.00019515783 0.00016367846 0.00025406832 0.00023979777 0.0002923721 0.00018592303 0.0007186665 0.0002004364
0.002640601 0.001107904 0.0007824374 0.00027721893 0.00077843753 0.0007420217 0.00083482877 0.00028723216
0.00065430446 0.000504905 -0.0011672081 -0.0007005002 -0.001067876 -0.00048890844 -0.0009578708 -5.021077e-05
0.0001669744 -3.0184341e-05 -3.1480715e-05 -0.00053309085 -0.00069130305 -0.00028223338 -0.0004248083 0.00051418156
0.0004119612 0.00041040836 0.00034408498 -5.9343514e-05 -0.0011921796 -0.00017315414 -0.00047007477 0.0004953174
-0.0015987493 -0.00020202948 -0.0010434316 0.0007222982 -0.0013336005 -0.000712191 -2.5100033e-05 0.00034410518
0.00013443377 0.0005373172 -0.00043910564 0.0007108059 0.0004478628 0.00012975074 -0.0008613851 0.00071574777
-0.0002018108 0.0003385389 0.0003996308 0.0010316111 -0.0001280285 0.0003327496 -0.00011409431 -0.00049048185
-8.477066e-05 0.00029264428 -0.00033364532 -0.00022263113 -0.000229235 7.723292e-05 0.0007909081 0.00017169307
-0.0003914038 -0.00030531074 0.00011620821 9.514169e-05 -0.00018722532 0.00035803227 0.00024260298 9.8579294e-05
-0.0006911762 0.00026629024 -0.00011243463 -9.769698e-05 -0.00026161838 -4.8084617e-05 -0.00016220534 -1.1955037e-05
1.6404154e-05 0.00059008127 -0.00023486784 0.0003182524 -0.00014977565 -0.00010126715 -5.189382e-05 -0.00010152231
-0.0004793621 4.572216e-06 -0.0006135289 0.00027929913 0.0007685334 0.00069557945 0.0012543444 0.00028369078
0.00052708667 0.0003036191 0.00035419417 0.0012804114 0.00056698377 0.00077286863 0.0023804354 0.0010494691
00000000: 5668 5f3a 2f7a 0c3a 9d84 2e3a 45de 9039
00000010: a4a3 063a d8d2 cb39 f51c 7039 6116 2f39
00000020: 574f 0a3a 4eb3 cc39 4801 d03a 57aa 033b
00000030: d1a7 ff39 eed8 da3a bdf7 503a 6954 2b3a
00000040: 82de 833a 7a3a 933a 2b82 043a 4aa9 a337
00000050: af17 0c3a 48e6 4e3a 1579 ea3a 2614 ba3a
00000060: efeb 3b3a 2338 273a 43da 8739 d27e 7d39
00000070: ceb8 b139 e0af 023a 9d0c 143a cf2f 983a
00000080: 43cb 2f3a a3a2 123a 13e6 003a 1849 183a
00000090: 12ef 103a 6b12 35b9 d126 17b9 9b73 dab9
000000a0: 0c29 903a dd6c 503a eae4 163a 99f0 b039
000000b0: 8134 a439 edc4 f339 d98c 41b8 526c 133a
000000c0: bb1a 4d3a aba6 6039 a6b9 de39 574c 8839
000000d0: 0fc7 0c3a 7725 2539 0e48 3e39 b353 ba39
000000e0: 8c26 b739 15f6 d3b9 1446 233a 1d86 b239
000000f0: a0d8 9339 32f8 d139 132b b739 b963 6bb8
00000100: 0f1f 2939 f0fe c439 8d1a af39 4c09 fd39
00000110: 7432 cb37 28f3 82b7 281b be39 e058 573a
00000120: 2417 b539 871d 8db6 9633 9cb8 02f8 d838
00000130: 7a2e eab7 e5ef 9237 d891 b4b7 4ed7 5037
00000140: 0b75 d138 47ae a03a a801 293b a9e5 0e3b
00000150: 9cf8 243b b31c ce3a 96a4 e43a 1c13 4f3a
00000160: 6929 8838 8ae9 863a b71b 9bb8 6273 193a
00000170: c529 6439 5076 6238 174c d23a 0fa9 ca39
00000180: 02ec 253a ec97 5e3a f8c4 ef3a c787 37b8
00000190: fdcd 1f3a 3255 45b9 b510 c23a 2464 cb39
000001a0: e486 b93a c636 db3a dcf8 c13a 55ef a33a
000001b0: 0bb3 9b39 3b12 ec39 9060 a439 a4f6 003a
000001c0: 497b c539 f3bf 153a 5f1c 0a3a 7212 d139
000001d0: 5689 903a 7f40 a038 ab02 d239 2b62 33b9
000001e0: 7204 c538 bdcb bd39 f68b 993a 69ff f939
000001f0: 5b6d 493a 46bb b23a 530a 113a 6308 5d3a
00000200: 8796 363a 334a 113a 5797 933a c27d 3f39
00000210: e921 333a b1b1 b139 d449 083b a676 c339
00000220: 87b5 143a ac7b 0a3a 920a e339 91b5 573a
00000230: fd5a 8e3a 08c7 433a bcef 1a3a 4970 463a
00000240: 48a3 4c39 1aa1 2b39 7934 8539 3972 7b39
00000250: 8549 9939 55f4 4239 e464 3c3a 3d2c 5239
00000260: ef0d 2d3b 1737 913a 7c1c 4d3a b257 9139
00000270: 0f10 4c3a 3c84 423a 69d8 5a3a a697 9639
00000280: a185 2b3a 9a5b 043a 01fd 98ba c6a1 37ba
00000290: f9f7 8bba 172a 00ba 9f19 7bba 6799 52b8
000002a0: d915 2f39 6134 fdb7 290a 04b8 1fbf 0bba
000002b0: 9038 35ba b9f8 93b9 ceb8 deb9 24ca 063a
000002c0: 7ffc d739 142c d739 4e66 b439 9de7 78b8
000002d0: e942 9cba b690 35b9 5e74 f6b9 30d8 013a
000002e0: 208d d1ba e0d7 53b9 c1c3 88ba 9d58 3d3a
000002f0: 35cc aeba 54b2 3aba e98d d2b7 0469 b439
00000300: caf6 0c39 bfda 0c3a c337 e6b9 6055 3a3a
00000310: 21cf ea39 b30d 0839 93ce 61ba 05a1 3b3a
00000320: 2d9d 53b9 ec7d b139 8a85 d139 2037 873a
00000330: 643f 06b9 e574 ae39 eb45 efb8 ae93 00ba
00000340: e7c6 b1b8 0d6e 9939 1eed aeb9 1772 69b9
00000350: cd5e 70b9 1cf8 a138 f254 4f3a 8208 3439
00000360: 5435 cdb9 1d12 a0b9 cfb4 f338 ce86 c738
00000370: ea51 44b9 47b6 bb39 3e63 7e39 5bbc ce38
00000380: 0d30 35ba df9c 8b39 e2ca ebb8 abe2 ccb8
00000390: d329 89b9 77ae 49b8 aa15 2ab9 7e92 48b7
000003a0: a79b 8937 afaf 1a3a db46 76b9 1ddb a639
000003b0: 180d 1db9 635f d4b8 91a8 59b8 60e8 d4b8
000003c0: e452 fbb9 096b 9936 3ad5 20ba e56e 9239
000003d0: 6777 493a 8c57 363a d068 a43a 55bc 9439
000003e0: 302c 0a3a 112f 9f39 23b3 b939 7ad3 a73a
000003f0: a3a1 143a 569a 4a3a 1401 1c3b 578e 893a

exp_avg_sq f4 [10]
4.8383747e-05 3.2582506e-05 2.8494653e-05 3.1667245e-05 1.2883295e-05 5.173351e-05 4.643329e-05 3.6240795e-05
0.00012853737 4.023114e-05
00000000: a7ef 4a38 33a9 0838 cd07 ef37 72d2 0438
00000010: 5525 5837 6ffc 5838 5ec1 4238 4201 1838
00000020: fdc7 0639 dcbd 2838

exp_avg f4 [10]
0.00039811965 0.0017744144 0.0014464451 -0.0019255861 -0.00040818675 -0.0006602747 0.0012623644 0.0008102573
-0.0010251671 0.0009163855
00000000: b7ba d039 7893 e83a a596 bd3a f363 fcba
00000010: e601 d6b9 4916 2dba ec75 a53a 7267 543a
00000020: e65e 86ba 9739 703a

exp_avg_sq f4 [10, 10, 3, 3]
7.503094e-05 5.8877544e-05 7.9421996e-05 4.6565514e-05 7.6422126e-05 6.1541556e-05 3.266156e-05 3.7765545e-05
5.8013582e-05 9.932157e-05 6.9522226e-05 8.201999e-05 7.647088e-05 6.068316e-05 3.9383478e-05 0.00010412455
5.344227e-05 5.8840757e-05 0.00017656403 0.00015655223 0.0001317704 0.00011511205 0.00010504731 8.995955e-05
0.00017055986 0.00012025799 0.00019780199 7.297944e-05 0.00013491845 0.00013475918 6.383135e-05 7.5506934e-05
9.4190385e-05 6.9255664e-05 3.808352e-05 7.2405e-05 0.00025383572 0.00017728677 0.00023002214 0.00016943728
0.00014669157 0.00016019611 9.907227e-05 0.00014805364 8.050993e-05 8.998415e-05 0.00011287435 0.00011305087
8.7385044e-05 0.0001428399 0.0001478622 9.548155e-05 0.000102948754 8.9848065e-05 4.7643658e-05 7.1766e-05
7.5253556e-05 0.00010007976 0.00011349716 0.00013221145 9.151673e-05 0.00010222559 0.00013270606 9.4200615e-05
0.00011764562 0.00014908717 7.774539e-05 9.63277e-05 9.729843e-05 7.863275e-05 0.00012666809 6.331535e-05
0.00016919337 0.00012721951 0.00011009788 0.00010374995 0.00011145735 0.00013946922 0.000108253575 0.00014525624
0.00015422946 0.00012401659 0.00015004586 0.00014650765 0.00020661572 0.00014935235 0.00022419522 0.00015083549
0.00015854271 0.00010679144 5.593012e-05 5.426863e-05 6.862454e-05 6.0097755e-05 6.311229e-05 7.317326e-05
3.3504428e-05 4.7099285e-05 5.1442858e-05 0.00017134189 6.198716e-05 8.2779305e-05 0.00022098198 6.058765e-05
4.481118e-05 0.00012844324 7.489253e-05 6.330053e-05 0.0001439138 0.00019158093 9.0767644e-05 0.00012559409
0.00013427537 0.00016089859 0.00012262593 0.00017242502 8.463647e-05 4.6110406e-05 5.5856166e-05 5.360688e-05
5.6937948e-05 4.5032477e-05 4.7805803e-05 3.2973814e-05 5.8397585e-05 6.764284e-05 0.00013746542 0.00013401007
0.00012290289 0.00019799898 0.00010224008 0.000110757144 8.3831954e-05 0.00013277402 0.000106129424 0.00015793394
9.9851546e-05 7.465037e-05 0.00015469534 0.00021658663 0.00014393324 7.919583e-05 0.00011514813 0.000103963954
8.497898e-05 7.1109316e-05 9.608877e-05 9.506041e-05 9.49513e-05 0.00020708876 0.00013735429 0.00011938338
0.0001218705 7.1066715e-05 6.16364e-05 7.117499e-05 7.974909e-05 7.788551e-05 6.687785e-05 8.8741275e-05
6.834109e-05 6.93412e-05 8.5040396e-05 0.00012903023 8.9145375e-05 0.0001304638 0.00014857006 0.00010253839
0.00013763005 0.00013031127 0.00016101381 0.00017644564 0.00015949948 0.000118953656 0.00016802267 0.0002184051
0.000120759716 0.00016949649 0.0001551699 0.000106043386 7.362675e-05 0.000108379725 7.528766e-05 4.4489894e-05
6.688338e-05 6.908892e-05 5.5746637e-05 5.507301e-05 5.9193924e-05 0.00012299774 6.065645e-05 5.657194e-05
9.891842e-05 0.000100268444 7.555533e-05 5.1197996e-05 8.670742e-05 5.6174253e-05 0.00010058143 0.00012990397
0.00014409842 0.00011665856 0.00014718348 0.00012390062 0.0001280719 0.00010594754 0.00016089447 7.081011e-05
6.539441e-05 0.00017745362 0.00012706518 0.000114616894 0.00013036476 6.456525e-05 5.2207553e-05 5.998601e-05
0.0001121543 0.00028591783 0.00013540967 0.00013910844 0.00010460239 0.00010539001 0.00013209038 9.14432e-05
0.00017142198 0.00010562891 0.00012448772 0.00010499711 7.5791264e-05 0.00014611642 7.770253e-05 6.195306e-05
8.485021e-05 9.2885e-05 7.811849e-05 7.854104e-05 6.784813e-05 0.00011799076 0.00013064551 0.00014174872
7.270266e-05 0.00016162836 0.000103172075 0.00017428536 0.00011023565 0.00015267346 0.00010701459 0.00013297744
0.00012598243 8.161538e-05 0.00010029305 0.00011252986 0.00013119615 9.476533e-05 0.00013574043 0.00016622231
00000000: ee59 9d38 48f3 7638 5c8f a638 574f 4338
00000010: d144 a038 df0f 8138 15fe 0838 7266 1e38
00000020: 9c53 7338 dd4a d038 76cc 9138 2602 ac38
00000030: fe5e a038 0c86 7e38 b02f 2538 715d da38
00000040: 3327 6038 c8cb 7638 0c24 3939 2b28 2439
00000050: d92b 0a39 5068 f138 d84c dc38 aaa8 bc38
00000060: 50d8 3239 0433 fc38 1169 4f39 8a0c 9938
00000070: e578 0d39 244e 0d39 32dd 8538 7a59 9e38
00000080: 1488 c538 5a3d 9138 debb 1f38 23d8 9738
00000090: 4115 8539 0ee6 3939 1932 7139 f9aa 3139
000000a0: 38d1 1939 51fa 2739 05c5 cf38 d93e 1b39
000000b0: 71d7 a838 dfb5 bc38 f5b6 ec38 b915 ed38
000000c0: 7d42 b738 4bc7 1539 750b 1b39 443d c838
000000d0: 31e6 d738 d06c bc38 fdd4 4738 1481 9638
000000e0: 72d1 9d38 e9e1 d138 5305 ee38 3ea2 0a39
000000f0: acec bf38 f261 d638 0327 0b39 928d c538
00000100: 83b8 f638 4854 1c39 3d0b a338 8a03 ca38
00000110: b20c cc38 a3e7 a438 35d2 0439 2bc8 8438
00000120: 8069 3139 3a66 0539 59e4 e638 5594 d938
00000130: 36be e938 7c3e 1239 3206 e338 ed4f 1839
00000140: a8b8 2139 730a 0239 a155 1d39 d99f 1939
00000150: fca6 5839 779b 1c39 f215 6b39 9829 1e39
00000160: 7c3e 2639 38f5 df38 8296 6a38 7f9e 6338
00000170: 85ea 8f38 7911 7c38 275b 8438 9874 9938
00000180: 1b87 0c38 798c 4538 59c4 5738 3daa 3339
00000190: 1aff 8138 cd99 ad38 66b7 6739 7e1f 7e38
000001a0: a3f3 3b38 b8ae 0639 9f0f 9d38 37c0 8438
000001b0: 91e7 1639 1de3 4839 825a be38 e8b1 0339
000001c0: 45cc 0c39 e3b6 2839 2695 0039 fdcc 3439
000001d0: dc7e b138 ac66 4138 1a47 6a38 f3d7 6038
000001e0: a8d0 6e38 41e1 3c38 1783 4838 5d4d 0a38
000001f0: eeef 7438 79db 8d38 9824 1039 0e85 0c39
00000200: 7edf 0039 f29d 4f39 ba69 d638 4a46 e838
00000210: f0ce af38 4139 0b39 cd91 de38 129b 2539
00000220: 6467 d138 9d8d 9c38 b735 2239 881b 6339
00000230: c9ec 1639 f015 a638 ae7b f138 3907 da38
00000240: be36 b238 8620 9538 4483 c938 2b5b c738
00000250: 9720 c738 f725 5939 c306 1039 775d fa38
00000260: ba94 ff38 a709 9538 ca42 8138 c843 9538
00000270: f73e a738 7756 a338 c640 8c38 9c1a ba38
00000280: 5852 8f38 466b 9138 b757 b238 4a4c 0739
00000290: 8ff3 ba38 1ccd 0839 79c9 1b39 e109 d738
000002a0: c950 1039 2aa4 0839 d1d5 2839 4404 3939
000002b0: 513f 2739 c276 f938 3e2f 3039 ac03 6539
000002c0: 6140 fd38 deba 3139 1ab5 2239 9c63 de38
000002d0: 0f68 9a38 ec49 e338 c1e3 9d38 a99a 3a38
000002e0: be43 8c38 d5e3 9038 7fd1 6938 32fe 6638
000002f0: fe46 7838 f4f8 0039 5e69 7e38 a847 6d38
00000300: 6c72 cf38 3647 d238 7573 9e38 6ebd 5638
00000310: b1d6 b538 a59c 6b38 3eef d238 d536 0839
00000320: 2019 1739 96a6 f438 4455 1a39 52eb 0139
00000330: 0a4b 0639 2730 de38 c8b5 2839 e37f 9438
00000340: 5b24 8938 d812 3a39 cd3c 0539 7a5e f038
00000350: 86b2 0839 3467 8738 6ff9 5a38 7d99 7b38
00000360: 6234 eb38 3ee7 9539 c2fc 0d39 a3dd 1139
00000370: fb5d db38 d504 dd38 be81 0a39 32c5 bf38
00000380: bdbf 3339 1785 dd38 eb88 0239 e531 dc38
00000390: 20f2 9e38 d436 1939 3af4 a238 ccec 8138
000003a0: 9cf1 b138 41cb c238 8cd3 a338 66b6 a438
000003b0: b049 8e38 cf71 f738 e3fd 0839 62a2 1439
000003c0: f277 9838 c87a 2939 165e d838 5fc0 3639
000003d0: 502e e738 f816 2039 056d e038 dc6f 0b39
000003e0: 271a 0439 ec28 ab38 6c54 d238 02fe eb38
000003f0: b391 0939 c0bc c638 8b55 0e39 f64b 2e39

exp_avg f4 [10, 10, 3, 3]
0.0008598486 0.003144121 -0.0014137245 -0.0010407696 0.0014352305 -0.00058438146 0.0027571325 -0.0002399852
0.0024817686 -0.0011655616 0.004137742 0.0012142692 0.0009613216 -0.0030066248 0.00049513235 0.0029457859
0.00049572653 0.0010200272 -0.0028360991 0.003110932 0.0012055285 -0.0014832523 0.001582935 0.00096490205
0.00069972314 -0.000486034 0.0024470051 0.0034829476 0.0026071188 0.0035573926 -0.00045404944 0.0038073603
-0.00029021208 0.0014023806 0.00087269006 0.0009976813 0.0032657094 0.0025271424 0.0035474186 0.0015659007
0.0052605043 0.0009682258 0.0052389554 0.003368334 0.0013383641 -0.0012244777 0.0024252927 -0.0027862166
-0.0016402554 0.004900578 -0.0022408075 0.0019503086 0.0009957863 0.00028694462 -0.0019748684 0.00012310967
-0.0032956072 -0.0020228801 -0.0012268896 -0.0025224087 0.002227159 -0.000965741 -0.002974477 -0.0021943944
0.003424158 0.00056816975 0.0060084094 0.00078795815 0.003101995 0.0017049928 -0.0017355048 0.001771733
-0.0039886455 -0.001210762 -0.004307086 -0.005196222 0.0014331067 -5.382032e-06 -0.0013214141 -0.002076835
-0.0013415365 0.0007792402 0.0017190826 -0.0043179723 0.00010898073 0.00047939847 -0.0038913165 0.0013020815
0.00035988676 0.0035121264 0.002612418 -0.00040569052 -0.003431716 0.0013347747 -0.0015117005 0.0020398756
0.00031831797 0.0025459698 0.0018968459 -0.00021367907 0.0010948388 -0.0056624645 0.0011301689 9.86433e-05
0.0003079109 0.00058594655 0.0005767274 -0.002213386 -0.0046308776 0.0021015513 0.0018682617 0.0022659237
0.0029228642 0.0024021678 -0.00047918136 0.00047012145 0.0049566263 -0.0012038718 -0.0012747023 -0.0006179133
0.0024045883 0.002779225 1.7449414e-05 0.0005026298 -0.0006231656 -0.00075270183 0.002151728 -0.0014650152
0.0024939978 -0.0024656693 0.0011393797 0.0015638929 0.0003324145 -3.301102e-05 0.0069461353 0.000387576
-0.0021608386 0.0035653992 0.001909281 -0.0011043261 0.0036685176 0.00072960905 -0.00048538536 0.0029913469
2.8107292e-05 -0.0028129173 -5.5578585e-05 0.0026495978 -0.0010294521 0.0021703101 -0.004609711 -0.0021749537
0.00056372787 0.00096675084 -0.0009343244 -0.0037075141 0.00020606408 -0.004272291 0.00016233884 -0.003159317
0.0003679504 -0.00022164528 0.0007561759 0.0012001114 -0.0021267852 -0.0035010562 7.918731e-05 -0.0022254696
0.0012567021 -0.00015060614 0.0046189195 -0.00091986015 0.00040116426 0.00015497733 -0.0013085364 0.0039408514
0.0024987382 -0.0024100558 0.0036058812 0.0040044263 0.0015735455 0.0027699554 0.0025179726 -0.002237186
-1.7712525e-06 0.0018873153 -0.0026995735 -0.0011536893 -0.0027945878 -0.003354672 0.000996235 0.0008839918
-0.0019593658 0.0010386531 -0.0028106978 0.0024075748 -0.005732323 -0.0041108322 0.00015697133 -0.0024567214
-0.00026227816 -0.001938585 0.0009213838 -0.0012915451 -0.0015014001 0.0044051437 0.0019661454 -0.00043075698
0.0032621876 -0.003109193 0.000256604 -0.002342463 -0.0015307041 -0.0032860872 0.0026252505 0.001124173
-0.0009634822 0.005943836 0.005893092 -0.0010596393 -0.0014288748 0.004518565 -0.007121329 -0.00028641545
0.0006837636 0.005421567 -0.0015243401 0.003975737 -0.0021539163 0.0058271824 0.003450128 -0.0042000758
0.006022439 0.0035789371 -0.0015239517 -0.0013341855 0.0038345938 -0.002696405 0.0007445201 0.003004111
-0.0017510266 0.0022680573 -0.0046851565 -0.001003283 0.0007144789 0.00033777513 -0.0037219652 0.0015285709
-0.0038748153 0.004304981 -0.00064933405 -0.00040457788 -0.0033742243 -0.0006589249 0.0053604688 0.0009859505
00000000: 7667 613a 990d 4e3b b94c b9ba 6f6a 88ba
00000010: 581e bc3a 2d31 19ba 02b1 343b 89a4 7bb9
00000020: 2ba5 223b c2c5 98ba e595 873b 1d28 9f3a
00000030: 3301 7c3a cb0a 45bb c5cb 013a 160e 413b
00000040: a5f3 013a 6fb2 853a d9dd 39bb c7e0 4b3b
00000050: d302 9e3a b069 c2ba 7c7a cf3a 7bf1 7c3a
00000060: a06d 373a 61d2 feb9 ef5d 203b 2a42 643b
00000070: 32dc 2a3b 2523 693b 7c0d eeb9 e884 793b
00000080: 9b27 98b9 16d0 b73a 3dc5 643a a1c4 823a
00000090: 8305 563b 6a9e 253b cf7b 683b e93e cd3a
000000a0: 4f60 ac3b 89d0 7d3a 8bab ab3b 44bf 5c3b
000000b0: 0c6c af3a a77e a0ba a9f1 1e3b f598 36bb
000000c0: d7fd d6ba 0795 a03b 83da 12bb 7fa1 ff3a
000000d0: 0b85 823a 0e71 9639 cb6c 01bb 0017 0139
000000e0: 1dfb 57bb 4c92 04bb 95cf a0ba ff4e 25bb
000000f0: 87f5 113b c829 7dba 71ef 42bb d4cf 0fbb
00000100: d767 603b 3af1 143a 31e2 c43b fa8e 4e3a
00000110: d74a 4b3b 117a df3a e179 e3ba 7f39 e83a
00000120: 2fb3 82bb 6eb2 9eba 7522 8dbb 1245 aabb
00000130: 15d7 bb3a 4e97 b4b6 4d33 adba 821b 08bb
00000140: 7fd6 afba ed45 4c3a d752 e13a c77d 8dbb
00000150: 958c e438 c657 fb39 7505 7fbb 9baa aa3a
00000160: 2faf bc39 b42b 663b 1a35 2b3b dcb2 d4b9
00000170: a4e6 60bb 9bf3 ae3a 4024 c6ba 6faf 053b
00000180: eae3 a639 49da 263b 969f f83a 0a0f 60b9
00000190: b280 8f3a 328c b9bb 2d22 943a b8de ce38
000001a0: 1a6f a139 359a 193a 852f 173a 740e 11bb
000001b0: 9ebe 97bb 2eba 093b 76e0 f43a e47f 143b
000001c0: 868d 3f3b b06d 1d3b a23a fbb9 a27a f639
000001d0: 326b a23b 3ccb 9dba e913 a7ba 76fb 21ba
000001e0: 4c96 1d3b a823 363b 5560 9237 eac2 033a
000001f0: ef5b 23ba f750 45ba 0104 0d3b c105 c0ba
00000200: 5772 233b 1197 21bb 3d57 953a 8afb cc3a
00000210: eb47 ae39 5075 0ab8 689c e33b 9233 cb39
00000220: db9c 0dbb 79a9 693b d740 fa3a 09bf 90ba
00000230: 836b 703b 3c43 3f3a 527b feb9 790a 443b
00000240: f3c7 eb37 ec58 38bb 0d1d 69b8 e0a4 2d3b
00000250: aeee 86ba c33b 0e3b 0f0d 97bb ab89 0ebb
00000260: 23c7 133a 8d6d 7d3a 73ed 74ba c4f9 72bb
00000270: e812 5839 93fe 8bbb 8039 2a39 8b0c 4fbb
00000280: 77e9 c039 7469 68b9 1b3a 463a 0e4d 9d3a
00000290: 8961 0bbb fa71 65bb 5d11 a638 2fd9 11bb
000002a0: edb7 a43a 07ec 1db9 4e5a 973b c522 71ba
000002b0: 5b53 d239 6981 2239 3283 abba 4222 813b
000002c0: dfc1 233b 07f2 1dbb a650 6c3b 9037 833b
000002d0: 6d3f ce3a 2488 353b 9204 253b c19d 12bb
000002e0: c6bb edb5 cb5f f73a 54eb 30bb 6437 97ba
000002f0: 6725 37bb 0fda 5bbb 1994 823a afbb 673a
00000300: b468 00bb 6a23 883a af33 38bb 67c8 1d3b
00000310: 36d6 bbbb 29b4 86bb ac98 2439 f200 21bb
00000320: 6182 89b9 1e18 feba 0589 713a 1049 a9ba
00000330: a1ca c4ba 0659 903b 72da 003b 39d7 e1b9
00000340: 6dca 553b 9ac3 4bbb ce88 8639 0284 19bb
00000350: e8a1 c8ba 655b 57bb 650c 2c3b fd58 933a
00000360: 3292 7cba 83c4 c23b d71a c13b 98e3 8aba
00000370: 1549 bbba 7810 943b 0a5a e9bb 082a 96b9
00000380: 993e 333a 66a7 b13b 5ecc c7ba e646 823b
00000390: b828 0dbb f3f1 be3b 8b1b 623b caa0 89bb
000003a0: e157 c53b 9a8c 6a3b 55bf c7ba d6df aeba
000003b0: cf4d 7b3b 2bb6 30bb e62b 433a 9ee0 443b
000003c0: b482 e5ba b0a3 143b f185 99bb 9780 83ba
000003d0: de4b 3b3a 6917 b139 37ec 73bb 545a c83a
000003e0: 9df0 7dbb cc10 8d3b 1238 2aba 861d d4b9
000003f0: 1722 5dbb b4bb 2cba dfa6 af3b 023b 813a

exp_avg_sq f4 [1, 10, 1, 1]
0.0060366546 0.003360691 0.005277597 0.002626879 0.0045571034 0.004351126 0.0020583775 0.0033134678
0.004903212 0.0072133746
00000000: 21cf c53b 0a3f 5c3b b1ef ac3b b727 2c3b
00000010: c153 953b e493 8e3b d8e5 063b c426 593b
00000020: 20ab a03b 2c5e ec3b

exp_avg f4 [1, 10, 1, 1]
-0.023000013 0.0060826535 -0.014257777 0.0033674967 -0.028362725 -0.0029338358 -0.0005293235 0.008230144
-0.0071989796 0.0056240726
00000000: 866a bcbc ff50 c73b 7399 69bc 38b1 5c3b
00000010: f258 e8bc 9945 40bb 4cc2 0aba bad7 063c
00000020: 6be5 ebbb 244a b83b
