SuperGo-master/saved_models/1584891248/4-value_net.pth.tar (torch_old, 575693 bytes, 204 tensors)

exp_avg f4 [10]
0.0006882472 0.0052803895 5.4418313e-05 0.0014844446 0.0027569153 0.0038035011 -0.0025121404 -0.0030326843
0.0013168933 0.0030444467
00000000: 7d6b 343a 1e07 ad3b 383f 6438 b291 c23a
00000010: 5dad 343b 2944 793b b9a2 24bb 00c0 46bb
00000020: 9b9b ac3a 5785 473b

exp_avg_sq f4 [10]
3.319125e-05 3.787121e-05 4.4963814e-05 3.9624814e-05 7.287373e-05 4.5626042e-05 6.748583e-05 3.6942456e-05
4.151473e-05 6.2051404e-05
00000000: d536 0b38 e7d7 1e38 8797 3c38 d232 2638
00000010: c9d3 9838 975e 3f38 2e87 8d38 a9f2 1a38
00000020: 1a20 2e38 9821 8238

exp_avg f4 [10]
-0.0028018018 -0.0020166382 0.0038739413 -0.0053918012 0.0022947048 -0.00021625131 0.0014739922 0.0056064054
0.0013422526 -0.0018806716
00000000: 6f9e 37bb 9329 04bb f3e1 7d3b b5ad b0bb
00000010: c262 163b 85c1 62b9 f932 c13a f0b5 b73b
00000020: 86ee af3a de80 f6ba

exp_avg_sq f4 [10]
8.7504115e-05 0.00012628046 0.000115708615 7.112494e-05 0.00015009675 8.121513e-05 0.00011736326 9.365846e-05
8.857617e-05 0.00015551368
00000000: 6a82 b738 276a 0439 97a8 f238 e928 9538
00000010: 4a63 1d39 0a52 aa38 ec20 f638 816a c438
00000020: f8c1 b938 6311 2339

exp_avg f4 [10]
0.0014794532 0.00023961258 0.00030579942 -0.0002471027 -0.0010516001 -1.0528475e-05 0.0005954302 0.00076276436
0.00031846142 -0.00018753558
00000000: 36ea c13a 8340 7b39 b453 a039 908d 81b9
00000010: d8d5 89ba 75a3 30b7 a516 1c3a 40f4 473a
00000020: 2bf7 a639 33a5 44b9

exp_avg_sq f4 [10]
4.196481e-05 3.6651163e-05 1.532951e-05 7.4533746e-05 2.5286781e-05 2.1585145e-05 3.324519e-05 3.07221e-05
1.6604063e-05 3.217659e-05
00000000: 5f03 3038 e3b9 1938 df97 8037 004f 9c38
00000010: f31e d437 bf11 b537 c070 0b38 9bdb 0038
00000020: f448 8b37 5af5 0638

exp_avg f4 [10, 10, 3, 3]
0.005917252 0.006439135 0.00087819446 0.0017245319 0.0021066777 -0.0062700287 0.0069089425 0.0015161886
0.002407825 -0.0031124211 0.0006109062 -0.0052947635 -0.003358472 -0.010997604 -0.002816029 -0.0028806787
-0.0027547036 0.00046364538 0.009734212 0.0041390406 0.0035228557 0.0036595042 0.004124905 0.0056135114
0.0021674377 0.0059485687 0.0062483707 0.0030673975 0.0022718662 -0.0011238985 0.0048735826 0.0015725674
0.0039538434 0.00028978696 -0.0022545797 0.0031865004 -0.0039714826 0.0022700785 -0.0035469478 -0.0016548546
0.004846042 0.0019925514 0.0012092585 -0.00038140872 -0.0054809954 -0.0032159186 -0.002163687 0.0021066621
0.004543225 -0.0017170069 0.0019141126 -0.00080479874 -0.0022592442 0.00023179654 0.0013849704 0.001411348
0.0033049546 0.002755036 -0.0012403567 0.004792086 0.010835171 -0.00023449269 -0.0011159675 0.0052847713
0.008351686 -0.0013812763 -5.2616164e-05 0.0058392473 0.0038376178 0.0008630003 0.0013304679 0.006493013
0.005838375 0.0005932597 -0.00020570507 -0.0020471353 0.0044749444 -0.0004028678 -0.00080390176 0.00018820584
0.0023065829 0.0042323438 -0.00078929955 0.002515676 0.0043332228 0.003488258 0.0035623482 -0.00028387492
0.0055496795 0.0027262496 0.0004006127 -0.0016803088 -0.003430289 -0.00095614314 -0.00031923497 -0.0025085723
0.0018725418 -0.0039031075 -0.0032197775 -0.00379037 -0.0073527438 0.0066827256 -0.008217556 0.0038165355
-0.013233394 -0.0011677457 -0.009804253 6.414227e-05 -0.0023164304 0.0017490527 0.0050276252 0.0038764735
0.0023426127 0.004230261 0.0019406205 0.0012845716 0.0029644852 0.00075662805 0.0054477868 -0.0037855252
0.005080107 -0.0010841353 0.0039196494 0.0007539751 -0.005333787 0.004285432 -0.0062869517 0.0053451504
-0.0068143895 0.00042214914 -0.0031549258 3.883631e-05 0.00010353574 -0.0024432063 0.0007990159 0.008115603
-0.0032835095 0.0018088502 0.005689955 0.0002966509 0.0027457376 0.0024424715 -0.0056745945 0.0031772547
0.00070120324 0.0054162904 0.0044323145 0.0011523331 5.874199e-05 -0.0006591247 -0.0046729255 -0.0009012033
0.0027680395 -0.0018318054 -0.0007299469 0.007377665 -0.0017749226 0.0020047773 -0.0029471333 -0.0016196168
0.00019095052 0.0028515002 -0.0040791645 -0.001957135 -0.003829839 -0.0010760856 0.0026838158 0.00020036097
0.0007609176 0.0019511865 -0.0041666687 -0.0023763946 -0.0010273845 0.0027349554 -0.0013205115 -0.0064294417
0.0017391623 0.0029846146 -0.0030715177 -0.0022043292 -0.0062790317 -0.0019043426 -0.01417067 -0.00906123
0.0021264718 -0.014893105 0.0016976078 -0.007978417 0.00023810503 -0.011353379 -0.0019212298 -0.008123793
0.007176576 -0.0055438885 -0.009807181 -0.010384405 -0.0076692095 -0.011252955 0.007271208 0.0067945663
0.010425902 0.0023821427 0.003974239 0.010666349 0.014132467 0.0066074836 0.0015122376 0.0059011346
0.009420312 0.012204405 0.012416885 0.017790055 -0.00194066 0.008532166 0.00909803 0.01610468
-0.0013669854 -0.0043140454 -0.006499756 0.0024389522 -0.012745507 -0.0009481646 0.004130673 0.00041912321
-0.007704697 0.003660867 -0.00046673123 0.0056688744 0.014030904 0.0077478196 -0.0024960819 0.0027650455
0.0006302706 0.013677302 -0.0060928976 0.0024198352 -0.0026902952 0.0045872936 -0.00425254 -0.009929054
-0.008141218 -0.0015626324 -0.0022367127 -0.004134958 -0.00062229496 -0.0011885173 -0.0031546664 0.007929428
-0.0056210393 0.005016996 -0.0001688921 0.0006331079 0.0062980433 -0.004891079 -0.0062719565 -0.003598235
00000000: 82e5 c13b 61ff d23b a236 663a b009 e23a
00000010: 3010 0a3b d074 cdbb 6964 e23b d9ba c63a
00000020: 9acc 1d3b c3f9 4bbb 3925 203a b27f adbb
00000030: cf19 5cbb 4b2f 34bc 208d 38bb c5c9 3cbb
00000040: 4288 34bb 6e15 f339 3f7c 1f3c caa0 873b
00000050: b6df 663b 4bd4 6f3b 362a 873b 8cf1 b73b
00000060: 920b 0e3b 36ec c23b 22bf cc3b 6406 493b
00000070: 97e3 143b c74f 93ba 93b2 9f3b 9b1e ce3a
00000080: 3e8f 813b 8cee 9739 92c1 13bb 9bd4 503b
00000090: 3623 82bb 99c5 143b e973 68bb b5e7 d8ba
000000a0: 8ccb 9e3b 7795 023b fb7f 9e3a d0f7 c7b9
000000b0: ec99 b3bb 29c2 52bb a5cc 0dbb ed0f 0a3b
000000c0: 55df 943b 310d e1ba f6e2 fa3a 21f9 52ba
000000d0: d40f 14bb 690e 7339 e587 b53a fbfc b83a
000000e0: f097 583b d68d 343b 7793 a2ba ee06 9d3b
000000f0: 0086 313c 27e2 75b9 a845 92ba e02b ad3b
00000100: 83d5 083c f10b b5ba 2db0 5cb8 2857 bf3b
00000110: 8b80 7b3b f83a 623a 1863 ae3a 57c3 d43b
00000120: d74f bf3b fc84 1b3a 89b2 57b9 3b29 06bb
00000130: 8ea2 923b 0038 d3b9 efbc 52ba 1f59 4539
00000140: 0a2a 173b 79af 8a3b ffe8 4eba 0ade 243b
00000150: b5fd 8d3b 429b 643b 4976 693b 0cd5 94b9
00000160: 16da b53b e1aa 323b 5409 d239 cf3d dcba
00000170: b3ce 60bb aea5 7aba fe5e a7b9 dc66 24bb
00000180: 1470 f53a 47cb 7fbb e702 53bb db67 78bb
00000190: 49ef f0bb c4fa da3b eea2 06bc d71e 7a3b
000001a0: e1d0 58bc 0b0f 99ba 04a2 20bc 1e84 8638
000001b0: 41cf 17bb 7840 e53a c7be a43b 6f0c 7e3b
000001c0: 8586 193b 009e 8a3b 6b5c fe3a 125f a83a
000001d0: cf47 423b 7358 463a 5983 b23b 9316 78bb
000001e0: 0777 a63b 8b19 8eba 6770 803b 6aa6 453a
000001f0: 0cc7 aebb cf6c 8c3b c602 cebb 5f26 af3b
00000200: 3e4b dfbb e653 dd39 dfc2 4ebb 2ce4 2238
00000210: 5421 d938 331e 20bb 0d75 513a 4ef7 043c
00000220: 2630 57bb f116 ed3a cd72 ba3b cf87 9b39
00000230: d5f1 333b df11 203b f3f1 b9bb 7d39 503b
00000240: f4d0 373a 237b b13b f33c 913b e209 973a
00000250: bb61 7638 1cc9 2cba 571f 99bb bb3e 6cba
00000260: ff67 353b 3119 f0ba e859 3fba 57c0 f13b
00000270: 85a4 e8ba 9562 033b b124 41bb 5249 d4ba
00000280: e439 4839 3ce0 3a3b 83aa 85bb 4743 00bb
00000290: 09fe 7abb 710b 8dba f5e2 2f3b fd17 5239
000002a0: 5178 473a f4be ff3a 8d88 88bb 49bd 1bbb
000002b0: 4ea9 86ba f03c 333b 0315 adba 11ae d2bb
000002c0: 9af4 e33a 8699 433b 844b 49bb 8276 10bb
000002d0: 56c0 cdbb 229b f9ba 192c 68bc 8e75 14bc
000002e0: 475c 0b3b 3602 74bc 4482 de3a e8b7 02bc
000002f0: d5ab 7939 8603 3abc c6d1 fbba a819 05bc
00000300: 7c29 eb3b 82a9 b5bb 4cae 20bc 5a23 2abc
00000310: fe4d fbbb 505e 38bc 5043 ee3b f4a4 de3b
00000320: 67d1 2a3c b91d 1c3b 553a 823b e9c1 2e3c
00000330: dd8b 673c 9783 d83b 4636 c63a 4e5e c13b
00000340: a757 1a3c fcf4 473c 3170 4b3c 73bc 913c
00000350: be5d feba 7fca 0b3c e70f 153c f6ed 833c
00000360: 6b2c b3ba d65c 8dbb e8fb d4bb d4d6 1f3b
00000370: 88d2 50bc 408e 78ba 995a 873b c4bd db39
00000380: af77 fcbb 28eb 6f3b 9bb3 f4b9 f7c1 b93b
00000390: e0e1 653c 6ce1 fd3b 4e95 23bb c435 353b
000003a0: be38 253a c316 603c eea6 c7bb 1996 1e3b
000003b0: aa4f 30bb 0251 963b e458 8bbb 79ad 22bc
000003c0: be62 05bc 3ed1 ccba d095 12bb 8b7e 87bb
000003d0: 8221 23ba 06c8 9bba 85be 4ebb 6eea 013c
000003e0: b230 b8bb 9d65 a43b a118 31b9 27f7 253a
000003f0: d15f ce3b 5845 a0bb fc84 cdbb 5ed0 6bbb

exp_avg_sq f4 [10, 10, 3, 3]
0.00064758305 0.0019658261 0.0020144298 0.0017785789 0.000664214 0.0025056012 0.0007256589 0.0010737008
0.0007310517 0.0012123571 0.0011179813 0.0015775218 0.0016506305 0.0014280468 0.00092453655 0.005585663
0.00087230495 0.0014177165 0.00085942383 0.000607036 0.0006402353 0.002267835 0.0012008835 0.0007551982
0.00045516723 0.0006437673 0.00029285022 0.00071181275 0.00046841791 0.0011653707 0.00049628364 0.00026472216
0.00069868 0.00046749588 0.0012756301 0.0011317454 0.000630076 0.0020021447 0.0008143588 0.00070392527
0.00043396064 0.0005621502 0.0005542143 0.0011382322 0.0015604221 0.0014939432 0.00048251107 0.00074053335
0.0007223646 0.000510499 0.0010016806 0.0020244431 0.0005739872 0.0005524097 0.0009632582 0.0013211266
0.0006431104 0.0015936716 0.000998669 0.0013478489 0.0006640086 0.0011851932 0.00066784536 0.00077773764
0.0014091216 0.00067470124 0.00051904825 0.0008378812 0.001625698 0.00040351835 0.00091986754 0.00061555335
0.0012437539 0.0014673474 0.0024178738 0.0007266498 0.00060523016 0.0010074066 0.0002920532 0.00043898364
0.0005139579 0.0005838716 0.0002909097 0.00067259884 0.0005055975 0.0013244123 0.0016247422 0.0004393397
0.0005436003 0.0008361391 0.0006136302 0.00069007574 0.0013430441 0.0005018374 0.00094834546 0.0011135986
0.0006565033 0.00075932476 0.00085272477 0.0009909177 0.0012210804 0.0010375265 0.0017930439 0.0008504685
0.000883377 0.0015784241 0.0007996354 0.0013876737 0.0010421523 0.000649858 0.0007940749 0.0009067647
0.00067359506 0.0009850373 0.00073206035 0.00076426653 0.00060531247 0.001114583 0.00057828776 0.0017872403
0.0006987021 0.0012000611 0.000708457 0.0006414946 0.0010809074 0.00069613924 0.0005904504 0.00061882724
0.00045732784 0.00052194664 0.00054392533 0.0005576474 0.000568622 0.0006537582 0.00057890156 0.00054404384
0.0020667876 0.00062743167 0.0004354407 0.0010700555 0.0010731962 0.001029133 0.0015300531 0.0010981805
0.0011622998 0.00088542514 0.0009459321 0.0010455132 0.0008527843 0.0008711756 0.0008617311 0.00085167016
0.0008711865 0.0013133092 0.0010988724 0.00047872236 0.0014461457 0.0006808856 0.0005010635 0.00069434097
0.00072313356 0.0017432112 0.0008097162 0.00073094666 0.0010873904 0.00071258785 0.0010224286 0.00041220823
0.00043482488 0.0005901017 0.00037077177 0.00060977874 0.0011917833 0.00038149126 0.0007981854 0.001120064
0.000606827 0.0008480502 0.00084710616 0.0007006739 0.0010994086 0.0028256313 0.002086409 0.0027648017
0.0027367214 0.0022397283 0.0018201148 0.0025848842 0.0023348136 0.0020948069 0.0030734348 0.0018322354
0.0021761854 0.002533691 0.0031406733 0.0036913524 0.004757263 0.002081411 0.0016450469 0.0011663311
0.0011181257 0.0013750594 0.0021923243 0.001059124 0.0015874171 0.00094118173 0.00083853735 0.0014001721
0.003410728 0.0019600054 0.0030813518 0.0018721985 0.0015063178 0.00281492 0.0024057152 0.0017127987
0.0026417358 0.0014895094 0.00117701 0.0010552132 0.0025842183 0.001052397 0.0012330402 0.00226562
0.0016073905 0.0017634656 0.0021560013 0.0012876098 0.0023341028 0.0017002341 0.0020336495 0.0015409526
0.004280183 0.0022852095 0.0010175301 0.0022730613 0.001498306 0.0018532521 0.002846566 0.0020723962
0.0013335337 0.002241215 0.0018978294 0.0010320344 0.0022442073 0.0008004229 0.0024877456 0.0010655328
0.0018261645 0.0016825167 0.0012531839 0.0014239888 0.0013044702 0.0013624633 0.0011469697 0.0010140899
00000000: 90c2 293a 17d5 003b 8604 043b 341f e93a
00000010: a61e 2e3a 0335 243b 253a 3e3a 6cbb 8c3a
00000020: 0da4 3f3a f4e7 9e3a 3a89 923a d9c4 ce3a
00000030: f859 d83a 4d2d bb3a 995c 723a f007 b73b
00000040: 65ab 643a acd2 b93a f54a 613a 7f21 1f3a
00000050: 77d5 273a f59f 143b f766 9d3a 7ef8 453a
00000060: 83a3 ee39 7ec2 283a b189 9939 f298 3a3a
00000070: fd95 f539 5abf 983a 0819 023a 68ca 8a39
00000080: 9f27 373a 3c1a f539 0b33 a73a 1357 943a
00000090: af2b 253a 6a36 033b b27a 553a a087 383a
000000a0: 3685 e339 435d 133a b148 113a bc30 953a
000000b0: 1487 cc3a 6ad0 c33a 8af9 fc39 5a20 423a
000000c0: 115d 3d3a 02d3 053a d34a 833a 85ac 043b
000000d0: a177 163a 96cf 103a 2a83 7c3a a729 ad3a
000000e0: 6996 283a bfe2 d03a c5e5 823a 4eaa b03a
000000f0: dd10 2e3a 7c58 9b3a 5812 2f3a 17e1 4b3a
00000100: 46b2 b83a 6fde 303a bd10 083a 41a5 5b3a
00000110: 5f15 d53a 518f d339 4423 713a 165d 213a
00000120: 7505 a33a 0254 c03a 3175 1e3b a57c 3e3a
00000130: 4fa8 1e3a f50a 843a b81e 9939 6327 e639
00000140: 21bb 063a f60e 193a 3d85 9839 5851 303a
00000150: 138a 043a e797 ad3a 4df5 d43a 2d57 e639
00000160: 6680 0e3a 5830 5b3a 07dc 203a 33e6 343a
00000170: 1509 b03a bd8d 033a 639a 783a 2bf6 913a
00000180: 3119 2c3a 6c0d 473a 6489 5f3a aee1 813a
00000190: a90c a03a 9dfd 873a 9204 eb3a faf1 5e3a
000001a0: 6d92 673a 20e3 ce3a a09e 513a 9ae2 b53a
000001b0: d498 883a 3b5b 2a3a 7729 503a f3b3 6d3a
000001c0: 3394 303a 5e1c 813a bde7 3f3a 0f59 483a
000001d0: d5ad 1e3a 3317 923a 3c98 173a d541 ea3a
000001e0: 1b29 373a 5e4b 9d3a bfb7 393a f929 283a
000001f0: 3cad 8d3a 1d7d 363a 75c8 1a3a cb38 223a
00000200: 81c5 ef39 3fd3 083a 3696 0e3a 152f 123a
00000210: 940f 153a f860 2b3a 6dc1 173a 2a9e 0e3a
00000220: f172 073b 3a7a 243a dd4b e439 1b41 8c3a
00000230: 7daa 8c3a f9e3 863a 108c c83a d3f0 8f3a
00000240: 4f58 983a e01b 683a 6ef8 773a 9a09 893a
00000250: 638d 5f3a 9b5f 643a cce5 613a 9e42 5f3a
00000260: 5660 643a 5823 ac3a 0a08 903a 07fd fa39
00000270: 998c bd3a 767d 323a cd59 033a 6f04 363a
00000280: ac90 3d3a 767c e43a 2243 543a 009d 3f3a
00000290: c486 8e3a f6cc 3a3a 0303 863a a71d d839
000002a0: 35f9 e339 0eb1 1a3a 2564 c239 8fd9 1f3a
000002b0: 9d35 9c3a e402 c839 513d 513a 1ccf 923a
000002c0: 7813 1f3a af4f 5e3a 5510 5e3a 6ead 373a
000002d0: 081a 903a 3a2e 393b 22bc 083b ad31 353b
000002e0: 915a 333b 68c8 123b eb90 ee3a 2967 293b
000002f0: ac03 193b 0749 093b ae6b 493b 9e27 f03a
00000300: 559e 0e3b 480c 263b c1d3 4d3b 9eea 713b
00000310: d1e2 9b3b 4868 083b 9d9e d73a 94df 983a
00000320: 138e 923a 563b b43a 19ad 0f3b 4ed2 8a3a
00000330: e110 d03a a3b9 763a 4ad1 5b3a fb85 b73a
00000340: 8586 5f3b 6f73 003b 81f0 493b 8f64 f53a
00000350: a36f c53a 857a 383b 34a9 1d3b fd7f e03a
00000360: f920 2d3b a43b c33a e745 9a3a 144f 8a3a
00000370: fd5b 293b 95f0 893a f79d a13a cc7a 143b
00000380: 13af d23a 1624 e73a b34b 0d3b 04c5 a83a
00000390: bff7 183b 64da de3a fa46 053b caf9 c93a
000003a0: c740 8c3b 74c3 153b a55e 853a a4f7 143b
000003b0: cf62 c43a d2e8 f23a 748d 3a3b 0ad1 073b
000003c0: f7c9 ae3a 59e1 123b 96c0 f83a 5445 873a
000003d0: 8d13 133b 79d3 513a 7209 233b 59a9 8b3a
000003e0: ea5b ef3a e487 dc3a e041 a43a 23a5 ba3a
000003f0: c2fa aa3a af94 b23a eb55 963a 36eb 843a

exp_avg f4 [10]
-0.0037175124 -0.0030608454 0.0011572543 0.0029490858 0.0008583053 -0.0014834207 0.0031005119 0.002656285
-0.0019005912 0.0007927395
00000000: 82a1 73bb 7798 48bb 03af 973a 7345 413b
00000010: e5ff 603a 576f c2ba f531 4b3b 1115 2e3b
00000020: 421d f9ba d9cf 4f3a

exp_avg_sq f4 [10]
0.00012650788 8.703633e-05 7.6788165e-05 0.00010462352 9.161148e-05 0.00012375526 0.00014972533 6.6093904e-05
0.00010944239 0.00010084725
00000000: 33a7 0439 4687 b638 5509 a138 5369 db38
00000010: 8a1f c038 4dc4 0139 96ff 1c39 e59b 8a38
00000020: 7084 e538 f57d d338

exp_avg f4 [10]
-0.0011637283 0.00035345025 -0.0023806067 0.0016655653 -0.00021059868 -0.0018399353 -0.0030602529 0.0038302685
0.0010429079 0.0026756476
00000000: 3e88 98ba 4a4f b939 f403 1cbb 194f da3a
00000010: 27d4 5cb9 fc29 f1ba 868e 48bb 3e05 7b3b
00000020: 2fb2 883a eb59 2f3b

exp_avg_sq f4 [10]
9.337754e-05 6.8688154e-05 5.579478e-05 6.0303602e-05 7.806132e-05 0.00013584764 7.272358e-05 0.0001173505
7.152429e-05 8.61722e-05
00000000: afd3 c338 ac0c 9038 3005 6a38 80ee 7c38
00000010: dab4 a338 5372 0e39 2d83 9838 121a f638
00000020: 50ff 9538 59b7 b438

exp_avg f4 [10]
0.00074033707 -0.0012588468 0.0014574635 -0.001783105 -0.00040745127 -0.0011851769 0.0015195388 -0.0015097767
-0.0019751757 0.002708066
00000000: 2e13 423a e4ff a4ba 5c08 bf3a 13b7 e9ba
00000010: 2f9f d5b9 f057 9bba 432b c73a b3e3 c5ba
00000020: f371 01bb cf79 313b

exp_avg_sq f4 [10]
4.239767e-05 4.7397993e-05 5.574285e-05 4.8254187e-05 3.641688e-05 6.8067115e-05 7.612835e-05 4.215746e-05
3.5638102e-05 5.342534e-05
00000000: 27d4 3138 35cd 4638 6ecd 6938 8a64 4a38
00000010: 54be 1838 41bf 8e38 19a7 9f38 3ad2 3038
00000020: 1f7a 1538 0615 6038

exp_avg f4 [10]
-0.00027019807 -0.0005272967 0.00040051187 6.63238e-05 0.0007909069 -0.00024521223 0.00016875094 -0.00070912176
-0.0008803748 0.0003162464
00000000: 5fa9 8db9 483a 0aba cbfb d139 5217 8b38
00000010: dd54 4f3a d48f 80b9 bcf2 3039 5be4 39ba
00000020: f4c8 66ba e0cd a539

exp_avg_sq f4 [10]
4.773729e-06 1.3606762e-05 9.042733e-06 2.6412051e-06 4.269365e-06 1.7371704e-05 1.669214e-05 3.2489945e-05
8.579847e-06 3.6766537e-06
00000000: 052e a036 9948 6437 3eb6 1737 8f3f 3136
00000010: 9141 8f36 73b9 9137 1906 8c37 d045 0838
00000020: 2af2 0f37 6ebc 7636

exp_avg f4 [10]
-0.005847751 -0.0021821386 -0.0014868001 0.0039017291 0.004852541 -0.0026347623 0.0016946541 -0.0016930787
-0.00012830521 -0.0030341274
00000000: 7e9e bfbb 3602 0fbb bce0 c2ba 27b4 7f3b
00000010: 1002 9f3b faab 2cbb 281f de3a 4bea ddba
00000020: ab89 06b9 36d8 46bb

exp_avg_sq f4 [10]
0.00011144603 0.00014856066 0.0001489935 0.00012103213 0.00017161043 0.00013686382 0.00011562121 0.00010081032
0.00019433282 0.00016556097
00000000: 22b8 e938 f3c6 1b39 233b 1c39 a1d2 fd38
00000010: 53f2 3339 1a83 0f39 aa79 f238 216a d338
00000020: d2c5 4b39 6f9a 2d39

exp_avg f4 [10]
0.00017078279 -0.0008873029 0.0009282785 -0.0004413544 0.0012874631 -0.0008202979 0.00020201458 0.0014486779
-0.0010840492 0.00045615644
00000000: 2814 3339 e499 68ba b757 733a 9665 e7b9
00000010: 18c0 a83a 4309 57ba e0d3 5339 90e1 bd3a
00000020: a816 8eba 4828 ef39

exp_avg_sq f4 [10]
6.0724574e-06 1.3196466e-05 1.4178383e-05 1.0365154e-05 9.363858e-06 1.9953854e-05 1.9209016e-05 1.6732003e-05
1.1964616e-05 1.0618021e-05
00000000: 03c2 cb36 6466 5d37 b1df 6d37 ffe5 2d37
00000010: 7719 1d37 9362 a737 0c23 a137 b45b 8c37
00000020: a2bb 4837 0e24 3237

exp_avg f4 [10, 10, 3, 3]
-0.00132487 -0.0010653068 -0.0004453602 -0.00091684604 -0.0009819985 2.1302292e-05 0.00021147632 -0.0009850857
-0.00069315254 -0.0005116104 0.00040699274 0.00013293633 -0.0014336619 -0.0001502826 0.00095615594 -0.00081039575
-0.0002915296 0.00059145526 0.00026829191 0.0007062459 0.0020455802 0.00071095873 0.001202892 0.0003099001
-6.558161e-05 0.0001517178 0.0008203297 0.0012160231 0.0013394116 0.00064958935 -0.00045236887 -0.000547737
-0.00056878955 0.00020403888 0.00030674727 0.00018902768 0.00042708722 0.0004796644 -0.0016789463 -0.0019024248
-0.001347784 -0.0009649547 -0.00034964443 -0.00074608636 0.00057437277 -0.0010526098 -0.00042573534 -0.00019325303
-0.0021608283 0.0016488746 -0.00043833014 -0.00095574517 -3.4577355e-05 0.0003356806 0.0013494795 -0.0012288572
0.0013676125 0.0011259629 0.00030198507 0.001340983 0.0008238853 -0.0008678803 -0.00011326883 0.00064326887
-0.00046908643 0.00057465286 -0.0008204756 -0.0025316789 -8.448609e-05 -0.0010262377 -0.0023241804 -0.0007785968
0.0008589019 0.002118268 0.0012476094 0.0010262835 -0.0016577503 0.0010082013 0.0005662347 0.00047644676
5.068734e-06 -0.00023896145 0.00010302393 0.00055335544 0.0006475556 0.00043249023 0.00014923076 0.00035266657
0.0010428366 0.00043313066 0.0030155086 0.0016931618 0.0009441384 0.0006446435 0.0013929758 0.0010174545
0.0025158324 0.0020788508 0.0013301227 -0.0048282007 6.993173e-06 -0.0010451807 -0.0017632795 -0.00083653926
0.00042369694 -0.0001818207 -0.001695917 -0.00371551 0.0004747096 8.328248e-05 0.0006736926 0.0012496348
0.0012138163 3.7728412e-05 0.0018174647 0.00039892027 0.00063979265 0.00270522 0.00056392077 -0.00093808485
0.0002016352 -0.0010645605 -0.0025028936 0.0011570207 0.001267146 0.001976617 0.0015952304 0.00089235755
0.0005316544 -0.0018753544 -0.0013434899 -0.0001406608 0.0006158357 -0.000790134 -0.0007324378 0.0011178959
0.0006408634 -0.0017712216 0.004300596 0.002159503 -0.0011338232 0.0018678667 -0.0013182646 -0.0018198277
-0.0004575064 0.0027844685 0.0026302563 0.0018012489 0.0063591194 0.0030996548 -0.0014552182 0.001955323
-0.0018602443 0.0028121779 0.0014195971 0.0027464537 -0.0003101325 -0.00155303 8.65761e-05 -0.0018124299
-0.002780429 -0.0002853844 -0.004969793 0.0007936455 0.0054731113 0.0014111337 -0.0025061357 -0.00083047705
0.004940959 0.004085819 0.0012873964 0.0011784754 0.0010969829 -0.00020702256 0.0012870424 0.0020277791
0.0011260659 0.00052473217 0.0027494263 0.0016589102 -0.0019543264 -0.0019437379 -0.0015669353 -0.0015882811
-0.00093589746 -0.0010591402 -0.00028318923 -0.00018133262 0.0005284951 -0.0017267806 0.0005631288 0.0010182065
0.0016335733 -0.0021301673 -0.0015358779 -0.0015966569 -0.003186063 0.0015896797 -0.0011180821 -0.00034985074
-5.853367e-05 -0.0013106321 -0.0009292998 6.7070745e-05 -0.00067822513 -7.896528e-06 1.2511482e-05 -0.0004737161
-0.0019229027 0.00033116742 -0.0016785925 0.00048694064 -0.00070670084 -0.0007502564 -0.00096762547 -9.108579e-05
-0.0025521687 -0.00074250327 -8.189083e-05 -0.0001400203 7.0750284e-05 -0.00052642723 -0.00018577423 -0.0005971413
-0.0014170075 0.0007171428 0.0003376831 -0.0006122293 -0.00028045496 -0.0028000858 0.00017937784 -0.004004584
-0.0016543363 0.0015982764 -7.40946e-05 -0.00031079687 -0.004849328 -0.0024306471 -0.00017725253 -0.0033995323
-9.1636575e-05 -0.00036209615 0.0015047553 -3.7068072e-05 -0.0018147983 -0.0018681552 -0.00017897651 0.0015472226
0.0030434383 0.0010906821 0.0030942443 -0.000973806 0.0040253378 0.0015036396 0.0016122715 0.00044004773
00000000: 43a7 adba c4a1 8bba 3c7f e9b9 7f58 70ba
00000010: 67b6 80ba 53b2 b237 bebf 5d39 fe1d 81ba
00000020: aeb4 35ba 981d 06ba a461 d539 d364 0b39
00000030: b6e9 bbba 2e95 1db9 8aa6 7a3a bd70 54ba
00000040: 71d8 98b9 e40b 1b3a 88a9 8c39 5c23 393a
00000050: 240f 063b a25f 3a3a 5caa 9d3a 167a a239
00000060: dc88 89b8 7016 1f39 650b 573a f762 9f3a
00000070: 328f af3a 3449 2a3a ec2b edb9 0296 0fba
00000080: d21a 15ba 45f3 5539 ecd2 a039 bb35 4639
00000090: adea df39 777b fb39 1710 dcba c95a f9ba
000000a0: 20a8 b0ba 04f5 7cba 7b50 b7b9 0295 43ba
000000b0: 8191 163a b9f7 89ba 3b35 dfb9 f7a3 4ab9
000000c0: af9c 0dbb 0d1f d83a adcf e5b9 f98a 7aba
000000d0: 2707 11b8 4afe af39 05e1 b03a 9b11 a1ba
000000e0: 7641 b33a 0c95 933a c053 9e39 ecc3 af3a
000000f0: 02fa 573a 7682 63ba bd8a edb8 0ba1 283a
00000100: b7ef f5b9 4da4 163a 2f15 57ba 86ea 25bb
00000110: 202e b1b8 d382 86ba 4751 18bb bf1a 4cba
00000120: ee27 613a a4d2 0a3b d386 a33a 5c84 863a
00000130: df48 d9ba 9f25 843a 5e6f 143a 9acb f939
00000140: 1814 aa36 ba91 7ab9 8d0e d838 0e0f 113a
00000150: b8c0 293a dbbf e239 d47a 1c39 1be6 b839
00000160: caaf 883a d015 e339 d79f 453b 15ed dd3a
00000170: 0e80 773a 4bfd 283a 8394 b63a 1c5c 853a
00000180: aae0 243b 543d 083b 8357 ae3a e235 9ebb
00000190: e6a6 ea36 72fe 88ba d81d e7ba 334b 5bba
000001a0: a423 de39 1fa7 3eb9 8849 deba ea7f 73bb
000001b0: 72e2 f839 f1a7 ae38 bf9a 303a c9ca a33a
000001c0: eb18 9f3a 933e 1e38 ff37 ee3a 2c26 d139
000001d0: c2b7 273a 0f4a 313b 15d4 133a cfe9 75ba
000001e0: 096e 5339 b988 8bba 9607 24bb 2ca7 973a
000001f0: 5d16 a63a 218a 013b 0d17 d13a 1aed 693a
00000200: b95e 0b3a 74ce f5ba 0a18 b0ba 597e 13b9
00000210: 0970 213a ff20 4fba 1201 40ba 5d86 923a
00000220: 9dff 273a 5628 e8ba 04ec 8c3b 7386 0d3b
00000230: cb9c 94ba 35d3 f43a 9fc9 acba 4987 eeba
00000240: 78dd efb9 a17b 363b 6160 2c3b e217 ec3a
00000250: 2960 d03b 9423 4b3b 05bd beba e024 003b
00000260: 71d3 f3ba 844c 383b c611 ba3a d9fd 333b
00000270: 4899 a2b9 0a8f cbba 3190 b538 0e8f edba
00000280: dc37 36bb a59f 95b9 a5d9 a2bb a60c 503a
00000290: c957 b33b caf5 b83a fb3d 24bb 5fb4 59ba
000002a0: c5e7 a13b 55e2 853b dbbd a83a 1377 9a3a
000002b0: a3c8 8f3a 3214 59b9 fab1 a83a 7de4 043b
000002c0: 8098 933a 2e8e 093a b82f 343b ca6f d93a
000002d0: 2814 00bb 05c5 feba a061 cdba df2d d0ba
000002e0: 0457 75ba d9d2 8aba 0479 94b9 1b24 3eb9
000002f0: b58a 0a3a 2455 e2ba ef9e 133a 5775 853a
00000300: a01d d63a 479a 0bbb 834f c9ba ea46 d1ba
00000310: 44cd 50bb cd5c d03a 9c8c 92ba 2c6c b7b9
00000320: 0d82 75b8 84c9 abba 419c 73ba 55a8 8c38
00000330: ebca 31ba 547b 04b7 68e8 5137 195d f8b9
00000340: e809 fcba 8aa0 ad39 3804 dcba 114c ff39
00000350: e441 39ba dbac 44ba 3fa8 7dba 5005 bfb8
00000360: 4942 27bb 8da4 42ba cebc abb8 6ad2 12b9
00000370: c55f 9438 efff 09ba 64cc 42b9 7989 1cba
00000380: e2ba b9ba a3fe 3b3a 0f0b b139 037e 20ba
00000390: 070a 93b9 a581 37bb 5f17 3c39 e338 83bb
000003a0: 51d6 d8ba 427d d13a 3c63 9bb8 73f2 a2b9
000003b0: 1de7 9ebb 7e4b 1fbb dddc 39b9 b0ca 5ebb
000003c0: 032d c0b8 b9d7 bdb9 363b c53a 8a79 1bb8
000003d0: 87de edba e3dc f4ba a4ab 3bb9 2dcc ca3a
000003e0: 6c74 473b 38f5 8e3a cec8 4a3b 0447 7fba
000003f0: fbe6 833b c615 c53a db52 d33a 35b6 e639

exp_avg_sq f4 [10, 10, 3, 3]
3.783749e-05 2.9411076e-05 2.1575615e-05 2.752865e-05 2.9123286e-05 2.0203253e-05 1.9674855e-05 2.6300328e-05
1.570271e-05 3.6702728e-05 3.9184277e-05 6.9577756e-05 3.9166433e-05 3.0413255e-05 4.701913e-05 3.4385754e-05
3.7906273e-05 4.4743065e-05 2.1823025e-05 4.1482937e-05 3.7868092e-05 4.2170675e-05 3.0528725e-05 4.5348716e-05
3.676719e-05 3.4206736e-05 3.8335013e-05 2.750476e-05 2.3139457e-05 2.8947687e-05 1.930762e-05 1.7046326e-05
2.807381e-05 1.709436e-05 1.9648616e-05 2.7375316e-05 2.0865957e-05 2.7312683e-05 2.4640907e-05 2.672086e-05
3.7187965e-05 3.65696e-05 3.639565e-05 1.9886638e-05 3.6544065e-05 3.099609e-05 3.1848478e-05 3.52943e-05
1.755931e-05 3.797682e-05 2.7918724e-05 3.882307e-05 3.145835e-05 4.3188033e-05 3.1291485e-05 3.735715e-05
2.709278e-05 2.9132854e-05 2.810285e-05 3.316292e-05 6.006855e-05 5.201552e-05 4.452524e-05 6.1557665e-05
5.8418063e-05 6.30764e-05 3.7956084e-05 4.844318e-05 4.0259885e-05 3.1376312e-05 1.9839104e-05 1.8938346e-05
2.3842764e-05 2.5015172e-05 3.0853113e-05 2.4524912e-05 2.5580588e-05 3.4517372e-05 2.6535852e-05 2.1328991e-05
2.4270294e-05 1.3812146e-05 1.6389553e-05 2.4793624e-05 1.2138985e-05 1.7422044e-05 2.4550021e-05 1.7597786e-05
1.9805873e-05 2.5147767e-05 7.1406736e-05 5.3384054e-05 4.3349846e-05 8.098712e-05 9.05561e-05 7.1015646e-05
4.5429777e-05 6.936333e-05 4.0207782e-05 9.9089564e-05 9.1200214e-05 7.868606e-05 8.6218e-05 7.308035e-05
8.0788246e-05 0.00011546998 9.881813e-05 8.78453e-05 6.9320035e-05 0.000110542926 7.835478e-05 8.112609e-05
0.00010659838 8.122529e-05 8.5714055e-05 9.905499e-05 9.823789e-05 7.620443e-05 7.0315225e-05 0.000105060266
0.000103318554 9.308126e-05 8.404834e-05 9.2929724e-05 9.920778e-05 7.833929e-05 8.458541e-05 0.00010427129
0.00010420137 7.763096e-05 7.895251e-05 7.364175e-05 4.6630783e-05 5.6705965e-05 7.265805e-05 0.000103901366
9.927136e-05 0.00010267338 7.791919e-05 9.839313e-05 9.1123824e-05 8.3202496e-05 0.00010778396 0.00010533773
8.026439e-05 8.057363e-05 7.983368e-05 6.458557e-05 0.00014477769 0.000114284354 0.0001438322 0.000102417725
9.7247146e-05 0.00021027528 0.00013791368 0.00011517345 7.657941e-05 0.00012769226 0.00010099783 6.158826e-05
4.7482405e-05 4.5075234e-05 9.388675e-05 6.932659e-05 9.644574e-05 7.357121e-05 8.585995e-05 6.784015e-05
6.848346e-05 8.478608e-05 9.3412826e-05 0.00010898787 0.00019976989 0.00011991336 8.6984284e-05 0.00012747389
9.7545046e-05 7.922887e-05 8.728616e-05 8.341315e-05 9.119992e-05 4.1343148e-05 3.3656925e-05 8.616032e-05
0.00014441773 8.572957e-05 3.497083e-05 3.812395e-05 2.6568396e-05 6.713266e-05 5.4229222e-05 8.6267646e-05
5.5808552e-05 6.496216e-05 6.814686e-05 7.514486e-05 7.942743e-05 7.6501834e-05 5.3276388e-05 5.9884198e-05
6.801878e-05 6.087461e-05 8.8255096e-05 6.495825e-05 6.133546e-05 5.5837507e-05 5.601036e-05 4.4967925e-05
7.078298e-05 6.539506e-05 6.617471e-05 4.0779898e-05 7.122555e-05 3.9414965e-05 3.640805e-05 5.340924e-05
4.2758933e-05 6.2104875e-05 5.4274882e-05 0.000104629864 0.00012025395 5.8102178e-05 4.357725e-05 8.28256e-05
3.8915805e-05 0.00010995215 6.4146174e-05 5.0286264e-05 5.0555267e-05 5.9956063e-05 6.214471e-05 6.941751e-05
5.3761454e-05 5.3326417e-05 9.907224e-05 9.215691e-05 8.948061e-05 8.063466e-05 6.278882e-05 0.00010208327
0.0001341697 0.00014345118 0.00010787516 0.00012030085 7.989581e-05 6.714609e-05 0.0001352897 0.00025009946
0.0001707114 4.7770354e-05 4.69284e-05 3.5509e-05 7.539171e-05 7.7629884e-05 6.436766e-05 5.817153e-05
00000000: b2b3 1e38 ceb7 f637 48fd b437 53ed e637
00000010: c84d f437 287a a937 6e0b a537 869f dc37
00000020: 50b9 8337 41f1 1938 cc59 2438 46ea 9138
00000030: a346 2438 f81f ff37 6836 4538 6c39 1038
00000040: 8dfd 1e38 80aa 3b38 9710 b737 f7fd 2d38
00000050: 8ed4 1e38 6be0 3038 f80b 0038 d034 3e38
00000060: 7836 1a38 3479 0f38 e8c9 2038 06ba e637
00000070: 9b1b c237 afd4 f237 ccf6 a137 b5fe 8e37
00000080: 0c80 eb37 dc65 8f37 15d3 a437 0ba4 e537
00000090: 4d09 af37 8a1d e537 f2b3 ce37 9c26 e037
000000a0: 46fa 1b38 4f62 1938 88a7 1838 3bd2 a637
000000b0: e446 1938 cc01 0238 0b95 0538 f708 1438
000000c0: 554c 9337 4d49 1f38 0133 ea37 f4d5 2238
000000d0: 25f2 0338 cc24 3538 fa3e 0338 efaf 1c38
000000e0: 4d45 e337 5462 f437 69be eb37 6a18 0b38
000000f0: 1df2 7b38 3d2b 5a38 9dc0 3a38 8518 8138
00000100: eb05 7538 e247 8438 0933 1f38 782f 4b38
00000110: b9dc 2838 0f9a 0338 276c a637 cadd 9e37
00000120: f201 c837 acd7 d137 4768 0138 d9ba cd37
00000130: e595 d637 bfc6 1038 4f99 de37 a9eb b237
00000140: 0f98 cb37 b7ba 6737 4c7c 8937 e7fb cf37
00000150: 8ba8 4b37 8e25 9237 c5f0 cd37 f59e 9337
00000160: ca24 a637 6bf4 d237 33c0 9538 b1e8 5f38
00000170: 8bd2 3538 a1d7 a938 f0e8 bd38 3cee 9438
00000180: da8b 3e38 2777 9138 c7a4 2838 4ece cf38
00000190: be42 bf38 4204 a538 f0cf b438 b742 9938
000001a0: dc6c a938 7928 f238 943c cf38 9639 b838
000001b0: e95f 9138 48d3 e738 6752 a438 3d22 aa38
000001c0: 928d df38 7f57 aa38 62c1 b338 bebb cf38
000001d0: 1105 ce38 f1cf 9f38 3376 9338 cd53 dc38
000001e0: baac d838 9f34 c338 1c43 b038 44e3 c238
000001f0: c50d d038 164a a438 7263 b138 39ac da38
00000200: af86 da38 cecd a238 4e93 a538 1d70 9a38
00000210: 6c95 4338 91d7 6d38 fe5f 9838 9fe5 d938
00000220: e82f d038 5a52 d738 8c68 a338 6958 ce38
00000230: bb19 bf38 007d ae38 130a e238 c3e8 dc38
00000240: 9e53 a838 a3f9 a838 616c a738 1d72 8738
00000250: 77cf 1739 f2ab ef38 aad1 1639 19c9 d638
00000260: 2af1 cb38 577d 5c39 ec9c 1039 4689 f138
00000270: 4299 a038 21e5 0539 ccce d338 f228 8138
00000280: d827 4738 2a0f 3d38 11e5 c438 6e63 9138
00000290: ea42 ca38 3e4a 9a38 b60f b438 6745 8e38
000002a0: c79e 8f38 2ecf b138 a1e6 c338 6b90 e438
000002b0: 5279 5139 ff79 fb38 556b b638 83aa 0539
000002c0: 1991 cc38 ad27 a638 660d b738 18ee ae38
000002d0: 9642 bf38 de67 2d38 d92a 0d38 f8b0 b438
000002e0: d76e 1739 b6c9 b338 a5ad 1238 48e7 1f38
000002f0: 32df de37 93c9 8c38 2f74 6338 97ea b438
00000300: fa13 6a38 4b3c 8838 11ea 8e38 1797 9d38
00000310: 4792 a638 9c6f a038 1675 5f38 2b2c 7b38
00000320: 4ea5 8e38 9d53 7f38 9815 b938 323a 8838
00000330: 39a1 8038 1133 6a38 abec 6a38 f19b 3c38
00000340: 5371 9438 b524 8938 47c7 8a38 150b 2b38
00000350: ed5e 9538 7f51 2538 d9b4 1838 bc03 6038
00000360: 0e58 3338 4d3e 8238 36a5 6338 bb6c db38
00000370: d930 fc38 bdb2 7338 b7c6 3638 a8b2 ad38
00000380: 8739 2338 1c96 e638 3786 8638 77ea 5238
00000390: 4e0b 5438 5579 7b38 b053 8238 3e94 9138
000003a0: ec7d 6138 ceaa 5f38 01c5 cf38 5d44 c138
000003b0: 89a7 bb38 671a a938 7ead 8338 8a15 d638
000003c0: e8af 0c39 626b 1639 093b e238 074a fc38
000003d0: bd8d a738 c8d0 8c38 8ddc 0d39 c81f 8339
000003e0: fe00 3339 075d 4838 fcd4 4438 80ef 1438
000003f0: 9e1b 9e38 3acd a238 20fd 8638 34fd 7338

exp_avg f4 [10, 10, 3, 3]
0.016462747 0.008454536 0.012437314 0.007085278 0.0034369617 0.012097065 0.012852377 0.0075292867
0.012166692 0.0013014448 -0.00031784392 -0.0042666653 -0.0017532352 -0.004347214 -0.0066934624 0.008699179
-0.001827053 0.0028984868 -0.005580253 0.0013838687 0.0022034931 -0.0013620257 -0.0017121896 0.0063178972
2.9031848e-05 0.0005068179 0.0018361208 -0.0072591146 -0.008741411 -0.0077206744 -0.008671825 -0.0036191533
-0.00893549 -0.006129621 -0.0054578786 -0.0059491564 -0.0040831985 -0.006451628 -0.00535031 -0.0067002964
-0.0040667653 -0.0074981274 -0.0070426026 -0.005919828 -0.006093526 -0.0013474073 0.005500111 0.010247428
-0.00019415926 0.0023029272 0.012918175 -0.0042885346 -0.0012698913 0.0035766482 0.0058063255 0.007583682
0.007841404 0.008156247 0.012892133 0.0057983673 0.011855984 0.0064729042 0.009797019 -0.0062682885
-0.004035975 -0.0053139054 -0.006184459 -0.005841686 -0.006358464 -0.0030689887 -0.005014124 -0.0057581007
-0.006523162 0.0017438455 0.0028218701 -0.0041647325 -0.0036150243 -0.0012213376 -0.006249731 -0.0038146547
-0.006066694 -0.0075691976 -0.007109026 -0.006752176 -0.006501768 -0.007882453 -0.006876085 -0.0045155007
-0.004525615 -0.004695818 -0.008740266 -0.012492335 -0.009167719 -0.0014537878 -0.009020976 -0.0075851935
-0.00410335 -0.0028548662 -0.0009908192 0.0018495437 0.0054951133 0.00046343822 0.0012654576 0.0035675862
0.0046765697 -7.780502e-06 0.0019582012 0.001559822 -0.0023337626 -0.006770923 -0.0042808377 -0.0017593274
0.0033193217 0.0013505524 -0.0026610252 -0.006487636 -0.0042019263 0.005595363 0.0035771565 0.0010207989
0.003328326 0.0033817997 0.005209425 0.0012691473 0.0020649247 0.003513679 -0.0012681031 -0.002112327
-0.0012555945 0.001971432 0.0018522441 -0.000857461 -1.4970641e-05 0.0026706734 -0.00012980787 -0.0027948045
-0.0007236108 -0.002772385 -0.005666481 -0.006562119 -0.003324978 0.00037719304 -0.0015486229 -0.0037101973
0.0011109236 0.0007216697 -0.0042682444 -0.0023533297 0.00080977875 0.0013559216 -0.0057608024 -0.007843872
-0.0065560886 0.0037537394 0.005706626 0.0019652725 0.0026095551 0.0027960923 0.0032478855 0.0010386892
0.0027445261 -0.0002754959 -0.0028051601 -0.0026940957 0.00061741873 0.0015650963 0.0029539906 0.0042245667
0.0013286474 0.0014565393 -1.3714347e-05 0.0034386653 0.005500053 0.004288357 0.0029244716 0.006776362
0.005822646 0.0072253556 0.0071844854 0.0039353324 -0.006125046 0.0014196128 0.0009874399 -0.0048634224
0.00030593478 -0.0037485885 -0.0045617404 0.0027815213 0.0038010622 0.0061955294 -0.0012830612 0.002595998
-1.676099e-05 0.004184647 0.004229396 0.0032051138 0.01145695 0.0064085177 -0.00056198536 -0.0043296358
-0.00045037773 -0.0043582725 0.0018282556 0.0019579886 -0.0024635307 -0.0041283076 -0.003430687 -0.00348203
-0.0014491386 -0.0043461854 -0.0006561424 -0.008992496 -0.0008250037 -0.001840436 -0.0031247598 -0.004337877
-0.0048653255 -0.0024790044 -0.0019754416 -0.0014299598 -0.0030097684 -0.0005559267 -0.0025038184 -0.0027080127
-0.00089745485 -0.003773594 -0.0017803065 -0.0028694817 -0.0036736412 -0.005168292 -0.0032882656 0.0014765089
-0.004685303 -0.0037063698 -0.00029419272 0.007011818 0.007765052 -0.005526505 0.0048798406 0.00686819
-0.0014660236 0.003224352 -0.0017396268 -0.003278577 -0.002025025 -0.0026286393 0.0003946513 -0.0018146805
-0.0008642011 -0.0041928324 -0.002310341 -0.0012506214 -0.0031093683 -0.0038338036 -0.002284295 -0.0032308751
00000000: e2dc 863c e584 0a3c e0c5 4b3c 9f2b e83b
00000010: a63e 613b c532 463c c792 523c 3cb8 f63b
00000020: ce56 473c 3e95 aa3a 4aa4 a6b9 62cf 8bbb
00000030: d0cc e5ba 1373 8ebb d554 dbbb 0087 0e3c
00000040: ba79 efba 8af4 3d3b 8eda b6bb ee62 b53a
00000050: 7b68 103b 0086 b2ba 8d6b e0ba 5d06 cf3b
00000060: 6b89 f337 f9db 043a fea9 f03a dedd edbb
00000070: 2338 0fbc b6fd fcbb 4514 0ebc 512f 6dbb
00000080: 2966 12bc fdda c8bb 01d8 b2bb 24f1 c2bb
00000090: 5acc 85bb 2e68 d3bb a751 afbb 298e dbbb
000000a0: 8042 85bb dab2 f5bb a2c5 e6bb 1efb c1bb
000000b0: 33ac c7bb 7d9b b0ba 463a b43b d4e4 273c
000000c0: 3b97 4bb9 b5ec 163b c1a6 533c d686 8cbb
000000d0: 7b72 a6ba 3366 6a3b fd42 be3b 8980 f83b
000000e0: 3b79 003c c8a1 053c 8639 533c 3b00 be3b
000000f0: 9a3f 423c a81a d43b ad83 203c 3766 cdbb
00000100: 3640 84bb 4520 aebb 01a7 cabb 9d6b bfbb
00000110: a95a d0bb 1621 49bb 854d a4bb 73ae bcbb
00000120: 40c0 d5bb bf91 e43a 20ef 383b 4f78 88bb
00000130: 0bea 6cbb 4a15 a0ba 8bca ccbb 49ff 79bb
00000140: 1ecb c6bb 0807 f8bb d5f2 e8bb 5c41 ddbb
00000150: c80c d5bb 6725 01bc c850 e1bb c4f6 93bb
00000160: 9c4b 94bb 60df 99bb 5533 0fbc a7ac 4cbc
00000170: 3334 16bc 068d beba b7cc 13bc 378d f8bb
00000180: 6575 86bb b518 3bbb 60de 81ba 636c f23a
00000190: 5a10 b43b a0f9 f239 b6dd a53a 2ace 693b
000001a0: e93d 993b 0089 02b7 2a55 003b f172 cc3a
000001b0: 0af2 18bb 9ede ddbb 4546 8cbb 3b99 e6ba
000001c0: fa88 593b 0505 b13a 9864 2ebb 3c96 d4bb
000001d0: 50b0 89bb 4f59 b73b ba6e 6a3b 54cc 853a
000001e0: 0b20 5a3b 2fa1 5d3b d3b3 aa3b 8459 a63a
000001f0: b053 073b c045 663b 7b36 a6ba f76e 0abb
00000200: c392 a4ba 2433 013b 00c7 f23a 3cc7 60ba
00000210: 6a2a 7bb7 7706 2f3b 091d 08b9 0a29 37bb
00000220: b3b0 3dba e7b0 35bb e3ad b9bb 0b07 d7bb
00000230: e0e7 59bb fec1 c539 29fb caba c826 73bb
00000240: 699c 913a 6f2e 3d3a a1dc 8bbb 523a 1abb
00000250: 5547 543a 2eb9 b13a 1dc5 bcbb 9583 00bc
00000260: 75d4 d6bb 4c01 763b a6fe ba3b cdcb 003b
00000270: 1205 2b3b a53e 373b 7ada 543b a024 883a
00000280: 82dd 333b 6f70 90b9 c7d6 37bb 6d8f 30bb
00000290: 45da 213a eb23 cd3a bd97 413b 3c6e 8a3b
000002a0: 0226 ae3a 59e9 be3a ac16 66b7 3b5b 613b
000002b0: ca39 b43b 5985 8c3b 7ea8 3f3b 3f0c de3b
000002c0: e5cb be3b adc2 ec3b d56b eb3b f6f3 803b
000002d0: 9cb4 c8bb 4d12 ba3a fc6c 813a 585d 9fbb
000002e0: df65 a039 e1aa 75bb a77a 95bb 2f4a 363b
000002f0: 3e1b 793b de03 cb3b 642c a8ba 9f21 2a3b
00000300: f499 8cb7 5d1f 893b bf96 8a3b e30c 523b
00000310: eeb5 3b3c 8bfe d13b 3352 13ba 9edf 8dbb
00000320: ad20 ecb9 d7cf 8ebb 14a2 ef3a 9951 003b
00000330: 3073 21bb c146 87bb 60d5 60bb c532 64bb
00000340: 06f1 bdba 726a 8ebb f900 2cba 4355 13bc
00000350: 1045 58ba c93a f1ba c5c8 4cbb c024 8ebb
00000360: 4f6d 9fbb cb76 22bb 6976 01bb 7d6d bbba
00000370: 893f 45bb 9cbb 11ba 1a17 24bb ea78 31bb
00000380: 2d43 6bba 674e 77bb 2c59 e9ba ea0d 3cbb
00000390: 79c1 70bb c75a a9bb f17f 57bb 6b87 c13a
000003a0: 2c87 99bb 91e6 72bb e13d 9ab9 64c3 e53b
000003b0: fa71 fe3b af17 b5bb 12e7 9f3b 8e0e e13b
000003c0: 9727 c0ba a64f 533b 3004 e4ba 65dd 56bb
000003d0: 48b6 04bb 4045 2cbb 33e9 ce39 93da edba
000003e0: 8e8b 62ba 0764 89bb 1769 17bb e4eb a3ba
000003f0: 8bc6 4bbb 8d40 7bbb 1cb4 15bb 17bd 53bb

exp_avg_sq f4 [10, 10, 3, 3]
0.00055481313 0.000525071 0.00051335874 0.00050301856 0.00048427738 0.0003928566 0.00049995066 0.000310858
0.00040109782 0.00047770925 0.00025306747 0.00037639754 0.00044939975 0.0002506825 0.00025377545 0.0005920982
0.00023405466 0.0002536973 0.00052875717 0.0006222224 0.0006854329 0.00029500542 0.000296727 0.0002667054
0.00028636295 0.00037291323 0.00020426084 0.0002706131 0.00026659123 0.00024548496 0.00033338877 0.00036175724
0.00045056024 0.0003250297 0.00038896556 0.00032852127 0.0003762613 0.00035518286 0.0003814857 0.0003675341
0.0004484004 0.00039336274 0.00040138813 0.0005114628 0.0004534524 0.00035339122 0.00033209057 0.00033333327
0.00030147305 0.0002971033 0.00033116413 0.0004437508 0.00028483424 0.00034989306 0.00038782068 0.00039145004
0.0007014251 0.00039943802 0.00036895866 0.00035148553 0.0005242319 0.0003342094 0.00034603858 0.00035390008
0.000517765 0.00041373938 0.00038981845 0.00042420215 0.00038750298 0.00026671932 0.00035976077 0.000224252
0.0006748804 0.000543359 0.00035892284 0.0006637902 0.000646485 0.00043428867 0.0004933628 0.00058545783
0.00055117975 0.00026938785 0.00032469287 0.00026362107 0.00029157166 0.0003212935 0.00029023082 0.0003438074
0.00034668457 0.0004543406 0.00080391753 0.0006571642 0.0005886889 0.0005998797 0.0010087795 0.0006911435
0.00059384445 0.00055655814 0.0006311941 0.00060063106 0.0004676214 0.00039248017 0.0006290868 0.00066831114
0.00031417768 0.0005727432 0.00057890295 0.0003787954 0.00046855572 0.0004881246 0.0004879543 0.00039483362
0.00053570984 0.0006807956 0.00043068756 0.00047710806 0.0004936208 0.0005004299 0.0004323426 0.000344439
0.00045052936 0.0004034741 0.00034083257 0.00033519402 0.0004420256 0.00030223923 0.000550505 0.00070497795
0.00059392 0.00044291772 0.0007229052 0.00069773366 0.00057659467 0.0009157984 0.00074062205 0.00047990188
0.00055890135 0.000428496 0.00041553844 0.00040434505 0.00036689924 0.00029900647 0.0005198862 0.00056994794
0.00032939203 0.00039420644 0.0003571917 0.0005079682 0.00058336306 0.00053475297 0.00066353526 0.0006044521
0.000517447 0.0003478473 0.00039638343 0.0003956114 0.0003921151 0.00045171994 0.00041257893 0.0002999987
0.0003385613 0.0003900309 0.000690675 0.0007131697 0.0006969619 0.0006599421 0.0007085999 0.00077410735
0.00058678555 0.00066422106 0.0008279855 0.00040383168 0.00041940718 0.0006807548 0.00065716024 0.00046292105
0.0005481574 0.0003540721 0.00039839084 0.0005154464 0.00048641616 0.00043575268 0.0005240714 0.0007277332
0.00053240295 0.00051393855 0.00040010954 0.00056307594 0.00041090391 0.00059466227 0.00051407586 0.00043040267
0.0005409064 0.00054023776 0.00042607955 0.0006028761 0.0004803971 0.00036555156 0.00038233618 0.0005009125
0.0006856727 0.000733918 0.00050654483 0.00063010433 0.0005355676 0.00052168005 0.00051614275 0.00028858735
0.0003536535 0.0004603112 0.0003984738 0.00053738954 0.00028383068 0.00035077555 0.0004325673 0.00042074188
0.00086871645 0.0005971654 0.0006785219 0.00045767237 0.0007259928 0.0005580738 0.000569852 0.00056194107
0.0005910638 0.00036713618 0.00043082619 0.0005079722 0.00037804223 0.00053502026 0.00056147785 0.00041926565
0.000567725 0.00040780552 0.00041478392 0.0005104169 0.0006799215 0.00070229213 0.0005331939 0.00053192367
0.00050655287 0.0004063887 0.00042302994 0.0005991813 0.00049381825 0.00043297795 0.0008493847 0.0005354261
0.0005673756 0.00046046765 0.00028215302 0.00032282292 0.0006588986 0.0006050003 0.0007248316 0.0006331755
00000000: e170 113a eba4 093a ec92 063a 01dd 033a
00000010: 9ce6 fd39 52f8 cd39 1f0f 033a a8fa a239
00000020: 704a d239 0d75 fa39 24ae 8439 3957 c539
00000030: 6a9d eb39 096e 8339 2a0d 8539 0a37 1b3a
00000040: 926c 7539 ad02 8539 4b9c 0a3a a31c 233a
00000050: a0ae 333a f5aa 9a39 0692 9b39 98d4 8b39
00000060: fc22 9639 9183 c339 da2e 5639 13e1 8d39
00000070: 45c5 8b39 6fb4 8039 afca ae39 3caa bd39
00000080: 2c39 ec39 bf68 aa39 13ee cb39 613d ac39
00000090: f044 c539 d637 ba39 2502 c839 98b1 c039
000000a0: 4817 eb39 413c ce39 6771 d239 b013 063a
000000b0: 5abd ed39 5e47 b939 711c ae39 3cc3 ae39
000000c0: 070f 9e39 88c4 9b39 19a0 ad39 39a7 e839
000000d0: ce55 9539 da71 b739 6954 cb39 893b cd39
000000e0: d7df 373a aa6b d139 cb70 c139 9747 b839
000000f0: 9b6c 093a d438 af39 836c b539 aa8b b939
00000100: 9fba 073a 29eb d839 8c60 cc39 7367 de39
00000110: c529 cb39 76d6 8b39 469e bc39 3025 6b39
00000120: 75ea 303a 3570 0e3a cf2d bc39 3502 2e3a
00000130: e078 293a 3db1 e339 0455 013a 6979 193a
00000140: 0c7d 103a a03c 8d39 8a3b aa39 9f36 8a39
00000150: 16de 9839 4973 a839 1f2a 9839 0c41 b439
00000160: 37c3 b539 9034 ee39 febd 523a 8b45 2c3a
00000170: 3e52 1a3a 3f41 1d3a 0639 843a db2d 353a
00000180: 3aac 1b3a fce5 113a b876 253a ab73 1d3a
00000190: 152b f539 ccc5 cd39 4de9 243a 9a31 2f3a
000001a0: 37b8 a439 2524 163a 85c1 173a 0f99 c639
000001b0: 7ca8 f539 faea ff39 1ed4 ff39 ac01 cf39
000001c0: e16e 0c3a 6b77 323a e8cd e139 5c24 fa39
000001d0: 5566 013a 482f 033a 0bac e239 d295 b439
000001e0: 0735 ec39 6189 d339 c6b1 b239 fbbc af39
000001f0: acbf e739 dd75 9e39 c44f 103a 45ce 383a
00000200: 4cb1 1b3a 6937 e839 5981 3d3a 1de8 363a
00000210: 9d26 173a 3112 703a 4e26 423a 579b fb39
00000220: 3c83 123a c2a7 e039 a0dc d939 46fe d339
00000230: 625c c039 f8c3 9c39 f948 083a 8f68 153a
00000240: 40b2 ac39 7ead ce39 7545 bb39 2b29 053a
00000250: d5ec 183a aa2e 0c3a 19f1 2d3a 1874 1e3a
00000260: 48a5 073a 465f b639 afd1 cf39 106a cf39
00000270: cc94 cd39 d3d4 ec39 684f d839 2549 9d39
00000280: ee80 b139 107d cc39 6a0e 353a 02f4 3a3a
00000290: 52b4 363a f7ff 2c3a 56c1 393a 77ed 4a3a
000002a0: 83d2 193a 1f1f 2e3a 2b0d 593a 5fb9 d339
000002b0: e1e3 db39 ae74 323a 4745 2c3a 36b4 f239
000002c0: 38b2 0f3a c1a2 b939 1ddf d039 061f 073a
000002d0: ac05 ff39 bc75 e439 d661 093a 59c5 3e3a
000002e0: f590 0b3a d5b9 063a cbc5 d139 639b 133a
000002f0: 976e d739 1ce3 1b3a 0cc3 063a aba7 e139
00000300: 9dcb 0d3a be9e 0d3a 6e63 df39 550a 1e3a
00000310: cfdd fb39 80a7 bf39 4b74 c839 ab4f 033a
00000320: b7be 333a 6764 403a a6c9 043a 962d 253a
00000330: 5565 0c3a 5bc1 083a c14d 073a 8a4d 9739
00000340: 926a b939 ec55 f139 40ea d039 9adf 0c3a
00000350: 1ccf 9439 4ce8 b739 33ca e239 0597 dc39
00000360: 93ba 633a 178b 1c3a d5de 313a bff3 ef39
00000370: 8d50 3e3a b34b 123a 1f62 153a 3a4f 133a
00000380: 9ff1 1a3a 2f7c c039 83e0 e139 7029 053a
00000390: f833 c639 9a40 0c3a 2430 133a e2d0 db39
000003a0: 61d3 143a bbce d539 5b77 d939 80cd 053a
000003b0: c23c 323a 071a 383a 09c6 0b3a cb70 0b3a
000003c0: 30ca 043a 9110 d539 1eca dd39 6012 1d3a
000003d0: 9573 013a 5101 e339 3ea9 5e3a d65b 0c3a
000003e0: efbb 143a ec6a f139 f0ed 9339 8f40 a939
000003f0: f0b9 2c3a e298 1e3a a002 3e3a b0fb 253a

exp_avg f4 [10]
-0.0013589965 -0.00054475217 -0.0029980857 0.0006194952 0.00020175801 0.0014838129 -0.0010561382 0.0024156023
-0.0011809645 0.0035374658
00000000: 5b20 b2ba b3cd 0eba 887b 44bb 9e65 223a
00000010: 018f 5339 807c c23a 1e6e 8aba 154f 1e3b
00000020: 98ca 9aba d4d4 673b

exp_avg_sq f4 [10]
4.7765483e-05 5.781458e-05 5.0185412e-05 5.9141978e-05 2.3470582e-05 7.6783384e-05 6.430041e-05 8.388835e-05
8.26214e-05 6.651394e-05
00000000: cc57 4838 ef7d 7238 2d7e 5238 370f 7838
00000010: b1e2 c437 c406 a138 05d9 8638 37ed af38
00000020: 0745 ad38 667d 8b38

exp_avg f4 [10]
0.010256595 -8.431067e-05 0.0020384178 -0.0099415025 -0.0003506248 0.0008160609 0.0037856675 -0.013418081
-0.0024873423 0.0052256593
00000000: 470b 283c f2cf b0b8 fa96 053b afe1 22bc
00000010: 10d4 b7b9 ecec 553a f618 783b 83d7 5bbc
00000020: ae02 23bb 023c ab3b

exp_avg_sq f4 [10]
0.00046635553 0.00030305664 0.00034316067 0.00031411194 0.0004014217 0.00070999423 0.00034481927 0.0006177315
0.00026188136 0.00037558284
00000000: 2e81 f439 93e3 9e39 3fea b339 64af a439
00000010: e975 d239 e81e 3a3a dcc8 b439 42ef 213a
00000020: 1f4d 8939 e0e9 c439
