SuperGo-master/saved_models/1584891248/6-policy_net.pth.tar (torch_old, 517280 bytes, 203 tensors)

conv.weight f4 [1, 10, 1, 1]
000000 4a 85 8d 3e b8 84 68 3e 34 6b 91 3c 96 c5 97 3e
       0.27640754 0.22706878 0.017751314 0.29642934
000010 bf 25 2a be 1a 6b 01 3e d5 bc c7 bd 5a b4 a2 bd
       -0.16615961 0.12638512 -0.09752814 -0.079445556
000020 09 c4 8a ba 80 b4 3d be
       -0.0010586987 -0.18525887

fc.weight f4 [82, 81]
000000 94 df ac bd 0a 29 ee bd 29 42 c5 3c 7e 08 d2 3c
       -0.08441082 -0.11628921 0.0240794 0.025638815
000010 09 cd 5f bd c9 9e fa bd ec ff 14 be 61 84 de 3d
       -0.054638896 -0.12237317 -0.14550751 0.10865093
000020 40 e8 c2 3d 8e 6c b3 bd 39 c7 97 3d c7 01 a2 39
       0.095169544 -0.087609395 0.074110456 0.00030900372
000030 c4 ce 44 3e 2c de 53 bc 16 83 64 3d ce 67 cf 3d
       0.192195 -0.012931388 0.055789076 0.10127221
000040 fc dd 38 3d fe 71 87 bd 57 19 7f bd 1c 56 40 3d
       0.045133576 -0.06613539 -0.062280025 0.04695712
000050 2c e9 4a 3a 1a c2 c5 bc 1d 12 7c 3d f1 bf 77 bc
       0.0007740434 -0.024140406 0.06154071 -0.015121446
000060 e3 5e 3e bd 7d 08 72 3c 6d 68 03 bd 1c 9a dc 3b
       -0.04647721 0.014772532 -0.03208201 0.0067322385
000070 c5 7b 3a 3d a6 0b 3a bd 00 fa 89 3c 58 d1 1e 3d
       0.045528192 -0.045421265 0.016842842 0.038773865
000080 c5 7b 54 ba b5 36 65 bd 46 15 79 3d f6 e4 eb 3d
       -0.00081056013 -0.055960376 0.060811304 0.1151828
000090 c5 81 a7 bd 28 09 6c 3d da 26 91 3c d5 e1 90 bc
       -0.081790484 0.05762592 0.017718721 -0.01768581
0000a0 5b 96 24 3d 38 83 73 3b 0b 8b 06 3e c2 39 9d bd
       0.040182453 0.003715707 0.13138978 -0.07677032
0000b0 0a 71 1f bd b8 f0 ae 3d 53 23 dd bc c6 37 82 bc
       -0.03892616 0.08542007 -0.026994383 -0.015895735
0000c0 c8 68 b1 3d e6 63 7c bc 70 f2 af bc f1 f8 c4 bd
       0.086625636 -0.015404677 -0.021477908 -0.09617794
0000d0 4d 50 ca 3d 21 2b 68 bd 89 b7 91 bd e8 93 88 3d
       0.098785974 -0.056681756 -0.07115085 0.06668836
0000e0 1d c0 dd bd 37 57 d6 3d 6f e3 da bd 25 52 de 3c
       -0.10827658 0.10465854 -0.10687911 0.027138779
0000f0 b3 f5 da 3d 2f ab e1 3d e6 39 95 3d 75 f1 d5 3b
       0.10691395 0.11018979 0.07286434 0.006529028
000100 3c c7 f1 bd 26 8c 48 3c 99 0f 9e 3d 7c 85 a2 3d
       -0.11805579 0.012240445 0.07717819 0.079356164
000110 aa bd 35 ba db b4 81 3c 40 89 8e 3d 61 92 d8 3d
       -0.0006932864 0.015833309 0.06959772 0.105747946
000120 dc cc 86 3d ab 93 b1 bd 68 3d b8 bc 90 d8 e9 3c
       0.065820426 -0.086707436 -0.022490218 0.028545648
000130 b6 f8 c1 3b 82 d2 b9 3b da 9c c7 bd ce 1e 45 bc
       0.005919541 0.0056708464 -0.09746714 -0.01203127
000140 86 19 f6 bb 8c 32 89 3d c3 86 4b bd 77 c5 54 3d
       -0.007510367 0.06699094 -0.049689066 0.05194613
000150 c9 35 6d 3d 2e bd cc 3c 97 bd 9e 3d cc ee 85 3c
       0.05791262 0.024992552 0.07751005 0.016349219
000160 1b 06 65 3c e3 1e 6c bd d9 a3 69 3c 61 91 6b 3d
       0.013978506 -0.057646643 0.014260256 0.05751169
000170 29 06 34 3d 98 3d ed 3c 51 c9 40 bd 70 ab 49 3c
       0.043951187 0.028960034 -0.04706699 0.01230894
000180 44 9f 6f 3d 55 f5 8d 3d 74 5a b4 bc 33 73 91 3d
       0.058501497 0.06931559 -0.022015788 0.07102051
000190 1f 92 9a bd 71 41 27 bd 8e ca cd bd 3a af cb 3c
       -0.07547402 -0.040833894 -0.100484 0.024863828
0001a0 a5 ad a2 bd 63 b1 bc bd d6 f8 3c 3d 01 63 cb bd
       -0.07943276 -0.09213521 0.046135746 -0.09930993
0001b0 3a 67 05 3d 43 65 66 bc 01 10 86 3d 6a ea fe bc
       0.032569148 -0.014062229 0.06546021 -0.031117637
0001c0 ed 36 0a be a0 34 66 bc 68 8c ac 3c 41 9d 99 3c
       -0.13497515 -0.014050633 0.021063045 0.018751742
0001d0 a0 05 31 bd b8 68 a9 bd 69 17 bc 3b f7 fa 1b 3c
       -0.043218255 -0.08271927 0.0057400954 0.009520284
0001e0 a8 ce 69 bd 82 94 42 3d 97 ce ed bb 82 dd 26 3d
       -0.05708185 0.04750491 -0.0072572934 0.04073859
0001f0 d0 56 51 3b ae cc 9d bd 81 b3 4c bd df cb 3c 3d
       0.0031942613 -0.07705055 -0.049975876 0.046092864
000200 9f 04 76 bc f2 49 96 bd b4 1c 07 3c 69 ab a7 bd
       -0.01501575 -0.07338323 0.008246589 -0.08186991
000210 a3 7d 82 3c fb 9d ed 3c e3 2d 69 bd f7 fb c8 bb
       0.015929049 0.029005995 -0.056928527 -0.006133552
000220 15 86 b6 bd 2d 8e a6 3c 80 cc 1f 3d 7d f7 df bd
       -0.08912293 0.020331467 0.039013386 -0.109358765
000230 87 d6 a9 3c 77 53 c0 bd fd 72 ae 3d 75 d8 b1 3c
       0.020732177 -0.0939092 0.08518026 0.02170966
000240 6e b0 0f 3d 75 ea 98 3c 47 9d 94 ba d8 91 4b 3b
       0.035080366 0.018666485 -0.0011338376 0.0031062271
000250 f8 75 ad 3d 83 77 3e bd f9 d3 a5 3d 15 4d 08 3e
       0.084697664 -0.046500694 0.08097071 0.13310654
000260 f2 0e 15 bd ae 3f 80 bc e9 c0 86 bd 3e ce 69 bd
       -0.036391206 -0.015655365 -0.065797634 -0.057081454
000270 8d 41 e7 3d 0b 3b 61 bc 52 2c 22 bd 87 36 ab 3d
       0.112918 -0.013746987 -0.03959305 0.0836001
000280 aa 98 05 3d df 3b 31 bd f7 eb 77 3b 43 9b 55 bd
       0.032616295 -0.04326999 0.0037829855 -0.052150022
000290 99 1e 2f ba 56 d1 05 bd 44 fb 80 bd 1c 26 d4 bc
       -0.00066802796 -0.03267034 -0.06297925 -0.025897078
0002a0 7e ac 8b 3c 65 58 c9 3d 46 ca 90 bd 62 7a c2 3d
       0.017050024 0.09831313 -0.070698306 0.09495999
0002b0 e7 95 05 3d 91 9e c2 3d 65 99 ac bd ac cf 34 bd
       0.03261366 0.095029004 -0.08427695 -0.044143364
0002c0 9a af e7 3c f0 6d 54 bd 3a 68 a5 bc 4f d9 61 bd
       0.028281976 -0.051862657 -0.0201913 -0.055138882
0002d0 57 a6 a9 bc 91 3f f8 bc a5 db 3c 3d 24 37 9f bd
       -0.0207092 -0.030303748 0.046107907 -0.07774189
0002e0 12 ac 34 3b b8 c4 80 bd a3 5b 15 3d 8e e8 da 3b
       0.0027568382 -0.06287521 0.036464345 0.0066805547
0002f0 0c ac aa 3d 07 c3 67 3c 9e 5f 10 3d 37 ba bf 3c
       0.083335966 0.014145619 0.035247438 0.023404224
000300 87 a4 c7 bd d9 07 ed bd e3 94 2f bc 29 04 b5 bd
       -0.09748178 -0.115737624 -0.01071665 -0.08838684
000310 5a 2a 99 bd 16 cb b1 3d 12 44 a7 bd da fc 16 bd
       -0.07478781 0.08681314 -0.0816728 -0.03686223
000320 c4 69 6e 3c 19 c3 84 3d 37 af 60 3c ea 04 39 bd
       0.014551584 0.064825244 0.0137136495 -0.045170702
000330 79 69 09 bc 13 44 0f 3e 28 47 e5 3b a2 14 11 3d
       -0.008386963 0.13990812 0.006997008 0.035420068
000340 6d c0 8f bd 0c e4 22 3c a6 6a d2 bd de 08 ba bd
       -0.07019124 0.009942066 -0.10274248 -0.090837225
000350 7e f9 21 bc ac 3a 2f bc 43 6f 6b bd 60 92 c0 bd
       -0.009886144 -0.010695141 -0.057479154 -0.09402919
000360 75 c4 89 bc db 27 a0 bc dc db 04 bd 15 fc c7 3d
       -0.01681731 -0.019550255 -0.032436237 0.09764878
000370 de 48 41 3c 81 a6 d2 3c 75 67 73 3d 88 6a 95 ba
       0.011797158 0.02571416 0.059424836 -0.0011399547
000380 34 e3 e8 3d ed 38 20 3d 7e d8 45 3d bc 5d b8 bc
       0.113714606 0.03911679 0.048302166 -0.022505634
000390 48 ef f3 3b 7c be ec 3d ed f8 ab 3d 99 c1 84 bd
       0.007444296 0.115597695 0.08397088 -0.06482238
0003a0 e7 f9 8e 3d 12 91 b1 3d 86 4b 82 3d 24 27 fd 3c
       0.06981259 0.08670248 0.06362061 0.030902453
0003b0 f5 4e 0d 3e a5 6c 00 3d c1 10 2b 3d ec 86 d7 3b
       0.13799651 0.03135361 0.041764025 0.0065773632
0003c0 91 cd fe 3c 8a 94 c6 3a ac c0 bc bd 38 33 01 bc
       0.031103881 0.0015150469 -0.09216437 -0.007885747
0003d0 f6 a4 ac bd 32 00 3a 3d 52 96 99 3d 13 73 16 bd
       -0.08429901 0.045410343 0.074993744 -0.036730837
0003e0 52 b9 66 3d ea 17 bc 3d 9c 5f 68 bd 3a 6b 73 bd
       0.05632908 0.09184249 -0.056731805 -0.05942843
0003f0 94 c7 08 bd 22 1f ce 3d c5 0e 51 ba 06 83 1c be
       -0.033393458 0.10064532 -0.0007974918 -0.15284356

fc.bias f4 [82]
000000 04 91 96 bd 36 66 4b 3c c4 be 97 3d fe e6 b1 3d
       -0.07351878 0.012414506 0.074094325 0.086866364
000010 a9 c0 25 bc e8 06 68 bc 8c b7 56 3d 2a e5 89 3d
       -0.010116735 -0.014161803 0.052421138 0.06733163
000020 1a ba a0 bd 04 3b 35 bd cc 28 b5 bd f3 23 62 bd
       -0.07847996 -0.044245735 -0.08845672 -0.055210065
000030 57 62 a8 bc eb 3c b6 bb e0 c2 ce 3c 04 ed 88 bd
       -0.020554705 -0.005561461 0.025239408 -0.06685832
000040 e5 aa a7 bd bb 54 95 bd 54 fe 10 bd 61 09 38 bd
       -0.081868924 -0.07291552 -0.035398796 -0.04493082
000050 05 1e 8f bd 3d af 22 3d 41 a1 27 3d 48 97 ba bd
       -0.06988148 0.0397179 0.040925268 -0.09110886
000060 5b 8e 63 3d 7f 24 09 3d 95 70 16 3d 53 8c 4e 3c
       0.055555683 0.03348207 0.03672846 0.012606698
000070 73 cd 88 ba af bb e6 b9 f5 b9 95 bc 9b 07 ce bb
       -0.0010437205 -0.00044008854 -0.018277148 -0.0062875277
000080 48 4b ce bd f2 ca 8f bc 62 f5 b5 bd 46 2a b9 bb
       -0.100729525 -0.017552827 -0.08884694 -0.0056507913
000090 00 83 0e 3d 9b 49 ca 3c 52 54 53 bd 9c 2f 13 bd
       0.0347929 0.024693301 -0.051594086 -0.035934076
0000a0 d0 77 fc 3d f4 f2 1e bd 5b 8b bc bd e5 53 af bc
       0.1232754 -0.038805917 -0.092062674 -0.021402309
0000b0 af fa 4a 3c 4b 0a 6f 3c 5f 68 40 bd e8 2e 90 bd
       0.012388869 0.014589856 -0.046974536 -0.07040197
0000c0 81 e5 06 bd 94 13 6b 3d ec ed 47 3d 54 c3 c3 bd
       -0.032933716 0.057391718 0.048810884 -0.0955874
0000d0 bb b5 8b bc 83 66 b7 3c 9a e8 82 bd 55 ba 0f bd
       -0.01705443 0.022387749 -0.063920215 -0.03508981
0000e0 ae 56 0a bd b5 a4 0b bd 4a a6 c8 3d ea c0 4c bb
       -0.03377407 -0.034092624 0.09797342 -0.0031242915
0000f0 31 ce 96 3b 9c 16 3a 3b a0 cf ff 3d 0c cc 75 bd
       0.0046022166 0.0028394824 0.12490773 -0.060009047
000100 38 18 cf bd 20 9c 6c 3d 32 fa c2 bc 04 64 5a bb
       -0.10112041 0.05776608 -0.023800943 -0.0033323774
000110 49 a3 7b bd 1b 1b 7c 3d 68 d6 39 3c cf 1f 8d 3d
       -0.061435018 0.061549287 0.011342622 0.06890833
000120 9b 05 e6 3b de f6 d6 3c bd 8d a3 3b f9 e3 d1 3a
       0.007019711 0.026240762 0.0049912618 0.0016013376
000130 4a 10 13 3e 95 92 93 bc 52 43 8b bd 60 02 b5 3d
       0.14361683 -0.018014232 -0.0679995 0.088383436
000140 77 ce a7 bb 61 bc 49 be
       -0.005121048 -0.19700767

exp_avg_sq f4 [10]
000000 61 74 92 39 a8 fc 75 39 2f 11 f0 39 4e 76 8f 39
       0.00027934 0.00023459143 0.0004578917 0.0002736323
000010 1a b7 ed 39 cc 81 51 3a f9 1e 1c 3a e4 32 85 39
       0.00045340584 0.00079920585 0.0005955543 0.00025405653
000020 0c 11 a5 39 ef 07 98 3a
       0.00031483953 0.0011599044

exp_avg f4 [10]
000000 38 96 a8 bb 62 95 cf ba 67 97 89 3a ce c2 25 ba
       -0.0051448606 -0.0015837366 0.0010497392 -0.00063232786
000010 04 09 e8 bb a1 a7 f3 3a f1 e4 b0 bb 60 8a 20 3a
       -0.007081153 0.0018589386 -0.0053983857 0.0006124135
000020 47 c1 38 3b 37 d9 01 3c
       0.0028191374 0.007925323

exp_avg_sq f4 [82, 81]
000000 a3 75 20 36 35 a8 42 37 5a 20 10 37 d8 f6 b7 37
       2.3910331e-06 1.1602465e-05 8.590601e-06 2.1930246e-05
000010 ec a2 d3 36 25 52 8f 37 66 d9 04 37 d4 45 2f 37
       6.3072566e-06 1.708518e-05 7.91843e-06 1.0447071e-05
000020 de 86 98 37 52 e9 3b 37 dd 4c 88 37 16 e9 aa 37
       1.8182614e-05 1.1200393e-05 1.6248256e-05 2.0374118e-05
000030 66 6f 79 37 54 3d 51 37 1e 30 15 37 38 96 95 37
       1.48674935e-05 1.247165e-05 8.892295e-06 1.7832135e-05
000040 f6 c9 07 37 7e f7 4d 37 87 ae 83 37 09 99 d6 37
       8.09365e-06 1.2276576e-05 1.5697688e-05 2.558205e-05
000050 9f b5 fe 37 63 84 bf 37 c7 b1 a1 37 fe ce b0 37
       3.0363733e-05 2.2830622e-05 1.927548e-05 2.1077223e-05
000060 1b a6 4d 37 0e 5e 9a 37 8e cf 77 37 a0 aa 83 37
       1.2257627e-05 1.8402028e-05 1.4770672e-05 1.569587e-05
000070 80 e5 a4 37 78 80 28 38 77 f4 f6 37 55 96 b5 37
       1.9657193e-05 4.0173967e-05 2.9439323e-05 2.1646885e-05
000080 5f 0d a7 37 d0 b9 c2 37 b1 85 7b 37 2c a0 34 37
       1.9914178e-05 2.3213128e-05 1.4991893e-05 1.0766129e-05
000090 3d 16 75 37 04 fa fb 37 e2 54 81 38 aa f3 01 38
       1.4608316e-05 3.0037954e-05 6.16701e-05 3.0982927e-05
0000a0 51 8c c7 37 03 15 b6 37 7f 84 53 37 37 9f 24 37
       2.3787989e-05 2.1705875e-05 1.2607429e-05 9.812232e-06
0000b0 37 5a 40 37 02 e3 48 37 e5 cc 07 38 d7 32 64 38
       1.1465097e-05 1.1973783e-05 3.237733e-05 5.4406784e-05
0000c0 8f e7 fa 37 4c 24 9d 37 5c d4 6d 37 5f cb 95 37
       2.991015e-05 1.873276e-05 1.4175745e-05 1.7856886e-05
0000d0 d7 1a 04 37 78 82 41 37 d6 22 4f 37 e4 13 ad 37
       7.874062e-06 1.1534074e-05 1.2346272e-05 2.063247e-05
0000e0 ab 1c 3e 38 95 3b ec 37 7a 0a 7e 37 6a 63 82 37
       4.532623e-05 2.8161137e-05 1.5142019e-05 1.5543501e-05
0000f0 1a 01 18 37 a0 fa 10 37 4e 30 49 37 68 e0 89 37
       9.0601625e-06 8.641422e-06 1.199178e-05 1.643617e-05
000100 b2 94 16 38 6a 8b 10 39 81 5e 82 38 9e f6 c7 38
       3.590127e-05 0.00013784846 6.216486e-05 9.5349955e-05
000110 cc 4f 9d 38 58 45 35 38 8a bd 88 37 1d a5 8d 37
       7.501207e-05 4.3218344e-05 1.6300724e-05 1.6885397e-05
000120 8f a0 5e 36 b3 28 b9 36 46 80 a4 37 78 81 6c 37
       3.3174035e-06 5.5181677e-06 1.9610055e-05 1.40968405e-05
000130 1c 1f 17 37 21 85 0e 37 d7 fb 6a 37 af 34 68 36
       9.007545e-06 8.494856e-06 1.4006123e-05 3.460136e-06
000140 b6 ee 0d 37 df b3 10 36 b9 37 f0 36 4d 26 39 37
       8.459834e-06 2.156237e-06 7.1590443e-06 1.1035777e-05
000150 ad d7 6e 37 09 fa 38 37 3c eb 9a 37 7d 9b 84 37
       1.4236121e-05 1.10254705e-05 1.846777e-05 1.5808031e-05
000160 01 92 83 37 b7 3b 61 37 11 48 5e 37 e4 77 de 37
       1.5684405e-05 1.34249485e-05 1.324901e-05 2.652029e-05
000170 8f 60 e8 37 d1 30 6f 37 f7 36 7a 37 de 3f 40 37
       2.7701519e-05 1.4256876e-05 1.4913959e-05 1.1458962e-05
000180 ea 94 8b 37 68 52 46 37 94 7a 4d 37 08 2a cb 37
       1.6639435e-05 1.1820906e-05 1.2247492e-05 2.4219058e-05
000190 e0 37 14 38 9e 3a 51 38 24 45 b4 37 ce a3 93 37
       3.5337987e-05 4.9884075e-05 2.1489868e-05 1.7600043e-05
0001a0 39 16 b6 37 b2 58 68 37 ab 37 8f 37 38 25 91 37
       2.1706439e-05 1.3848929e-05 1.707285e-05 1.7302678e-05
0001b0 9e 9d a3 37 ec e0 d5 37 a1 0b 91 38 9a d8 94 37
       1.950451e-05 2.5496316e-05 6.916305e-05 1.7743838e-05
0001c0 1c 91 6f 37 e4 1e a6 37 74 6b 4c 37 1b 81 54 37
       1.4279296e-05 1.9803127e-05 1.2184366e-05 1.2666244e-05
0001d0 bf 0b 51 37 a5 83 8c 37 60 7b 05 38 d5 a4 a0 38
       1.2460106e-05 1.6750602e-05 3.1824573e-05 7.660097e-05
0001e0 a1 e1 ab 37 a9 fe a3 37 86 22 95 37 d4 ee 41 37
       2.0489855e-05 1.95497e-05 1.777826e-05 1.1559303e-05
0001f0 50 8e 08 37 fc 70 42 37 f9 39 49 37 50 cf ef 37
       8.139366e-06 1.1589607e-05 1.1994031e-05 2.8587558e-05
000200 55 f9 4a 38 2f 8b 9b 37 93 56 79 37 c2 d5 44 37
       4.839276e-05 1.8542252e-05 1.4861714e-05 1.173228e-05
000210 7a 7b 5d 37 38 25 cf 36 37 db 51 37 c9 7c 49 37
       1.3201376e-05 6.1734136e-06 1.2508411e-05 1.2009587e-05
000220 44 22 c4 37 69 1a 33 38 69 1a c8 37 95 a2 5e 37
       2.3380977e-05 4.2701522e-05 2.3854156e-05 1.3270085e-05
000230 ef fa 8f 37 09 d8 3c 37 85 4d 03 37 d4 a3 87 37
       1.7163778e-05 1.1255973e-05 7.826257e-06 1.6169543e-05
000240 1f 6e 4a 37 c6 ed e3 37 7f 0b 4d 38 0b 61 3f 38
       1.2065778e-05 2.717123e-05 4.8886515e-05 4.5628327e-05
000250 ee 11 1c 38 eb 50 10 38 09 d2 cf 37 62 1c 5e 37
       3.7209997e-05 3.4407636e-05 2.4774128e-05 1.32388395e-05
000260 3a 6b 75 37 5a 8e 69 36 42 6e e3 36 66 1b ce 36
       1.4628104e-05 3.4802565e-06 6.777963e-06 6.142468e-06
000270 24 b0 16 37 5d 62 00 37 95 10 bd 36 dd c0 b5 36
       8.981708e-06 7.6522965e-06 5.6345693e-06 5.4166726e-06
000280 b6 0d 59 36 64 eb 74 36 67 71 0a 36 1b 53 fe 36
       3.23435e-06 3.6495849e-06 2.0629611e-06 7.5794646e-06
000290 77 aa 0f 37 ec 40 43 37 14 90 23 37 9e b5 a1 37
       8.563154e-06 1.16380215e-05 9.749103e-06 1.9277268e-05
0002a0 5a 17 67 37 9b 08 41 37 68 02 13 38 c1 0f ed 37
       1.377411e-05 1.15057e-05 3.5049772e-05 2.8259938e-05
0002b0 2e ea 2a 38 4b 02 c1 37 15 d4 54 37 93 3d 88 37
       4.0749255e-05 2.300846e-05 1.2685564e-05 1.6241136e-05
0002c0 7d b4 4e 37 0e e9 7a 37 e6 2b 2a 37 a1 ae 14 38
       1.232058e-05 1.49554235e-05 1.01430105e-05 3.5448586e-05
0002d0 2d f0 12 38 a3 30 25 38 2f 47 77 38 f6 d4 b5 37
       3.5032794e-05 3.9384362e-05 5.8955684e-05 2.1676049e-05
0002e0 9e 12 a2 37 79 2c dc 37 f0 14 4b 37 93 33 5e 37
       1.9320574e-05 2.6246753e-05 1.2104618e-05 1.3244239e-05
0002f0 1c 6f 45 38 ed b9 a4 37 24 16 f6 37 d9 9b 8c 38
       4.707194e-05 1.9636902e-05 2.9335795e-05 6.704749e-05
000300 72 c5 b9 37 2e a8 a2 37 be 9d ad 37 4b 2e 48 37
       2.2145661e-05 1.939022e-05 2.0696662e-05 1.1931707e-05
000310 f0 86 29 37 18 e9 10 38 3d 29 a7 37 07 e3 09 38
       1.0104603e-05 3.454936e-05 1.9927154e-05 3.287478e-05
000320 6c c8 aa 38 5b a3 02 38 42 58 af 37 ab 5e 5e 37
       8.143563e-05 3.1146552e-05 2.0902724e-05 1.3254273e-05
000330 f5 e1 2e 37 ee fe 2f 37 19 16 1d 38 74 18 3c 37
       1.0423818e-05 1.0490168e-05 3.7452297e-05 1.1211367e-05
000340 ce 80 90 37 7e 34 78 38 7a a1 1e 38 72 70 62 37
       1.7226117e-05 5.9176695e-05 3.7820522e-05 1.349683e-05
000350 72 f1 4c 37 56 1d 98 37 45 ec a1 36 e2 24 37 38
       1.2215563e-05 1.8133473e-05 4.8256793e-06 4.366495e-05
000360 08 0b 23 37 14 e7 62 37 8b 06 41 38 04 b8 ef 37
       9.7181255e-06 1.3524452e-05 4.602088e-05 2.857671e-05
000370 25 42 a1 37 00 be 8e 37 7c 2d 14 37 f5 6a bf 36
       1.9223497e-05 1.7016195e-05 8.832078e-06 5.704695e-06
000380 ef e8 3e 38 fd e5 30 37 52 87 b7 37 84 7c 7c 38
       4.5516466e-05 1.0543966e-05 2.1878313e-05 6.0197446e-05
000390 24 ae 57 38 dd fc 15 38 48 30 fd 37 a2 b4 ad 37
       5.1422176e-05 3.5759866e-05 3.0182433e-05 2.070732e-05
0003a0 db 63 59 37 05 de 42 38 f8 b4 12 36 ea 47 5a 36
       1.2957457e-05 4.6459976e-05 2.1861033e-06 3.252639e-06
0003b0 e2 b1 1c 37 2e 91 f4 36 62 b7 10 37 45 e6 8d 36
       9.339741e-06 7.288668e-06 8.625766e-06 4.2289344e-06
0003c0 72 59 b8 36 69 8a 28 36 7d 0f f3 36 a3 82 fb 35
       5.49404e-06 2.5114516e-06 7.2437674e-06 1.8738978e-06
0003d0 9d ee f4 36 3d 40 1a 37 e3 90 78 37 bf 81 2e 37
       7.299545e-06 9.194072e-06 1.4815686e-05 1.0401417e-05
0003e0 72 b9 f3 37 37 96 92 37 7c cf 92 37 77 ce 2d 39
       2.9054212e-05 1.7474506e-05 1.7501174e-05 0.0001657548
0003f0 4f 09 1e 37 fc 87 71 37 c5 7d cb 37 fc cd 5c 37
       9.419701e-06 1.4396381e-05 2.4258052e-05 1.3160981e-05

exp_avg f4 [82, 81]
000000 f2 7f 7f 39 dc 02 54 39 4f 63 cc b9 af 82 44 b9
       0.00024366358 0.0002021896 -0.00038983903 -0.000187407
000010 04 68 09 b9 ef 5d 23 3a 44 f1 8d 3a 01 75 9a 39
       -0.00013104087 0.0006231954 0.0010829349 0.00029460344
000020 ea 3d 1c 39 20 8a 20 36 5b 72 ce 38 1b 6a 83 b8
       0.00014900384 2.3922257e-06 9.844146e-05 -6.2663305e-05
000030 e1 0f b1 b9 fb af 99 39 20 8c e2 39 32 ed 88 39
       -0.00033771902 0.0002931355 0.0004321048 0.00026116666
000040 b3 ba 01 3a ff 86 42 38 59 3c a1 b7 34 bd f4 b6
       0.000494878 4.637893e-05 -1.9220797e-05 -7.293793e-06
000050 62 f1 04 ba ec 76 73 39 d9 ec 8d 38 6e ea 4b 3a
       -0.0005071369 0.00023218588 6.76752e-05 0.0007778768
000060 91 38 45 39 8c 10 e5 39 6d 4b b1 39 80 c8 ed 38
       0.00018808457 0.00043690612 0.00033816267 0.00011338387
000070 57 48 0d 3a cf 51 a1 3a 40 e7 24 3a 99 2d af 39
       0.00053895026 0.0012307706 0.00062905625 0.00033412574
000080 66 19 88 3a 0b e9 5c 3a 0d 56 33 3a 36 c9 17 39
       0.0010383546 0.000842706 0.00068411307 0.00014475439
000090 fb 9b 70 38 fa 7e 19 3a 9e 20 10 3b bf eb ff 3a
       5.7365727e-05 0.0005855408 0.0021992098 0.0019525214
0000a0 29 90 6c 3a 88 cb 50 3a 5f fd 9f b9 83 55 3f 3a
       0.0009024167 0.0007964899 -0.0003051562 0.0007298814
0000b0 e5 80 f5 38 80 06 56 39 7b 40 18 3a 2a 3d 93 3a
       0.00011706519 0.00020411052 0.0005807948 0.0011233438
0000c0 b5 5c 6e 3a 9c bf b2 3a 5f 7c dc 39 5a bd c9 39
       0.0009092794 0.0013637426 0.00042054334 0.00038478785
0000d0 a4 8e a7 39 db 54 b5 38 d3 e5 32 39 e7 a5 f7 39
       0.00031958998 8.646558e-05 0.00017061019 0.00047235118
0000e0 52 10 35 39 3f fe ca b9 f2 1a 61 3a 50 d9 5d 3a
       0.00017267585 -0.0003871787 0.0008587084 0.0008462863
0000f0 ea 5b b5 39 5b 2d 22 b9 a4 26 eb 38 3f f7 5d 38
       0.00034591492 -0.0001546642 0.000112128706 5.2920772e-05
000100 71 89 02 3a 81 ed bb 39 75 f5 61 b9 49 f7 7c b9
       0.0004979587 0.00035844374 -0.00021549112 -0.00024124714
000110 02 e2 68 b9 38 cc c4 39 ec ef e1 39 49 38 aa b7
       -0.00022209439 0.00037536188 0.000430941 -2.0291789e-05
000120 2c 05 65 38 c8 e4 4c 39 33 64 33 39 f8 5f 12 b9
       5.460267e-05 0.00019540184 0.00017108097 -0.00013959396
000130 eb d2 b1 b9 11 77 5a b9 68 a6 bb 39 33 cc 85 b9
       -0.00033917217 -0.00020834456 0.00035791402 -0.00025519877
000140 52 21 0a 38 86 f2 06 39 89 cd d1 b8 f4 ad e2 ba
       3.2932796e-05 0.00012869583 -0.000100041805 -0.0017294274
000150 64 d6 88 ba c1 9e dc ba 8f 7f a3 ba 71 6a 44 ba
       -0.001043987 -0.001683198 -0.0012473929 -0.00074926676
000160 3b 19 d3 ba 58 4f 44 b9 e5 40 be 37 82 c1 37 b8
       -0.0016105542 -0.00018721574 2.2679984e-05 -4.3810818e-05
000170 3f 36 1a bb d2 47 9b 38 7d d8 e8 b9 c8 d8 33 ba
       -0.0023530868 7.4043535e-05 -0.00044411785 -0.0006860611
000180 13 0f 1b bb 26 99 a6 ba 6d 8e 03 b9 dd 4b 83 36
       -0.0023660108 -0.0012710437 -0.00012546191 3.912936e-06
000190 68 5a dc b8 00 90 67 bb 74 12 03 38 d7 76 ce b8
       -0.00010507257 -0.0035333633 3.125002e-05 -9.844981e-05
0001a0 e2 fc 02 3a 32 00 bd b9 ff 0a 35 ba 16 63 64 b9
       0.0004996789 -0.00036049035 -0.00069062406 -0.00021780687
0001b0 ea e6 f7 38 a9 8a c1 b9 34 eb a6 bb a8 90 8c b7
       0.00011820889 -0.00036915138 -0.0050939564 -1.6756661e-05
0001c0 13 dc 83 39 7e 45 67 b9 ac 95 6b b9 34 96 45 ba
       0.00025150235 -0.00022055765 -0.00022467104 -0.00075373356
0001d0 ff 4c a2 38 62 bf 91 38 18 6d ed b9 12 cf a7 bb
       7.7391036e-05 6.9497866e-05 -0.00045285444 -0.0051211203
0001e0 11 cd 3b ba 4b 07 1c 39 eb 6a 36 38 70 fa 8f b9
       -0.0007164041 0.00014880036 4.3491757e-05 -0.00027461676
0001f0 76 0b 50 39 f8 bb 03 ba 21 76 27 36 be 3c 62 b9
       0.00019840695 -0.0005025263 2.49537e-06 -0.00021575668
000200 be 0a 8a bb 8e 7b c8 39 c2 80 31 3a 0c 6d 72 39
       -0.0042127063 0.00038239028 0.00067712006 0.00023119542
000210 8f 43 ba 39 a5 b3 a6 b9 44 19 3c 38 e3 e8 77 39
       0.0003552702 -0.00031795833 4.4846223e-05 0.00023642513
000220 30 95 03 39 24 09 48 bb c4 71 da 39 e4 ad 8e b9
       0.0001254871 -0.0030523026 0.00041664962 -0.0002721391
000230 8c fb 9c b9 7f 4d 0b 39 e3 d9 07 b9 f5 d5 92 37
       -0.00029942056 0.00013284943 -0.00012955772 1.7504188e-05
000240 84 67 cb 38 fb b9 02 3a 6e 27 1b bb 05 6a fe 39
       9.6990756e-05 0.00049868197 -0.0023674625 0.00048525646
000250 2d 81 0e 37 81 71 c3 b8 91 d5 c4 b5 16 a7 9c b9
       8.493936e-06 -9.319466e-05 -1.4665294e-06 -0.00029879127
000260 7b a4 5d 38 f2 0c 51 38 d0 36 0e 39 3b 33 16 b8
       5.284369e-05 4.984154e-05 0.00013562595 -3.58105e-05
000270 e1 a2 a0 39 c7 32 22 39 54 18 02 39 b6 ed 98 39
       0.00030638932 0.0001546844 0.00012406829 0.00029168808
000280 ae 42 89 39 9e c2 61 b9 df 46 39 b7 d9 f6 af 38
       0.00026180357 -0.00021530173 -1.104336e-05 8.390629e-05
000290 0d 3f 3f 3a 2e 03 1b b9 4d cc 83 ba 63 79 c5 ba
       0.0007295467 -0.00014783136 -0.0010055393 -0.0015066083
0002a0 fd 03 eb ba 6c 99 c2 ba 4e 11 22 b9 9f 31 07 39
       -0.0017930266 -0.0014846749 -0.0001545597 0.00012893089
0002b0 4a 38 49 38 2a b2 a4 36 19 33 10 39 f4 6b 93 ba
       4.7974558e-05 4.908322e-06 0.00013751946 -0.0011247382
0002c0 d6 00 6a ba 7b b8 11 bb 46 a0 d5 ba 4a fc e6 b7
       -0.0008926516 -0.0022235203 -0.0016298376 -2.7535618e-05
0002d0 63 1e 8b 39 f3 9c 20 39 65 de ff 39 86 87 a5 b9
       0.00026534786 0.00015317257 0.00048803087 -0.00031572225
0002e0 d1 33 09 3a 6e 2f 28 ba c6 07 af b9 1b 92 05 ba
       0.00052338565 -0.0006415759 -0.00033384393 -0.0005095319
0002f0 1b f2 d8 39 ef 8c 8a 39 63 f3 ad ba e3 2d 08 bb
       0.00041379113 0.00026426415 -0.0013271387 -0.0020779304
000300 3a 4d 0c ba d0 05 18 ba 5e dd b9 ba 7c e3 65 ba
       -0.0005352084 -0.0005799206 -0.0014180352 -0.00087695546
000310 32 fd 46 b8 22 e5 01 3a ed c2 a6 39 05 9f ae ba
       -4.7442685e-05 0.0004955103 0.00031807218 -0.0013322538
000320 33 71 3f bb b3 a3 44 ba 92 fe bf 38 de 1b 9e ba
       -0.002921176 -0.00075012 9.155007e-05 -0.0012062748
000330 f9 bb a1 39 8b 58 73 ba 0e 9f af 39 74 8f ac 39
       0.00030848364 -0.0009282908 0.00033497106 0.00032913277
000340 20 a0 9c b9 42 2a 22 3a 71 24 35 ba 3c dc 04 b9
       -0.0002987394 0.00061861065 -0.0006910032 -0.00012670545
000350 2e ce 05 b8 1b a1 ad 38 a7 73 e7 b7 b8 40 17 38
       -3.190169e-05 8.279291e-05 -2.75912e-05 3.606148e-05
000360 c0 77 87 39 48 85 da b9 2c fe 9c 3a cf 07 65 39
       0.00025838427 -0.00041679502 0.0011977605 0.00021842051
000370 03 44 0c ba 94 78 37 ba 08 d0 ce b8 ec e7 5b b8
       -0.00053507107 -0.00069988635 -9.861594e-05 -5.2429663e-05
000380 8d 86 d6 b8 de 09 03 39 41 51 ba 39 f3 f9 ab 3a
       -0.00010229377 0.0001249681 0.00035537223 0.0013120755
000390 cb 3f 8f 3a b1 4a c3 39 ff e4 52 3a a8 da 0f b9
       0.0010929046 0.00037248948 0.00080449873 -0.00013718999
0003a0 26 f4 e8 b8 15 82 a2 38 29 ed 0f 39 22 04 d7 38
       -0.00011108098 7.7489916e-05 0.00013725892 0.00010252769
0003b0 ef b3 6f 3a 87 25 86 3a b8 06 26 3a 84 34 15 3a
       0.00091439387 0.0010234573 0.00063333986 0.00056917244
0003c0 66 77 29 3a 53 ee db 39 f7 e5 23 3a 5c 49 92 39
       0.000646463 0.000419485 0.0006252224 0.00027901947
0003d0 de 39 19 ba 20 bf 06 ba c5 7b 1e 39 f8 38 14 ba
       -0.00058451097 -0.0005140174 0.00015114162 -0.0005654241
0003e0 2f 6c c5 b9 47 8a 0e 39 a9 2e 09 ba a9 11 32 39
       -0.0003765537 0.00013593688 -0.0005233088 0.00016981982
0003f0 e2 2a 6f 38 93 05 a5 38 ad 3b 7f ba 19 c0 5d 3a
       5.7021978e-05 7.8688514e-05 -0.00097363704 0.0008459106

exp_avg_sq f4 [10]
000000 29 3e 44 39 d3 17 ac 38 03 11 1d 39 df 80 d6 38
       0.00018715173 8.206037e-05 0.00014979024 0.00010228319
000010 63 fc db 38 81 c2 10 39 a7 2a 08 39 df 04 16 39
       0.000104897445 0.00013805369 0.0001298586 0.0001430693
000020 43 7e d4 38 6e 0d f7 38
       0.00010132466 0.00011780379

exp_avg f4 [10]
000000 e5 47 a9 39 fd 43 b5 ba 92 15 f1 3a fd 66 3d 3b
       0.00032287757 -0.0013829466 0.0018393269 0.0028900497
000010 7d 61 e5 39 41 5b a2 bb 09 fb 1d ba b8 b3 f5 3a
       0.00043750918 -0.004954726 -0.0006026482 0.0018745577
000020 12 63 a0 ba d4 4a 18 bb
       -0.0012236557 -0.002323796

exp_avg_sq f4 [10]
000000 be 92 4d 39 73 91 8c 39 a9 55 3e 39 fd 28 90 39
       0.00019604989 0.0002681125 0.00018151723 0.0002749636
000010 bb 7e 7d 39 8c e1 45 39 a0 62 b3 39 42 6c 9d 39
       0.00024175171 0.00018871407 0.00034215022 0.00030026032
000020 93 5d 4a 39 79 7b 3e 39
       0.0001929908 0.00018165809

exp_avg f4 [10]
000000 cb bc 0d 3b 0b 32 f5 3a d6 a2 e4 3b da 1b 96 3b
       0.0021627422 0.001870693 0.0069774194 0.004580957
000010 96 bc 4b 3b 6a 10 84 b9 e6 1e 05 bb ed bd d1 ba
       0.0031087748 -0.0002518923 -0.0020312606 -0.0016002037
000020 8e 2b 2d 3b e9 2a cc ba
       0.0026423666 -0.0015576753

exp_avg_sq f4 [10, 10, 3, 3]
000000 9d 54 d5 39 ed ac e0 39 fb 75 c1 39 69 79 17 3a
       0.00040689568 0.0004285345 0.0003689973 0.00057782844
000010 ed 54 e6 39 2e 88 e4 39 d6 9e c2 39 6f 18 a9 39
       0.00043932293 0.0004358901 0.00037120905 0.00032252396
000020 5a fb bf 39 6d ac 6b 3a b5 53 59 3a 91 42 5e 3a
       0.0003661763 0.0008990232 0.00082903664 0.0008478547
000030 7d 0d 80 3a 9f 05 60 3a 09 58 58 3a 2a fd 52 3a
       0.0009769645 0.00085457595 0.00082528644 0.00080485886
000040 de c8 86 3a 5a bc 92 3a 15 a2 ce 39 86 fc 24 3a
       0.0010283252 0.0011195049 0.00039412142 0.00062937324
000050 f3 e4 18 3a 89 f1 dd 39 d3 12 f6 39 0a 9c d6 39
       0.0005832456 0.00042332363 0.00046934802 0.0004093352
000060 59 d0 f1 39 8b f8 0c 3a 7a 0a e7 39 df f4 91 3a
       0.00046122333 0.0005377612 0.0004406756 0.0011135599
000070 aa 96 78 3a 48 7f 49 3a c5 a7 38 3a ea f1 25 3a
       0.00094829 0.0007686508 0.00070440426 0.00063302985
000080 ed cd 1a 3a 9b bf c9 39 9b a1 cc 39 c9 75 f9 39
       0.0005905319 0.00038480465 0.00039030318 0.00047580738
000090 55 cd 6b 39 54 09 92 39 a4 a7 98 39 4b f3 fa 39
       0.00022487839 0.0002785424 0.000291166 0.00047864983
0000a0 05 35 0f 3a 92 e5 f6 39 e9 d4 e8 39 14 65 b9 39
       0.00054629176 0.0004709182 0.0004440912 0.0003536126
0000b0 ef 85 04 3a c8 08 31 3a 70 49 e0 39 2c 48 c4 39
       0.0005055358 0.00067533227 0.00042779325 0.00037437805
0000c0 f4 50 e0 39 c2 4c 0a 3a 9c fe 08 3a f5 16 18 3a
       0.00042784924 0.000527572 0.0005225928 0.00058017607
0000d0 55 39 0d 3a 31 a8 c3 39 0c 2b f6 39 60 6c 39 3a
       0.0005387266 0.0003731861 0.0004695285 0.0007073339
0000e0 b1 38 5b 3a 81 8f 0f 3a 6f 93 06 3a 18 14 2b 3a
       0.00083626347 0.0005476401 0.00051336637 0.00065261265
0000f0 c5 9d 6f 3a 5c 9d f4 39 50 4b 2d 3a 5a 27 f4 39
       0.0009140636 0.00046656549 0.00066106487 0.00046568626
000100 4a f9 29 3a 41 fb 19 3a 69 be eb 39 bd 91 28 3a
       0.00064839853 0.00058739266 0.0004496456 0.0006430408
000110 5c 6b 64 3a 73 82 c9 39 b2 74 26 3a d0 4b 6a 3a
       0.00087135076 0.000384349 0.00063497864 0.00089376885
000120 ec 77 bd 39 de 7f 85 39 7d a7 9d 39 b9 c1 dc 39
       0.00036138238 0.00025463005 0.00030070162 0.00042106005
000130 9b 74 c6 39 f2 d1 02 3a 48 cf 8c 39 93 33 8c 39
       0.0003785238 0.0004990391 0.00026857317 0.00026741307
000140 4c 1f 8f 39 0e 56 0e 3a 8e 02 37 3a ff 58 04 3a
       0.00027298403 0.0005429693 0.00069812767 0.0005048662
000150 e5 96 3d 3a 9b 50 39 3a 29 35 25 3a 1b f5 26 3a
       0.0007232263 0.0007069201 0.0006302172 0.0006368921
000160 14 70 16 3a 46 94 10 3a e7 99 4f 3a 21 94 0e 3a
       0.0005738747 0.00055152585 0.00079193566 0.0005438943
000170 72 05 11 3a d6 8e 20 3a ea 66 16 3a 92 bf 43 3a
       0.00055321224 0.00061248 0.0005737381 0.0007467206
000180 2c 0c 2c 3a ef 06 6c 3a 0b 16 f0 39 67 39 d4 39
       0.0006563093 0.0009003719 0.0004579279 0.0004047856
000190 a5 19 28 3a ba 35 39 3a 64 10 69 3a 59 46 0c 3a
       0.0006412513 0.0007065196 0.0008890687 0.0005351059
0001a0 65 f4 5a 3a b4 e5 3d 3a 40 8c 3b 3a c1 0a 52 3a
       0.00083524577 0.0007244006 0.0007154383 0.0008012467
0001b0 86 56 62 3a e7 59 20 3a d3 55 8f 3a 3e 3c 22 3a
       0.0008634109 0.0006116912 0.0010935612 0.00061887864
0001c0 c1 da 55 3a 24 d0 f4 39 81 9b 41 3a c8 dd 24 3a
       0.0008157902 0.00046694383 0.00073855376 0.00062891515
0001d0 96 7d c4 3a 9f b3 26 3a a7 d7 10 3a 03 32 50 3a
       0.0014991041 0.0006359163 0.0005525299 0.00079420226
0001e0 75 43 75 3a 0d a8 26 3a 39 40 5b 3a cc ca 35 3a
       0.000935606 0.0006357439 0.0008363757 0.0006934821
0001f0 cb 09 0f 3a cf c9 ed 39 19 98 26 3a 84 a5 17 3a
       0.00054564764 0.00045354522 0.0006355062 0.00057848566
000200 44 13 89 3a eb fe 4a 3a c5 76 3c 3a e6 65 74 3a
       0.0010458012 0.0007743674 0.0007189329 0.00093230454
000210 57 43 03 3a c6 5e 88 3a 66 da 17 3a 84 29 08 3a
       0.0005007288 0.0010404221 0.0005792737 0.00051941746
000220 b6 c2 50 3a 17 84 22 3a 72 5a 1a 3a 6b e3 4d 3a
       0.00079635845 0.00061994925 0.0005888111 0.00078540173
000230 36 e6 12 3a e2 b4 10 3a 91 4e 30 3a d0 0b fc 39
       0.0005603762 0.00055201177 0.00067255745 0.00048073987
000240 8f 89 0c 3a d0 34 a3 39 40 15 da 3a 7b 62 e4 39
       0.0005361074 0.0003112913 0.0016638413 0.00043560922
000250 1f 18 12 3a 3e d7 3d 3a 1e c2 e2 39 0a 1f 50 3a
       0.00055730523 0.00072418514 0.00043250708 0.00079391955
000260 eb 8c f3 39 f5 22 f1 39 f7 1d 9b 3a 7b fe ff 39
       0.00046453564 0.00045993147 0.0011834492 0.00048826993
000270 f1 00 29 3a 0d 74 60 3a a9 e8 3d 3a c7 81 52 3a
       0.00064469787 0.0008562215 0.0007244447 0.00080302026
000280 0d 44 4d 3a 43 3f 14 3a 38 44 0d 3a de 42 7f 3a
       0.000783027 0.00056551787 0.00053888885 0.0009737442
000290 fb 34 dc 39 f8 eb 21 3a 84 44 49 3a 14 ee 41 3a
       0.00042001143 0.00061768247 0.0007677751 0.0007397842
0002a0 c3 90 2a 3a bd 5d 14 3a 60 58 fc 39 d8 d2 0a 3a
       0.00065065565 0.000565972 0.0004813103 0.00052957004
0002b0 07 3f 54 3a bd ff 1f 3a 3c ac f7 39 e2 71 80 3a
       0.000809655 0.00061034766 0.00047239836 0.0009799565
0002c0 d4 d4 41 3a bd ec 31 3a 9b bc 71 3a c4 e1 73 3a
       0.00073940796 0.0006787291 0.0009221525 0.0009303356
0002d0 3f 49 54 3a cc 9d 82 3a 54 ec 55 3a 11 69 23 3a
       0.0008098073 0.000996524 0.0008160521 0.00062336127
0002e0 f8 ee 87 3a 36 a2 55 3a 65 b0 3d 3a 1b af 23 3a
       0.0010370901 0.00081494765 0.00072360627 0.00062440493
0002f0 6f 28 14 3a 72 30 84 3a 1e c7 99 3a ab 98 88 3a
       0.0005651777 0.0010085239 0.0011732315 0.0010421475
000300 8a f6 66 3a 42 18 8e 3a 47 c5 b2 3a 84 6c ad 3a
       0.0008810541 0.001084097 0.0013639115 0.0013231193
000310 33 84 96 3a 1f 79 84 3a 06 14 6b 3a b3 95 3d 3a
       0.001148349 0.0010106898 0.00089675223 0.0007232085
000320 f4 73 49 3a 4a c2 5e 3a a4 85 a6 3a 26 1c ae 3a
       0.000768482 0.0008497579 0.0012704623 0.0013283535
000330 ae fb 6c 3a 2a 80 69 3a 19 11 76 3a b7 ca 97 3a
       0.0009040189 0.00089073426 0.0009386703 0.00115808
000340 bb 6b ba 3a 7e 25 69 3a 93 20 d9 3a 04 90 63 3a
       0.001422278 0.00088938314 0.0016565494 0.0008680823
000350 97 22 4d 3a 3d b8 83 3a 1f 5b 4d 3a 87 20 5c 3a
       0.00078252837 0.0010049414 0.00078337075 0.0008397181
000360 2d 5d 7c 3a c0 fd 63 3a 49 83 84 3a 60 a1 b9 3a
       0.00096269214 0.00086971745 0.0010109927 0.0014162473
000370 93 84 5f 3a 52 9f 6b 3a 22 94 5f 3a e9 73 5d 3a
       0.000852653 0.0008988279 0.00085288484 0.0008447753
000380 2c 77 a4 3a 7e 06 54 3a 9a 95 81 3a 9c d7 2c 3a
       0.0012547723 0.00080881256 0.0009886504 0.00065934076
000390 10 57 7e 3a 3e 88 3d 3a 4b 4c 8a 3a d4 89 fd 39
       0.00097023044 0.00072300795 0.0010551302 0.0004835861
0003a0 04 56 e7 39 39 75 16 3a 95 c1 43 3a dd f8 4a 3a
       0.0004412384 0.00057395134 0.00074675056 0.0007742772
0003b0 78 15 52 3a 67 87 39 3a 27 d1 3d 3a be 18 88 3a
       0.00080140634 0.00070773665 0.0007240944 0.001038335
0003c0 1f 61 8a 3a 0d d1 ba 3a cc 9a c8 3a 64 d9 1b 3a
       0.0010557509 0.0014252976 0.0015304922 0.00059451745
0003d0 20 aa 6e 3a 22 1d 4c 3a c4 72 55 3a e7 64 5d 3a
       0.000910433 0.00077863235 0.00081424066 0.00084455166
0003e0 10 ed 81 3a 24 0d 0f 3a fa 90 9f 3a cb 4a 92 3a
       0.0009912569 0.0005456975 0.0012173944 0.0011161206
0003f0 77 42 26 3a 6f 22 44 3a 71 56 7c 3a 2c fe 48 3a
       0.00063423015 0.00074819376 0.0009625918 0.0007667269

exp_avg f4 [10, 10, 3, 3]
000000 4b 09 3b 3b fd 18 5b 3a b0 f6 1c 3b d1 62 a5 3b
       0.0028539475 0.00083579106 0.0023950748 0.00504718
000010 40 16 14 bb 2e 07 ad 3a 5b b6 26 3b 3a 7f b8 3a
       -0.002259627 0.0013200992 0.0025438282 0.0014076002
000020 87 6f 1f 3a a2 86 e4 3a f2 26 5a 3b 5c e7 e6 3b
       0.00060819875 0.0017435143 0.0033287373 0.007046623
000030 6d 39 ea ba 4f b5 48 3a 05 25 97 3b 99 f4 ab bb
       -0.0017869897 0.00076564116 0.0046125674 -0.005247664
000040 0d 66 3c bb fa 61 80 3b 2d 1c 82 3b c7 30 a0 3a
       -0.002874735 0.0039179297 0.003970644 0.0012221568
000050 11 41 3c 3a 70 c3 7a 3a a1 c5 fc 3a 97 ef 55 bb
       0.00071813265 0.00095658656 0.0019284972 -0.0032644027
000060 1e 39 86 3b cb ea 24 bb a9 e2 91 3a 91 fc 8c 38
       0.0040961644 -0.0025164362 0.0011130172 6.7227644e-05
000070 b2 e4 54 3b 8a f2 e7 3a c3 b2 d3 ba b7 61 30 bb
       0.0032484946 0.0017696184 -0.0016151298 -0.0026913711
000080 e7 69 03 ba c8 ff db b5 95 eb c6 b9 42 9f 87 bb
       -0.0005013034 -1.6391214e-06 -0.00037941025 -0.004138858
000090 48 a8 19 38 87 da 5c ba 22 b3 64 38 b6 b4 c0 39
       3.6634767e-05 -0.0008424897 5.4526266e-05 0.00036755734
0000a0 9e ad 7d 3a 9d ee 83 ba 7e 02 84 b9 a1 ef c5 ba
       0.0009677055 -0.0010065619 -0.0002517886 -0.0015101322
0000b0 32 ac 46 3a 84 eb d2 b9 19 7c 5e bb 54 b8 c0 38
       0.00075787597 -0.00040229794 -0.003394848 9.189607e-05
0000c0 c7 5b aa b9 d8 ce 7f bb b9 21 19 bb a7 a7 02 3b
       -0.00032493306 -0.00390332 -0.0023366048 0.0019936354
0000d0 ea fa 26 bb b9 81 4f 3b 49 5c 82 3a 21 62 5e 3a
       -0.0025479146 0.0031663014 0.0009945716 0.000848325
0000e0 cd 11 cd 3b 87 51 cb 3a e3 c5 4c ba 66 7e 99 3a
       0.0062582255 0.0015511968 -0.000781147 0.0011710643
0000f0 d2 54 0f bc 65 a1 2c bb 7b ad d9 3b 5b ad 2f b9
       -0.00874825 -0.0026341316 0.006642995 -0.0001675388
000100 51 2c bf bb f6 69 4b 3b 64 39 1f bb ef dc 9a ba
       -0.0058341403 0.00310385 -0.0024295682 -0.0011815111
000110 b9 69 7c 3b 5e 96 2d bb b7 e0 40 bb 7f 39 61 3b
       0.0038515164 -0.002648733 -0.0029430815 0.0034366546
000120 21 18 0b 38 90 24 16 39 4b 49 0a ba b1 01 10 ba
       3.3162654e-05 0.00014318735 -0.0005275204 -0.0005493416
000130 35 d4 01 b9 83 ab c9 ba dd b2 21 38 aa 6d f2 ba
       -0.00012381452 -0.0015386197 3.855197e-05 -0.0018495817
000140 ed 40 68 b9 3f 24 2c ba f7 86 c2 3b b0 81 ba 3b
       -0.00022149431 -0.00065666804 0.005936499 0.0056917295
000150 73 2c a0 3a e1 d1 5d 3b 54 ca 28 3b 1e dc 9c bb
       0.0012220278 0.0033847021 0.0025755363 -0.004786982
000160 3b a6 c7 3b 3c 6b 02 3b 5c ba 84 39 8d ec 52 bb
       0.0060928143 0.0019900342 0.0002531585 -0.0032184452
000170 f3 df e4 3a d8 08 55 3b a4 b4 40 3a 25 7f dc 3a
       0.0017461762 0.0032506492 0.00073511363 0.001682256
000180 7e b2 5c 3b 53 1b cb 3a 6e 40 3a 3a 2b 34 92 b9
       0.0033675726 0.0015495814 0.00071049377 -0.00027886158
000190 b6 37 a4 ba ef 33 76 bb a8 6d a6 b8 69 97 51 39
       -0.001252881 -0.0037567576 -7.935922e-05 0.00019988198
0001a0 43 b0 4c bb e0 85 6a 3a b1 0a 23 ba cf ef c7 39
       -0.003123299 0.00089463405 -0.00062195497 0.0003813491
0001b0 3d 87 6e 3a f9 d1 46 3b 83 d5 27 3a 00 22 8f b9
       0.00090991316 0.0030337556 0.000640236 -0.00027300417
0001c0 64 13 21 b7 18 98 1c 3b ef 43 78 3a 49 32 96 3b
       -9.6008625e-06 0.0023894366 0.0009470572 0.004583631
0001d0 c2 4f 32 b9 6e 1b c6 ba e3 b2 39 3b a0 58 16 bb
       -0.00017005115 -0.0015114376 0.0028335385 -0.0022941008
0001e0 fc 86 11 b9 55 a0 1f b9 19 7d 53 3a c4 97 17 bb
       -0.00013878563 -0.0001522315 0.0008067652 -0.002313123
0001f0 a1 44 a6 b9 8b 20 e3 39 be 33 7c 3a d7 cc 1b 3b
       -0.0003171312 0.0004332106 0.00096207473 0.0023773217
000200 75 94 8e b8 b4 47 7b 3b 88 e0 18 3b 89 f5 88 3b
       -6.79874e-05 0.00383423 0.002332719 0.0041796607
000210 64 d4 e6 3a 18 d4 27 3b 51 85 bb 39 14 a5 6c 3a
       0.0017610905 0.0025608595 0.00035766748 0.0009027284
000220 c3 04 33 3b b6 65 3a 3b 35 d2 ee b8 a0 4d 9e ba
       0.002731607 0.0028441972 -0.000113878785 -0.0012077577
000230 aa ec 11 3b 64 04 f9 3a ef dc 8f b8 e5 92 ea 39
       0.0022266307 0.0018998501 -6.8599235e-05 0.00044741403
000240 ea cc bb 3a aa 56 53 ba 88 c7 71 3a ba ca b8 3a
       0.0014328037 -0.0008061925 0.0009223153 0.0014098503
000250 b7 78 95 3a 6a 47 2d 39 9b 25 61 3b 4e 6b c6 ba
       0.0011403774 0.0001652517 0.003435469 -0.001513818
000260 a1 b9 65 ba 2f 03 63 ba 14 9b 73 3a 83 86 ea 3a
       -0.00087633176 -0.0008659837 0.0009292823 0.0017892871
000270 2a 4b ab 39 59 b0 35 3b 26 00 8a 3b ac 43 32 3b
       0.00032671663 0.002772352 0.0042114435 0.002720098
000280 32 e4 bb 39 67 06 80 3b e1 ba 3b 3b 47 37 ab 3b
       0.00035837438 0.003907013 0.0028645324 0.0052250954
000290 63 10 92 3a 3f 29 cf 3a 2c ab b9 3b b0 96 dd 3a
       0.00111438 0.0015805139 0.005666157 0.001690587
0002a0 be 3f 6a ba ce e5 76 3b a9 a7 9a ba d0 55 9b ba
       -0.000893589 0.0037673595 -0.0011799234 -0.0011851136
0002b0 ab 17 05 3a 76 ee c2 bb 89 b0 2e 3a 42 df 85 ba
       0.0005077074 -0.005948837 0.0006663879 -0.0010213631
0002c0 36 86 ea bb a1 b5 45 39 a6 cf 90 3a c4 88 5d 3a
       -0.0071571125 0.00018855046 0.0011048212 0.00084508606
0002d0 a9 5d d9 39 23 82 1a 3b f2 d3 02 3a 58 2a 2a 3b
       0.00041459248 0.0023576103 0.0004990689 0.002596518
0002e0 e9 a7 77 bb 10 51 7e 3a 50 5d 43 ba 2b 97 c2 3a
       -0.0037789291 0.00097014103 -0.00074525643 0.0014846077
0002f0 84 8d 53 bb 57 82 58 3a 09 8f ed bb 7b c0 9a ba
       -0.0032280395 0.0008259168 -0.007249717 -0.0011806631
000300 dd 78 19 b8 38 58 24 bc 15 55 1f bc 8d a1 29 bc
       -3.6590605e-05 -0.010030799 -0.009724875 -0.010353458
000310 e6 80 1c bc 94 fb b7 bb ab 62 fc 3a b4 38 81 3a
       -0.009552216 -0.0056147072 0.001925548 0.0009858818
000320 fb e6 0d 3c 08 13 73 3a 9f 16 bd ba bf d9 1e bb
       0.008661027 0.000927255 -0.0014426297 -0.0024238674
000330 67 2c 84 bb 43 12 d4 bb db 10 cc bb 88 00 e3 b9
       -0.0040336135 -0.0064719035 -0.0062275953 -0.0004329721
000340 c9 e0 0a bc ac 0c 53 bc 43 25 04 bc f5 96 ef bb
       -0.0084764445 -0.012881439 -0.0080655245 -0.0073116967
000350 3f 49 21 bc e4 8e 2e bc 71 56 2f bc c8 3d 14 bb
       -0.009844123 -0.010654185 -0.010701762 -0.0022619832
000360 b5 d6 29 3b 17 37 fe 3a 2c dc f8 3a 94 77 a1 3b
       0.002591533 0.001939508 0.0018986515 0.004927585
000370 36 14 34 3b d4 4d c3 3b 7d 3f a5 3b c6 c8 ce 3b
       0.0027477867 0.0059602056 0.005042969 0.006310555
000380 63 bb 05 3c 2d 56 7a ba c8 35 ea bb 0b 9b b5 3b
       0.008162352 -0.00095495844 -0.0071475245 0.005542164
000390 8f 8b c7 3a d0 36 a0 3b 50 df 8a ba 02 c1 e1 3a
       0.0015224087 0.0048893467 -0.0010595117 0.0017223659
0003a0 0a e2 a9 3a 56 4f 1d 3b 99 fb 4f bb 0a b6 87 b9
       0.0012961042 0.0024003587 -0.0031735657 -0.00025884836
0003b0 95 f7 b0 3a d1 e5 6a ba 6c 38 bf 39 f4 58 00 bc
       0.001350152 -0.0008960637 0.00036472396 -0.007833708
0003c0 6e e0 e3 bb 74 c9 48 bb d1 dc 85 bc 92 8d aa 3b
       -0.0069542443 -0.0030637654 -0.016340645 0.005204865
0003d0 80 a6 28 3b 86 6d 47 3b a9 94 a3 38 d4 cf cd 3b
       0.0025734007 0.0030430271 7.800136e-05 0.0062808786
0003e0 0c 60 0b bb 4b 44 65 3b c5 98 8e ba cb 14 02 bb
       -0.0021266965 0.0034983333 -0.0010879269 -0.001984882
0003f0 a0 8a cc 3a c1 61 32 3b 97 9e 27 ba 4a e9 e6 3a
       0.0015605278 0.002721891 -0.0006394176 0.0017617133

exp_avg_sq f4 [10]
000000 d5 48 61 38 bf 01 69 38 46 60 18 38 79 d2 38 38
       5.371201e-05 5.5553155e-05 3.6329286e-05 4.4065036e-05
000010 12 aa 00 38 01 15 e4 37 49 56 96 38 99 23 19 38
       3.067597e-05 2.7189499e-05 7.168629e-05 3.6511196e-05
000020 a1 e9 54 38 ab b6 2a 38
       5.0762323e-05 4.070128e-05

exp_avg f4 [10]
000000 15 07 43 3a 76 d3 6d b9 0d 2e 59 ba 79 0c 1f 3a
       0.0007439715 -0.00022680857 -0.0008284755 0.0006067227
000010 17 a2 be b9 d8 f2 4d 3a 6d ad 41 ba 36 81 25 3a
       -0.0003636039 0.0007856316 -0.0007388208 0.00063135044
000020 44 27 a8 3a 28 e1 c3 39
       0.0012829085 0.00037361053

exp_avg_sq f4 [10, 10, 3, 3]
000000 0e 62 a3 38 0c 3b 78 38 c8 d3 01 38 f8 3e a7 38
       7.79071e-05 5.91828e-05 3.0953233e-05 7.9749094e-05
000010 00 e1 f5 38 a5 48 bb 38 3c 0a 27 39 8c 93 c1 38
       0.0001172442 8.930386e-05 0.00015930174 9.23044e-05
000020 0d 6b d7 38 83 8c b3 38 4c 91 0d 39 fa d7 e8 38
       0.00010271939 8.5615575e-05 0.00013500935 0.00011102851
000030 bc 6f bc 38 7a f3 3b 39 a9 c8 b5 38 8d a4 b3 38
       8.985351e-05 0.00017924412 8.6681284e-05 8.566035e-05
000040 47 61 db 38 a0 73 02 39 80 53 a7 38 43 82 c0 38
       0.00010460853 0.0001244084 7.9787336e-05 9.1795366e-05
000050 0c 2f c7 38 0e 29 ff 38 47 0c 13 39 b7 60 1f 39
       9.4978226e-05 0.000121669946 0.00014023586 0.0001519945
000060 5a 04 ca 38 59 f7 e5 38 70 97 c0 38 fe 26 e3 38
       9.632921e-05 0.00010965643 9.183481e-05 0.00010831466
000070 f2 d8 04 39 1d 4d 15 39 41 77 ab 38 c9 ee 04 39
       0.0001266932 0.00014238474 8.176128e-05 0.00012677455
000080 eb f9 20 39 e5 35 9e 38 7c 39 27 39 8f ac 41 39
       0.00015351891 7.544066e-05 0.00015947776 0.00018470197
000090 34 bb 1b 39 a9 ed e4 38 ba b5 28 39 63 b5 0d 39
       0.0001485169 0.00010916155 0.00016089427 0.0001351438
0000a0 ff f6 2a 39 c4 f3 04 39 b6 c5 1e 39 7a f0 47 39
       0.00016304477 0.00012679311 0.00015141707 0.00019067703
0000b0 2f de 80 39 de 61 32 39 9b 6f 1a 39 0b b6 18 39
       0.00024579602 0.00017011861 0.00014728161 0.00014563666
0000c0 1e 1c 31 39 bd 13 41 39 29 9c 0a 39 bd 83 fa 38
       0.0001689051 0.00018413267 0.0001321888 0.00011945467
0000d0 49 c1 19 39 1c 75 11 39 1b e8 1b 39 24 11 06 39
       0.00014663221 0.00013871904 0.00014868418 0.00012785621
0000e0 f7 4d e9 38 6f 59 0b 39 b8 a2 eb 38 4a 9f d8 38
       0.00011124828 0.0001328939 0.00011235982 0.000103293525
0000f0 df ea 88 39 0b b5 05 39 bf 2b 03 39 b9 15 b5 38
       0.00026114934 0.00012751312 0.0001250943 8.634799e-05
000100 8c fb 9c 38 98 25 91 38 01 2d a1 38 c0 de ca 38
       7.485514e-05 6.921141e-05 7.685461e-05 9.673601e-05
000110 a8 a8 4b 38 aa e5 69 38 19 20 39 38 d1 8e 3d 38
       4.8556045e-05 5.576542e-05 4.413733e-05 4.519412e-05
000120 4f df 06 39 2e d4 16 39 55 78 db 38 48 54 de 38
       0.00012862425 0.00014384158 0.00010465147 0.000106014835
000130 0c 35 1e 39 31 b1 f3 38 80 7b 07 39 43 96 1c 39
       0.00015087816 0.000116201474 0.0001292061 0.00014933296
000140 ee 46 d4 38 78 c6 e3 38 5c 33 8c 38 f1 53 24 39
       0.000101221594 0.00010861171 6.685287e-05 0.0001567153
000150 27 24 bb 38 54 d3 9f 38 9a be cb 38 d4 58 f6 38
       8.923589e-05 7.621074e-05 9.7152966e-05 0.000117467396
000160 35 c8 87 38 d4 6b e4 38 c4 6c 1e 38 64 da 3b 38
       6.474593e-05 0.00010891972 3.777143e-05 4.4787666e-05
000170 44 f9 12 38 0d 9b a0 38 94 0b a8 38 90 55 84 38
       3.504126e-05 7.658275e-05 8.013021e-05 6.310188e-05
000180 75 95 9c 38 e9 ac 9b 38 8f 15 ae 38 e4 14 7b 38
       7.466498e-05 7.423183e-05 8.300982e-05 5.986252e-05
000190 a7 28 b4 38 70 52 d3 38 fa 4b b2 38 e3 29 08 39
       8.590641e-05 0.00010076619 8.501853e-05 0.00012985575
0001a0 6f f0 cf 38 f9 96 9c 38 de d1 a6 38 d0 1c b2 38
       9.9153134e-05 7.4667805e-05 7.9545876e-05 8.493068e-05
0001b0 cf 4b e2 38 7e 10 fa 38 03 d4 8c 38 9e 2b 9a 38
       0.0001079064 0.00011924001 6.7152105e-05 7.3514166e-05
0001c0 ae db f5 38 12 df 95 38 a2 b5 a3 38 21 46 89 38
       0.00011723429 7.146424e-05 7.8062774e-05 6.5457316e-05
0001d0 04 c8 a9 38 dd 98 a7 38 79 67 67 38 75 ab d1 38
       8.095804e-05 7.9916535e-05 5.517106e-05 9.997833e-05
0001e0 8e 32 a2 38 4d d5 90 38 e6 4c dc 38 a9 d9 59 38
       7.7341785e-05 6.9061854e-05 0.00010504741 5.1939543e-05
0001f0 99 0a 49 38 1a b8 04 39 75 cf d9 38 48 d7 d8 38
       4.7932004e-05 0.00012657084 0.00010386008 0.00010339782
000200 9a b2 c7 38 80 fc 05 39 89 db 07 39 8e df ff 38
       9.5223266e-05 0.00012777932 0.00012956386 0.00012200988
000210 f7 3b c7 38 07 14 e6 38 c5 7e 09 39 2b c7 ce 38
       9.500229e-05 0.00010970985 0.00013112563 9.8599434e-05
000220 45 ab df 38 27 b9 d3 38 65 92 ae 38 96 3a ce 38
       0.0001066537 0.00010095751 8.324235e-05 9.833758e-05
000230 e0 a8 af 38 ba 2f b3 38 79 96 b2 38 38 eb 95 38
       8.376106e-05 8.544275e-05 8.515729e-05 7.1486866e-05
000240 81 6b 04 39 0a 5b e8 38 10 4a 9b 38 32 b5 11 39
       0.0001262855 0.000110795794 7.404771e-05 0.00013895778
000250 55 27 e7 38 4e b4 d2 38 ba db 24 39 01 42 05 39
       0.000110222645 0.00010047165 0.00015722113 0.00012708457
000260 f4 12 f0 38 e0 49 85 38 aa 90 66 38 60 59 77 38
       0.00011447622 6.3556945e-05 5.4971002e-05 5.8972626e-05
000270 1b b7 b8 38 5c b1 40 38 2b 60 29 38 2a 00 94 38
       8.80791e-05 4.5941546e-05 4.0382303e-05 7.0572205e-05
000280 cb 1f 43 38 45 87 1b 38 77 12 89 38 5c ed 88 38
       4.6521232e-05 3.708086e-05 6.5361084e-05 6.529197e-05
000290 21 60 c6 38 ad 45 9c 38 45 81 ab 38 c8 74 b5 38
       9.459281e-05 7.451638e-05 8.177994e-05 8.652505e-05
0002a0 da ac a0 38 ca bb ab 38 15 50 c7 38 23 76 86 38
       7.661591e-05 8.188894e-05 9.503976e-05 6.4116226e-05
0002b0 44 89 9b 38 87 18 52 38 aa 65 6e 38 22 a3 86 38
       7.416544e-05 5.0090744e-05 5.6838304e-05 6.420004e-05
0002c0 66 fc b4 38 31 a1 b6 38 de 0e 68 38 5f 93 63 38
       8.630082e-05 8.7084605e-05 5.5326956e-05 5.4258267e-05
0002d0 e8 99 8c 38 42 9e 88 38 6a 18 82 38 54 45 f0 38
       6.7043875e-05 6.514463e-05 6.2034305e-05 0.00011457005
0002e0 03 48 3f 39 67 5e 9c 38 88 de cd 38 94 60 fa 38
       0.00018242006 7.4562435e-05 9.8166114e-05 0.00011938918
0002f0 4f a4 cf 38 d1 9e 0c 39 66 72 cb 38 39 09 15 39
       9.901134e-05 0.00013410604 9.701103e-05 0.00014213183
000300 16 9a 08 39 34 2c 3b 39 11 18 ea 38 92 7f 11 39
       0.00013027372 0.00017850177 0.00011162472 0.00013875801
000310 db f2 2c 39 70 c1 dc 38 c6 ec ed 38 ab 65 72 39
       0.00016493669 0.00010526448 0.00011345143 0.00023116793
000320 40 2f d6 38 06 a5 12 39 30 64 e8 38 a9 9e 12 39
       0.00010213116 0.00013985121 0.000110812834 0.0001398275
000330 82 31 e9 38 29 08 d5 38 11 60 d1 38 54 5e 1c 39
       0.00011119527 0.000101581514 9.9837904e-05 0.0001491246
000340 54 7d 16 39 b0 18 35 39 1d 5d 1d 39 f2 c3 6c 39
       0.00014351803 0.00017270702 0.00015007374 0.00022579709
000350 a8 37 69 39 90 48 0d 39 31 15 30 39 a7 c4 56 39
       0.00022241345 0.0001347384 0.00016792562 0.00020481889
000360 f6 2a 46 39 3d b2 62 39 5c a7 5f 39 3d ae 44 39
       0.00018898756 0.00021619438 0.00021329283 0.00018756925
000370 78 fb 37 39 39 46 b3 39 9c 6a 23 39 79 e8 46 39
       0.0001754592 0.0003419386 0.00015584606 0.00018969354
000380 bf 16 6a 39 14 75 38 39 6c 05 3f 39 36 91 73 39
       0.00022324453 0.00017591222 0.00018217199 0.00023228381
000390 4d 88 98 39 ee f9 00 39 90 bb 5a 39 c9 52 3e 39
       0.0002909325 0.00012300137 0.00020859973 0.00018150652
0003a0 43 db c6 38 a8 53 33 39 ab b4 57 39 8d 95 82 39
       9.4822164e-05 0.00017101935 0.00020571302 0.00024906956
0003b0 00 f9 04 39 b7 64 1a 39 61 db 8a 39 f5 56 f9 38
       0.0001268126 0.00014724104 0.0002648486 0.00011889442
0003c0 54 c4 4d 39 66 31 71 39 e9 84 15 39 63 27 04 39
       0.00019623461 0.00023001953 0.0001425926 0.00012603174
0003d0 da 54 d2 38 cb 98 a2 38 64 af 53 39 3a 2d ed 38
       0.00010029385 7.753222e-05 0.00020187866 0.00011309465
0003e0 74 96 bd 38 c1 b7 d8 38 99 22 bc 38 c6 e7 86 38
       9.0402464e-05 0.000103339094 8.970983e-05 6.432789e-05
0003f0 0f 02 bf 38 a9 9d bb 38 ba c5 23 39 35 30 ee 38
       9.107973e-05 8.946221e-05 0.0001561855 0.000113577036
