SuperGo-master/saved_models/1586433206/1-value_net.pth.tar (torch_old, 41592 bytes, 4 tensors)

conv.weight f4 [1, 10, 1, 1]
0.15991345 -0.11473082 -0.10071467 0.037009805 0.28466687 0.06592238 -0.029747486 -0.14771108
-0.20594318 -0.22627038
00000000: 5ac0 233e fef7 eabd 7e43 cebd 9897 173d
00000010: dbbf 913e 5002 873d 00b1 f3bc 9341 17be
00000020: c5e2 52be 6cb3 67be

fc1.weight f4 [256, 36]
-0.13751426 -0.058368087 0.042659417 0.07817738 -0.01764822 -0.02133672 -0.16077155 -0.031075165
0.1633464 -0.0077440143 0.012728587 -0.12114732 -0.13297461 0.029122233 0.016102925 0.025291145
0.113866016 -0.043223307 0.073858425 -0.0024614483 -0.052374266 0.051514044 0.050424084 -0.075129054
-0.08325492 0.03051959 0.11327435 0.03687042 0.16173942 -0.017577246 -0.12370597 -0.16659561
0.0006914586 -0.030299544 -0.114532754 -0.021996439 0.09984894 0.06548245 -0.07865608 -0.025115132
0.16401507 0.13437743 -0.15528572 -0.13211918 0.14602663 0.01229465 0.12630112 0.040858433
0.025747433 0.10579933 0.13612773 -0.16001037 -0.07904321 -0.15432385 0.14771487 0.09503855
0.009114429 -0.09820919 -0.057397485 -0.14538696 0.12945972 -0.13536114 -0.12386807 0.1188155
0.11742999 0.097580895 0.049573317 -0.13877147 -0.006466791 -0.014400601 0.113082275 -0.051804185
0.051869527 -0.16503285 0.04966338 0.055591777 -0.091832936 0.014694467 0.0902202 -0.023333326
0.13179253 0.010625124 0.12046678 0.1129988 0.122325465 -0.09213482 -0.11740234 -0.14908604
0.08114423 0.105669096 0.0050254464 -0.07897606 0.06880216 0.024346963 -0.0626907 0.030471444
0.0041648746 -0.047846675 0.09732224 -0.080289066 0.0036429763 -0.1385509 -0.03411044 -0.054632388
-0.14246128 0.086035326 0.14012463 -0.062368594 0.14035667 -0.065420985 0.040971413 0.09712796
0.028617457 -0.10348775 0.08573146 -0.1326994 -0.15103017 -0.1403458 0.046984315 -0.12945358
-0.095401786 0.11948632 0.041347995 0.046038926 -0.12921563 -0.013875201 0.0723564 0.037678674
0.13890387 -0.08780684 0.07791895 0.10882719 0.06126924 0.10353704 0.12268673 0.12714462
-0.1499641 0.13560723 0.097154334 -0.1585818 0.05490583 -0.06654992 0.108785614 0.06665458
-0.079670474 -0.06552633 -0.008722305 0.04778327 -0.1562646 -0.09556614 -0.025266647 -0.006745264
-0.0010907203 -0.091765404 0.16471277 0.12292524 0.15666886 -0.16054982 -0.013768181 -0.08551794
0.019379139 -0.0051766187 0.09941794 0.0020477027 0.11235468 -0.07771101 0.04711397 -0.11753219
0.105150834 0.025505379 -0.16091415 0.034311727 -0.040452346 0.054484412 0.010545 0.15389939
0.12575962 -0.075617954 0.07302652 -0.06468205 -0.12554368 -0.12225213 -0.124194026 0.14707528
-0.03529507 -0.112197086 -0.06041412 -0.066686414 -0.047779366 0.022242546 -0.029224992 -0.12503266
0.060513437 0.04804437 -0.0066399574 -0.16334069 -0.087447785 0.0040587187 0.08174421 0.15397097
-0.06057986 0.026844025 -0.013815954 0.039930567 -0.11051168 -0.014528349 0.11860724 -0.065255605
-0.05424335 0.09886713 0.16624476 -0.06809374 0.07963681 0.11445169 0.039222285 0.05872917
-0.015507206 0.1499757 0.05098079 0.023835838 0.15919162 -0.054765426 -0.12181612 0.09505625
-0.034936354 -0.078687176 -0.048858486 0.013275906 -0.043879613 0.07268165 0.10828693 -0.12827286
-0.12492734 -0.034217045 0.006414965 0.10691382 -0.032499015 0.16274549 -0.094031714 -0.0044674724
0.13701229 -0.09280276 0.054546535 0.074266 -0.11463591 -0.15455556 -0.020026103 0.16295932
0.1055543 -0.013742849 0.080782235 0.09978153 -0.08095112 -0.0955049 0.13038285 -0.03264086
00000000: 8ad0 0cbe 6013 6fbd a4bb 2e3d 761b a03d
00000010: 0093 90bc 58ca aebc 4ca1 24be 5891 febc
00000020: 4744 273e 80c1 fdbb 908b 503c 161c f8bd
00000030: 7f2a 08be c091 ee3c 48ea 833c 602f cf3c
00000040: 9632 e93d ec0a 31bd 1643 973d 4050 21bb
00000050: 6686 56bd 6400 533d 7c89 4e3d 43dd 99bd
00000060: 8e81 aabd 3804 fa3c 62fc e73d 7005 173d
00000070: 059f 253e 28fe 8fbc 8e59 fdbd 0a98 2abe
00000080: 0043 353a c036 f8bc 2690 eabd e031 b4bc
00000090: 9a7d cc3d aa1b 863d 7016 a1bd 40be cdbc
000000a0: 91f3 273e 3d9a 093e 3803 1fbe 404a 07be
000000b0: 0188 153e 806f 493c 1555 013e 2c5b 273d
000000c0: 48ec d23c 52ad d83d 1165 0b3e c2d9 23be
000000d0: 68e1 a1bd 1207 1ebe 9142 173e 92a3 c23d
000000e0: b054 153c e621 c9bd a019 6bbd 52e0 14be
000000f0: 1791 043e 1c9c 0abe 8bae fdbd 8a55 f33d
00000100: 227f f03d 7ed8 c73d 640d 4b3d 1c1a 0ebe
00000110: 60e7 d3bb 80f0 6bbc ae97 e73d a030 54bd
00000120: 2475 543d 5ffe 28be d46b 4b3d 34b4 633d
00000130: e812 bcbd 10c1 703c 5ec5 b83d 8825 bfbc
00000140: 9ff4 063e 0015 2e3c 4ab7 f63d ea6b e73d
00000150: c685 fa3d 2eb1 bcbd a370 f0bd 03aa 18be
00000160: f22e a63d 0a69 d83d 80ac a43b 33be a1bd
00000170: 26e8 8c3d 4873 c73c fb63 80bd 409f f93c
00000180: 8079 883b e0fa 43bd e250 c73d 986e a4bd
00000190: 00bf 6e3b 4ae0 0dbe 64b7 0bbd 36c6 5fbd
000001a0: 5fe1 11be 4a33 b03d d57c 0f3e 3676 7fbd
000001b0: a9b9 0f3e 70fb 85bd a4d1 273d 06eb c63d
000001c0: 286f ea3c 63f1 d3bd fa93 af3d 5ae2 07be
000001d0: a7a7 1abe cfb6 0fbe a072 403d 7b8f 04be
000001e0: 0362 c3bd 3eb5 f43d 845c 293d 5093 3c3d
000001f0: 1a51 04be d054 63bc 982f 943d f454 1a3d
00000200: d13c 0e3e 13d4 b3bd f893 9f3d cae0 de3d
00000210: 74f5 7a3d 3a0b d43d 2e43 fb3d 3332 023e
00000220: 3090 19be 9fdc 0a3e daf8 c63d 4463 22be
00000230: f0e4 603d 534b 88bd feca de3d 3282 883d
00000240: 462a a3bd ab32 86bd 00e8 0ebc 64b8 433d
00000250: d403 20be 2eb8 c3bd 00fc cebc 6007 ddbb
00000260: 80f6 8eba 80ef bbbd 77aa 283e 3ac0 fb3d
00000270: cd6d 203e 2c67 24be f093 61bc 0824 afbd
00000280: 00c1 9e3c a0a0 a9bb a29b cb3d c032 063b
00000290: 361a e63d f326 9fbd 94fa 403d b8b4 f0bd
000002a0: 5259 d73d a8f0 d03c aec6 24be 748a 0c3d
000002b0: 5cb1 25bd 0c2b 5f3d f0c4 2c3c cd97 1d3e
000002c0: 21c7 003e 96dd 9abd ee8e 953d 0678 84bd
000002d0: 868e 00be 535f fabd 7059 febd e79a 163e
000002e0: 9091 10bd 96c7 e5bd cc74 77bd e392 88bd
000002f0: 4cb4 43bd 0036 b63c 4069 efbc 9008 00be
00000300: f0dc 773d 2cca 443d 0094 d9bb c842 27be
00000310: d317 b3bd 00ff 843b 8269 a73d 91aa 1d3e
00000320: 9622 78bd 00e8 db3c 505c 62bc 3c8e 233d
00000330: f353 e2bd 5008 6ebc 5ae8 f23d bba4 85bd
00000340: 462e 5ebd da7a ca3d 113c 2a3e bb74 8bbd
00000350: a018 a33d a665 ea3d 8ca7 203d 008e 703d
00000360: f011 7ebc 3b93 193e 3cd1 503d 6043 c33c
00000370: 2103 233e b651 60bd bb7a f9bd daac c23d
00000380: 6c19 0fbd be26 a1bd d61f 48bd 3083 593c
00000390: 1cbb 33bd 1eda 943d 8ac5 dd3d f659 03be
000003a0: e8d9 ffbd 2c27 0cbd a034 d23b a2f5 da3d
000003b0: b01d 05bd c1a6 263e b393 c0bd e063 92bb
000003c0: f34c 0c3e 600f bebd 306c 5f3d c618 983d
000003d0: 3bc6 eabd d043 1ebe c80d a4bc cfde 263e
000003e0: da2c d83d b029 61bc 2871 a53d 425a cc3d
000003f0: b3c9 a5bd 1398 c3bd 1583 053e 6cb2 05bd

fc1.bias f4 [256]
-0.15398727 0.013047591 0.03403628 0.02741839 -0.012300029 0.11739157 -0.13014597 0.08392833
0.14947481 0.13376458 -0.019569397 0.035352364 -0.033845976 0.15195777 0.10559915 0.0632972
0.051161036 0.11205594 -0.062472343 -0.0777932 0.024723113 -0.026073337 0.16428412 -0.01111877
-0.025798932 -0.10949638 0.08187276 -0.010205343 0.15756823 0.11907907 -0.04723203 -0.015795887
0.04144989 0.07815288 0.037317693 0.16247804 -0.11822331 -0.10956077 0.13060243 -0.09383204
0.10613103 -0.045277998 0.10213591 -0.13960958 0.08326401 0.15825082 0.08691715 -0.14095025
0.0047849566 -0.07924434 -0.14325827 0.10076894 0.061022326 -0.11215477 0.104057655 0.11861862
0.1196108 0.07600294 0.071707964 0.014929518 0.030856252 0.15733476 0.004682079 0.0977989
0.12949575 -0.12183528 -0.050684392 0.04629183 0.047981188 0.07093464 0.112171814 -0.099635765
-0.14990985 0.084563896 -0.05241108 -0.0023064017 -0.10082843 -0.14065534 -0.12422218 -0.07677611
0.13024972 0.09564532 0.12134002 0.0029708743 -0.122759245 0.064839914 0.016591191 0.15354158
-0.15649639 0.13490374 -0.113860905 -0.04941549 -0.074349105 0.09622319 0.037616238 -0.05371076
-0.034652933 -0.08674022 0.14859827 -0.10009365 -0.12183063 0.0040668845 0.1532978 -0.03564477
-0.0033909827 0.024826467 0.14045061 -0.12651424 -0.0008698702 -0.13654715 -0.06334554 0.095993
-0.1410009 -0.056104325 0.14240988 0.072873354 0.07896839 -0.07173254 0.090262905 0.15973441
-0.059074804 0.09337704 -0.0869745 -0.13215443 0.06633055 -0.10949993 0.032633945 0.013673797
-0.10446972 -0.15806067 -0.15168653 0.11263771 0.15666123 0.084064916 0.0001667738 0.0985098
0.15315606 -0.12441127 -0.06910527 -0.015334055 -0.023862183 0.15046217 0.075387314 -0.03639464
0.021582916 0.045156598 0.06537221 -0.099238634 0.14904423 0.16536118 -0.036888406 0.15169962
-0.047780618 0.022153974 -0.16140532 0.0050676316 -0.10545282 -0.10761273 -0.052466214 0.014274463
-0.033903405 -0.019772291 -0.12495838 0.08954765 0.043383345 0.008711278 -0.15796882 0.0558877
-0.0049767345 -0.1584212 -0.13219409 0.067584634 -0.13508078 -0.10693443 -0.16440132 -0.06294668
0.1651916 -0.0773443 -0.018108666 -0.054620348 0.16046382 0.014411166 0.03019768 -0.084902704
-0.005739823 0.13795598 -0.09134148 -0.11514255 0.09865506 -0.12571755 0.12661631 -0.16337934
-0.071854375 0.043058917 0.09846057 -0.019948825 0.099023595 -0.09845404 -0.024564698 0.14846988
-0.13600618 -0.08900192 0.05734192 0.07133818 -0.13397107 0.049404636 0.09799786 0.12796958
-0.021243498 -0.083370805 0.02821982 -0.0847082 0.020453557 -0.12772283 0.02723986 0.102889046
0.16328652 0.11343177 0.1261399 0.107007965 0.025604263 0.14094163 -0.10653216 0.1361316
0.14457692 0.038639724 -0.017624423 -0.14472568 -0.15011452 -0.014738917 -0.07408957 -0.15226278
0.13557602 -0.09520831 -0.025710627 0.0020490736 0.11491723 -0.13498305 0.1381674 -0.14582905
-0.058333024 0.16007514 -0.12733114 0.021759585 0.05250381 -0.12413256 -0.11954244 0.0034314394
0.0020723492 -0.12984405 -0.07418418 0.08667089 0.03781213 0.037633553 0.12268515 -0.046680592
00000000: d7ae 1dbe 90c5 553c a069 0b3d 889c e03c
00000010: 1086 49bc fe6a f03d fc44 05be 9ee2 ab3d
00000020: ed0f 193e 95f9 083e 0050 a0bc a4cd 103d
00000030: 14a2 0abd d19a 1b3e 5e44 d83d f6a1 813d
00000040: 3c8e 513d 967d e53d 00e3 7fbd 0b52 9fbd
00000050: 2088 ca3c c097 d5bc 193a 283e 802b 36bc
00000060: 4858 d3bc a33f e0bd e8ac a73d 5034 27bc
00000070: 9159 213e badf f33d 6076 41bd 6066 81bc
00000080: 5cc7 293d 9e0e a03d 70da 183d a560 263e
00000090: 101f f2bd 6661 e0bd a5bc 053e 032b c0bd
000000a0: 3a5b d93d 6c75 39bd a22c d13d d0f5 0ebe
000000b0: 5286 aa3d 810c 223e 9e01 b23d 4355 10be
000000c0: 20cb 9c3b db4a a2bd 4cb2 12be f25f ce3d
000000d0: 8cf2 793d 66b1 e5bd 2e1c d53d 52ee f23d
000000e0: 82f6 f43d 6ea7 9b3d a0db 923d f09a 743c
000000f0: 40c6 fc3c 5d1c 213e 206c 993b ca4a c83d
00000100: 899a 043e c684 f9bd 709a 4fbd 809c 3d3d
00000110: ec87 443d 2e46 913d 56ba e53d d60d ccbd
00000120: f881 19be d62f ad3d 00ad 56bd 0027 17bb
00000130: 237f cebd f407 10be 3368 febd cb3c 9dbd
00000140: 2f60 053e b2e1 c33d 1e81 f83d 00b3 423b
00000150: 3369 fbbd caca 843d 40ea 873c 013a 1d3e
00000160: 9740 20be 3524 0a3e e82f e9bd e667 4abd
00000170: 5844 98bd aa10 c53d 7c13 1a3d d0ff 5bbd
00000180: 3cf0 0dbd dba4 b1bd 252a 183e e6fd ccbd
00000190: 5682 f9bd 8043 853b 19fa 1c3e 4000 12bd
000001a0: 403b 5ebb e060 cb3c 49d2 0f3e f38c 01be
000001b0: 0008 64ba 04d3 0bbe 4ebb 81bd fa97 c43d
000001c0: 8a62 10be a6cd 65bd e5d3 113e a03e 953d
000001d0: 2eba a13d 83e8 92bd c2db b83d 6b91 233e
000001e0: 6cf8 71bd 763c bf3d b01f b2bd 7e53 07be
000001f0: 50d8 873d 8041 e0bd 2cab 053d 1008 603c
00000200: 38f4 d5bd a8da 21be b753 1bbe 9aae e63d
00000210: cd6b 203e 3a2a ac3d 00e0 2e39 82bf c93d
00000220: f1d4 1c3e 56cb febd 1087 8dbd b03b 7bbc
00000230: a07a c3bc c112 1a3e aa64 9a3d 8c12 15bd
00000240: a8ce b03c 20f6 383d dee1 853d a03d cbbd
00000250: 0d9f 183e 7154 293e 4c18 17bd 2557 1b3e
00000260: 9cb5 43bd 407c b53c 7047 25be 600e a63b
00000270: a6f7 d7bd 1064 dcbd d0e6 56bd 70df 693c
00000280: 4cde 0abd 80f9 a1bc 2eea ffbd c264 b73d
00000290: bcb2 313d c0b9 0e3c 94c2 21be 80ea 643d
000002a0: e013 a3bb 2b39 22be e35d 07be d069 8a3d
000002b0: 9e52 0abe 7000 dbbd d258 28be 30ea 80bd
000002c0: fd27 293e b066 9ebd a058 94bc 96b9 5fbd
000002d0: a150 243e d01c 6c3c 2061 f73c 78e1 adbd
000002e0: 2015 bcbb 5544 0d3e 3e11 bbbd dbcf ebbd
000002f0: aa0b ca3d 1abc 00be b5a7 013e ea4c 27be
00000300: 6328 93bd 8c5e 303d b2a5 c93d b86b a3bc
00000310: e2cc ca3d 46a2 c9bd e83b c9bc 7d08 183e
00000320: 3445 0bbe a346 b6bd 5cdf 6a3d c019 923d
00000330: b62f 09be 845c 4a3d 1ab3 c83d 750a 033e
00000340: d806 aebc 50be aabd 402d e73c 7e7b adbd
00000350: 388e a73c c6c9 02be 2026 df3c 7eb7 d23d
00000360: 9534 273e ea4e e83d d12a 013e fe26 db3d
00000370: 08c0 d13c 0153 103e 882d dabd 1566 0b3e
00000380: f90b 143e b044 1e3d 1861 90bc f832 14be
00000390: 9fb7 19be 807b 71bc 46bc 97bd c6ea 1bbe
000003a0: 71d4 0a3e 93fc c2bd 189f d2bc c049 063b
000003b0: ba59 eb3d ff38 0abe c17b 0d3e 3654 15be
000003c0: 9cee 6ebd bdea 233e 1863 02be 2841 b23c
000003d0: 3c0e 573d 3639 febd abd2 f4bd 00e2 603b
000003e0: 40d0 073b d7f5 04be e0ed 97bd 8280 b13d
000003f0: e4e0 1a3d a425 1a3d 5a42 fb3d 2634 3fbd

fc2.weight f4 [1, 256]
-0.04550107 0.045039535 0.029525772 -0.03385506 0.01786545 -0.054248102 -0.040869914 0.03823725
-0.012719467 -0.05140192 0.021197513 0.047103122 0.059584923 -0.053533413 0.022834413 -0.03512115
-0.040166095 -0.05609756 0.05213338 0.0066450164 -0.029473111 0.01832842 0.034392253 -0.0022114813
-0.04402733 -0.001387395 -0.020033814 0.032627515 0.037815504 -0.02605497 0.050366208 0.0331396
-0.039218016 0.05957263 -0.05561751 -0.04942321 -0.049988247 -0.00681597 -0.038099714 0.057331674
0.047541037 -0.033385932 0.018059425 -0.031279437 0.012594163 -0.024441563 -0.024626367 0.034874886
0.028346092 -0.015101954 0.0032107458 0.042670608 0.0020653605 -0.01833418 -0.03003046 0.041413955
-0.059607595 0.056002893 0.06205199 -0.012089238 -0.016727947 0.018505044 -0.035184912 -0.02518136
0.04098606 -0.055281423 0.02556289 0.022791773 0.018758595 -0.001743786 -0.013447076 -0.03583969
-0.034680173 -0.062307313 0.045377962 0.014920682 0.022314087 -0.06160903 -0.0021505207 -0.05018623
-0.018024705 0.05649753 -0.028848283 -0.04173208 0.0214585 0.012820944 -0.005378604 0.0042974576
-0.05731432 0.042608097 -0.048129775 -0.006084442 -0.0423963 -0.023604058 0.031326964 -0.05499234
-0.05437614 -0.051950186 -0.060927488 0.023744002 -0.024655476 -0.027480036 -0.023169152 -0.045788042
0.04990778 -0.059515603 -0.04207761 0.047649555 -0.012897149 0.02001486 0.05112887 0.00685028
-0.04084947 0.06010738 0.053203426 -0.048992664 0.031727165 0.005576119 0.020640507 -0.0123229325
0.017800264 -0.014544897 0.054492585 -0.0052685514 0.029947981 0.018279389 0.044787012 0.017740242
-0.01593364 -0.051297575 0.019321524 0.050810866 -0.036087506 -0.0011119917 0.059921145 0.029388048
-0.057261623 0.046527334 0.0035696924 -0.023904614 0.021038897 0.01790288 0.025867127 0.035754226
-0.024663784 -0.038486294 0.013640612 0.006865211 -0.010321073 0.011518523 -0.049054362 0.03628137
-0.04986959 0.014550589 0.05866489 -0.0116079375 -0.020744123 -0.036486134 -0.009904124 0.013102435
0.009678826 0.030421674 -0.005716622 0.017889723 -6.8672e-05 -0.0052824765 0.053034008 -0.058383845
0.056089714 0.0451343 -0.008939542 -0.058935635 -0.0033684298 0.04547964 -0.0026929006 0.025295928
-0.01457832 -0.05879587 0.013774343 0.009315088 0.05486556 -0.0046263263 -0.008268058 0.007727228
0.053549 0.028100543 -0.03873788 -0.050618634 -0.010152154 -0.023216084 0.010310054 -0.059537575
0.040925607 0.04615719 0.026422672 -0.04328613 -0.00600639 -0.060634807 0.002517581 0.03543596
-0.055012397 -0.054601192 0.028280087 -0.032598563 0.045382574 -0.0022445396 0.025063522 -0.044749305
0.00037973374 -0.056073703 -0.027009107 0.0027867109 0.030757941 0.011546753 -0.0018540993 -0.061295785
-0.04236591 -0.00027000904 0.00238996 0.01058992 0.02212508 0.048661835 -0.043748647 0.054268546
0.024910748 -0.008215234 0.008920774 0.05518663 0.04497458 0.015831888 0.045999177 -0.013767511
0.008440934 0.013545014 -0.0048856884 -0.036195546 0.01632788 -0.03609877 0.007191077 0.037523106
-0.04326947 0.018864088 -0.0426562 0.006548308 0.0028496906 0.041250885 -0.021883823 -0.060724318
-0.025640838 -0.052742213 0.05059298 0.024807014 -0.011794597 -0.0009247437 -0.05143632 -0.015790299
00000000: 545f 3abd 607b 383d 08e0 f13c 9aab 0abd
00000010: 905a 923c 4233 5ebd 3667 27bd aa9e 1c3d
00000020: 5065 50bc d28a 52bd 68a6 ad3c 34ef 403d
00000030: 520f 743d da45 5bbd 3c0f bb3c 32db 0fbd
00000040: 3485 24bd 8ec6 65bd d089 553d 70be d93b
00000050: 9871 f1bc 7c25 963c e4de 0c3d 80ee 10bb
00000060: 0056 34bd 40d9 b5ba f41d a4bc 6ea4 053d
00000070: 6ee4 1a3d 3c71 d5bc cc4c 4e3d 64bd 073d
00000080: 12a3 20bd 6e02 743d 30cf 63bd fe6f 4abd
00000090: 7ac0 4cbd 8058 dfbb 720e 1cbd 9ed4 6a3d
000000a0: 64ba 423d b0bf 08bd 5cf1 933c de1e 00bd
000000b0: c057 4e3c ac39 c8bc 3cbd c9bc f8d8 0e3d
000000c0: 1036 e83c 306e 77bc 606b 523b 60c7 2e3d
000000d0: 005b 073b 9031 96bc 7002 f6bc aea1 293d
000000e0: 1827 74bd 4a63 653d 3a2a 7e3d f011 46bc
000000f0: 0c09 89bc e497 973c 0e1e 10bd 2449 cebc
00000100: 00e1 273d c66e 62bd 4469 d13c d0b5 ba3c
00000110: a0ab 993c c08f e4ba 2051 5cbc a4cc 12bd
00000120: cc0c 0ebd f435 7fbd 3ede 393d e075 743c
00000130: 08cc b63c c059 7cbd c0ef 0cbb 1490 4dbd
00000140: 8ca8 93bc f469 673d 3c53 ecbc 42ef 2abd
00000150: bcc9 af3c f00e 523c 003f b0bb b0d1 8c3b
00000160: 6cc2 6abd d485 2e3d ba23 45bd 0060 c7bb
00000170: bea7 2dbd 4c5d c1bc b450 003d a63f 61bd
00000180: 84b9 5ebd b8c9 54bd 1a8f 79bd c882 c23c
00000190: 48fa c9bc d01d e1bc 3ccd bdbc 3e8c 3bbd
000001a0: 1a6c 4c3d a2c6 73bd 9259 2cbd 2e2c 433d
000001b0: 904e 53bc 34f6 a33c 826c 513d 5078 e03b
000001c0: c651 27bd 2833 763d d6eb 593d 88ac 48bd
000001d0: 58f4 013d e0b7 b63b 4816 a93c 20e6 49bc
000001e0: dcd1 913c b84d 6ebc 9e33 5f3d d0a3 acbb
000001f0: 7855 f53c a8be 953c 9672 373d fc53 913c
00000200: 4487 82bc 681d 52bd 2c48 9e3c 0e1f 503d
00000210: 7ed0 13bd 40c0 91ba e06f 753d 34bf f03c
00000220: 2a8b 6abd 7293 3e3d 80f1 693b 9cd3 c3bc
00000230: c459 ac3c 10a9 923c 4ce7 d33c 0673 123d
00000240: b40b cabc cea3 1dbd e07c 5f3c 90f5 e03b
00000250: b819 29bc 30b8 3c3c 3aed 48bd c69b 143d
00000260: 0e44 4cbd 9865 6e3c 984a 703d 382f 3ebc
00000270: 94ef a9bc 7c72 15bd e844 22bc 98ab 563c
00000280: f093 1e3c e036 f93c 8052 bbbb 788d 923c
00000290: 0004 90b8 a018 adbb 303a 593d e623 6fbd
000002a0: 54be 653d bede 383d 2877 12bc 7e66 71bd
000002b0: e0c0 5cbb dc48 3a3d 607b 30bb 6839 cf3c
000002c0: e8d9 6ebc f0d3 70bd c8ad 613c 509e 183c
000002d0: b6ba 603d 7098 97bb c076 07bc b034 fd3b
000002e0: 3256 5b3d 1c33 e63c 9cab 1ebd 7c55 4fbd
000002f0: 3855 26bc a82f bebc 80eb 283c acdd 73bd
00000300: 9ca1 273d 520f 3d3d 5c74 d83c cc4c 31bd
00000310: 40d1 c4bb 345c 78bd 00fe 243b 4c25 113d
00000320: ae54 61bd 80a5 5fbd a4ab e73c 1286 05bd
00000330: 14e3 393d 2019 13bb 0452 cd3c 0c4b 37bd
00000340: 0017 c739 8aad 65bd 3442 ddbc 40a1 363b
00000350: 14f8 fb3c 982e 3d3c 4005 f3ba 4a11 7bbd
00000360: e087 2dbd 0090 8db9 e0a0 1c3b 5881 2d3c
00000370: a83f b53c a251 473d c831 33bd b248 5e3d
00000380: a011 cc3c 3099 06bc 7028 123c 600b 623d
00000390: 4437 383d e0b1 813c a269 3c3d 2091 61bc
000003a0: d84b 0a3c e8eb 5d3c 2018 a0bb c841 14bd
000003b0: 0cc2 853c 4edc 13bd 20a3 eb3b d4b1 193d
000003c0: 543b 31bd dc88 9a3c 44b8 2ebd 3093 d63b
000003d0: e0c1 3a3b b0f6 283d b445 b3bc 10ba 78bd
000003e0: bc0c d2bc 3808 58bd 963a 4f3d 1438 cb3c
000003f0: 203e 41bc 806a 72ba e4ae 52bd a85a 81bc
