SuperGo-master/saved_models/1584176235/1-extractor.pth.tar (torch_old, 103299 bytes, 105 tensors)

conv1.weight f4 [10, 17, 3, 3]
0.058646962 0.023291029 -0.014569759 -0.002286546 0.021208696 0.021760762 0.07847904 -0.0036800057
0.07453543 0.060242325 0.06891751 -0.06638791 -0.023207515 0.07402018 -0.025524464 0.03448029
-0.04831136 0.05160457 -0.07676632 0.036857538 -0.059300058 0.04112406 -0.04275804 -0.008125447
0.033761576 0.01012817 -0.07298482 0.022148922 -0.0025215298 0.034305558 0.054409355 0.048657253
-0.072597936 -0.029291146 -0.0421609 -0.063399374 0.050864577 -0.052719504 -0.07183055 0.04419881
0.071123645 -0.010546736 -0.035744563 -0.0748622 0.06106776 -0.05778031 0.06473562 0.012654275
0.07931803 -0.04234084 -0.07325648 0.048667714 -0.03155463 -0.02311267 -0.051077303 -0.05284508
0.069115296 0.02923116 0.06040229 0.07891899 -0.018290892 -0.023945719 0.001800321 -0.022555355
-0.04533212 0.054299325 0.0724704 0.080513045 0.02093114 0.070150286 -0.016027093 0.06685978
0.029914156 -0.042035922 0.079126164 -0.018660542 -0.01662945 0.02382601 -0.026927799 -0.027491834
-0.07938664 -0.021736156 -0.057984747 0.03346002 -0.039208557 0.022364706 -0.059372377 -0.06687818
0.061128676 0.0038771927 0.032881983 0.07937893 0.035388835 0.07802831 -0.036093574 -0.015722051
0.04491535 -0.0066442937 0.009422332 -0.03647761 -7.5407326e-05 -0.017682992 -0.04199311 -0.021394651
-0.03851404 0.014540449 0.07881291 -0.07497556 -0.0075740814 -0.077918686 -0.01383964 0.050866276
0.0105117485 0.07570715 0.052391812 -0.041277748 -0.022163454 0.0076327547 -0.073474996 -0.026786514
0.0792608 -0.042054407 0.07264376 0.043883756 0.020089433 0.056716442 -0.074730754 -0.013151675
0.07774274 0.0054718927 -0.03930507 -0.054182753 -0.0034843981 -0.010146283 0.06671865 -0.043920774
-0.057157516 -0.015561432 -0.0365459 -0.039608177 -0.016966388 -0.05865576 0.020813972 -0.07231319
0.04783824 -0.021334156 -0.06452402 0.0062059164 0.014052168 -0.06292578 0.047843575 -0.029657401
0.061104894 -0.003787689 -0.06647222 -0.01317665 0.03966052 0.04700291 0.071600124 0.036747225
0.075910494 -0.034311254 -0.018132597 0.0057506934 -0.0062113777 0.043659396 -0.0061529875 -0.014633894
0.03411115 -0.032873675 0.006218806 0.062790886 -0.015354887 -0.04434787 0.059202656 0.034477144
0.056070313 0.04746467 -0.05704676 -0.01642035 0.015645847 -0.05887698 0.035105355 -0.012733035
-0.028335895 0.048606887 -0.004790798 -0.062656544 0.042945787 0.07462777 -0.073255375 -0.027053919
-0.027845714 0.021678783 0.00873936 -0.06514187 0.07664473 -0.040053874 -0.045364413 -0.012388535
0.047228754 -0.06598513 0.052954003 -0.00083865225 -0.013156861 0.05729647 -0.023013365 0.044067413
0.04600483 -0.0015573502 0.044197947 0.0015493631 -0.0019915253 0.06135896 -0.03198957 0.059198305
-0.028781611 -0.01625619 0.016372144 0.029353857 0.065320954 0.04652691 -0.0036114603 -0.048900694
0.017339393 -0.029459264 -0.051872887 -3.748387e-05 -0.036984783 0.059733182 0.025021635 0.048491046
-0.046791248 0.05084154 -0.05132359 -0.043399166 -0.06304394 0.027362324 -0.036364723 -0.041284803
0.005497277 -0.07801448 0.033196323 -0.020134538 0.037363417 -0.024232086 0.008513205 0.018302172
0.052114725 0.06461787 0.051538795 0.06086114 0.00953646 -0.0018897504 0.068996 -0.014141075
00000000: cc37 703d d4cc be3c 00b6 6ebc e0d9 15bb
00000010: dcbd ad3c a043 b23c 9eb9 a03d 402c 71bb
00000020: 08a6 983d a8c0 763d a024 8d3d 62f6 87bd
00000030: b01d bebc e497 973d ae18 d1bc 343b 0d3d
00000040: 22e2 45bd 505f 533d a937 9dbd eef7 163d
00000050: 9ee4 72bd b471 283d 0e23 2fbd 9820 05bc
00000060: 9449 0a3d a0f0 253c 1179 95bd a871 b53c
00000070: 4040 25bb fc83 0c3d 58dc 5e3d d44c 473d
00000080: 3aae 94bd fcf3 efbc e8b0 2cbd 88d7 81bd
00000090: 6057 503d 68f0 57bd e51b 93bd d009 353d
000000a0: 46a9 913d 38cc 2cbc e468 12bd 5a51 99bd
000000b0: 3022 7a3d 0cab 6cbd 1c94 843d e053 4f3c
000000c0: 7e71 a23d 976d 2dbd 7e07 96bd cc57 473d
000000d0: 6d3f 01bd c856 bdbc 6f36 51bd 1574 58bd
000000e0: 528c 8d3d 3076 ef3c 6468 773d 48a0 a13d
000000f0: c8d6 95bc d029 c4bc c0f8 eb3a 02c6 b8bc
00000100: 2cae 39bd f868 5e3d 5c6b 943d 06e4 a43d
00000110: c877 ab3c f4aa 8f3d 404b 83bc c8ed 883d
00000120: 880e f53c dc2d 2cbd e60c a23d fedd 98bc
00000130: 7c3a 88bc c42e c33c b097 dcbc 8e36 e1bc
00000140: 7695 a2bd 0610 b2bc 6a81 6dbd 600d 093d
00000150: 2799 20bd 3036 b73c 7330 73bd 6df7 88bd
00000160: 1062 7a3d 8018 7e3b 42af 063d 6c91 a23d
00000170: e2f3 103d 4ecd 9f3d dbd6 13bd 88cb 80bc
00000180: 28f9 373d 60b8 d9bb 2060 1a3c 8c69 15bd
00000190: 0024 9eb8 ecdb 90bc f800 2cbd d643 afbc
000001a0: e6c0 1dbd 103b 6e3c aa68 a13d c98c 99bd
000001b0: 0030 f8bb d593 9fbd a8bf 62bc 2859 503d
000001c0: 7839 2c3c 5a0c 9b3d cc98 563d db12 29bd
000001d0: 2290 b5bc 301c fa3b 0f7a 96bd 646f dbbc
000001e0: 7c53 a23d 3e41 2cbd 40c6 943d 74bf 333d
000001f0: 9892 a43c 804f 683d 700c 99bd 207a 57bc
00000200: 9637 9f3d 904d b33b 5afe 20bd bcee 5dbd
00000210: 805a 64bb 983c 26bc caa3 883d 45e6 33bd
00000220: 001e 6abd 60f5 7ebc 27b1 15bd 2f3c 22bd
00000230: 18fd 8abc 0641 70bd 1082 aa3c f018 94bd
00000240: 08f2 433d f8c4 aebc 2b25 84bd 005b cb3b
00000250: 103b 663c 3bdf 80bd a0f7 433d 14f4 f2bc
00000260: 2049 7a3d e03a 78bb 9622 88bd e0e2 57bc
00000270: 1273 223d 2086 403d 16a3 923d 4284 163d
00000280: f676 9b3d f589 0cbd d08a 94bc 5070 bc3b
00000290: d088 cbbb 32d4 323d 009f c9bb 00c3 6fbc
000002a0: 22b8 0b3d 8ca6 06bd 20c7 cb3b 8298 803d
000002b0: 1093 7bbc 1da6 35bd 7c7e 723d e837 0d3d
000002c0: fca9 653d 506a 423d dda9 69bd f883 86bc
000002d0: b82b 803c fd28 71bd a2ca 0f3d 389e 50bc
000002e0: ae20 e8bc 0418 473d 20fc 9cbb 1352 80bd
000002f0: ece7 2f3d 72d6 983d ea06 96bd 2ea0 ddbc
00000300: b21c e4bc b497 b13c 882f 0f3c 1a69 85bd
00000310: eaf7 9c3d 880f 24bd 09d0 39bd 48f9 4abc
00000320: f072 413d 3623 87bd 4ce6 583d 00d9 5bba
00000330: e08f 57bc b4af 6a3d 8686 bcbc 0880 343d
00000340: 906f 3c3d 0020 ccba e808 353d 0014 cb3a
00000350: 4084 02bb 8853 7b3d 7f07 03bd ec79 723d
00000360: 6ac7 ebbc b42b 85bc e01e 863c 8077 f03c
00000370: fec6 853d 0093 3e3d 40ae 6cbb 184c 48bd
00000380: 580b 8e3c 8e54 f1bc aa78 54bd 0038 1db8
00000390: 5b7d 17bd c8aa 743d 2cfa cc3c 8c9e 463d
000003a0: 2ea8 3fbd 383f 503d af38 52bd 53c3 31bd
000003b0: 2e1d 81bd f426 e03c 2df3 14bd 411a 29bd
000003c0: 8022 b43b 0ec6 9fbd def8 073d 30f1 a4bc
000003d0: 620a 193d 5e82 c6bc f87a 0b3c 70ee 953c
000003e0: 4076 553d 6056 843d 581a 533d 8849 793d
000003f0: d03e 1c3c 80b1 f7ba c64d 8d3d f8af 67bc

bn1.weight f4 [10]
1.0 1.0 1.0 1.0 1.0 1.0 1.0 1.0
1.0 1.0
00000000: 0000 803f 0000 803f 0000 803f 0000 803f
00000010: 0000 803f 0000 803f 0000 803f 0000 803f
00000020: 0000 803f 0000 803f

bn1.bias f4 [10]
0.0 0.0 0.0 0.0 0.0 0.0 0.0 0.0
0.0 0.0
00000000: 0000 0000 0000 0000 0000 0000 0000 0000
00000010: 0000 0000 0000 0000 0000 0000 0000 0000
00000020: 0000 0000 0000 0000

bn1.running_mean f4 [10]
0.0 0.0 0.0 0.0 0.0 0.0 0.0 0.0
0.0 0.0
00000000: 0000 0000 0000 0000 0000 0000 0000 0000
00000010: 0000 0000 0000 0000 0000 0000 0000 0000
00000020: 0000 0000 0000 0000

bn1.running_var f4 [10]
1.0 1.0 1.0 1.0 1.0 1.0 1.0 1.0
1.0 1.0
00000000: 0000 803f 0000 803f 0000 803f 0000 803f
00000010: 0000 803f 0000 803f 0000 803f 0000 803f
00000020: 0000 803f 0000 803f

res0.conv1.weight f4 [10, 10, 3, 3]
-0.05004952 0.10514102 -0.06827104 -0.096956596 0.076283775 0.0744556 0.093305476 -0.016389877
0.06896681 -0.006595455 0.020194478 0.048737146 -0.013494022 0.10449109 0.0071200505 -0.0772579
-0.011520579 -0.052914664 0.08840742 0.03504307 -0.0403672 0.072878845 0.052870966 -0.10036335
-0.050092194 -0.016086966 -0.043181036 0.011584826 -0.09508541 -0.04354762 0.022515543 -0.0829606
0.013191737 0.09760437 -0.009978406 -0.04339037 0.0072493553 -0.09951946 -0.053408626 0.06023722
0.010073759 0.02732364 -0.031952195 0.03361807 0.05208259 -0.10501415 0.021986924 0.07593853
-0.08911516 0.07445752 -0.0926459 0.063234515 0.07594734 -0.07969531 -0.05189243 0.091206394
-0.083821855 -0.08210988 0.037525646 -0.022801101 0.011177219 -0.03539405 0.0025604144 0.103877045
-0.044442263 0.09776499 -0.083024345 -0.01724939 -0.032655664 -0.09617137 0.08250228 0.080935635
-0.06867816 0.08686911 -0.02111987 0.027044661 0.02973207 -0.046436287 0.048381574 -0.024967745
0.08566644 0.069638304 0.049534373 0.0087926015 -0.04415364 -0.0953877 0.102038674 -0.0768356
-0.049150366 -0.005783744 0.05202111 0.09927479 0.03870497 -0.092928804 0.056950428 -0.015543938
-0.1015177 -0.09184912 -0.070257306 -0.104814455 0.056354634 0.024267145 0.030729167 0.010424592
0.050632067 0.044116415 -0.07523035 0.009867504 0.031766392 0.05512274 -0.0041352287 0.07649314
0.036326252 -0.0031895265 0.06935013 -0.0607605 0.06281889 -0.019930132 -0.10055759 0.088170774
-0.015802704 0.07538337 0.06499382 0.013345115 0.029941253 0.095584 0.013346612 -0.10419176
-0.101990655 -0.09399614 0.07830758 -0.0092256665 -0.08853159 0.005121067 -0.070194215 0.02984824
0.03648392 0.0019163638 0.023184992 -0.10086696 -0.0027069151 -0.09888989 -0.067122 0.01648502
0.060124286 -0.06645629 0.0541512 0.03191466 -0.052893717 -0.003061898 0.053768627 -0.070344724
-0.083338335 0.0731337 0.08707594 -0.09376854 0.07713994 0.04597006 0.04393909 -0.099283576
-0.06024934 0.057778142 -0.03927365 -0.031077743 0.012370944 0.02971045 -0.053043265 -0.014471911
0.009460427 0.05381974 0.08373668 -0.018156044 0.0066375285 0.07393869 0.0167076 -0.07315412
-0.02909942 0.0659131 0.039925657 0.044261776 0.016768008 0.04779441 -0.04573025 -0.052110344
0.08356201 -0.06046675 0.05618102 -0.035519756 0.07786601 -0.059683353 0.081087224 -0.014094926
0.0590541 -0.05896798 0.027344204 -0.052981414 0.07571945 0.047261067 -0.032971792 0.034458168
-0.012819365 0.050239734 0.09787885 0.045149542 0.06769975 0.06099399 -0.07920591 -0.0052200854
0.07717339 -0.065887526 -0.07066476 -0.04785903 -0.08032741 0.08378554 0.06108164 -0.06423266
0.006073773 -0.006616086 0.061803825 -0.006015107 -0.015010454 -0.09817377 0.1035854 -0.020614535
-0.062674835 -0.060396872 -0.054925174 -0.08072634 0.076014124 0.006229274 0.05402773 0.0054262206
0.08281756 0.048175685 0.10292972 -0.02655477 0.045288987 0.05531872 -0.06519267 0.012873143
-0.08991978 -0.06697631 -0.026374996 -0.014943898 -0.092630476 -0.05883769 0.02704487 0.08688288
-0.036433257 -0.013708867 0.011042379 -0.0345496 0.07310312 -0.00785251 0.07111534 0.024411343
00000000: ba00 4dbd 2d54 d73d b0d1 8bbd 2e91 c6bd
00000010: ab3a 9c3d 2d7c 983d f116 bf3d 1044 86bc
00000020: 793e 8d3d b01e d8bb e46e a53c 9aa0 473d
00000030: 0816 5dbc 6dff d53d 504f e93b 6439 9ebd
00000040: d0c0 3cbc 0cbd 58bd f30e b53d 5289 0f3d
00000050: 1458 25bd 8141 953d 3a8f 583d 4d8b cdbd
00000060: 792d 4dbd d0c8 83bc 99de 30bd 48ce 3d3c
00000070: 24bc c2bd fd5e 32bd 8472 b83c 3fe7 a9bd
00000080: 2822 583c cde4 c73d 787c 23bc 1aba 31bd
00000090: 008c ed3b dcd0 cbbd 01c3 5abd 4ebb 763d
000000a0: 680c 253c d4d5 df3c 4ee0 02bd 1ab3 093d
000000b0: 8e54 553d a911 d7bd ec1d b43c a985 9b3d
000000c0: 0282 b6bd 2f7d 983d 22bd bdbd 1981 813d
000000d0: 478a 9b3d 4b37 a3bd 288d 54bd 6bca ba3d
000000e0: cbaa abbd 3a29 a8bd 7eb4 193d 60c9 babc
000000f0: a820 373c 5af9 10bd a0cc 273b 7dbd d43d
00000100: 1709 36bd 0339 c83d ab08 aabd 984e 8dbc
00000110: f2c1 05bd 7ff5 c4bd f5f6 a83d 95c1 a53d
00000120: 23a7 8cbd 6fe8 b13d 9403 adbc c48c dd3c
00000130: ac90 f33c fa33 3ebd c22b 463d 2889 ccbc
00000140: e371 af3d 879e 8e3d 8ee4 4a3d d80e 103c
00000150: 72da 34bd a05a c3bd a7f9 d03d fc5b 9dbd
00000160: e551 49bd 9085 bdbb 1614 553d 9550 cb3d
00000170: 1a89 1e3d 7551 bebd da44 693d 00ac 7ebc
00000180: 83e8 cfbd 641b bcbd 10e3 8fbd f6a8 d6bd
00000190: 1ed4 663d e4cb c63c bcbb fb3c e8cb 2a3c
000001a0: 9263 4f3d 6ab3 343d 5f12 9abd 50ab 213c
000001b0: 7a1d 023d 62c8 613d d080 87bb 6fa8 9c3d
000001c0: d6ca 143d 6007 51bb 7107 8e3d 01e0 78bd
000001d0: 31a7 803d 8444 a3bc 23f1 cdbd e192 b43d
000001e0: ac74 81bc 9962 9a3d 7b1b 853d 78a5 5a3c
000001f0: 5c47 f53c 8bc1 c33d c0ab 5a3c 7d62 d5bd
00000200: 7ae0 d0bd 0c81 c0bd b95f a03d 4027 17bc
00000210: 0d50 b5bd a0ce a73b fcc1 8fbd 4c84 f43c
00000220: 2a70 153d 802e fb3a 74ee bd3c 5693 cebd
00000230: 8066 31bb c886 cabd 4277 89bd 980b 873c
00000240: e244 763d 3c1a 88bd a6cd 5d3d f2b8 023d
00000250: 15a7 58bd 20aa 48bb 7e3c 5c3d e510 90bd
00000260: 4aad aabd 1fc7 953d df54 b23d b809 c0bd
00000270: 8bfb 9d3d 1a4b 3c3d 7af9 333d 3055 cbbd
00000280: 03c8 76bd c6a8 6c3d 68dd 20bd c096 febc
00000290: 80af 4a3c 5463 f33c e543 59bd 981b 6dbc
000002a0: e8ff 1a3c 1672 5c3d 237e ab3d fcbb 94bc
000002b0: a07f d93b 2b6d 973d 60de 883c d4d1 95bd
000002c0: e861 eebc 73fd 863d 1689 233d d64b 353d
000002d0: 105d 893c 12c4 433d a54f 3bbd a871 55bd
000002e0: 8f22 ab3d fcab 77bd 121e 663d 2a7d 11bd
000002f0: 3778 9f3d 8876 74bd 0f11 a63d 68ee 66bc
00000300: b6e2 713d 6988 71bd f400 e03c 0a03 59bd
00000310: cd12 9b3d d294 413d 6e0d 07bd 0224 0d3d
00000320: 5008 52bc 2ec8 4d3d b574 c83d baee 383d
00000330: 2ba6 8a3d d6d4 793d b536 a2bd 400d abbb
00000340: 150d 9e3d 0af0 86bd b0b8 90bd d507 44bd
00000350: b282 a4bd c197 ab3d be30 7a3d 6a8c 83bd
00000360: 8006 c73b c0cb d8bb 0226 7d3d 601a c5bb
00000370: 68ee 75bc 540f c9bd 9524 d43d d0df a8bc
00000380: aa5b 80bd b662 77bd 38f9 60bd da53 a5bd
00000390: 4bad 9b3d f01e cc3b 2e4c 5d3d 70ce b13b
000003a0: 419c a93d de53 453d d1cc d23d 6489 d9bc
000003b0: f280 393d e295 623d bc83 85bd e0e9 523c
000003c0: dd27 b8bd e02a 89bd 6010 d8bc 40d7 74bc
000003d0: 0cb5 bdbd caff 70bd 348d dd3c a7ef b13d
000003e0: 0a3b 15bd 289b 60bc 18eb 343c e283 0dbd
000003f0: 17b7 953d d0a7 00bc eba4 913d 4cfa c73c

res0.bn1.weight f4 [10]
1.0 1.0 1.0 1.0 1.0 1.0 1.0 1.0
1.0 1.0
00000000: 0000 803f 0000 803f 0000 803f 0000 803f
00000010: 0000 803f 0000 803f 0000 803f 0000 803f
00000020: 0000 803f 0000 803f

res0.bn1.bias f4 [10]
0.0 0.0 0.0 0.0 0.0 0.0 0.0 0.0
0.0 0.0
00000000: 0000 0000 0000 0000 0000 0000 0000 0000
00000010: 0000 0000 0000 0000 0000 0000 0000 0000
00000020: 0000 0000 0000 0000

res0.bn1.running_mean f4 [10]
0.0 0.0 0.0 0.0 0.0 0.0 0.0 0.0
0.0 0.0
00000000: 0000 0000 0000 0000 0000 0000 0000 0000
00000010: 0000 0000 0000 0000 0000 0000 0000 0000
00000020: 0000 0000 0000 0000

res0.bn1.running_var f4 [10]
1.0 1.0 1.0 1.0 1.0 1.0 1.0 1.0
1.0 1.0
00000000: 0000 803f 0000 803f 0000 803f 0000 803f
00000010: 0000 803f 0000 803f 0000 803f 0000 803f
00000020: 0000 803f 0000 803f

res0.conv2.weight f4 [10, 10, 3, 3]
-0.005911298 0.09395353 0.0048556775 -0.028609402 0.014743134 -0.011836812 -0.074523754 0.039350756
0.0441697 0.09149859 -0.067851774 0.043481342 0.02451279 -0.053242154 -0.08831707 0.060719468
0.049556725 0.056672074 0.09740689 0.019265361 -0.070015505 0.02378469 0.026874878 -0.08821413
-0.056974612 -0.08983696 0.041838028 -0.018184468 -0.10086291 -0.095062256 -0.09256871 -0.0008001849
0.047145806 -0.06878069 0.038342603 -0.0036670268 -0.060643062 0.021675117 0.028604515 -0.048126608
-0.08101023 0.051027067 -0.00988806 0.06408765 0.069584124 -0.052031077 0.0033867657 -0.0156046
-0.06679076 -0.026652083 0.0067962706 0.043154277 0.06747427 0.020755865 0.052127905 0.015633352
0.010992341 -0.08815341 0.030451916 0.062447958 -0.09291378 0.08278049 0.08273404 0.07379802
-0.04505536 0.062343873 0.019804932 0.10528863 -0.064323135 -0.09713889 -0.039351404 0.02817721
0.101449214 0.04904046 0.054437943 -0.028743856 0.065056555 0.09564526 -0.06935929 -0.037587397
-0.008343555 -0.07227051 -0.08044874 0.08598875 0.058374383 0.07124104 0.033456855 -0.035023868
0.006614104 -0.06690345 -0.055038456 -0.056896742 -0.087704346 -0.039975658 -0.034585215 0.03994509
-0.09557316 0.08508145 -0.039490752 -0.0014627799 -0.04152552 -0.073547795 0.079326235 0.011809088
-0.047596358 0.10356588 0.07512162 -0.09756026 -0.0405664 -1.3418496e-05 -0.07614079 0.047051214
-0.016438127 0.056918524 -0.033084847 0.097903065 -0.0545646 0.047918446 -0.020225942 -0.02206789
-0.08874469 -0.103057764 0.08417762 0.07056279 0.044317566 -0.014053501 -0.08278518 0.09663033
-0.027541615 0.1038209 -0.09685926 -0.03909181 0.08056397 -0.062412687 0.09502325 -0.07561053
0.07409414 -0.04466778 -0.056863494 0.0072557107 0.058696635 -0.07998848 -0.070367 0.009973131
0.016732492 -0.008745968 -0.033184946 0.0067034215 0.00026370585 0.034767784 0.09007495 0.101157896
-0.05574788 -0.0014494881 -0.06413736 0.022870906 0.058359362 0.06455482 0.008646034 0.08592693
0.0496042 0.09128643 -0.06119392 0.046161138 -0.00021772832 -0.032255635 0.10046432 0.09382548
0.043317042 -0.074397266 -0.03970149 0.04077048 0.06423987 0.0040956736 -0.06066833 0.045696147
-0.026250243 -0.03525812 -0.090212874 -0.033740893 -0.10193015 0.080830716 -0.051101074 0.100387014
-0.034286425 -0.095628455 -0.06700091 0.014978364 -0.026818067 0.029828764 0.07992754 0.025910206
0.10523368 0.024642043 0.026115693 0.08281376 0.07735934 0.053753354 -0.02057758 0.0032595694
-0.047142833 -0.08588361 -0.03886061 0.092966 -0.033790365 -0.016054422 -0.03789629 0.05947984
0.07277588 0.013324469 -0.0900434 0.046329357 0.069362365 -0.07210058 0.023446716 -0.0068412945
0.0858122 0.10172824 -0.1003521 0.017048888 0.07941114 -0.052466117 -0.096925445 0.053744026
-0.096643075 0.066085525 -0.019888572 -0.015093066 0.06763711 -0.055349685 -0.09789908 0.10119935
0.07340897 0.020531721 0.101539336 -0.053664576 0.085903995 0.077543 -0.09945363 -0.07571734
-0.03763271 0.06795799 -0.09639174 -0.035934664 -0.0031380504 -0.057056542 -0.0055471584 0.038227566
-0.08526886 -0.09052266 -0.06963955 0.013090774 -0.056098137 0.008450724 0.058615558 -0.032032482
00000000: 90b3 c1bb b56a c03d 601c 9f3b 445e eabc
00000010: 308d 713c 30ef 41bc e99f 98bd 422e 213d
00000020: 4aeb 343d 9d63 bb3d dff5 8abd 7e19 323d
00000030: 0ccf c83c 7214 5abd 94df b4bd fab4 783d
00000040: fefb 4a3d fa20 683d 437d c73d 64d2 9d3c
00000050: 4a64 8fbd 1cd8 c23c b428 dc3c 9ca9 b4bd
00000060: 365e 69bd 71fc b7bd 5a5e 2b3d 98f7 94bc
00000070: 3791 cebd 00b0 c2bd aa94 bdbd 80c3 51ba
00000080: f61b 413d e4dc 8cbd 220d 1d3d 8052 70bb
00000090: dc64 78bd 0490 b13c 0454 ea3c 6820 45bd
000000a0: b1e8 a5bd c201 513d 8801 22bc 6340 833d
000000b0: 1f82 8e3d 8a1e 55bd 80f4 5d3b 70aa 7fbc
000000c0: 98c9 88bd 7855 dabc 40b3 de3b 8ac2 303d
000000d0: f32f 8a3d 3408 aa3c 1284 553d 8411 803c
000000e0: 3819 343c c689 b4bd 4c76 f93c 6ec9 7f3d
000000f0: 9449 bebd d188 a93d 7770 a93d 6b23 973d
00000100: f88b 38bd 4a5c 7f3d f43d a23c 91a1 d73d
00000110: d9bb 83bd c1f0 c6bd f02e 21bd e4d3 e63c
00000120: 9bc4 cf3d a6de 483d 52fa 5e3d 3c78 ebbc
00000130: 5f3c 853d a9e1 c33d 3e0c 8ebd 3ef5 19bd
00000140: 68b3 08bc 9002 94bd 4fc2 a4bd df1a b03d
00000150: fa19 6f3d d3e6 913d 0e0a 093d 3075 0fbd
00000160: 20bb d83b ad04 89bd 0170 61bd 8f0c 69bd
00000170: 569e b3bd 84bd 23bd 3aa9 0dbd 769d 233d
00000180: dcbb c3bd 2f3f ae3d 0ec1 21bd c0ba bfba
00000190: aa16 2abd 3aa0 96bd cb75 a23d e87a 413c
000001a0: 66f4 42bd 591a d43d 5dd9 993d accd c7bd
000001b0: f428 26bd 0020 61b7 b4ef 9bbd c6b8 403d
000001c0: 40a9 86bc 6623 693d fa83 07bd 6781 c83d
000001d0: 217f 5fbd 2246 443d e0b0 a5bc b8c7 b4bc
000001e0: c7bf b5bd f30f d3bd 5165 ac3d 3983 903d
000001f0: 5686 353d a840 66bc 478b a9bd 1fe6 c53d
00000200: f49e e1bc 0da0 d43d 265e c6bd bc1e 20bd
00000210: b9fe a43d 72a4 7fbd 8d9b c23d b2d9 9abd
00000220: abbe 973d 90f5 36bd b2e9 68bd 50c1 ed3b
00000230: e26b 703d 00d1 a3bd 931c 90bd 5866 233c
00000240: 9412 893c 404b 0fbc f0ec 07bd 60a8 db3b
00000250: 0042 8a39 aa68 0e3d 3779 b83d df2b cf3d
00000260: e457 64bd c0fc bdba 735a 83bd c45b bb3c
00000270: 3a0a 6f3d 5135 843d 18a8 0d3c 75fa af3d
00000280: c62d 4b3d 61f4 ba3d 7aa6 7abd 7613 3d3d
00000290: 004e 64b9 7c1e 04bd 3dc0 cd3d 9327 c03d
000002a0: 366d 313d 985d 98bd 089e 22bd f2fe 263d
000002b0: 3190 833d 0035 863b 5b7f 78bd e22b 3b3d
000002c0: c00a d7bc d26a 10bd 87c1 b8bd e433 0abd
000002d0: c1c0 d0bd 938a a53d 5c4f 51bd b597 cd3d
000002e0: ec6f 0cbd dad8 c3bd c637 89bd d067 753c
000002f0: 90b1 dbbc 745b f43c 0db1 a33d a441 d43c
00000300: c184 d73d 1cde c93c 94f0 d53c 439a a93d
00000310: 936e 9e3d 7a2c 5c3d 5092 a8bc 809e 553b
00000320: d818 41bd bfe3 afbd 4e2c 1fbd f564 be3d
00000330: c467 0abd 9084 83bc 2439 1bbd 22a1 733d
00000340: 850b 953d e04e 5a3c ad68 b8bd dac3 3d3d
00000350: db0d 8e3d 78a9 93bd 5413 c03c f02c e0bb
00000360: 4fbe af3d e556 d03d 6785 cdbd 1caa 8b3c
00000370: 4fa2 a23d b6e6 56bd d980 c6bd b222 5c3d
00000380: ceec c5bd d957 873d 5ced a2bc e848 77bc
00000390: 5385 8a3d 5ab6 62bd 507f c8bd 9b41 cf3d
000003a0: 7157 963d 2432 a83c dbf3 cf3d 63cf 5bbd
000003b0: 6fee af3d ddce 9e3d 58ae cbbd b111 9bbd
000003c0: c224 1abd 8f2d 8b3d 0869 c5bd 3a30 13bd
000003d0: c0a7 4dbb 1fb4 69bd f0c4 b5bb 8294 1c3d
000003e0: 71a1 aebd f263 b9bd 2e9f 8ebd b07a 563c
000003f0: 29c7 65bd e874 0a3c de16 703d 7e34 03bd

res0.bn2.weight f4 [10]
1.0 1.0 1.0 1.0 1.0 1.0 1.0 1.0
1.0 1.0
00000000: 0000 803f 0000 803f 0000 803f 0000 803f
00000010: 0000 803f 0000 803f 0000 803f 0000 803f
00000020: 0000 803f 0000 803f

res0.bn2.bias f4 [10]
0.0 0.0 0.0 0.0 0.0 0.0 0.0 0.0
0.0 0.0
00000000: 0000 0000 0000 0000 0000 0000 0000 0000
00000010: 0000 0000 0000 0000 0000 0000 0000 0000
00000020: 0000 0000 0000 0000

res0.bn2.running_mean f4 [10]
0.0 0.0 0.0 0.0 0.0 0.0 0.0 0.0
0.0 0.0
00000000: 0000 0000 0000 0000 0000 0000 0000 0000
00000010: 0000 0000 0000 0000 0000 0000 0000 0000
00000020: 0000 0000 0000 0000

res0.bn2.running_var f4 [10]
1.0 1.0 1.0 1.0 1.0 1.0 1.0 1.0
1.0 1.0
00000000: 0000 803f 0000 803f 0000 803f 0000 803f
00000010: 0000 803f 0000 803f 0000 803f 0000 803f
00000020: 0000 803f 0000 803f

res1.conv1.weight f4 [10, 10, 3, 3]
-0.045834046 -0.09357579 -0.012398288 -0.06461443 0.0830595 0.027228199 0.035235338 -0.057700828
-0.008395977 0.02298192 0.043272622 -0.060429998 0.004664898 0.0025276318 -0.04883352 0.031724133
-0.0071898773 0.026367001 0.0115861 0.09623384 0.032093488 -0.058606844 0.060795017 -0.09397194
0.09902375 0.10268507 -0.058672864 -0.013104267 -0.023109019 0.027047373 -0.09351841 -0.09311094
0.049593993 0.09199994 0.007969283 0.00085080415 -0.06434503 -0.06775764 0.012778334 -0.07204279
0.04768718 -0.019738503 -0.012963459 0.027007632 -0.05500998 -0.049766943 0.07801195 0.048693962
0.003949873 -0.08827372 0.07968993 0.045879938 0.036893897 -0.017602399 0.0025676638 0.061461933
0.0532913 0.020906977 0.09844371 0.06360523 -0.09032966 -0.0441128 -0.024466395 -0.02711416
0.07421259 -0.009548411 -0.0007492304 0.026686989 0.069090076 0.06857117 0.08971792 0.016535126
0.10062014 0.06291313 -0.018829644 0.054102458 0.020306103 0.023565851 -0.009602822 0.023134418
-0.011712156 0.05947777 0.017747104 -0.07671698 0.023960985 -0.07850551 -0.027821966 -0.005097732
0.01541359 -0.0032176152 -0.07620485 0.050179042 0.041836686 0.09120514 -0.090223506 0.044317253
0.07472866 0.028968982 0.025584005 -0.030686624 -0.014394343 0.06592526 -0.032657214 -0.06438326
-0.08363333 -0.084651195 0.04806236 0.0033503622 0.047970437 -0.058816288 -0.03036882 0.06953319
-0.03154058 0.08214668 -0.057680268 0.037551068 0.03747531 -0.064624846 -0.07636784 0.08323341
-0.09708446 -0.10497521 0.051714905 0.03303822 0.080531605 0.019037724 -0.076390274 -0.099559955
-0.013347268 -0.093412206 0.06577016 -0.029129967 -0.045709934 -0.004063353 -0.008248128 0.03577841
-0.030702144 0.07350599 -0.0964683 -0.086015105 -0.039859526 0.030108012 0.06300803 0.041412733
-0.072182745 0.10094183 0.07040755 0.093666755 0.043108873 0.08783137 0.08016848 0.017669737
0.029085018 -0.03030613 0.008854188 -0.007248774 -0.09141244 -0.05232552 0.025545321 0.05545532
0.012327224 -0.053905852 -0.06766921 -0.0855816 -0.039465025 0.08354197 0.04430739 -0.04144548
0.031177439 0.083911516 -0.04757694 0.037298955 0.04819972 0.010513172 -0.07476066 0.03236831
-0.028224811 0.035346337 -0.0516703 0.04931035 -0.0020019636 -0.027425505 -0.08666293 -0.058669444
-0.012308203 0.08328804 -0.09002194 0.02256202 -0.09546432 0.024058618 0.015039675 -0.016467169
-0.08162227 -0.045670994 -0.037220657 -0.017709054 0.0071601495 0.076798655 0.093764596 -0.06653738
-0.10387253 -0.08408733 -0.0953708 -0.011236958 0.0021631196 -0.06699425 -0.0075520873 -0.072009824
0.056989513 -0.027005218 0.06529079 -0.0862883 0.096901424 -0.03725809 -0.003055349 0.019226268
-0.06912836 0.04215225 0.09981256 -0.02289071 -0.07305365 0.1012151 -0.0964665 0.014138944
-0.05222684 0.10198251 -0.084047854 0.06938059 -0.10215039 0.06661794 0.07782363 -0.064786166
-0.020736113 0.043458022 0.05997055 0.068778925 -0.017027691 -0.01986362 -0.008224353 0.10429192
0.03516417 0.034464903 -0.08590237 -0.10507855 -0.019469798 0.05704426 -0.075042196 -0.036847882
-0.02158504 -0.021591298 0.06859755 0.06463014 0.01449623 0.10332186 0.094250925 -0.09731144
00000000: 7bbc 3bbd aaa4 bfbd 3022 4bbc 9254 84bd
00000010: 191b aa3d ac0d df3c ee52 103d b457 6cbd
00000020: 488f 09bc 9444 bc3c a23e 313d 7285 77bd
00000030: 00dc 983b a0a6 253b a805 48bd 2af1 013d
00000040: 1099 ebbb 9cff d73c a0d3 3d3c 3f16 c53d
00000050: 7674 033d bb0d 70bd 3204 793d 5c74 c0bd
00000060: f7cc ca3d 8d4c d23d f552 70bd 48b3 56bc
00000070: 204f bdbc 7492 dd3c 9586 bfbd f3b0 bebd
00000080: 1223 4b3d 776a bc3d 9891 023c 8008 5f3a
00000090: 54c7 83bd 84c4 8abd 385c 513c 2c8b 93bd
000000a0: a253 433d a4b2 a1bc b064 54bc 1c3f dd3c
000000b0: 2552 61bd 6cd8 4bbd bbc4 9f3d 5273 473d
000000c0: f06d 813b dac8 b4bd 7934 a33d 9aec 3b3d
000000d0: 0e1e 173d e832 90bc 4046 283b 82bf 7b3d
000000e0: fa47 5a3d 1c45 ab3c db9c c93d 7543 823d
000000f0: c2fe b8bd a0af 34bd c06d c8bc 841e debc
00000100: c5fc 973d f070 1cbc 0068 44ba ac9e da3c
00000110: 197f 8d3d 0b6f 8c3d 07be b73d ac74 873c
00000120: ef11 ce3d 99d8 803d a040 9abc 8a9a 5d3d
00000130: fc58 a63c 2c0d c13c 2855 1dbc 6484 bd3c
00000140: 58e4 3fbc f69e 733d 6062 913c cb1d 9dbd
00000150: d449 c43c 7fc7 a0bd e4ea e3bc e00a a7bb
00000160: 4889 7c3c a0de 52bb 4a11 9cbd 8a88 4d3d
00000170: f25c 2b3d c3c9 ba3d 1ac7 b8bd 0286 353d
00000180: 570b 993d 5c50 ed3c 8c95 d13c 8462 fbbc
00000190: 40d6 6bbc d303 873d 92c3 05bd 5fdb 83bd
000001a0: f447 abbd 9b5d adbd 0add 443d c091 5b3b
000001b0: a67c 443d 59e9 70bd 08c8 f8bc 6b67 8e3d
000001c0: b230 01bd 853c a83d 2542 6cbd 26cf 193d
000001d0: b67f 193d 085a 84bd be66 9cbd 4776 aa3d
000001e0: 38d4 c6bd 3efd d6bd 02d3 533d 1653 073d
000001f0: c1ed a43d 00f5 9b3c 8172 9cbd 17e6 cbbd
00000200: 80ae 5abc e64e bfbd 81b2 863d f8a1 eebc
00000210: 573a 3bbd e025 85bb 2823 07bc 628c 123d
00000220: 1083 fbbc 4f8a 963d 2c91 c5bd b028 b0bd
00000230: be43 23bd 14a5 f63c 5b0a 813d 66a0 293d
00000240: 8cd4 93bd 97ba ce3d d531 903d 5bd4 bf3d
00000250: ee92 303d efe0 b33d 5f2f a43d 20c0 903c
00000260: b443 ee3c 9044 f8bc 2811 113c 2087 edbb
00000270: 7236 bbbd 4953 56bd 6c44 d13c 1e25 633d
00000280: 20f8 493c 62cc 5cbd 2896 8abd 6845 afbd
00000290: 14a6 21bd 0d18 ab3d aa7b 353d bcc2 29bd
000002a0: d467 ff3c cdd9 ab3d 0ae0 42bd cac6 183d
000002b0: 126d 453d 703f 2c3c 1e1c 99bd a294 043d
000002c0: b837 e7bc 52c7 103d 3da4 53bd a6f9 493d
000002d0: 6033 03bb 74ab e0bc 567c b1bd 5f4f 70bd
000002e0: 58a8 49bc eb92 aa3d 6c5d b8bd fcd3 b83c
000002f0: cc82 c3bd 9416 c53c f868 763c 28e6 86bc
00000300: 9429 a7bd 8211 3bbd b074 18bd 9412 91bc
00000310: b09f ea3b 9d48 9d3d a707 c03d c044 88bd
00000320: 1fbb d4bd fa35 acbd c451 c3bd 381b 38bc
00000330: 20c3 0d3b 4834 89bd 8077 f7bb e379 93bd
00000340: d66d 693d 0c3a ddbc 2db7 853d ecb7 b0bd
00000350: 4174 c63d f09b 18bd 403c 48bb 6880 9d3c
00000360: 2b93 8dbd d6a7 2c3d 876a cc3d 4c85 bbbc
00000370: 279d 95bd dd49 cf3d 3a90 c5bd 08a7 673c
00000380: d0eb 55bd 35dc d03d 4821 acbd 6917 8e3d
00000390: 3934 d1bd fd6e 883d ff61 9f3d 9cae 84bd
000003a0: c8de a9bc 0a01 323d aea3 753d f7db 8c3d
000003b0: a87d 8bbc 08b9 a2bc 70bf 06bc 0197 d53d
000003c0: 4e08 103d 122b 0d3d 95ed afbd 6c33 d7bd
000003d0: 207f 9fbc 3ea7 693d b9af 99bd ceed 16bd
000003e0: 1cd3 b0bc 3ce0 b0bc df7c 8c3d cf5c 843d
000003f0: 9881 6d3c 699a d33d a106 c13d 384b c7bd

res1.bn1.weight f4 [10]
1.0 1.0 1.0 1.0 1.0 1.0 1.0 1.0
1.0 1.0
00000000: 0000 803f 0000 803f 0000 803f 0000 803f
00000010: 0000 803f 0000 803f 0000 803f 0000 803f
00000020: 0000 803f 0000 803f

res1.bn1.bias f4 [10]
0.0 0.0 0.0 0.0 0.0 0.0 0.0 0.0
0.0 0.0
00000000: 0000 0000 0000 0000 0000 0000 0000 0000
00000010: 0000 0000 0000 0000 0000 0000 0000 0000
00000020: 0000 0000 0000 0000

res1.bn1.running_mean f4 [10]
0.0 0.0 0.0 0.0 0.0 0.0 0.0 0.0
0.0 0.0
00000000: 0000 0000 0000 0000 0000 0000 0000 0000
00000010: 0000 0000 0000 0000 0000 0000 0000 0000
00000020: 0000 0000 0000 0000

res1.bn1.running_var f4 [10]
1.0 1.0 1.0 1.0 1.0 1.0 1.0 1.0
1.0 1.0
00000000: 0000 803f 0000 803f 0000 803f 0000 803f
00000010: 0000 803f 0000 803f 0000 803f 0000 803f
00000020: 0000 803f 0000 803f

res1.conv2.weight f4 [10, 10, 3, 3]
-0.07598749 -0.033401176 -0.084829256 -0.041315176 0.054815434 -0.050727542 -0.032832764 0.04421968
-0.012051582 0.07438221 0.0133340955 0.06268231 0.028345011 0.10455345 0.017743386 0.058342256
0.075652935 0.007816255 0.031453066 0.021457009 -0.059785485 -0.042038694 -0.013978004 -0.05771818
-0.019036002 -0.022499815 0.10496894 0.056539543 0.044608407 -0.03696114 -0.081831336 -0.09832791
-0.06288549 -0.097923785 -0.013293095 -0.09635692 0.018597744 0.045882158 0.019356504 0.07801949
0.04046143 -0.072960965 -0.052818563 0.08720472 0.092467494 0.007315837 -0.07305596 -0.045327507
-0.044924337 -0.073883384 0.048632376 -0.095842265 -0.073152766 -0.086344436 0.008665197 -0.058802705
-0.013525009 0.06982263 -0.042660274 0.07018272 0.054714315 -0.09613284 0.086538844 -0.04800875
0.049263813 0.05926273 -0.08582754 -0.04774408 0.095426 0.059386007 -0.05803558 0.008657157
0.011985615 0.032421328 0.06016136 -0.054525394 0.013019703 0.07123598 0.09579056 -0.031614944
-0.07095573 0.06344045 0.03623431 0.08754731 -0.014593579 0.03836333 0.051672004 0.050070353
0.04341411 -0.039177485 0.03797085 0.0374515 0.04004752 -0.0008215979 0.04643566 0.05870066
-0.011728063 0.037664555 0.07307636 -0.09003405 -0.066248 0.059040092 -0.07939044 -0.099338524
-0.06750737 -0.10372425 -0.029412128 0.012075558 -0.056409907 0.10494696 0.04354254 -0.004044533
0.042093046 -0.0024786964 -0.007713981 0.05976472 -0.06678664 -0.05026368 0.043574892 -0.0729052
0.013512291 -0.04564268 -0.004549004 -0.07391776 0.045577817 0.07062898 0.033756994 -0.028259195
0.09798638 -0.08078518 -0.04824004 0.10533141 -0.072261885 0.093359895 0.058017783 0.05363693
0.095824786 2.2366643e-05 -0.022019252 0.048898406 -0.025523178 0.032281764 0.05819442 0.02011045
-0.08234987 -0.068200864 0.06373484 -0.026256867 -0.042526625 -0.014626332 -0.08422922 0.02789218
-0.10189675 -0.067266904 -0.04998419 0.06516398 -0.033332735 0.06796866 0.06306941 -0.0973493
-0.0043354034 0.07813629 0.078957714 -0.061791547 -0.09641218 -0.054621723 -0.033007793 0.021026261
-0.015581496 -0.039173372 0.06270961 -0.04794718 0.039192848 0.026944868 0.053185172 0.10440154
-0.060170967 -0.1001841 0.088520594 0.0103516355 0.08439771 0.020511113 0.07723247 -0.06437795
-0.044131562 0.015453339 0.06123551 -0.06852147 -0.048757307 -0.023797303 -0.01796493 -0.10199798
0.0039006248 0.013472445 -0.08331551 -0.023139209 -0.078056455 0.07977318 -0.09070571 0.028766625
0.04925669 0.034980483 -0.08058958 -0.015321888 0.040235378 -0.014715351 -0.0008856356 0.09455087
-0.06367588 -0.028009214 -0.07078504 -0.086426586 -0.039655186 -0.066934824 -0.0059390217 -0.07397767
-0.087029256 -0.084915854 -0.008003898 -0.060961932 -0.05101495 -0.043330245 0.10132583 0.0002798289
-0.063063905 0.0055460483 -0.023055457 -0.000764288 -0.026978843 -0.098281406 -0.089872055 0.057816364
-0.02137047 0.03915771 0.08518445 0.042523436 0.04151737 -0.019028097 -0.06231182 -0.025096
-0.078959554 -0.011389278 -0.055004817 -0.06890409 0.09157168 -0.08434592 -0.06255807 -0.06258691
0.0802258 -0.073394634 0.007866934 0.03655467 0.06316639 0.06619454 -0.04746433 0.050754033
00000000: 549f 9bbd accf 08bd f6ba adbd 1a3a 29bd
00000010: 2686 603d afc7 4fbd a67b 06bd b21f 353d
00000020: 0074 45bc b355 983d 4077 5a3c 955f 803d
00000030: cc33 e83c 1f20 d63d 945a 913c 4af8 6e3d
00000040: edef 9a3d c00f 003c eed4 003d 9cc6 af3c
00000050: a0e1 74bd c430 2cbd 0004 65bc e669 6cbd
00000060: 64f1 9bbc 8851 b8bc f5f9 d63d 0296 673d
00000070: 4eb7 363d 9064 17bd 3097 a7bd 2560 c9bd
00000080: 1cca 80bd 448c c8bd 48cb 59bc c756 c5bd
00000090: 4c5a 983c eeee 3b3d 8891 9e3c afc8 9f3d
000000a0: e2ba 253d 8f6c 95bd 4758 58bd 6398 b23d
000000b0: 995f bd3d b0b9 ef3b 5d9e 95bd 56a9 39bd
000000c0: 9502 38bd 2c50 97bd be32 473d f348 c4bd
000000d0: 1ed1 95bd 5ad5 b0bd 78f8 0d3c 1bdb 70bd
000000e0: 0098 5dbc 2bff 8e3d 8abc 2ebd f5bb 8f3d
000000f0: 1e1c 603d 4be1 c4bd 473b b13d d3a4 44bd
00000100: dac8 493d 7abd 723d 59c6 afbd 4c8f 43bd
00000110: b56e c33d be3e 733d b7b6 6dbd c0d6 0d3c
00000120: 505f 443c 3acc 043d c26b 763d 0556 5fbd
00000130: 9850 553c 2be4 913d d72d c43d ac7e 01bd
00000140: 3d51 91bd 11ed 813d 6e6a 143d 014c b33d
00000150: e819 6fbc de22 1d3d 06a6 533d 9216 4d3d
00000160: fed2 313d 9278 20bd 5287 1b3d be66 193d
00000170: de08 243d 8060 57ba 5233 3e3d 1a70 703d
00000180: 1027 40bc 2646 1a3d 0fa9 953d c663 b8bd
00000190: 08ad 87bd 06d4 713d 7497 a2bd ff71 cbbd
000001a0: 4e41 8abd 616d d4bd b4f1 f0bc 90d8 453c
000001b0: 130e 67bd 6fee d63d aa59 323d 0088 84bb
000001c0: c269 2c3d a071 22bb 90c5 fcbb dacb 743d
000001d0: 6fc7 88bd 4ae1 4dbd 967b 323d 524f 95bd
000001e0: a862 5d3c d2f3 3abd d00f 95bb 3262 97bd
000001f0: ceaf 3a3d eda5 903d c644 0a3d d47f e7bc
00000200: 15ad c83d b372 a5bd 5997 45bd ffb7 d73d
00000210: 0afe 93bd 7933 bf3d 0ea4 6d3d 66b2 5b3d
00000220: c93f c43d 00a0 bb37 b861 b4bc b249 483d
00000230: fc15 d1bc e239 043d 465d 6e3d acbe a43c
00000240: 0ca7 a8bd e5ac 8bbd 6987 823d a418 d7bc
00000250: 6630 2ebd 48a3 6fbc 5f80 acbd 247e e43c
00000260: 3eaf d0bd 3bc3 89bd 39bc 4cbd b174 853d
00000270: e887 08bd 2733 8b3d 892a 813d 125f c7bd
00000280: 0010 8ebb eb05 a03d 95b4 a13d 2219 7dbd
00000290: c073 c5bd 07bb 5fbd 2e33 07bd 443f ac3c
000002a0: 8849 7fbc 4274 20bd e56d 803d 4364 44bd
000002b0: ae88 203d 7cbb dc3c b2d8 593d 79d0 d53d
000002c0: d575 76bd 522d cdbd 494a b53d e899 293c
000002d0: b5d8 ac3d ec06 a83c 0f2c 9e3d 96d8 83bd
000002e0: 4cc3 34bd 0030 7d3c 16d2 7a3d fc54 8cbd
000002f0: beb5 47bd 90f2 c2bc 302b 93bc 51e4 d0bd
00000300: a0a1 7f3b 88bb 5c3c 52a1 aabd 708e bdbc
00000310: 10dc 9fbd 1f60 a33d eac3 b9bd fca7 eb3c
00000320: 62c1 493d b247 0f3d 260c a5bd a808 7bbc
00000330: dacd 243d a818 71bc 002a 68ba e3a3 c13d
00000340: 8068 82bd 9473 e5bc bff7 90bd 6c00 b1bd
00000350: 7a6d 22bd 2015 89bd 209c c2bb 9b81 97bd
00000360: 653c b2bd 5de8 adbd c822 03bc 38b3 79bd
00000370: 0df5 50bd 0e7b 31bd eb83 cf3d 00b6 9239
00000380: a627 81bd a0bb b53b ccde bcbc 805a 48ba
00000390: bc02 ddbc c347 c9bd d70e b8bd dad0 6c3d
000003a0: 2011 afbc d663 203d 2f75 ae3d 0e2d 2e3d
000003b0: 1e0e 2a3d d0e0 9bbc ae3a 7fbd 2096 cdbc
000003c0: 8cb5 a1bd 189a 3abc bb4c 61bd 961d 8dbd
000003d0: ef89 bb3d 8ebd acbd 721e 80bd 912d 80bd
000003e0: 6d4d a43d ed4f 96bd 50e4 003c 5aba 153d
000003f0: 615d 813d 0191 873d f569 42bd 76e3 4f3d

res1.bn2.weight f4 [10]
1.0 1.0 1.0 1.0 1.0 1.0 1.0 1.0
1.0 1.0
00000000: 0000 803f 0000 803f 0000 803f 0000 803f
00000010: 0000 803f 0000 803f 0000 803f 0000 803f
00000020: 0000 803f 0000 803f

res1.bn2.bias f4 [10]
0.0 0.0 0.0 0.0 0.0 0.0 0.0 0.0
0.0 0.0
00000000: 0000 0000 0000 0000 0000 0000 0000 0000
00000010: 0000 0000 0000 0000 0000 0000 0000 0000
00000020: 0000 0000 0000 0000

res1.bn2.running_mean f4 [10]
0.0 0.0 0.0 0.0 0.0 0.0 0.0 0.0
0.0 0.0
00000000: 0000 0000 0000 0000 0000 0000 0000 0000
00000010: 0000 0000 0000 0000 0000 0000 0000 0000
00000020: 0000 0000 0000 0000

res1.bn2.running_var f4 [10]
1.0 1.0 1.0 1.0 1.0 1.0 1.0 1.0
1.0 1.0
00000000: 0000 803f 0000 803f 0000 803f 0000 803f
00000010: 0000 803f 0000 803f 0000 803f 0000 803f
00000020: 0000 803f 0000 803f

res2.conv1.weight f4 [10, 10, 3, 3]
-0.07019079 0.08567429 -0.066792645 0.0029165 -0.07984568 -0.042631082 0.010468602 0.09780993
0.05853706 -0.02197019 -0.06667882 -0.014195971 0.030738108 0.034914546 0.028971232 0.07257768
0.08194985 -0.05318939 -0.10288275 -0.09045556 -0.022803225 0.038739197 -0.052148294 -0.022633702
-0.04783673 0.0401975 -0.05426248 -0.08282399 -0.07860451 0.023114748 0.022934474 -0.03316109
0.077830784 -0.0073038638 0.042206116 -0.08007743 -0.099876754 -0.102980934 -0.084224865 -0.061589915
0.040923886 -0.059359543 -0.025256716 0.028989278 -0.07747318 -0.03677275 0.055939876 0.00220415
-0.0899998 0.041473337 0.058650725 0.051344566 0.063276865 0.030975796 -0.0075429156 -0.06441295
-0.07011604 0.08161118 -0.061481863 -0.03550896 0.010029487 0.09659199 -0.068204656 0.09422874
0.04576496 0.10163016 -0.104926445 -0.02372393 -0.004351571 0.020135574 -0.0062513277 -0.027136043
-0.057809357 0.09487098 -0.09244323 -0.09525456 0.07496185 0.104593925 -0.018260881 -0.08733858
-0.09195711 -0.019619152 -0.060841274 -0.0013050959 0.07955653 -0.07309158 -0.065460175 -0.028097488
0.043507956 -0.003931828 -0.027046822 -0.06285547 -0.034704007 0.03197404 -0.08903608 0.09430397
0.024604894 0.091640554 -0.058880713 -0.059004888 0.03653618 -0.05153173 -0.010186069 0.014027901
-0.062603265 0.030674554 0.08193036 0.038263343 -0.07837776 -0.08783159 0.07332068 0.10333959
0.022485666 -0.02308572 0.048865326 -0.08682536 0.050550617 -0.062563956 -0.09787137 0.07276776
0.037053443 -0.029511184 0.06322207 -0.0988554 -0.03886313 0.018099762 -0.085926555 0.03374242
0.047194622 0.026593976 0.072673805 0.055845253 0.102190845 0.05292154 0.03393068 0.06970435
-0.08193259 -0.030870497 -0.04088688 -0.04435909 -0.100433715 0.056520544 0.017300226 0.03247518
-0.01846695 -0.099868245 -0.0013611764 -0.09108319 0.021632351 -0.085670605 -0.043485418 -0.064743824
0.061365746 -0.0006647557 0.0022740662 -0.07502177 0.028046034 -0.052089497 -0.08447099 0.050638936
0.03785447 -0.06803855 0.011367619 -0.10402712 0.03474141 -0.006406978 -0.043246467 0.09067633
-0.025545113 -0.022863567 -0.053659752 0.099057384 -0.06944657 0.017737515 0.054766275 0.027427398
-0.08353847 0.0088085905 -0.03457717 -0.03533631 -0.08449573 -0.014931843 0.09683763 -0.083384156
-0.037134342 -0.057842165 0.014122784 -0.053617895 -0.078762084 0.009382054 -0.071087405 -0.034571983
-0.03512334 0.009506226 -0.008618429 -0.027699329 -0.100055516 0.030412681 -0.040749937 -0.09358608
0.09691449 -0.086937666 0.016034 0.105159365 -0.05387243 0.058874823 -0.06456109 -0.017836183
-0.034729943 0.07715192 -0.08088996 -0.04597956 0.05510349 0.018778518 0.027235426 0.024519615
0.030309193 -0.065449506 -0.103626855 0.033055134 0.01884225 0.06061063 -0.06834602 0.011405274
-0.08050609 0.07626624 -0.02663643 0.09622117 -0.07628531 -0.027691096 -0.0394663 0.020500146
0.0065893084 -0.10522828 -0.004575208 0.064920165 -0.08239557 0.09877389 -0.073875085 -0.0133678615
0.024908654 0.03775125 0.04059226 -0.053349026 0.050643764 0.018429905 0.025814481 0.09280277
0.027835794 -0.099351265 0.009442732 -0.079553515 -0.033936277 0.028527983 0.08901269 -0.10288585
00000000: 30c0 8fbd 0176 af3d 95ca 88bd c022 3f3b
00000010: 2286 a3bd ee9d 2ebd 8084 2b3c 9350 c83d
00000020: 8ec4 6f3d d4fa b3bc e88e 88bd 3896 68bc
00000030: 7cce fb3c 8e02 0f3d 1455 ed3c 9ba3 943d
00000040: 53d5 a73d 1edd 59bd 31b4 d2bd c440 b9bd
00000050: d4cd babc feac 1e3d 7399 55bd 506a b9bc
00000060: 72f0 43bd 22a6 243d 5642 5ebd a09f a9bd
00000070: 67fb a0bd 245b bd3c 14e1 bb3c ecd3 07bd
00000080: bf65 9f3d 4055 efbb 52e0 2c3d a3ff a3bd
00000090: 2f8c ccbd abe7 d2bd 167e acbd b545 7cbd
000000a0: ce9f 273d fe22 73bd 2ce7 cebc ec7a ed3c
000000b0: 42aa 9ebd 069f 16bd 3621 653d 8073 103b
000000c0: d151 b8bd f2df 293d be3b 703d ae4e 523d
000000d0: 4d97 813d f4c0 fd3c 902a f7bb f0ea 83bd
000000e0: 0099 8fbd c323 a73d 68d4 7bbd d871 11bd
000000f0: b852 243c 05d2 c53d e2ae 8bbd fffa c03d
00000100: 0a74 3b3d 7923 d03d ade3 d6bd b058 c2bc
00000110: a097 8ebb 5cf3 a43c f0d7 ccbb 684c debc
00000120: 81c9 6cbd b74b c23d e052 bdbd d314 c3bd
00000130: 9985 993d 5735 d63d d897 95bc 92de b2bd
00000140: 0254 bcbd 58b8 a0bc b334 79bd c00f abba
00000150: 89ee a23d 0ab1 95bd fc0f 86bd b42c e6bc
00000160: 6635 323d 90d6 80bb 4c91 ddbc 5eba 80bd
00000170: ca25 0ebd 36f7 023d 8c58 b6bd 7122 c13d
00000180: 3490 c93c 0bae bb3d e72c 71bd 1caf 71bd
00000190: f6a6 153d ef12 53bd 78e3 26bc 48d5 653c
000001a0: 2436 80bd 3449 fb3c 1bcb a73d 06ba 1c3d
000001b0: 8584 a0bd 0ce1 b3bd 2729 963d b5a3 d33d
000001c0: dc33 b83c 441e bdbc 0227 483d 7fd1 b1bd
000001d0: 2a0e 4f3d 8821 80bd c970 c8bd 4307 953d
000001e0: 5ac5 173d 70c1 f1bc 937a 813d b374 cabd
000001f0: f22e 1fbd f445 943c 43fa afbd 7e35 0a3d
00000200: 264f 413d 9cdb d93c 01d6 943d febd 643d
00000210: 6f49 d13d 42c4 583d e6fa 0a3d 27c1 8e3d
00000220: 46cc a7bd 20e4 fcbc 0079 27bd e1b1 35bd
00000230: 31b0 cdbd 1682 673d 34b9 8d3c b204 053d
00000240: 0048 97bc b987 ccbd 8069 b2ba d389 babd
00000250: 5436 b13c 1274 afbd c41d 32bd 6998 84bd
00000260: a65a 7b3d 0043 2eba 8008 153b 04a5 99bd
00000270: ccc0 e53c cc5b 55bd 20ff acbd c66a 4f3d
00000280: 4a0d 1b3d cc57 8bbd 403f 3a3c 2c0c d5bd
00000290: 024d 0e3d a0f1 d1bb 3523 31bd 83b4 b93d
000002a0: fc43 d1bc 604c bbbc 54ca 5bbd 99de ca3d
000002b0: 013a 8ebd 444e 913c 9a52 603d 6caf e03c
000002c0: 3816 abbd e851 103c caa0 0dbd cebc 10bd
000002d0: 190c adbd b0a4 74bc cf52 c63d 50c5 aabd
000002e0: 2e1a 18bd e8eb 6cbd 4063 673c 709e 5bbd
000002f0: 044e a1bd 30b7 193c 4696 91bd 5a9b 0dbd
00000300: 7edd 0fbd 00c0 1b3c 5034 0dbc b4e9 e2bc
00000310: e8e9 ccbd 0424 f93c 68e9 26bd 0faa bfbd
00000320: 1b7b c63d 600c b2bd bc59 833c cb5d d73d
00000330: 56a9 5cbd ba26 713d 9b38 84bd 301d 92bc
00000340: fc40 0ebd d301 9e3d a3a9 a5bd 1055 3cbd
00000350: 32b4 613d 68d5 993c d41c df3c 5cdd c83c
00000360: fc4a f83c 640a 86bd 513a d4bd d264 073d
00000370: 105b 9a3c da42 783d 00f9 8bbd 30dd 3a3c
00000380: 60e0 a4bd 7931 9c3d a434 dabc 9b0f c53d
00000390: 793b 9cbd 70d8 e2bc 6aa7 21bd ecef a73c
000003a0: 20eb d73b ed81 d7bd a0eb 95bb ddf4 843d
000003b0: 02bf a8bd f749 ca3d d24b 97bd e004 5bbc
000003c0: 3c0d cc3c 0ea1 1a3d 1244 263d 8284 5abd
000003d0: d66f 4f3d 50fa 963c e478 d33c 610f be3d
000003e0: e407 e43c ad78 cbbd b0b5 1a3c f4ec a2bd
000003f0: c400 0bbd 84b3 e93c 494c b63d d1b5 d2bd

res2.bn1.weight f4 [10]
1.0 1.0 1.0 1.0 1.0 1.0 1.0 1.0
1.0 1.0
00000000: 0000 803f 0000 803f 0000 803f 0000 803f
00000010: 0000 803f 0000 803f 0000 803f 0000 803f
00000020: 0000 803f 0000 803f

res2.bn1.bias f4 [10]
0.0 0.0 0.0 0.0 0.0 0.0 0.0 0.0
0.0 0.0
00000000: 0000 0000 0000 0000 0000 0000 0000 0000
00000010: 0000 0000 0000 0000 0000 0000 0000 0000
00000020: 0000 0000 0000 0000

res2.bn1.running_mean f4 [10]
0.0 0.0 0.0 0.0 0.0 0.0 0.0 0.0
0.0 0.0
00000000: 0000 0000 0000 0000 0000 0000 0000 0000
00000010: 0000 0000 0000 0000 0000 0000 0000 0000
00000020: 0000 0000 0000 0000

res2.bn1.running_var f4 [10]
1.0 1.0 1.0 1.0 1.0 1.0 1.0 1.0
1.0 1.0
00000000: 0000 803f 0000 803f 0000 803f 0000 803f
00000010: 0000 803f 0000 803f 0000 803f 0000 803f
00000020: 0000 803f 0000 803f

res2.conv2.weight f4 [10, 10, 3, 3]
0.048766874 -0.07236894 -0.0846878 0.0063295662 0.07366968 0.029188491 0.028913788 -0.08962385
0.04808811 0.05192361 0.05522991 -0.0632163 0.027908467 -0.028845198 0.012287468 -0.08255461
0.08424849 -0.0012083873 -0.082641475 -0.061978877 -0.053569216 0.0677327 -0.047133736 0.01919043
0.08624972 0.03187584 0.011267446 0.080516286 0.06498634 -0.076664545 0.024281658 0.0050416365
-0.0013973862 0.098951034 -0.048105974 -0.093835145 -0.01610446 -0.08928732 0.03332398 0.09107331
-0.07056859 0.0043386444 0.026810132 0.025461085 0.0934334 -0.04648828 0.10464256 -0.01699759
-0.019274011 -0.031502217 0.035914652 0.08374923 -0.059003092 -0.002317369 -0.014723077 -0.09082821
0.0029042587 -0.033266112 -0.05686034 -0.059803218 -0.10278374 -0.014979847 -0.0840628 0.09770935
0.034209393 0.072447605 -0.050543305 -0.08659744 -0.0202211 -0.08355594 -0.09633809 0.069575615
0.001568824 -0.08376708 -0.012197785 0.100546665 -0.06555779 -0.0663677 -0.0052866265 0.07283779
0.097455285 -0.096640326 0.09804063 0.05590702 -0.05992591 0.0752059 -0.022625595 0.026661776
0.005887866 0.031606324 0.0027910545 -0.07021262 -0.04786887 -0.004560031 0.0034445375 -0.04660977
-0.013559423 -0.039458707 -0.020438217 0.0636216 -0.03683751 -0.09332445 -0.035479255 -0.10133163
0.10154047 -0.016710453 -0.029367328 -0.0103295 0.100823246 -0.08718983 -0.00833194 0.09743153
-0.091560796 0.036067374 0.07192946 -0.07656172 -0.06308369 0.08034096 0.036363967 0.06573943
0.07366388 0.01726558 0.017970622 -0.08280839 -0.011496037 0.021201096 -0.044189114 0.06160804
-0.10298045 -0.040685162 -0.06823719 0.015031129 -0.065320656 -0.015761212 0.058354296 -0.0031910017
0.045287378 -0.08579101 0.091563426 -0.06495652 -0.011740521 0.0691169 -0.044005893 -0.043263935
-0.06668682 -0.023371212 0.0034487247 -0.043531746 -0.012705572 0.061360233 -0.007594697 -0.075874075
0.081962086 -0.044250835 -0.10179317 0.06870877 0.09876021 -0.02548667 0.09652864 0.053655736
0.047041096 0.09354048 0.05039332 -0.0547632 0.075750254 0.034994163 0.045632787 -0.035196856
0.043725766 -0.030456997 0.038120486 0.0032626912 0.005994506 0.049610816 0.07852144 -0.082576886
0.086175494 0.09385983 -0.10401791 0.10103198 0.068240575 -0.04941339 -0.07771567 0.02366265
0.06318604 -0.092400536 0.0045236275 -0.017556094 0.10294054 0.06720198 -0.0013805032 -0.029877007
-0.1004468 -0.0008791238 -0.098822474 0.054386757 -0.05000393 0.07116871 -0.019401424 0.09029188
0.035623126 -0.09566619 0.07191601 -0.042322956 0.04919655 -0.042300418 -0.027699202 -0.042157203
-0.0691008 -0.0383204 -0.02839508 0.058347307 0.031174846 0.090270855 -0.07706832 -0.0781655
-0.100360386 0.083032794 -0.052379 0.013318926 0.01920981 0.09735989 -0.010986522 0.042602427
-0.015095316 0.063899614 0.10215568 0.027647741 0.04997755 -0.014593802 0.10087038 -0.08104382
-0.042266876 0.03782458 -0.08621603 -0.10224631 -0.032080993 -0.025471918 0.012098305 0.03828623
-0.05903276 0.019886993 0.07721723 -0.0020024925 -0.10159182 -0.10054931 -0.06358838 -0.090225555
-0.007997304 0.08251365 0.013302028 -0.079341434 0.011234708 -0.0630756 -0.027256347 0.05417981
00000000: c6bf 473d 2b36 94bd cc70 adbd 4068 cf3b
00000010: 21e0 963d b41c ef3c 9cdc ec3c b68c b7bd
00000020: 0af8 443d daad 543d c238 623d 8c77 81bd
00000030: 4ca0 e43c c44c ecbc 6051 493c 6412 a9bd
00000040: 798a ac3d c062 9eba ef3f a9bd 90dd 7dbd
00000050: 656b 5bbd 71b7 8a3d 4e0f 41bd 4035 9d3c
00000060: b1a3 b03d 3e90 023d 189b 383c b9e5 a43d
00000070: 8f17 853d 4d02 9dbd 54ea c63c 5034 a53b
00000080: 8028 b7ba d7a6 ca3d c50a 45bd a42c c0bd
00000090: 80ed 83bc 45dc b6bd ba7e 083d a584 ba3d
000000a0: 4486 90bd 302b 8e3b eca0 db3c c493 d03c
000000b0: 035a bf3d 7f6a 3ebd d74e d63d 883e 8bbc
000000c0: 88e4 9dbc 7808 01bd 3e1b 133d b784 ab3d
000000d0: 3aad 71bd 00df 17bb 1039 71bc 2404 babd
000000e0: 6055 3e3b 0c42 08bd 63e6 68bd 38f4 74bd
000000f0: 4880 d2bd 086e 75bc 1e29 acbd d71b c83d
00000100: 261f 0c3d 695f 943d 7f06 4fbd 005a b1bd
00000110: b8a6 a5bc 601f abbd e84c c5bd a97d 8e3d
00000120: 00a1 cd3a 138e abbd 38d9 47bc 69eb cd3d
00000130: 2a43 86bd caeb 87bd 703b adbb fb2b 953d
00000140: a396 c73d 5deb c5bd 87c9 c83d c2fe 643d
00000150: df74 75bd 8d05 9a3d 5059 b9bc cc69 da3c
00000160: 00ef c03b a275 013d 20ea 363b a2cb 8fbd
00000170: 2612 44bd 506c 95bb c0bd 613b e3e9 3ebd
00000180: 5828 5ebc 749f 21bd 0c6e a7bc 0b4c 823d
00000190: eee2 16bd e420 bfbd b252 11bd f586 cfbd
000001a0: 73f4 cf3d 5ce4 88bc c093 f0bc 103d 29bc
000001b0: 6b7c ce3d 9590 b2bd b082 08bc 2f8a c73d
000001c0: 3a84 bbbd 62bb 133d c14f 933d 64cc 9cbd
000001d0: 0632 81bd cd89 a43d 62f2 143d 65a2 863d
000001e0: 17dd 963d 8c70 8d3c 2037 933c 7297 a9bd
000001f0: e059 3cbc ecad ad3c a5ff 34bd b658 7c3d
00000200: 6ae7 d2bd 7ca5 26bd f1bf 8bbd 2045 763c
00000210: d6c6 85bd a81d 81bc ea04 6f3d 2020 51bb
00000220: 427f 393d 32b3 afbd 9b85 bb3d ed07 85bd
00000230: 505b 40bc 298d 8d3d 863f 34bd 8635 31bd
00000240: 1993 88bd fc74 bfbc 0004 623b 584e 32bd
00000250: 082b 50bc de54 7b3d f0dc f8bb de63 9bbd
00000260: bddb a73d 5d40 35bd f078 d0bd 2fb7 8c3d
00000270: cb42 ca3d 6cc9 d0bc cfb0 c53d 1ec6 5b3d
00000280: 2aae 403d 2792 bf3d 3a69 4e3d 614f 60bd
00000290: f322 9b3d 0a56 0f3d 72e9 3a3d 942a 10bd
000002a0: ca19 333d f480 f9bc 3a24 1c3d e0d2 553b
000002b0: 906d c43b b634 4b3d d9cf a03d 121e a9bd
000002c0: c77c b03d 9539 c03d 5807 d5bd dbe9 ce3d
000002d0: b7c1 8b3d b265 4abd 6529 9fbd 2cd8 c13c
000002e0: af67 813d 7e3c bdbd f03a 943b ccd1 8fbc
000002f0: 7dd2 d23d 31a1 893d 00f2 b4ba a0c0 f4bc
00000300: 0db7 cdbd 0075 66ba 7063 cabd a6c4 5e3d
00000310: ecd0 4cbd e7c0 913d bcef 9ebc f3ea b83d
00000320: 8ee9 113d a3ec c3bd b348 933d d65a 2dbd
00000330: 5282 493d 3443 2dbd 70e9 e2bc 08ad 2cbd
00000340: b884 8dbd daf5 1cbd cc9c e8bc 96fd 6e3d
00000350: 6462 ff3c eddf b83d ffd5 9dbd 3c15 a0bd
00000360: bf89 cdbd 190d aa3d 5d8b 56bd a037 5a3c
00000370: e45d 9d3c 9f64 c73d d000 34bc e27f 2e3d
00000380: 5852 77bc cddd 823d ff36 d13d 847d e23c
00000390: 42b5 4c3d d81a 6fbc 2195 ce3d 4dfa a5bd
000003a0: 0820 2dbd f2ed 1a3d 0892 b0bd 8366 d1bd
000003b0: 5c67 03bd 7caa d0bc f837 463c 06d2 1c3d
000003c0: 56cc 71bd 0cea a23c 1124 9e3d 403c 03bb
000003d0: 5f0f d0bd ccec cdbd a03a 82bd 2dc8 b8bd
000003e0: 2007 03bc ebfc a83d c0f0 593c c37d a2bd
000003f0: c811 383c c82d 81bd b448 dfbc a6eb 5d3d

res2.bn2.weight f4 [10]
1.0 1.0 1.0 1.0 1.0 1.0 1.0 1.0
1.0 1.0
00000000: 0000 803f 0000 803f 0000 803f 0000 803f
00000010: 0000 803f 0000 803f 0000 803f 0000 803f
00000020: 0000 803f 0000 803f

res2.bn2.bias f4 [10]
0.0 0.0 0.0 0.0 0.0 0.0 0.0 0.0
0.0 0.0
00000000: 0000 0000 0000 0000 0000 0000 0000 0000
00000010: 0000 0000 0000 0000 0000 0000 0000 0000
00000020: 0000 0000 0000 0000

res2.bn2.running_mean f4 [10]
0.0 0.0 0.0 0.0 0.0 0.0 0.0 0.0
0.0 0.0
00000000: 0000 0000 0000 0000 0000 0000 0000 0000
00000010: 0000 0000 0000 0000 0000 0000 0000 0000
00000020: 0000 0000 0000 0000

res2.bn2.running_var f4 [10]
1.0 1.0 1.0 1.0 1.0 1.0 1.0 1.0
1.0 1.0
00000000: 0000 803f 0000 803f 0000 803f 0000 803f
00000010: 0000 803f 0000 803f 0000 803f 0000 803f
00000020: 0000 803f 0000 803f
