SuperGo-master/saved_models/1584176235/1-value_net.pth.tar (torch_old, 87672 bytes, 4 tensors)

conv.weight f4 [1, 10, 1, 1]
000000 90 4a c0 bd a1 8c 27 be fe 87 52 3e 00 35 c5 bc
       -0.09389222 -0.1636224 0.2055969 -0.024073124
000010 a7 ca 63 be eb 64 93 3e ca da 11 be bc ab 72 be
       -0.22245274 0.28787932 -0.14243618 -0.23698324
000020 b0 f0 4d bd fb 5d 43 be
       -0.050278366 -0.1907882

fc1.weight f4 [256, 81]
000000 10 eb 4c bc 0c 77 c3 3c f2 ed 07 bd 29 e2 b0 3d
       -0.012507215 0.023860477 -0.033185907 0.086368866
000010 e7 61 5d bd e5 71 af 3d 04 14 ce 3c 02 5b 68 3d
       -0.054048445 0.085666455 0.025156029 0.056727417
000020 9a 28 6c 3d 08 23 b4 bc 24 d3 e6 3c 6a 45 90 bd
       0.05765591 -0.02198936 0.028176852 -0.0704449
000030 3a a2 48 3d 73 8c d5 3d ed 36 c9 3d 90 cc f2 bb
       0.048982836 0.10427179 0.098249294 -0.0074096397
000040 fd db c7 3d 97 a2 bd bd 6e b6 0e bd c9 50 e2 bd
       0.09758756 -0.09259527 -0.034841947 -0.11050565
000050 00 d0 c2 ba 35 93 56 bd 99 3e 90 3d a5 1e ba 3d
       -0.0014863014 -0.05238648 0.070431896 0.09087876
000060 6c de c7 3c 3d d1 9a 3d 63 c3 9f 3d e0 bb e5 3b
       0.024398051 0.0755944 0.07800939 0.007010922
000070 77 86 cc 3d 98 2e 68 3c b6 42 bd bd 4e b5 4c bd
       0.09986585 0.014171265 -0.0924124 -0.049977593
000080 6a 37 46 bd 24 23 de 3c 00 eb 2f bc b5 6d 67 bd
       -0.04839269 0.027116366 -0.010737181 -0.05650111
000090 57 0c 99 3d 60 87 18 3b f0 27 ec bc a0 a8 03 bd
       0.07473057 0.002327405 -0.028827637 -0.032143235
0000a0 13 67 a5 3d 36 57 3b 3d fe 05 9b bd 10 b1 2c 3c
       0.080763005 0.045737468 -0.07569502 0.010540262
0000b0 c0 42 21 bd b9 0b 80 3d 07 15 b4 3d 04 71 23 bd
       -0.0393703 0.06252236 0.08793073 -0.039902702
0000c0 70 95 aa bc a6 37 55 3d 8c d5 b2 3c 50 2e 99 3b
       -0.02082321 0.052055024 0.021830343 0.0046747103
0000d0 57 e4 ca bd 26 15 81 bd cb 53 a8 3d b0 41 a3 bd
       -0.099068336 -0.06302862 0.08219107 -0.07971513
0000e0 40 e0 f6 3b 58 af 55 bc a7 28 bf bd bc b8 80 3c
       0.007534057 -0.0130422935 -0.09333926 0.015713088
0000f0 d5 7c d7 bd c2 04 7a 3d 90 d1 da 3b ec 08 9f bd
       -0.10521857 0.061039694 0.006677814 -0.077653736
000100 40 91 c4 ba 2a b1 97 bd da 46 0d 3d 00 eb e6 3b
       -0.0014996901 -0.07406838 0.034491397 0.007047057
000110 f6 7c bd bd 88 e7 67 3c 92 88 00 bd 1c 19 e0 bc
       -0.0925235 0.014154322 -0.031380244 -0.027355723
000120 74 10 85 bd 7c ca 99 3c 70 12 00 3c 24 f3 60 bd
       -0.06497279 0.01877331 0.007816896 -0.054919377
000130 80 13 54 bd 60 7b 01 bb ae f3 6b bd f1 3e cb 3d
       -0.05177641 -0.0019757375 -0.057605438 0.099241145
000140 56 6b 65 3d ea 62 78 3d b0 b2 8a bc 21 1d 9d 3d
       0.056010567 0.060641207 -0.016930908 0.076715715
000150 72 7d 4e 3d 82 f2 36 3d e4 a2 8a bc 34 bc b7 3c
       0.050412603 0.044664867 -0.016923375 0.02242861
000160 aa 4b 91 bd ca 32 3e bd 6c 4c a4 bc 20 4d 36 bb
       -0.0709451 -0.046435155 -0.020055972 -0.0027816966
000170 01 32 a4 3d 1e 09 61 3d c9 ea b9 3d 37 73 df bd
       0.0801735 0.054940335 0.09077985 -0.10910647
000180 00 69 14 3a 26 9a bd bd 68 bc 36 bd be 79 9f bd
       0.0005661398 -0.09257917 -0.044613272 -0.07786892
000190 5a 0b 9e bd 2e 9c 52 3d 04 53 b5 bd d0 ac bc bd
       -0.07717009 0.051418476 -0.088537246 -0.09212649
0001a0 70 b1 73 bc 6a 53 06 3d 88 70 a3 bc e5 94 9d 3d
       -0.014873847 0.032794394 -0.01995112 0.07694415
0001b0 d5 4f 8b 3d 40 82 e2 3b 82 fc 2a 3d d8 82 20 bc
       0.06802336 0.0069124997 0.041744716 -0.009796821
0001c0 c0 28 c4 bc 89 f0 a8 bd 9e de 93 bd ae 61 a7 bd
       -0.023945212 -0.082490034 -0.07220195 -0.08172928
0001d0 e9 4f ad 3d b8 09 e7 bc 21 92 c1 3d 3a a0 45 3d
       0.08462507 -0.028202876 0.094517 0.048248507
0001e0 c9 91 c3 3d 61 bd dd 3d 00 54 da b8 7a 03 71 3d
       0.09549291 0.10827137 -0.00010410696 0.058841206
0001f0 10 38 ff bc 56 62 3f bd c0 b9 c5 bd 63 5d ba 3d
       -0.031154662 -0.04672464 -0.096545696 0.09099843
000200 8e 78 de bd 31 9e c9 3d d8 e0 25 bc e4 a6 de bc
       -0.10862838 0.09844626 -0.010124408 -0.027179189
000210 3c ca 22 bd e7 60 59 bd 92 72 1f bd 2e 27 99 bd
       -0.039743647 -0.05307093 -0.038927622 -0.07478176
000220 cf 68 94 3d f0 7b 21 bc 40 7c 99 bc f7 75 8a 3d
       0.07246553 -0.009856209 -0.018736005 0.06760781
000230 00 5c 5c bd ba f9 8a bd 12 b9 18 bd a0 1a 63 bc
       -0.053798676 -0.06785913 -0.03728587 -0.013861328
000240 55 f2 4b bd dc a7 2c bd 2e 15 c2 bd 79 7d c2 bd
       -0.049791653 -0.04215227 -0.09476696 -0.09496588
000250 60 5e 36 3c 32 a7 8c bd e6 c7 45 3d ae dc 1e 3d
       0.011130899 -0.068678275 0.04828634 0.038784675
000260 00 d1 a4 bc e1 c8 bb 3d 14 db a8 bd 80 32 88 bd
       -0.02011919 0.09169174 -0.08244911 -0.06650257
000270 16 46 35 bd 60 25 3c bd 3c ee a2 3c 76 fc 42 bd
       -0.044256292 -0.04593408 0.01988899 -0.047604047
000280 a2 f3 66 3d 70 24 54 bc 36 a4 0c 3d 9c 5b af bc
       0.05638469 -0.0129481405 0.03433629 -0.021405987
000290 91 80 d1 3d 8c ec c4 3c 88 fa 26 bd e8 d8 05 bd
       0.102296 0.024038576 -0.04076627 -0.03267756
0002a0 1c bb f0 3c ae 9b 2e 3d e8 c4 02 bd ac 7f fa 3c
       0.029386096 0.042628936 -0.031926066 0.030578457
0002b0 40 68 c8 3b 5c c4 aa bc 3f 08 9e 3d 1d 8b 66 bd
       0.006115943 -0.020845585 0.077164166 -0.056285013
0002c0 dd 38 d6 3d 3f 5a 93 3d c2 69 6c 3d 81 51 ca 3d
       0.104600646 0.071949475 0.057718046 0.09878827
0002d0 a4 71 5b bd 17 1d be 3d 80 f2 2a ba da ad 4a 3d
       -0.053575173 0.09282892 -0.00065211207 0.049482204
0002e0 4f f9 a7 3d 1b 82 b5 bd 7a 92 6d 3d 79 25 a7 bd
       0.08201849 -0.08862706 0.05800102 -0.08161444
0002f0 14 0b 9e bd c6 5c 88 bd 7e 3b 20 3d 8b ce 6f bd
       -0.07716957 -0.0665832 0.039119236 -0.058546584
000300 77 ba 81 bd 6b 2b 5f bd 37 1d b4 3d 2b e2 c7 3d
       -0.063343935 -0.054484766 0.08794635 0.09759935
000310 81 c9 a2 3d d1 76 b7 3d 28 dd 41 3c 28 1f 1d bd
       0.0794859 0.08958209 0.011832513 -0.03835979
000320 6d a1 9f 3d e0 81 25 3c b6 bd 05 3d 6e de 65 3d
       0.077944614 0.010101765 0.032651626 0.05612033
000330 20 86 82 bd 5a 13 59 3d 63 e5 bf 3d 36 39 03 bd
       -0.063732386 0.05299697 0.09369924 -0.032036982
000340 50 95 85 bc 89 13 af 3d 4a 41 1c 3d f0 1d 6b bc
       -0.01630655 0.08548648 0.038148202 -0.014350399
000350 a8 65 00 bd 04 1c ed 3c c8 88 5b 3c 20 78 8e 3b
       -0.031346947 0.028944023 0.01339931 0.004347816
000360 94 d9 de 3c e0 2b 03 bd 50 b0 fa 3b 78 39 d3 bc
       0.027203359 -0.032024264 0.0076504126 -0.02578424
000370 03 24 aa 3d b2 34 25 bd 0c 25 9d bd 59 00 8e 3d
       0.0830765 -0.040333457 -0.07673082 0.0693366
000380 73 2d 93 3d df 94 87 3d 60 f9 36 bb 1c f9 a2 3c
       0.07186403 0.06620192 -0.0027919635 0.019894175
000390 27 f3 69 bd e4 b9 c4 bc cc 0b f0 3c 94 54 9d bd
       -0.057116654 -0.02401442 0.0293025 -0.076821476
0003a0 91 3b 83 3d fb 21 bc 3d d2 9c 1b 3d fa 9f 4f 3d
       0.06407846 0.09186169 0.037991352 0.050689675
0003b0 6a 27 02 bd c6 b5 5e 3d 62 7a 0d 3d ea 62 45 3d
       -0.03177587 0.05437257 0.03454054 0.048190035
0003c0 5c 1c ea 3c 20 3f d1 bd 78 16 d2 bc 00 ce 02 3c
       0.028577976 -0.10217118 -0.02564548 0.007983685
0003d0 76 d3 1b bd fa 8e 6a 3d bb 70 b6 3d 36 58 16 3d
       -0.03804346 0.05726526 0.089082204 0.03670522
0003e0 2b d4 b5 bd 59 ab 8f 3d 8e ed 40 bd 90 de ee bc
       -0.088783585 0.07015104 -0.04710155 -0.02915886
0003f0 d4 7f f7 bc 40 37 9e 3b fc 40 c5 bd 0e 59 1a bd
       -0.03021232 0.0048283637 -0.096315354 -0.037682585

fc1.bias f4 [256]
000000 32 30 07 3d 3b 32 bc 3d 40 02 ae bc 73 fe c3 3d
       0.033004947 0.09189268 -0.021241307 0.09570017
000010 fe 97 51 3d 0f 6c 9f 3d 20 1b 39 3c d1 c8 b1 3d
       0.05117034 0.077842824 0.011297971 0.08680881
000020 c9 0a 9a bd c4 4f 89 bd 29 24 d0 bd 90 eb 86 bb
       -0.07521588 -0.06704667 -0.10163147 -0.0041174367
000030 0e 2d 3b bd 00 39 9b 3b e9 7f 88 3d 1e 8e 35 3d
       -0.045697264 0.0047370195 0.06665022 0.044324987
000040 86 aa b9 bd 1e 60 d8 bd 5b 1e 8c 3d 72 f3 3e 3d
       -0.09065728 -0.10565208 0.06841727 0.046618886
000050 90 da ea bc 43 ce b6 3d 52 35 77 bd 1e f1 36 3d
       -0.028668672 0.0892606 -0.060353585 0.04466354
000060 ec fa bc bc 1a 3d 37 3d 46 a7 1f 3d 2c 12 cd 3c
       -0.023068868 0.044736005 0.038977884 0.02503308
000070 dd f9 60 bd 01 d3 d9 3d 60 a7 71 bb 93 8f c0 3d
       -0.05492579 0.10635949 -0.0036873445 0.094023846
000080 ac 94 f6 bc 68 d2 15 bd 88 cc 6e 3c 94 52 95 bd
       -0.03010019 -0.036577612 0.014575131 -0.07291141
000090 53 dc b6 3d 40 8f ac 3b b0 9e bd 3b d2 af 54 3d
       0.08928742 0.0052661 0.0057867393 0.051925488
0000a0 18 17 7a 3c 02 68 49 3d 23 23 b0 3d 82 f7 a2 bd
       0.015264295 0.049171455 0.08600452 -0.079573646
0000b0 b8 77 57 bc 1c f3 e4 bc 00 6f 4b 3a 05 06 d2 bd
       -0.013151102 -0.027947955 0.0007760376 -0.102550544
0000c0 5e 54 0c 3d e4 e0 ab 3c 05 a6 bb 3d ae a3 06 3d
       0.034260146 0.02098126 0.09162525 0.03287094
0000d0 84 1e c5 3c 67 dd d9 3d aa 1c 37 bd b7 74 aa bd
       0.024062403 0.10637932 -0.04470507 -0.08323043
0000e0 20 8f 2c bc ac c3 ab 3c 62 09 d5 bd 94 09 94 bd
       -0.0105321705 0.020967327 -0.1040218 -0.072283894
0000f0 20 b1 5c 3b 89 0d bc 3d c0 f8 a3 bc 5c 6a 39 bd
       0.003367491 0.09182269 -0.020016074 -0.045267448
000100 2e b2 1a bd c2 44 b3 bd 22 35 7a 3d 2c 59 b6 bc
       -0.03776758 -0.08753349 0.061085828 -0.022259317
000110 0e 97 52 bd a4 53 e1 bc af 24 84 3d 86 f3 9f bd
       -0.05141359 -0.027505703 0.06452309 -0.0781012
000120 25 f1 9b 3d 10 3f 2b 3c c8 d1 56 bc 72 5d 0a bd
       0.07614354 0.010452047 -0.013111539 -0.033780523
000130 83 c0 be 3d 17 91 d2 3d bf 9f 80 3d 00 5d 44 bc
       0.093140624 0.1028158 0.06280469 -0.011985064
000140 a0 2e 0d 3c c0 61 44 bb 90 1f ab bb c9 bc a4 3d
       0.008617073 -0.002996549 -0.0052222684 0.080438204
000150 1c 65 ba bc 04 db 35 bd 4d 61 d2 3d 22 8e 1a 3d
       -0.02275329 -0.044398323 0.10272465 0.037733205
000160 3d c3 db 3d ca 12 18 3d 47 c3 cf 3d 3c 54 94 3c
       0.10730598 0.037127294 0.10144668 0.018106572
000170 01 7e 93 3d 08 85 ee bc 24 d1 71 bd 28 42 77 bc
       0.07201768 -0.029116169 -0.059037343 -0.0150914565
000180 c0 52 8f 3b e1 6f bc 3d fe ca 3b 3d 59 f2 dc bd
       0.0043738782 0.09201027 0.045847885 -0.10788412
000190 50 af fe bb 56 6b bd bd 27 18 9f 3d 3c b5 30 bd
       -0.0077723637 -0.09248988 0.077682786 -0.04314159
0001a0 cb 87 b1 bd 3e c0 72 3d 99 ac 88 bd cc b0 b6 bd
       -0.086684786 0.059265368 -0.066735454 -0.0892044
0001b0 20 2d ce 3b 2e b7 27 3d 1c 70 a1 bc 4b 2f d6 bd
       0.0062920004 0.04094618 -0.019706778 -0.10458239
0001c0 84 40 b1 3c da 66 78 3d 18 d9 6a 3c a6 35 7c 3d
       0.021637209 0.060644962 0.014333986 0.0615746
0001d0 72 9c 19 3d 44 97 f2 3c 92 7a b7 bd b6 88 43 bd
       0.037502714 0.029613145 -0.08958925 -0.0477378
0001e0 c4 f6 81 3c f4 74 8b bd 4e 4f 8a bd a0 02 3b 3c
       0.015864737 -0.068094164 -0.067534074 0.0114142
0001f0 32 3d 04 3d 00 b6 7e 39 45 a2 a0 3d 80 8e 2f 3c
       0.032284923 0.00024291128 0.078434505 0.010715127
000200 6e cd 5e 3d 34 84 c4 bd 06 a1 77 3d 85 e3 a0 3d
       0.05439513 -0.09595528 0.0604563 0.07855896
000210 35 56 ca 3d c2 5e 7e 3d 14 a3 c0 3c e4 83 dd bc
       0.09879724 0.062102087 0.023515262 -0.02704043
000220 5a 33 4f 3d ab 8b c3 3d 70 9d 1f 3c 90 47 28 bc
       0.050586082 0.09548124 0.009742126 -0.010270968
000230 0a 0f 24 bd 0d 0c 96 3d de 0b 6d 3d 6e 94 72 3d
       -0.040053405 0.07326517 0.057872646 0.059223585
000240 95 e3 bc 3d 80 4d 6a bd 88 9f 9f bc 22 d8 62 3d
       0.09223095 -0.057202816 -0.01948525 0.0553819
000250 f8 83 1b bd 9c 86 de 3c 96 48 b5 bd 34 fa d6 3c
       -0.037967652 0.027163796 -0.08851735 0.026242353
000260 8e a7 15 bd d0 79 e0 bd a2 a0 13 3d 76 cf af bd
       -0.036536746 -0.10960734 0.036041863 -0.08584492
000270 f0 a4 78 bc 31 97 bf 3d 0b eb dd bd f8 7a bb bc
       -0.015176043 0.09355009 -0.108358465 -0.022885785
000280 97 63 b7 bd 3f 49 c6 3d c4 d1 a7 3c c6 92 84 bd
       -0.08954542 0.09681939 0.020485766 -0.06473307
000290 8e 2c 1c 3d 82 71 1e 3d 27 3b a3 3d 32 58 0a 3d
       0.03812843 0.03868247 0.07970267 0.033775516
0002a0 fa fb 5f 3d 00 98 58 bc f3 c9 db 3d 27 a6 a1 3d
       0.054683663 -0.013219833 0.10731878 0.07893019
0002b0 d4 38 e0 3c 40 6a 6c 3b a0 62 51 bb 00 f5 16 3c
       0.027370848 0.0036074072 -0.0031949654 0.009213686
0002c0 80 d7 72 bc f7 92 b7 3d c4 b7 74 bd 97 76 8b bd
       -0.014821887 0.08963578 -0.059745565 -0.068097286
0002d0 9b e3 e0 3d 94 c0 fe 3c 38 19 54 bc 00 98 f5 bc
       0.10980912 0.031097688 -0.012945466 -0.029979706
0002e0 05 91 89 3d 6c fc 88 bc 60 c7 90 bd 32 55 19 3d
       0.067171134 -0.016721927 -0.07069278 0.037434764
0002f0 19 c4 a2 bd 90 6b 78 bc 58 23 2b bd 62 51 b4 bd
       -0.07947559 -0.015162364 -0.041781753 -0.08804585
000300 3e 53 62 3d 50 cb 9e bb 2a bc 35 bd 5a 7b 9d bd
       0.055255167 -0.004846014 -0.0443689 -0.07689543
000310 5b 28 b4 3d 64 e2 04 bd ee 3b 88 bd e0 67 bf 3b
       0.0879676 -0.032442465 -0.06652056 0.0058412403
000320 aa 8e 01 3d 38 09 14 3c 64 b5 1d bd 56 ef 2d bd
       0.031630196 0.009035401 -0.038503066 -0.042464577
000330 74 23 e0 bd 84 46 10 bd 4e f0 14 3d 6a 97 62 3d
       -0.10944262 -0.0352235 0.036361985 0.05532018
000340 10 4c 4a bc 54 6e 97 bd 84 c6 c0 3c 64 7d 41 bd
       -0.012347236 -0.0739409 0.02353216 -0.047238722
000350 62 b0 69 3d 80 fd 86 bc 04 be 09 bd 83 d1 9e 3d
       0.057052977 -0.0164783 -0.03362848 0.07754805
000360 c9 83 a4 3d 30 38 be bc 55 2a 5a bd 2e 82 2d 3d
       0.080329485 -0.023220152 -0.053263027 0.042360477
000370 0f b2 a4 3d 10 20 57 3c ca 96 46 3d 80 ce 55 bc
       0.080417745 0.013130203 0.048483647 -0.013049722
000380 06 4d 66 3d 16 c0 b6 bd e4 9a cc 3c b0 53 96 bb
       0.0562258 -0.08923356 0.024976201 -0.004587613
000390 8a f3 3a bd f6 98 17 3d 00 58 2c bc 54 8a f7 3c
       -0.045642413 0.03701111 -0.010519028 0.030217327
0003a0 a4 b8 58 bd 44 68 c2 bd 76 97 65 3d bc 3e c2 bd
       -0.052910462 -0.09492543 0.056052648 -0.09484622
0003b0 42 ab c6 bd 00 41 c0 3b 70 e0 a2 bd 52 50 79 3d
       -0.097006336 0.0058671236 -0.07952964 0.060867615
0003c0 ce 63 10 bd fc 38 d5 3c 5e f2 72 3d 38 85 7e bc
       -0.03525143 0.026028149 0.05931317 -0.0155346915
0003d0 32 f5 1a bd 1c e4 9f 3c e7 4b d3 bd 22 39 4f 3d
       -0.037831493 0.01951795 -0.103172116 0.050591595
0003e0 a4 7a d8 bc 26 58 3c 3d 8c 50 81 3c c1 81 d6 3d
       -0.026425667 0.045982502 0.015785478 0.10473967
0003f0 48 42 b6 bc 9c 2e e9 bc 04 73 fd 3c 70 f6 c7 bb
       -0.022248402 -0.028464608 0.030938633 -0.0061023757

fc2.weight f4 [1, 256]
000000 36 20 45 bd 08 4a 6b 3d d2 86 44 bd 80 53 e0 bb
       -0.048126422 0.05744365 -0.047980137 -0.0068458915
000010 28 d0 53 3d 30 0d 8b 3b 40 79 80 ba 64 9a b8 3c
       0.051712185 0.0042435154 -0.000980176 0.022534557
000020 20 9c 42 bd dc be b1 bc 68 86 8a 3c 16 38 04 3d
       -0.047512174 -0.021697454 0.016909793 0.03228005
000030 3c 72 21 bd 6a da 20 bd 5c f2 86 bc a0 7a 1f bc
       -0.039415583 -0.039270796 -0.016472988 -0.009733826
000040 76 59 32 3d 4c a5 61 3d 84 f8 03 3d e8 a4 03 bc
       0.043542348 0.05508928 0.032219425 -0.008034922
000050 94 85 c1 bc 70 32 55 bc 70 fd f0 bb 1e 1e 5f 3d
       -0.023623265 -0.0130125135 -0.007354431 0.05447208
000060 7c 67 41 3d 3e 16 77 3d 12 92 45 bd 50 46 42 bc
       0.04721783 0.060323946 -0.048235007 -0.011857584
000070 ea b2 52 bd 28 56 7f bd dc 5e 7c bd 0c a3 bd bc
       -0.051440157 -0.062338024 -0.061613902 -0.023149036
000080 e0 25 87 3c 7e 43 4d 3d a8 a8 0c 3d e4 60 52 bd
       0.016497552 0.050113194 0.03434053 -0.051361933
000090 00 d2 d0 3b c0 3c 20 3d 2a 0c 76 3d 40 1d 8a 3a
       0.00637269 0.039120436 0.060070194 0.0010537282
0000a0 48 2d 13 bc 76 d4 38 3d f0 0a 58 3c 7a 60 37 bd
       -0.008982964 0.045124494 0.013186201 -0.04476974
0000b0 00 b0 5b 3d 60 0b 7f 3c 8c a2 05 3d 00 7c 9b ba
       0.053634644 0.015566677 0.03262572 -0.0011862516
0000c0 d2 d7 64 bd 20 be 54 bb 30 f9 4b bc c4 57 e2 3c
       -0.055869885 -0.0032461956 -0.012449548 0.02762974
0000d0 d4 3c fa 3c 30 d9 d5 bc 00 71 9a b9 98 ae 72 bc
       0.030546583 -0.02610454 -0.0002945736 -0.014812134
0000e0 9a d6 64 bd 10 bc 3f 3d 14 b3 ec bc d0 dd 27 3c
       -0.055868722 0.04681021 -0.028893985 0.010245755
0000f0 a6 65 0f bd 78 1e 3b 3d 90 4a 72 3d 38 76 1c bd
       -0.03500905 0.045683354 0.05915314 -0.03819868
000100 32 a5 42 bd 6e ec 56 3d cc ca c1 3c 24 b1 56 3d
       -0.047520824 0.05247157 0.023656271 0.05241503
000110 96 56 59 3d 16 9b 22 bd 82 f1 1c bd 10 b8 f7 3b
       0.05306109 -0.039698683 -0.038316257 0.0075597838
000120 80 d0 6d 3d e2 60 5c bd 6c 54 0c 3d b4 2a 57 3d
       0.05806017 -0.053803332 0.0342602 0.05253096
000130 94 04 4d 3d 10 af d4 3b 1c 5b 73 bd d8 87 2e 3d
       0.050053194 0.0064905956 -0.05941306 0.04261002
000140 80 98 fa bc 54 5c 4a 3d dc b1 ae bc 88 03 65 bc
       -0.030590296 0.049404457 -0.021325044 -0.013977893
000150 5a 98 45 3d fc d5 46 3d 4a 80 2b bd 7a 48 64 3d
       0.048240997 0.048543915 -0.041870393 0.05573318
000160 f0 41 2e 3c 68 2b af 3c 84 49 5b 3d ec d0 60 bd
       0.010635838 0.021383002 0.053536907 -0.054886743
000170 1e d3 69 3d 48 21 26 bd 00 21 ca bc e0 d7 06 bc
       0.057086103 -0.040559083 -0.024673939 -0.00823018
000180 a0 0b bf 3b c6 7f 5f 3d da c8 1f 3d c0 0e 3f 3d
       0.005830243 0.054565214 0.039009906 0.046644926
000190 54 ce c3 3c 86 af 5a 3d 50 64 7a 3c 20 08 13 bd
       0.023902096 0.05339005 0.015282705 -0.03589642
0001a0 58 52 18 bd 6c ab 22 3d c0 9b 0f bc 80 46 1a ba
       -0.037187904 0.039714262 -0.008765161 -0.0005885139
0001b0 fe da 4f 3d 20 4c 82 bc 68 f9 4a bd b6 1a 7e 3d
       0.050745957 -0.01590544 -0.04955426 0.062037192
0001c0 f4 b3 88 bc 58 47 c0 3c 8c ca 26 3d 06 8e 73 3d
       -0.01668737 0.02347152 0.040720508 0.059461616
0001d0 8c 38 35 3d 72 dc 3b 3d b8 0a 2f bd 38 ce 19 bd
       0.04424338 0.04586453 -0.04273483 -0.03755018
0001e0 24 1c c9 bc 82 42 65 3d 1e a3 3d 3d 22 94 4b 3d
       -0.024549551 0.05597163 0.04629814 0.049701817
0001f0 b0 6f 38 3d 80 8f ea bc 4a a3 3f bd c0 b6 76 bb
       0.04502839 -0.02863288 -0.046786584 -0.0037645549
000200 36 07 79 3d dc 7b e7 bc 80 0a 7b 3b 88 d0 c2 bc
       0.060797893 -0.028257303 0.003830582 -0.023781076
000210 94 86 b4 bc 30 97 b9 3c c0 0e 61 3c ea 9c 33 bd
       -0.022036828 0.0226551 0.013736427 -0.043850817
000220 1c b4 9c bc 04 97 8a 3c 80 9d 12 bb 78 15 77 bc
       -0.019128852 0.016917713 -0.002237171 -0.015080802
000230 c4 90 34 bd 22 7c 1a 3d 6c fe 40 bd d8 82 99 bc
       -0.04408337 0.03771604 -0.047117636 -0.018739149
000240 d2 11 12 bd a0 59 cb 3b d0 ea 7b 3d d8 2b 1c bc
       -0.035661526 0.0062057525 0.06150323 -0.009531938
000250 f4 28 db 3c 16 f3 35 3d 02 71 17 3d ea 6f 70 3d
       0.026752926 0.044421278 0.036973007 0.05870048
000260 14 bb fb 3c 20 85 5a 3c 30 db 50 3c b0 dd ee 3b
       0.030728854 0.013337404 0.012747571 0.007289611
000270 9a 23 69 bd 68 76 3a bd a0 3b 12 bd d0 bf 7a 3c
       -0.056918718 -0.045523077 -0.035701394 0.015304521
000280 60 d6 10 bb 24 ae 83 bc 54 58 cf bc d0 79 5d bd
       -0.0022100434 -0.016074248 -0.025310673 -0.054071248
000290 a4 5f 2b bd b8 1f 89 bc c4 81 fb bc 68 a8 41 3d
       -0.041839257 -0.016738757 -0.030701526 0.047279745
0002a0 08 95 31 bd b0 91 83 bb 12 1e 02 3d 00 90 d3 3b
       -0.043355018 -0.00401517 0.03176696 0.006456375
0002b0 00 41 61 3b 50 4c 26 3c 86 2f 25 3d 00 81 4a ba
       0.0034371018 0.01015003 0.040328525 -0.0007724911
0002c0 5a 46 42 3d d0 17 e3 3b bc 3b b0 bc d4 85 96 3c
       0.047430374 0.006930329 -0.021512859 0.018374361
0002d0 e2 a3 45 3d 98 cd 1f 3d 30 c5 0c bc 94 ee 9e bc
       0.048251994 0.03901443 -0.008591935 -0.019400872
0002e0 58 08 c2 3c 64 40 b3 bc 18 ce b7 bc 78 e6 29 3d
       0.02368562 -0.02188129 -0.02243714 0.041479558
0002f0 f2 9e 67 bd b0 2c 99 3c 98 89 0f bc d4 f6 41 3d
       -0.056548066 0.018698066 -0.008760832 0.047354534
000300 1c 42 5b bd a0 08 e2 bc 30 d2 e8 3b 38 92 08 3c
       -0.053529844 -0.027592003 0.0071051344 0.0083356425
000310 80 d8 85 3a 34 82 54 bd f0 7a bd bc 88 41 1e bd
       0.0010211617 -0.051881984 -0.02312991 -0.038636714
000320 80 5c 66 3a 60 d4 d5 bc 90 3b 48 bc d0 6c d0 3c
       0.0008787587 -0.026102245 -0.012221232 0.02544251
000330 fc 13 54 3d 60 41 a5 3b e0 ba e9 3c cc 39 08 bd
       0.05177687 0.0050431937 0.028531492 -0.033258244
000340 64 9d 19 3d 60 3c 4b 3b 02 7a 5a bd 30 ed 76 3c
       0.037503615 0.0031011328 -0.053339012 0.015071198
000350 22 9a 45 bd ac 3b 63 bd f0 d4 00 3d 90 f0 08 bd
       -0.048242696 -0.05547683 0.031453073 -0.033432543
000360 34 7d 82 3c fa 08 56 3d 1c 87 d4 3c 92 13 2c bd
       0.015928842 0.052254654 0.025943331 -0.04201085
000370 e6 2c 6c 3d bc 77 3f 3d 4c b6 dc bc 58 eb da bc
       0.057660006 0.046745047 -0.026942395 -0.026723549
000380 fc 6b a7 3c fc 23 35 3d f0 3a 18 bd 54 d3 6c 3d
       0.020437233 0.04422377 -0.037165582 0.057818726
000390 76 78 10 3d 00 40 5b b8 c0 9f 3f 3c ac 4e 15 bd
       0.03527113 -5.2273273e-05 0.011695802 -0.03645198
0003a0 62 df 35 3d 52 1d 0d 3d 68 98 0a bd e8 b9 e6 bc
       0.044402488 0.03445179 -0.033836752 -0.028164819
0003b0 6e 32 64 3d 06 28 5c 3d 50 17 a8 bb b0 03 b3 3c
       0.055712156 0.053749107 -0.005129732 0.021852344
0003c0 e6 f3 03 bd 5c d6 4a 3d 20 3f eb 3b e0 05 32 3c
       -0.03221502 0.049520835 0.007179156 0.0108656585
0003d0 5c 84 dd bc 1c 21 f9 3c 7e 25 13 3d 48 e4 89 bc
       -0.027040653 0.030411296 0.035924427 -0.016832486
0003e0 9c 39 e0 3c 28 98 2d 3d 88 83 08 bd 38 f1 2d 3c
       0.02737122 0.042381436 -0.033328563 0.010616593
0003f0 68 2e 34 3c 70 99 39 bd 08 5d 25 3d b2 d4 55 3d
       0.010997392 -0.045312345 0.040371925 0.052204795
