SuperGo-master/saved_models/1584873121/1-value_net.pth.tar (torch_old, 87912 bytes, 4 tensors)

conv.weight f4 [1, 10, 1, 1]
00000000: c05b 733d 0b5b 19be b14d 9c3e cd47 87be
00000010: e72d 893e 08ff cf3d 2c20 64be 0c56 8ebe
00000020: 9707 923e 01b5 45be
0.05941367 -0.14976136 0.30528024 -0.26421967 0.26792833 0.10156065 -0.22277898 -0.27800024
0.28521416 -0.19307329

fc1.weight f4 [256, 81]
00000000: 14d5 a53c d90e ccbd 191a 80bd 0e4d 13bd
00000010: 108b 6dbc ed9a c93d 2ab8 24bd 925e 7cbd
00000020: 8132 b33d d8bf 65bc da35 373d 73ea e03d
00000030: 4ef8 113d dd7a b23d 8032 54ba 8536 cc3d
00000040: cbb1 a23d 6e59 5dbd 9f46 c73d 561c 46bd
00000050: 0096 0639 a87a 3dbc 3234 46bd 41a4 da3d
00000060: 74e0 c6bd 3e48 e0bd 84a8 d23c 603d 1c3c
00000070: 84bb 94bd dbeb a03d 923e 4cbd d505 cbbd
00000080: 6241 003d 8ca3 e03c 7096 acbc 48e9 763c
00000090: 3eed 1b3d 9d0a 7bbd 34b3 c5bd 9107 9f3d
000000a0: 1867 733c 405a c13b c483 8d3c 0724 71bd
000000b0: a255 173d 29dc cfbd 2442 6fbd c201 283d
000000c0: 9008 1d3c b649 713d 3c3b afbd a037 8fbd
000000d0: b034 dfbc 4769 6bbd 4ce1 c8bd e4c2 85bd
000000e0: 7d02 ac3d 1c6d 35bd d2f7 46bd e2d4 5f3d
000000f0: 3ca8 a9bd 1036 8dbc 7256 91bd 96c2 1cbd
00000100: cb1d 833d eb13 8d3d 426b 453d 1947 b93d
00000110: c83f 433c 703c c2bd 1fc1 903d b0a1 9cbd
00000120: 6c8f 9b3c 4c6b d83c 0365 c53d 6af0 9cbd
00000130: b19e 823d 61c8 893d 3cfc d53c eba5 e13d
00000140: 544c 90bd ccc2 cfbd 1083 bfbc fc5f bbbd
00000150: 128c aebd 9a01 83bd a445 d73c 5d23 5fbd
00000160: 116d cb3d ad6b c73d 2ea0 093d 0ef9 cbbd
00000170: c05d fa3a 3e9b a3bd 8068 293b 6428 e9bc
00000180: 1606 abbd 4502 803d 40fa 2fbb e05a 593c
00000190: 1eb9 b6bd 0e8d bfbd 6464 b03c 4d69 823d
000001a0: 13b9 c63d c804 7bbc 3cfa 38bd 4d6d c53d
000001b0: aba4 cabd f081 06bc 4e94 6bbd e64e 0c3d
000001c0: 1e7e 91bd 35f8 78bd 5df0 5bbd b812 553c
000001d0: f90c 5cbd 618c 8a3d c2a1 cfbd fc45 e83c
000001e0: a414 963c 6ee6 653d 349b df3c d15a 963d
000001f0: 7e0b 383d 21c1 b43d a95c 96bd 4ba0 68bd
00000200: 6013 00bc b850 003c 34a2 ddbd 8001 603c
00000210: 8133 de3d d6ed 38bd bc96 e83c 1af6 6c3d
00000220: 49a7 d33d 6a25 06bd f521 e33d 728c cbbd
00000230: 9d44 a73d 6427 c5bd 425d 4e3d b51d d43d
00000240: e806 24bd 55fa b43d e5ea c33d 6a0b 183d
00000250: 0891 c1bc c43f c6bd 5804 483c 1903 ca3d
00000260: 5a3b 96bd 70d2 843b a822 0a3c 7cd7 9c3c
00000270: 24e6 d83c c897 34bc 0bc1 b63d 3916 64bd
00000280: 1f5e d23d e0a3 223c ea7b 253d 1c22 ac3c
00000290: 720e 473d ee01 60bd 792e 6bbd 8373 db3d
000002a0: e253 a2bd afdc ca3d 3d16 953d 70c6 f6bc
000002b0: eea0 1a3d 391d d13d 057c 843d 1419 bdbd
000002c0: a46d bd3c b909 4fbd 8ae6 24bd 1e4f 9bbd
000002d0: dc6a e73c 2797 c03d 2682 4c3d 2b8a aa3d
000002e0: 8bfd e23d 0461 893c 5e76 5c3d d90c b53d
000002f0: 61b1 9e3d 3058 b0bc 5cdf a83c ecf5 c1bc
00000300: d888 0bbc 8d98 963d e9e1 86bd 10d7 3a3c
00000310: 322b 483d 179e a0bd 17a7 ba3d 526f 4cbd
00000320: 2bb4 78bd 5263 0ebd 4167 963d e0c0 4dbb
00000330: cb34 c43d ace5 82bd fd1d ac3d a4d7 6bbd
00000340: 2038 ea3b aae9 89bd 877d 5bbd 59eb b7bd
00000350: 7d41 64bd 7a1e 1e3d c202 003d 6e7a 21bd
00000360: 7b9f c5bd c0de bd3a 2aeb 1fbd 2fed b83d
00000370: 45f6 bc3d e0df adbd 401c 6fbb 7127 ab3d
00000380: 200c e1bd 205b 2f3b e238 6d3d f69a 39bd
00000390: c440 d33c 5055 85bb 2eac 00bd ee4f 97bd
000003a0: 792e 9e3d 75e2 6ebd ab47 b7bd 0ed0 32bd
000003b0: baed 633d e6e5 7d3d d81e 3bbc d06a 99bd
000003c0: a6f4 563d 28c9 42bd 3991 62bd 606d 0a3b
000003d0: 8a99 0cbd 1ffa 8e3d 2c7a 8bbc 7454 dcbd
000003e0: dd2a ddbd 7856 e6bc 26d4 043d 6ced aa3c
000003f0: b510 843d 82a7 afbd f0cb bdbc aba8 b1bd
0.020243205 -0.099637695 -0.06254978 -0.035962157 -0.014498487 0.09844003 -0.040214695 -0.061613627
0.08749867 -0.01402279 0.04472909 0.10982218 0.035637192 0.087148406 -0.0008094683 0.09971336
0.079440676 -0.054040365 0.09730267 -0.048366867 0.00012835115 -0.011564888 -0.04838962 0.1067586
-0.0971078 -0.10951279 0.02571512 0.009536117 -0.07262328 0.07857486 -0.04986436 -0.09913222
0.031312354 0.027421735 -0.021067828 0.015070267 0.03806805 -0.06128942 -0.09653321 0.07765115
0.014856122 0.005900651 0.017274745 -0.05887225 0.0369469 -0.10149414 -0.058412686 0.0410173
0.009584561 0.058908187 -0.0855622 -0.069930315 -0.027246803 -0.057473447 -0.09808597 -0.06531313
0.08398912 -0.044293508 -0.048576184 0.05464638 -0.08284041 -0.017237693 -0.07096566 -0.03827151
0.06402167 0.06888565 0.048197992 0.09046764 0.011917062 -0.09484184 0.07068085 -0.07648027
0.018989287 0.02641835 0.09638407 -0.07663043 0.06377924 0.06727672 0.026121251 0.110179745
-0.070458084 -0.101445764 -0.023377925 -0.09149167 -0.0852281 -0.0639679 0.026278324 -0.054477084
0.09932912 0.097373344 0.033600025 -0.09959613 0.0019101426 -0.079885945 0.002584964 -0.028461643
-0.0835077 0.06250433 -0.0026852041 0.013266295 -0.08922027 -0.09353076 0.021532245 0.06367741
0.09703269 -0.015320964 -0.045160517 0.09639988 -0.09894689 -0.00820969 -0.05751448 0.03425493
-0.07104133 -0.060783584 -0.053696025 0.013004951 -0.05372331 0.067650564 -0.10138275 0.028353684
0.01832039 0.056127958 0.027295686 0.073415406 0.044932835 0.08825899 -0.07341892 -0.056793492
-0.007817119 0.007831745 -0.108219534 0.013672233 0.10849667 -0.045148693 0.028392188 0.05785189
0.103346415 -0.032750525 0.11090461 -0.09938897 0.08167384 -0.09626654 0.050381906 0.10357229
-0.04004565 0.088368095 0.09566287 0.03712026 -0.023628727 -0.09680131 0.012208067 0.09863872
-0.07335539 0.0040534064 0.008431114 0.01914572 0.026476927 -0.011022516 0.08923539 -0.055685256
0.102718584 0.009926766 0.040401377 0.021012358 0.04859776 -0.05468934 -0.057417367 0.107153915
-0.079261556 0.09905373 0.07279632 -0.03012392 0.03775113 0.10210652 0.06468967 -0.09233299
0.02312357 -0.05054638 -0.04025892 -0.0758345 0.028249197 0.0940383 0.049928807 0.08327135
0.11083516 0.016769893 0.05382382 0.08840341 0.07748676 -0.021526426 0.020614319 -0.023676835
-0.008516513 0.073533155 -0.06586058 0.011403814 0.04886932 -0.07842653 0.09113901 -0.04991085
-0.060718697 -0.034762688 0.07343913 -0.003139548 0.09580382 -0.06391463 0.08404157 -0.057578698
0.007147804 -0.06734021 -0.05358651 -0.08980436 -0.055726517 0.038603283 0.03125263 -0.0394234
-0.09649559 0.001448594 -0.03904263 0.09029614 0.0922666 -0.084899664 -0.0036485344 0.08357132
-0.10988641 0.0026757196 0.057915576 -0.045313798 0.025787719 -0.004069008 -0.031414203 -0.07388292
0.07723708 -0.058321435 -0.089492165 -0.043655448 0.055646636 0.061986826 -0.011420928 -0.07491076
0.05247941 -0.04755512 -0.055314276 0.0021122321 -0.034326114 0.069813006 -0.01702603 -0.10758296
-0.10799191 -0.028117403 0.032428883 0.020865165 0.06448499 -0.085768715 -0.023168534 -0.08674749

fc1.bias f4 [256]
00000000: ea3b 93bd 7c94 843c 284d 673c 9ebe 693d
00000010: 5064 e2bc 47c1 81bd 3ca5 b4bd 74c0 82bd
00000020: 9078 69bc de7f 443d b0bf ccbc 4040 0cbb
00000030: 93a5 a93d 8b00 cd3d b2e7 27bd 932f c83d
00000040: f782 823d 82f4 0f3d 47ec a0bd 0009 8b3a
00000050: 5372 9c3d 8e0e 4abd 2a1c 533d bc64 ba3c
00000060: 948b a43c 2280 a3bd 96f4 7b3d ce56 b8bd
00000070: 3816 3ebc 8f1b d43d f001 6dbc 580a 4bbc
00000080: dc44 95bd b133 d73d 9d32 e33d 711d a83d
00000090: 4aca 2d3d 42f3 6f3d 9e6f 2b3d b45b 8f3c
000000a0: 0c2c 9d3c a382 bb3d b418 dcbd c861 053c
000000b0: 2d95 ba3d 2644 413d 4ce5 acbd 76f7 7b3d
000000c0: aeab 2dbd 9786 e03d 009c f6ba 04ef cfbd
000000d0: 5407 9cbc 1d96 e0bd 1983 ca3d eb83 7fbd
000000e0: b90a cb3d 6a06 3dbd 6595 c83d b274 d0bd
000000f0: 0606 063d 2c54 cd3c e4ec ec3c c48a 6abd
00000100: fc82 46bd 127f 6e3d f239 783d c052 cb3b
00000110: d957 a0bd e009 4d3c b039 edbb c88c bbbc
00000120: e0cf 2fbc b025 dabd 2081 943b 6774 bbbd
00000130: f670 433d d7b2 c4bd 9026 9b3b d185 ca3d
00000140: e427 b83c eabe 1b3d 5345 d33d d9a3 7cbd
00000150: a7b3 c3bd 771a debd 1b80 cfbd c167 ba3d
00000160: f525 65bd 28c5 58bc 8f22 923d fe56 82bd
00000170: 5293 7b3d 7dd3 803d 88de 8ebc 8053 44bd
00000180: 9c76 d1bd 327e 403d 602b 3d3c 9088 b5bc
00000190: bdf6 68bd de6f 783d df90 a93d 1155 b83d
000001a0: d206 43bd 58d7 07bd e497 d6bd 0049 37bc
000001b0: 226c 163d 8819 ddbc 2aef 6b3d dfb8 b03d
000001c0: 423f 793d 59af cdbd cb06 75bd 491c bfbd
000001d0: 64eb 84bd e789 c2bd 4e2b 53bd f516 6dbd
000001e0: 773b ce3d ca4e 0e3d d440 c8bd 76e1 87bd
000001f0: a919 84bd 00a6 463a b2b6 713d 1cec 94bc
00000200: 7148 c43d 2d47 ab3d 3ce1 95bd a67a 81bd
00000210: 5b7c b53d dba6 babd 86c2 82bd 8af4 113d
00000220: 5028 94bc 2073 c83b 0abe 0fbd 70a4 95bc
00000230: be15 c3bd 27a7 833d 019c c43d 3c43 b03c
00000240: 99b0 a93d b4e0 e73c 8042 58bd f06e 9abc
00000250: 90d3 543c 116f 923d f465 8fbd 8500 ad3d
00000260: c6f9 80bd 2b42 863d 8af2 85bd 7717 cd3d
00000270: ebb8 acbd ab66 8d3d 94e4 efbc 00b9 aaba
00000280: 748d bfbd 81c4 b73d aed6 4b3d 334d b73d
00000290: dd0b e3bd 91c5 c43d 21f6 e13d 1ec4 7f3d
000002a0: ca74 063d 223b 793d 9895 3dbd 3c7b 03bd
000002b0: 5771 c8bd a713 9dbd e412 6ebd 2417 cb3c
000002c0: fc30 3dbd 9bcc d3bd 759b a63d 1485 873c
000002d0: a2b1 253d fbe8 aabd 4bb5 d6bd 0966 bbbd
000002e0: b2c8 50bd 0492 b23c 20ed 5ebc def4 053d
000002f0: d77e b63d ea61 2ebd c709 a2bd 29a4 e03d
00000300: f665 183d 979f e0bd d6c9 303d bb84 ac3d
00000310: ae0d 18bd 65cb cbbd d098 8cbd d485 c4bc
00000320: 02bf b3bd a2d0 673d c2a7 86bd 4404 a8bd
00000330: 0ee2 b2bd e47e 61bd 227d 073d ce4f 563d
00000340: 55fb d0bd c8e4 74bc 80bf 8cba 0205 413d
00000350: c8ff e5bc c6ac bfbd 4bd2 69bd 5aba 4f3d
00000360: 2276 3f3d c40d 1bbd f6e0 7f3d c498 43bd
00000370: 094b b73d 6b0f e13d f308 e03d 70e6 fbbc
00000380: 24e9 a4bd 0705 babd 5db6 c63d 3283 013d
00000390: 22e3 97bd 640c f53c 4210 343d e408 b8bd
000003a0: ef13 e03d d4e2 ad3c 0daa d7bd e583 a73d
000003b0: 981b 3cbd 6a2a 3a3d a6c6 aabd 99c0 b43d
000003c0: 0649 173d 2b39 df3d 5e40 563d 4728 76bd
000003d0: e254 513d 92cc 91bd 322e c8bd 264a a9bd
000003e0: d83b 37bc 964d 283d c2b5 743d 7022 4bbc
000003f0: b179 853d e99d 99bd b348 d53d 836c cf3d
-0.07189162 0.016184084 0.014117517 0.057066552 -0.027635723 -0.06335693 -0.088205785 -0.06384364
-0.014249936 0.047973506 -0.024993747 -0.00214006 0.08283534 0.10009869 -0.040992446 0.09774699
0.06372636 0.03514529 -0.07857566 0.0010607541 0.07638993 -0.049330287 0.05154053 0.022753112
0.020086087 -0.07983424 0.061512552 -0.09000932 -0.011601977 0.10356819 -0.014465794 -0.012392603
-0.072885245 0.10507906 0.11093638 0.082087405 0.042429246 0.058581598 0.041854493 0.017499782
0.019186042 0.09155776 -0.10746899 0.008140989 0.09110484 0.047184132 -0.084421724 0.061515294
-0.042400055 0.10963171 -0.0018814802 -0.101530105 -0.019046463 -0.10966132 0.09888286 -0.062381666
0.099141546 -0.046148695 0.0979412 -0.10178508 0.03272059 0.02506455 0.028921552 -0.057261243
-0.04846476 0.058226652 0.060602136 0.006204933 -0.078292556 0.012514561 -0.007239543 -0.022894278
-0.010730714 -0.106517196 0.0045319945 -0.09153061 0.04771515 -0.096044235 0.0047348216 0.09888805
0.022479959 0.038023867 0.10315957 -0.061679695 -0.0955575 -0.108448915 -0.10131856 0.09101821
-0.0559444 -0.013230599 0.07135498 -0.06364249 0.061419792 0.06290338 -0.017440096 -0.047931194
-0.10227701 0.04699535 0.011545986 -0.022159845 -0.056875933 0.06065356 0.08279585 0.090006
-0.047613926 -0.033164352 -0.104781896 -0.011186838 0.036724217 -0.026989713 0.05760113 0.08629011
0.060851343 -0.100432105 -0.05982093 -0.09331567 -0.0649021 -0.09498959 -0.05155497 -0.05788322
0.10069936 0.034743108 -0.0977799 -0.066348 -0.06450207 0.00075778365 0.059012122 -0.018178992
0.095841296 0.08363185 -0.07318351 -0.063222215 0.088616095 -0.091138564 -0.06384759 0.0356336
-0.018085629 0.0061172396 -0.035093345 -0.018266886 -0.09525631 0.06428366 0.09600068 0.021516435
0.082856365 0.028305389 -0.052797794 -0.018851727 0.012989894 0.071500905 -0.07001868 0.08447365
-0.062976405 0.06555589 -0.06540401 0.10014241 -0.08433708 0.06904348 -0.0292838 -0.0013025105
-0.09353152 0.08973027 0.04976528 0.089502715 -0.11086247 0.09607995 0.110332735 0.06244289
0.032826222 0.06084741 -0.04628524 -0.032099947 -0.09787243 -0.07669764 -0.058123484 0.024791308
-0.046189293 -0.1034176 0.0813512 0.016542949 0.040452607 -0.08345219 -0.10483798 -0.09150321
-0.050972648 0.021798141 -0.01360634 0.032704227 0.089109115 -0.042573847 -0.07912021 0.10968811
0.037206613 -0.10967939 0.043161236 0.08423754 -0.03712242 -0.09950904 -0.06865084 -0.023989595
-0.08776666 0.056595452 -0.06574966 -0.082039386 -0.08734523 -0.055052653 0.03307832 0.0523222
-0.10204188 -0.014947124 -0.0010738224 0.047123916 -0.028076068 -0.09359126 -0.057085317 0.050714828
0.04674352 -0.037854925 0.0624704 -0.04775311 0.08949859 0.10989269 0.10939207 -0.03074953
-0.080522805 -0.0908299 0.09702752 0.03161926 -0.07416369 0.029913135 0.043960817 -0.08986071
0.10941302 0.021226324 -0.105304815 0.08179454 -0.045924753 0.045450605 -0.083386704 0.088257976
0.036934875 0.10899576 0.05230748 -0.060097005 0.05110634 -0.07119097 -0.09774436 -0.08266096
-0.011183701 0.041089617 0.05974365 -0.012398347 0.065173514 -0.07500822 0.10414257 0.10128119

fc2.weight f4 [1, 256]
00000000: 400d acbc f030 813b c099 9dba 3447 c1bc
00000010: e628 29bd ac3d d3bc c02e 1b3c a815 803c
00000020: 2cd4 c9bc d273 523d f419 b4bc e04e 34bb
00000030: f8e6 57bd 7069 21bc 1c07 533d eea9 513d
00000040: cc03 1ebd 80fe b73b 2048 d63c f6c6 343d
00000050: c264 053d c813 f93c 6659 013d a867 8cbc
00000060: b84c edbc c008 debb 884a 22bd 9cf1 5e3d
00000070: b40b 76bd e045 96bb 508b 243c e86c f6bc
00000080: b04e d23b 76cd 793d 24bc 653d 9e05 473d
00000090: d6bc 56bd 2a5a 7d3d 6cef f7bc f817 51bc
000000a0: 087c 0c3d d481 583d 2835 2e3c a006 9e3c
000000b0: ae46 21bd 147d 583d a0df 43bb 180e da3c
000000c0: 602e 7a3c c056 8fba 8080 093d c8b2 0dbd
000000d0: c8f3 5dbd 021f 75bd 98ac 143d c2d8 0bbd
000000e0: 18b3 3a3c 48b0 5cbc 9a5e 1bbd 90f8 05bc
000000f0: d6c6 603d 921b 33bd c21f 11bd ce1e 5fbd
00000100: d0d6 b6bb 08cb 3f3c 5c6a 953c 184d 253c
00000110: 342b 24bd 84f2 9b3c f41e dcbc 7c78 433d
00000120: 2464 14bd b0c0 0fbc f8f5 593d 6a64 463d
00000130: c868 32bc bad1 01bd 9c5a f1bc d86e 3bbd
00000140: a42b a3bc d8ad b93c b0fe 183d 3470 3b3d
00000150: 2671 55bd 1866 4dbd b814 1f3c 68f3 aebc
00000160: 4aaa 153d e2cf 0cbd 6020 a33b ec87 32bd
00000170: bcf8 873c da62 05bd a8c7 cebc 483d 0e3d
00000180: 7a76 7b3d b216 2a3d bc3a 013d 80b7 e13c
00000190: a03c 0bbb 40cb 8d3b 643e 6c3d 98e0 54bc
000001a0: 2276 623d 7c2d b6bc 0011 49ba ecb1 ff3c
000001b0: 72f3 313d 383d a53c 983f 113c f6fc 21bd
000001c0: 7462 01bd 2e94 08bd 40ac e9bb 9077 6dbc
000001d0: dcc7 523d 4606 673d 3c7d d3bc f033 c3bb
000001e0: c088 8fbc e453 a93c 607d 79bb 40e6 50bc
000001f0: 24d0 5abd c234 483d 0c59 babc 8ead 1bbd
00000200: 5cbc 2abd c4fe 253d 0e4d 2bbd 74aa a03c
00000210: 0c71 1fbd d0fc debb 6219 71bd 0465 07bd
00000220: 62b4 013d 8055 8f3a 94f0 febc 0c0b 0fbd
00000230: 1415 81bc 74a7 06bd 4077 e93c 4a47 683d
00000240: b0de 92bb 5894 97bc c6f9 183d d8be 42bc
00000250: 7404 813c 7626 0f3d 9ca0 f93c a2c2 5ebd
00000260: be5f 04bd 806c fcbc f4af 43bd 909f d1bc
00000270: 6cd3 ed3c 084d 313c 4c1e 07bd 1427 e5bc
00000280: 2872 0abc ecba 363d 24b0 38bd 1a70 703d
00000290: 90e0 b3bc c038 223c aa4a 6dbd 2818 623c
000002a0: ceed 2e3d 5a7c 523d 8091 e53c a6cd 28bd
000002b0: 0037 0eba 42f4 433d e8f5 ce3c 9852 453d
000002c0: da9b 40bd fc3d df3c 4830 d3bc 9424 b23c
000002d0: e04b 023c 5019 5abd 009f 053c e8e6 8d3c
000002e0: e2a7 693d dc00 74bd a0ff b23c 7241 5c3d
000002f0: d035 bbbb 28c7 28bc 5024 7a3d b09d 6dbd
00000300: c84a 1ebd 7055 243c 3000 563d fcaa 9d3c
00000310: c051 963c 78d6 55bd 086a 2c3d e010 ffbb
00000320: d478 8e3c 00c0 2fbd 48b1 423c 9ca8 153d
00000330: a25a 313d 6e81 5f3d 2270 4f3d 806a 8c3b
00000340: 8ab9 14bd 16d9 1fbd 284e 1dbd 6a96 31bd
00000350: 142d e43c 807c b93c 94f1 f3bc 6aba 5f3d
00000360: 1af8 313d eca4 103d 7805 38bc 8ab7 60bd
00000370: c8d9 b93c c655 033d e01c db3b d849 70bd
00000380: 22ce 403d b847 653d b406 2dbd 8414 c5bc
00000390: 968f 6dbd d2c2 6abd 0c6c 103d 804b dcbb
000003a0: f8e5 87bc 82b8 0f3d 102b 8e3b 209d debc
000003b0: d4dd c53c 2cde 85bc 1034 cd3b 84d1 dbbc
000003c0: 7478 8c3c 0afb 61bd c48b 583d 7ec1 38bd
000003d0: 84d9 8fbc 7800 d53c 0c5c 6abd 8894 493c
000003e0: 1acb 743d a0c6 1e3d 80c8 fbbc c81b b4bc
000003f0: c0c0 3e3b 66d9 143d 9ae0 553d cce2 a5bc
-0.021002412 0.0039426014 -0.001202397 -0.023593523 -0.04129877 -0.025786243 0.009471595 0.015635327
-0.024637304 0.051379986 -0.021985032 -0.0027512833 -0.052710503 -0.009851798 0.051520452 0.05118745
-0.03857784 0.0056150556 0.026157439 0.044135056 0.032566793 0.03040494 0.031579398 -0.01713927
-0.028967246 -0.0067759454 -0.03962186 0.054429635 -0.060069755 -0.0045859665 0.01004298 -0.030081227
0.0064180717 0.06098696 0.056087628 0.04858934 -0.05242618 0.061853565 -0.030265532 -0.012762062
0.034297973 0.05285819 0.010632791 0.019290268 -0.039374046 0.05285366 -0.002988793 0.026618049
0.015269846 -0.0010935888 0.033569813 -0.034594327 -0.054187566 -0.059844024 0.03629741 -0.034142263
0.011395238 -0.013469763 -0.037932016 -0.008176938 0.054877125 -0.043727465 -0.035430677 -0.054472737
-0.005579807 0.011706121 0.018239193 0.010089181 -0.040080264 0.019036539 -0.026870228 0.047722325
-0.036228314 -0.008773968 0.05321309 0.048435606 -0.01088924 -0.03169415 -0.029462151 -0.045760006
-0.01991827 0.022665903 0.037352264 0.045761302 -0.05210986 -0.050146192 0.00970953 -0.0213563
0.036539353 -0.03437794 0.0049782246 -0.043586656 0.016598098 -0.032564975 -0.025241688 0.03472641
0.061392285 0.04152555 0.031550154 0.02755332 -0.0021245852 0.004327208 0.057676688 -0.012993
0.05528844 -0.022238486 -0.00076700747 0.03121277 0.04344506 0.020170793 0.00886526 -0.039547883
-0.031588033 -0.03334444 -0.0071311295 -0.014493838 0.051460132 0.056402467 -0.025816552 -0.005957119
-0.017521262 0.020669885 -0.0038069114 -0.012750208 -0.053421155 0.04887844 -0.022747539 -0.03800731
-0.04168354 0.040526167 -0.041821532 0.019612528 -0.03892617 -0.00680504 -0.058862098 -0.03305532
0.031666167 0.0010935515 -0.031120576 -0.034922644 -0.015757121 -0.03287454 0.028499246 0.05670861
-0.004482113 -0.018503353 0.037347578 -0.011886321 0.015749194 0.03494879 0.030472092 -0.054384835
-0.03231787 -0.030813456 -0.047775224 -0.02558878 0.029031478 0.010821588 -0.032987878 -0.027972735
-0.0084500685 0.044611856 -0.045089856 0.05870066 -0.021957666 0.009901226 -0.057932533 0.013799705
0.042707257 0.051388122 0.028023481 -0.041211747 -0.0005425066 0.047840364 0.025263742 0.04817447
-0.04702363 0.027251236 -0.025779858 0.021745957 0.00795266 -0.053246796 0.008155584 0.017322019
0.05704487 -0.059571132 0.021850407 0.05377335 -0.005713202 -0.010301389 0.061069787 -0.05801171
-0.038645536 0.0100301355 0.052246273 0.01924657 0.018349528 -0.052206486 0.042093307 -0.007783994
0.0173916 -0.042907715 0.011883087 0.03653775 0.043299325 0.054566793 0.050644048 0.0042851567
-0.036309756 -0.03902539 -0.038404614 -0.043356337 0.027853526 0.022642374 -0.02977828 0.054621138
0.0434495 0.03531353 -0.011231773 -0.054862536 0.022686854 0.03206422 0.006686792 -0.058664173
0.047071584 0.0559766 -0.04224272 -0.024057634 -0.057998262 -0.0573147 0.03525929 -0.0067228675
-0.01658915 0.03508807 0.0043386295 -0.027174532 0.024153627 -0.016341291 0.00626231 -0.026833303
0.01714728 -0.05517105 0.052867666 -0.045106404 -0.017559774 0.0260012 -0.05721669 0.012303479
0.059764005 0.038763642 -0.030735254 -0.021985903 0.0029106587 0.03634014 0.05221615 -0.020249747
