SuperGo-master/saved_models/1586432786/1-policy_net.pth.tar (torch_old, 7908 bytes, 3 tensors)

conv.weight f4 [1, 10, 1, 1]
0	0x3def8d50	0.11696875
1	0x3e7f4a42	0.24930671
2	0xbe044bf9	-0.12919606
3	0xbdff132c	-0.124548286
4	0xbe5ee446	-0.21766767
5	0xbe94f7fb	-0.29095444
6	0xbda8d284	-0.08243278
7	0x3dc85348	0.0978151
8	0x3d0e2ec0	0.034712553
9	0xbea0ba38	-0.31392074

fc.weight f4 [37, 36]
0	0xbdc34a2b	-0.09535631
1	0x3d5a1270	0.05324024
2	0x3dadfaba	0.08495088
3	0x3e091d7f	0.13390158
4	0x3e1443ad	0.14478941
5	0x3bbc9300	0.0057548285
6	0x3d977c52	0.07396759
7	0x3def77ea	0.11692794
8	0x3e190cc3	0.14946274
9	0x3d91b5e2	0.071147695
10	0xbda167de	-0.07881139
11	0x3c94cf08	0.018165126
12	0xbd18adcc	-0.03727512
13	0xbe2974ef	-0.16548513
14	0x3e1bfdc3	0.15233521
15	0x3d6853c4	0.05672051
16	0x3da95a7a	0.0826921
17	0xbe0723fb	-0.13197319
18	0x3e136243	0.14392953
19	0xbdf30d60	-0.118677855
20	0xbe28f554	-0.16499835
21	0xbe03363e	-0.1281366
22	0x3a939b80	0.0011261553
23	0x3dd70c2a	0.10500367
24	0x3e04f3bb	0.12983601
25	0x3e1f0cc1	0.15532209
26	0x3e0b0329	0.13575424
27	0x3d8a5238	0.06753963
28	0x3d3251b0	0.043534935
29	0xbd955596	-0.07291715
30	0xbd90693e	-0.07051323
31	0xbb24dd00	-0.002515614
32	0x3e040123	0.12891059
33	0x3e005dc1	0.12535764
34	0x3dbd52e2	0.09244324
35	0xbd39ae2c	-0.04533212
36	0x3e0fd5af	0.14046358
37	0xbdbb1d68	-0.09136468
38	0xbdc4e990	-0.09614861
39	0x3d7ba504	0.061436668
40	0xbdc84be6	-0.097801015
41	0xbe254e5a	-0.1614317
42	0xbd42154c	-0.04738359
43	0x3d060064	0.032715216
44	0xbd9dc8ce	-0.07704316
45	0x3e099add	0.13437982
46	0xbbbdce20	-0.0057923943
47	0xbd4de80c	-0.050270125
48	0xbd5e701c	-0.054306135
49	0xbdd7a86e	-0.10530172
50	0x3da70f7e	0.08157252
51	0xbe00d690	-0.12581849
52	0x3db4f4ae	0.088357314
53	0x3de86fa2	0.11349417
54	0x3afe7180	0.0019412488
55	0xbe244533	-0.16042022
56	0xbe23ed3a	-0.16008464
57	0x3e162c87	0.14665423
58	0xbd1b32d4	-0.03789027
59	0x3e1df225	0.15424402
60	0x3b622900	0.0034509301
61	0x3bbfaf60	0.0058497638
62	0xbd9d3fab	-0.07678159
63	0x3e210d61	0.1572776
64	0xbdcea5be	-0.100902066
65	0x3e04ed1b	0.12981074
66	0x3e155bd7	0.14585815
67	0xbe009be8	-0.12559474
68	0x3e0b202b	0.1358649
69	0xbe217757	-0.15768181
70	0x3e1469bb	0.14493458
71	0x3cbe9528	0.023264483
72	0xbe06dc3c	-0.1316995
73	0xbc313f70	-0.010818347
74	0xbd17b3a4	-0.037036553
75	0x3e087cdf	0.13328885
76	0xbe0b7c34	-0.13621598
77	0x3d705740	0.058676958
78	0x3da5ca2a	0.080952
79	0x3de511aa	0.1118501
80	0xbe0d46be	-0.13796517
81	0xbcf11ca8	-0.02943261
82	0x3d729e84	0.059233204
83	0xbcd08058	-0.025451824
84	0xbdc70af8	-0.09718889
85	0xbdfede8e	-0.12444793
86	0xbe251bce	-0.16123888
87	0xbdd338f3	-0.103135966
88	0xbd1760cc	-0.036957547
89	0x3d1fa2e4	0.038973704
90	0xbdc37f28	-0.095457375
91	0xbdfba03b	-0.12286421
92	0xbdba4ef3	-0.090970896
93	0x3c433550	0.011914566
94	0x3dd54542	0.104136005
95	0xbdcbe0b3	-0.09954967
96	0x3dcccc7a	0.09999938
97	0x3e24f491	0.1610892
98	0x3d2e7c50	0.042599022
99	0xbdeb0ed3	-0.11477437
100	0x3dc4adda	0.09603472
101	0xbe15caeb	-0.14628188
102	0xbddde020	-0.10833764
103	0xbddec283	-0.10876944
104	0x3dc6241e	0.096748576
105	0x3d007530	0.03136176
106	0xbe12ab3a	-0.1432313
107	0x3cbeae98	0.023276612
108	0x3e2138d9	0.15744342
109	0x3e1f4c0d	0.15556355
110	0xbdf78728	-0.12086326
111	0xbe0f271b	-0.13979761
112	0x3bce26e0	0.0062912554
113	0x3dfb659a	0.12275238
114	0xbdd46cf3	-0.10372343
115	0xbba73da0	-0.005103782
116	0xbc3c4490	-0.011490956
117	0xbd2fefd0	-0.042953312
118	0xbd8c234b	-0.06842669
119	0xbc701bb0	-0.014655039
120	0xbddaf418	-0.106910884
121	0x3dd8b51e	0.1058142
122	0x3e13170d	0.14364262
123	0x3d05b19c	0.032640085
124	0x3e219315	0.15778764
125	0x3d69552c	0.05696599
126	0x3df70d62	0.120630994
127	0x3c3bfdd0	0.011474088
128	0xbe1b4250	-0.15162015
129	0x3e2161a5	0.15759905
130	0xbd993cc6	-0.07482295
131	0x3dc75032	0.09732093
132	0xbe058bd8	-0.13041627
133	0xbd0ba0ec	-0.034089014
134	0xbe01ef04	-0.12688833
135	0xbd646b16	-0.055766188
136	0xbd9305ee	-0.071788654
137	0xbcf78e08	-0.030219093
138	0xbe0e0798	-0.13870084
139	0x3e1fd2b1	0.15607716
140	0xbd524446	-0.051334642
141	0x3deb394a	0.114855364
142	0xbdd0cb06	-0.10194974
143	0xbd118514	-0.035527304
144	0xba5b9c00	-0.0008377433
145	0xbdc0b853	-0.09410157
146	0x3d9936d8	0.07481164
147	0x3df28c12	0.118431225
148	0x3d034824	0.03205122
149	0x3d3476ac	0.044058487
150	0xbd186fd4	-0.037216023
151	0xbde5d170	-0.11221588
152	0xbdd5e136	-0.10443346
153	0x3ddfe8c2	0.10933067
154	0x3d4552b4	0.048174575
155	0xb9ebee00	-0.00045000017
156	0x3d1403a0	0.03613627
157	0x3e0f4f77	0.13995157
158	0xbd8e8296	-0.06958501
159	0xbd7f669c	-0.062353715
160	0x3b779940	0.0037780553
161	0xbdca27d0	-0.09870875
162	0xbe09bf53	-0.1345189
163	0xbd9e4e0b	-0.07729729
164	0xbde38a38	-0.111103475
165	0x3e29c119	0.16577567
166	0x3d1d396c	0.03838484
167	0xbde6083e	-0.11232041
168	0x3de406fe	0.11134146
169	0x3e1a1399	0.15046538
170	0xbc9b72c8	-0.01897563
171	0xbdd76c3b	-0.1051869
172	0xbdfb47f8	-0.12269586
173	0x3e16d4e5	0.1472965
174	0x3d94dbe8	0.07268506
175	0x3d2376d0	0.03990823
176	0x3e0b2fef	0.13592504
177	0x3e08d029	0.13360657
178	0x3d9e974a	0.077437
179	0x3dbf298e	0.09334098
180	0xbd83961b	-0.06425115
181	0xbdc176cb	-0.09446486
182	0xbe1d757a	-0.15376845
183	0x3e06e309	0.13172545
184	0xbd255e00	-0.04037285
185	0x3ddd94e2	0.10819413
186	0x3e1c6ea9	0.15276588
187	0x3e1f6049	0.15564074
188	0x3e068fa9	0.1314074
189	0xbda4097b	-0.08009621
190	0xbd3128cc	-0.043251798
191	0x3dae7d2e	0.0851997
192	0xbd5628d0	-0.052285016
193	0x3dc4edd2	0.09615673
194	0xbdfa457b	-0.122202836
195	0xbd9175f6	-0.071025774
196	0x3e1a514f	0.1507008
197	0x3dcfe092	0.10150255
198	0x3e25978d	0.16171093
199	0xbdd51288	-0.10403925
200	0xbdb559b0	-0.08854997
201	0xbe0173fc	-0.12641901
202	0x3e15bc85	0.14622696
203	0x3dac7432	0.084206
204	0xbe18063a	-0.14846125
205	0x3dc990ea	0.09842093
206	0x3b596400	0.0033171177
207	0xbdab80de	-0.08374189
208	0x3e2231d1	0.15839316
209	0xbe101dfa	-0.14073935
210	0x3d8a7c32	0.067619696
211	0x3e27ead1	0.16398169
212	0x3d0cc810	0.034370482
213	0x39f44e00	0.0004659742
214	0xbd2c7460	-0.04210317
215	0xbe0eacd4	-0.13933116
216	0xbd1f5304	-0.03889753
217	0x3e06a67f	0.1314945
218	0xbd31317c	-0.043260083
219	0x3e14018d	0.14453717
220	0xbc09e0d0	-0.008415416
221	0xbdb32cbb	-0.08748766
222	0x3ba10da0	0.0049149543
223	0x3e01fca9	0.12694038
224	0xbe0429b0	-0.12906528
225	0x3d183c40	0.037166834
226	0x3e0194a9	0.12654366
227	0x3d5cf5b4	0.05394526
228	0x3df4cf32	0.11953582
229	0xbd360750	-0.044440567
230	0xbdd71a83	-0.105031036
231	0x3d251ae4	0.040308848
232	0xbdcbabd6	-0.099448845
233	0xbe020fb8	-0.12701309
234	0xbd50a570	-0.050939023
235	0x3ccc0a38	0.024907216
236	0x3c714230	0.014725253
237	0x3e040e55	0.12896092
238	0xbdf950de	-0.12173627
239	0xbd82a453	-0.063789986
240	0x3d4fe8a0	0.050758958
241	0x3dd65182	0.10464765
242	0x3ddc1a1e	0.10747169
243	0x3e1cd82d	0.1531684
244	0xbbf57060	-0.007490203
245	0x3ca320d8	0.019913122
246	0x3c5383f0	0.012909874
247	0xbda62460	-0.08112407
248	0xbe2496eb	-0.16073196
249	0xbd888fb0	-0.06668031
250	0x3d7092fc	0.058733925
251	0xbc69ba50	-0.014265612
252	0xbe01310a	-0.12616363
253	0xbdb071de	-0.086154684
254	0x3dc15d4a	0.094416216
255	0x3d8b881e	0.06813072

fc.bias f4 [37]
0	0xbbc1db20	-0.0059160143
1	0xbd7fe910	-0.062478125
2	0x3de4852a	0.111582115
3	0xbdb0ed43	-0.08639004
4	0xbcc53bf8	-0.024076447
5	0x3de1949e	0.110146746
6	0xbdf34720	-0.118788004
7	0x3dea6d5e	0.114466414
8	0x3e2278c1	0.15866376
9	0xbe1053a6	-0.1409441
10	0xbdc1a393	-0.094550274
11	0xbde46ce0	-0.11153579
12	0xbe105752	-0.1409581
13	0x3d0f22cc	0.034945294
14	0xbdb8d6f8	-0.09025377
15	0xbe00fc3b	-0.12596218
16	0xbdd161fe	-0.10223769
17	0x3dbfb532	0.09360732
18	0x3d6170fc	0.05503939
19	0xbcbae9b8	-0.022816524
20	0xbd8420d0	-0.06451571
21	0x3e165b71	0.1468332
22	0x3ba19ca0	0.0049320012
23	0x3da06c6a	0.07833178
24	0xbdc887b6	-0.0979151
25	0x3ca005e8	0.019534066
26	0x3e033695	0.1281379
27	0x3cf2ffb8	0.029662952
28	0x3e019795	0.1265548
29	0xbcea1328	-0.028573588
30	0x3cba16c0	0.022715926
31	0xbdeca9c3	-0.11555817
32	0x3d5c9700	0.053854942
33	0xbca36038	-0.019943342
34	0xbc85e2f8	-0.016343579
35	0xbcbdb360	-0.023156822
36	0xbcd4d188	-0.025978819
