SuperGo-master/saved_models/1584873131/1-value_net.pth.tar (torch_old, 87912 bytes, 4 tensors)

conv.weight f4 [1, 10, 1, 1]
0	0xbe0555ad	-0.13020964
1	0xbe8e0ce0	-0.27744198
2	0xbe84477c	-0.25835788
3	0xbe196e8d	-0.14983578
4	0x3e3cd736	0.18441471
5	0x3badf3c0	0.0053085983
6	0xbe660c94	-0.22465736
7	0xbdc11938	-0.09428638
8	0xbd63b658	-0.05559382
9	0xbe4e1315	-0.20124467

fc1.weight f4 [256, 81]
0	0xbd950da0	-0.072779894
1	0x3cf61a1c	0.030041747
2	0xbda5e254	-0.08099809
3	0x3ba11170	0.004915409
4	0xbdb8c9be	-0.09022854
5	0x3cfd50fc	0.030922405
6	0x3dd39d9d	0.10332797
7	0xbce0b7c0	-0.027431369
8	0x3ae89640	0.0017744973
9	0xbdb12e72	-0.08651437
10	0x3d73e19a	0.059541322
11	0x3dcb0657	0.099133186
12	0x3d81ba23	0.06334331
13	0x3d0443b6	0.032291137
14	0xbb8ef990	-0.0043632463
15	0xbc37c090	-0.011215344
16	0x3dbfd3b7	0.09366553
17	0xbd667727	-0.056265976
18	0xbc11b828	-0.008894004
19	0xbb407360	-0.0029365644
20	0x3dae5379	0.08512015
21	0xbc4bcb00	-0.012438536
22	0x3b7b8720	0.0038380101
23	0xbdb86b70	-0.09004867
24	0x3da56f45	0.080778636
25	0x3db11a53	0.08647599
26	0xbd19d9ee	-0.03756135
27	0xbd55e6ce	-0.052222066
28	0x3b6f1b80	0.0036484897
29	0x3dda5175	0.10660068
30	0x3d33ab22	0.043864377
31	0xbd824917	-0.06361597
32	0xbd096fee	-0.03355401
33	0xbd18fa00	-0.037347794
34	0x3d8b3601	0.0679741
35	0x3d966a51	0.07344497
36	0x3d084786	0.033271335
37	0xbd7ed2e0	-0.062212825
38	0x3ac91d00	0.0015343726
39	0x3cc138dc	0.023586683
40	0xbd388058	-0.045044273
41	0xbb9f8090	-0.0048676208
42	0xbd8b62b9	-0.06805939
43	0xbd80a2fe	-0.06281088
44	0xbc9e7a94	-0.01934556
45	0xbdab5bc4	-0.08367112
46	0xbdd4a2b7	-0.10382598
47	0xbdde7c3b	-0.10863539
48	0xbda4934e	-0.08035909
49	0x3d5f4926	0.05451312
50	0x3d0ad362	0.033892997
51	0x3c7cc2c8	0.015427299
52	0xbc9499d0	-0.01813975
53	0xbbcb09e0	-0.0061962456
54	0x3d234c22	0.039867528
55	0x3d7a0592	0.06104047
56	0xbd9f8ede	-0.07790922
57	0x3d64255e	0.0556997
58	0x3ba42e40	0.0050103962
59	0x3d14affe	0.03630065
60	0xbd7f97cb	-0.06240062
61	0x3d74ef42	0.059798487
62	0x3d5f33c2	0.05449272
63	0x3c174080	0.009231687
64	0xbdcdaa30	-0.10042226
65	0xbd520ca7	-0.051281597
66	0xbddbbe5e	-0.10729669
67	0xbd72e74b	-0.05930261
68	0x3c9562b4	0.018235542
69	0x3c4d0c10	0.012515083
70	0x3dcfde47	0.10149818
71	0x3dca897b	0.098895036
72	0xbdcf900e	-0.10134898
73	0x3c93e8cc	0.018055342
74	0xbbf5de50	-0.0075033084
75	0x3aafa1c0	0.0013399646
76	0x3c80dcbc	0.015730254
77	0x3da192f9	0.07889361
78	0xbcb1d940	-0.021710038
79	0xbcea64ec	-0.028612576
80	0x3b985390	0.0046486333
81	0x3d30c762	0.043158896
82	0xbd8c863a	-0.06861539
83	0xbca48650	-0.020083576
84	0xbd09ff58	-0.03369078
85	0xbd9d4c44	-0.07680562
86	0x3db2076b	0.08692821
87	0x3d587602	0.052846916
88	0x3dbb1931	0.09135664
89	0xbd8f6f59	-0.0700366
90	0xbd514f64	-0.051101103
91	0xbd6b5744	-0.05745627
92	0x3d200206	0.03906443
93	0xbdb3e01e	-0.08782981
94	0xbd885f27	-0.06658774
95	0x3d38a182	0.0450759
96	0x3cb2c10c	0.021820568
97	0xbc064580	-0.008195281
98	0x3ca7de44	0.020491727
99	0x3d326f62	0.043563254
100	0x3ddaad19	0.10677547
101	0xbd962760	-0.07331729
102	0xbcd9c788	-0.026584402
103	0x3da269fb	0.079303704
104	0xbba14a70	-0.0049222037
105	0x3c2ec100	0.010666132
106	0xbda7b3a0	-0.081885576
107	0x3d7c9802	0.061668403
108	0x3d0de982	0.03464652
109	0xbd2cd076	-0.04219099
110	0xbd1f06f8	-0.038825005
111	0x3d87db37	0.06633609
112	0x3ddfce9f	0.10928082
113	0xbd8132b4	-0.06308499
114	0x3c813f9c	0.015777402
115	0xbdd17107	-0.102266364
116	0xbd9a1200	-0.075229645
117	0xbdaabfeb	-0.08337387
118	0x3dac92a1	0.08426405
119	0x3bc6e190	0.0060693696
120	0x3da91981	0.082568176
121	0xbd79aa27	-0.060953286
122	0xbbc4b900	-0.006003499
123	0x3d704aa2	0.058664925
124	0x3d0be052	0.034149475
125	0xbdcd35f4	-0.10020056
126	0xbd79a54b	-0.06094865
127	0xbde12319	-0.109930225
128	0xbbeda1c0	-0.007251948
129	0xbd8765d4	-0.06611219
130	0x3d8da131	0.069155104
131	0xbca42410	-0.020036727
132	0xbd8d769c	-0.069073886
133	0xbde0dfc5	-0.10980181
134	0x3d8cdb91	0.068778165
135	0x3d8be93f	0.068315975
136	0x3d8a8607	0.06763845
137	0x3d3b9072	0.04579205
138	0xbd3596ce	-0.04433327
139	0x3d8ce481	0.06879521
140	0x3ddcb213	0.107761525
141	0xbd60612b	-0.054780167
142	0x3ddcfa21	0.10789896
143	0xbc25da90	-0.01012291
144	0xbc1888b8	-0.00930994
145	0x3b3b2ea0	0.0028561726
146	0xbd7c7315	-0.06163319
147	0xbd9fe9d9	-0.07808275
148	0x3ccc8aac	0.024968468
149	0xbd5da539	-0.054112647
150	0xbdc81079	-0.09768767
151	0x3ce5d71c	0.028056674
152	0xbc6f76e0	-0.014615744
153	0xbdbfe1e0	-0.09369254
154	0xbd827a87	-0.063710265
155	0xbd8d81aa	-0.06909497
156	0x3cd5435c	0.026033096
157	0xbc6825a0	-0.014169127
158	0x3db8e1d5	0.09027449
159	0xbd31b08e	-0.043381266
160	0xbdb46712	-0.088087216
161	0xb8e0dc00	-0.000107221305
162	0x3dde4ed5	0.1085488
163	0xbd9134d2	-0.07090153
164	0xbbf30cc0	-0.0074172914
165	0xbd460d98	-0.048352808
166	0xbc8fc270	-0.01754877
167	0xbbff6750	-0.007794298
168	0x3d17b4be	0.037037604
169	0x3de0730d	0.10959444
170	0x3ce006d4	0.027347006
171	0x3dbcf28d	0.092259504
172	0xbdd343fe	-0.10315703
173	0x3d5c6582	0.053807743
174	0x3d2d9942	0.042382486
175	0x3d742526	0.05960574
176	0xbcd55f9c	-0.026046567
177	0x3db76105	0.08954052
178	0xbd739bae	-0.05947464
179	0xbd3ebd0a	-0.046567
180	0x3c9a964c	0.018870495
181	0xbc075338	-0.008259587
182	0x3d21583e	0.039390795
183	0xbbf79b50	-0.0075563565
184	0xbda5e350	-0.08099997
185	0xbd5cefa0	-0.05393946
186	0xbda7914b	-0.08182009
187	0xbdd9f6fb	-0.10642811
188	0xbdbd8359	-0.09253568
189	0xbdb8f737	-0.090315275
190	0x3d56dac6	0.052454732
191	0x3da2b45b	0.07944556
192	0x3ca4cdb4	0.020117618
193	0xbd8aa5e0	-0.067699194
194	0x3d4b0d5a	0.04957328
195	0x3dd71a0b	0.10503014
196	0x3daaa5ed	0.08332429
197	0xbc8abb94	-0.016935147
198	0x3dcbd88d	0.09953413
199	0x3d3d7626	0.046255253
200	0xbdb76770	-0.08955276
201	0xbd9ef992	-0.077624455
202	0xbd86fbfa	-0.065910295
203	0xbddcb317	-0.10776346
204	0xbbde9e50	-0.0067937747
205	0x3dbe0345	0.09277967
206	0x3d898529	0.067148514
207	0xbd6f1512	-0.058369704
208	0xbdd1843c	-0.102303
209	0x3d5f7842	0.054558046
210	0xbd8d38ca	-0.06895597
211	0xbdd50bfb	-0.10402676
212	0x3dcf7a13	0.10130706
213	0x3ca102cc	0.019654654
214	0x3c543eb8	0.012954406
215	0xbcebf640	-0.028803945
216	0xbd624412	-0.0552407
217	0x3cdc562c	0.026896559
218	0xbd174780	-0.036933422
219	0x3d53a11e	0.051667325
220	0xbdd7068e	-0.10499297
221	0x3dc7ad07	0.09749799
222	0x3ddb6d15	0.10714165
223	0xbcc0ba14	-0.023526229
224	0x3c027ad8	0.007963859
225	0xbd8aa812	-0.06770338
226	0xbd8fa6a6	-0.070142075
227	0x3d5a77fe	0.05333709
228	0xbdcf056e	-0.101084575
229	0xbd2e0924	-0.042489186
230	0x3d72be4e	0.05926352
231	0xbcc971e4	-0.02459044
232	0xbcac205c	-0.021011524
233	0xbddb64e9	-0.107126065
234	0x3d719af6	0.058985673
235	0xbd638692	-0.055548258
236	0x3db38b93	0.08766856
237	0xbddce322	-0.1078551
238	0x3d4ca786	0.04996445
239	0xbdd3be32	-0.10339011
240	0x3d030d22	0.031994946
241	0x3d6a51d2	0.057206936
242	0xbdca4405	-0.09876255
243	0xbcb7c824	-0.022434302
244	0xbcb8a050	-0.02253738
245	0xbceb6100	-0.028732777
246	0xbdb96a9c	-0.09053537
247	0xbd2034aa	-0.039112724
248	0x3d2b4442	0.041813143
249	0x3d279eba	0.040922858
250	0x3db72c95	0.0894405
251	0xbd17661c	-0.036962613
252	0xbd25030e	-0.040286116
253	0x3dbf2713	0.09333625
254	0x3d071c82	0.03298617
255	0xbd7664c4	-0.06015469

fc1.bias f4 [256]
0	0xbb31d000	-0.0027132034
1	0xbccbee6c	-0.024893962
2	0x3cd3d80c	0.025859855
3	0x3c7ed578	0.015553825
4	0xbd8c473c	-0.068495244
5	0x3c2a36a8	0.010389008
6	0x3d5875e6	0.05284681
7	0xbd6e229d	-0.05813848
8	0x3d203b5e	0.039119117
9	0x3cabc8e4	0.020969816
10	0x3d6adb42	0.057338007
11	0x3c75ed38	0.015010171
12	0xbc8dac6c	-0.017294131
13	0x3d85ca6d	0.0653275
14	0x3dd8fa31	0.10594595
15	0xbccefcc0	-0.025267005
16	0xbb161080	-0.0022898018
17	0x3da06323	0.07831409
18	0xbcc2266c	-0.023699962
19	0x3d87e497	0.06635397
20	0x3d253506	0.04033377
21	0x3d67109e	0.05641233
22	0x3dbf8119	0.09350795
23	0xbdb7b57b	-0.089701615
24	0x3d94dae1	0.0726831
25	0x3dcaaaeb	0.09895881
26	0x3d0c9882	0.03432513
27	0xbdc4e57b	-0.096140824
28	0xbd768507	-0.06018546
29	0x3b2b3b80	0.0026127994
30	0xbd9cf780	-0.076643944
31	0x3d95052d	0.07276378
32	0xbd026f4a	-0.031844415
33	0xbd0146a4	-0.03156151
34	0xbb9ca250	-0.0047800913
35	0x3d8b29d3	0.06795087
36	0x3da2d8d9	0.07951517
37	0xba5f9c80	-0.0008530095
38	0x3cf936dc	0.030421667
39	0xbd161008	-0.036636382
40	0xbd78f2d2	-0.060778446
41	0xbd670b35	-0.056407172
42	0x3db060ad	0.086121894
43	0x3dde7381	0.10861874
44	0xbde01f32	-0.1094345
45	0x3d6b11aa	0.057389893
46	0x3d5078de	0.050896518
47	0xbd0819aa	-0.0332276
48	0x3d2b58e2	0.041832812
49	0x3d1cc68e	0.038275294
50	0x3d878ec5	0.06619028
51	0xbbc9e5c0	-0.0061614215
52	0x3d8afd45	0.067865886
53	0x3da345d1	0.07972301
54	0x3c7e2528	0.015511788
55	0xbd88a479	-0.06671996
56	0xbdad91b4	-0.08475056
57	0xbd65504b	-0.055984776
58	0xba532a80	-0.0008055344
59	0xbd9d7ad0	-0.0768944
60	0xbcbe1d64	-0.023207374
61	0x3d0c9f5a	0.034331657
62	0x3db0c011	0.08630384
63	0x3dd68b41	0.10475779
64	0xbd3758a0	-0.044762254
65	0xbdb29a76	-0.08720867
66	0x3c848544	0.016176827
67	0x3dc51f41	0.09625102
68	0xbdbe00f6	-0.09277527
69	0x3bd3d700	0.006464839
70	0xbd589b59	-0.052882526
71	0xbd37df80	-0.04489088
72	0xbdb5f699	-0.088849254
73	0xbdaa8bd2	-0.0832745
74	0xb8dc8000	-0.00010514259
75	0x3daffa81	0.08592702
76	0x3c65a768	0.014016964
77	0xbd8fade9	-0.070155926
78	0xbd9c1d16	-0.07622735
79	0xbcf742dc	-0.030183248
80	0x3c91a634	0.017779447
81	0xbda370b4	-0.07980481
82	0x3cbb4d2c	0.022863947
83	0x3cb25894	0.021770753
84	0x3dc42de7	0.09579068
85	0xbc34dc20	-0.01103881
86	0x3d081586	0.03322365
87	0x3d9d1497	0.07669943
88	0xbc71f020	-0.014766723
89	0x3d992d65	0.074793614
90	0xbd80acc9	-0.06282956
91	0xbd74ddbd	-0.05978178
92	0x3d54a2a2	0.05191291
93	0x3d5af2fe	0.05345439
94	0xbdabc1f2	-0.083866015
95	0xbd4ae0f9	-0.049530957
96	0xbc843314	-0.016137637
97	0x3de1222b	0.10992845
98	0x3d0978e2	0.03356255
99	0xbd1381ee	-0.036012582
100	0xbd3ad9b8	-0.04561779
101	0xbd49f115	-0.04930218
102	0xbddc4560	-0.1075542
103	0x3d6fa432	0.0585062
104	0x3dca1de1	0.0986898
105	0x3dd556ff	0.10416984
106	0x3dc747cd	0.09730492
107	0x3dc294f7	0.09501069
108	0x3caa6e6c	0.020804606
109	0x3ca31484	0.019907244
110	0xbd9d0097	-0.07666128
111	0xbc684390	-0.014176264
112	0xbd2d7644	-0.042349115
113	0x3cc1d704	0.023662098
114	0x3c0460a0	0.008079678
115	0x3daf15e1	0.08549095
116	0xbd1f5c58	-0.038906425
117	0x3da181b5	0.07886068
118	0xbd354072	-0.044250913
119	0x3dd49d53	0.1038157
120	0x3d8734b1	0.06601847
121	0x3d69727e	0.056993954
122	0x3c6d2668	0.014474489
123	0x3ddb4565	0.10706595
124	0x3d993691	0.07481111
125	0xbd18d518	-0.037312597
126	0xbd1f7dea	-0.03893844
127	0xbd1d4ac4	-0.03840138
128	0x3d9564d1	0.0729462
129	0xbdc08a26	-0.0940135
130	0xbd984484	-0.07434943
131	0x3d912501	0.07087136
132	0xb9c3c000	-0.0003733635
133	0xbce74d10	-0.028234988
134	0x3d376ee2	0.04478348
135	0x3dc9d33f	0.09854745
136	0xbd7a2dbd	-0.061078776
137	0xbc5c1e80	-0.013435006
138	0xbbd98600	-0.0066382885
139	0xbd686b72	-0.056743093
140	0xbd655284	-0.055986896
141	0xbb6596e0	-0.0035032555
142	0xbce4ab10	-0.0279136
143	0x3dc3f61b	0.09568425
144	0x3cc73324	0.024316378
145	0x3d2b6132	0.04184074
146	0x3d260076	0.040527783
147	0x3dd3b00b	0.10336312
148	0x3db00d23	0.08596256
149	0x3db85b53	0.09001794
150	0xbc99ae94	-0.018760003
151	0xbda17cbe	-0.07885121
152	0xbd41d2a4	-0.047320023
153	0x3c557d60	0.01303038
154	0x3db30fa7	0.0874322
155	0x3ddcf6dd	0.10789273
156	0x3dd2cf45	0.1029344
157	0xbdc2f000	-0.095184326
158	0x3d2f390e	0.04277902
159	0x3cda186c	0.026622973
160	0xbb89ac20	-0.004201427
161	0xbdaf8470	-0.08570182
162	0x3db9409b	0.09045526
163	0xbcb2b124	-0.021812983
164	0x3da3fe19	0.0800745
165	0xbd821d3c	-0.06353232
166	0xbd9962b0	-0.07489526
167	0x3dc7a2eb	0.09747871
168	0xbdd2b9d5	-0.10289351
169	0x3d691002	0.056900032
170	0x3d5f45be	0.05450987
171	0xbd82fd90	-0.063960195
172	0x3d05a446	0.032627366
173	0x3ca3649c	0.019945435
174	0xbbbc01b0	-0.005737506
175	0x3dbf053d	0.09327171
176	0x3d0e8136	0.034791194
177	0xbda29399	-0.07938308
178	0x3d2e70ca	0.042588033
179	0xbda5ddd7	-0.08098953
180	0xbd6d35c4	-0.057912603
181	0xbcd8bb2c	-0.026456438
182	0x3bbd5b20	0.005778685
183	0xbcad2180	-0.021134138
184	0xbd6cfdd2	-0.05785925
185	0xbd9131bc	-0.07089564
186	0x3d87f361	0.06638218
187	0xbdd69084	-0.10476783
188	0x3db42bd3	0.08797421
189	0x3db16f2d	0.08663783
190	0x3d31e31e	0.043429486
191	0x3bdb91c0	0.0067007244
192	0xbd618f19	-0.05506811
193	0xbc5cbfa0	-0.013473421
194	0xbdae28a7	-0.085038476
195	0x3db9e665	0.090771474
196	0x3dc0a12f	0.09405743
197	0xbda2e742	-0.07954265
198	0x3d0e9c3a	0.034816958
199	0x3d841d49	0.06450898
200	0xbd2fa808	-0.042884856
201	0xbc855748	-0.01627697
202	0xbd1772b8	-0.03697464
203	0xbd2ad3e8	-0.041705996
204	0x3d6dddda	0.058072902
205	0xbd9e75f9	-0.07737345
206	0x3d778f1a	0.060439207
207	0x3bcfd7b0	0.0063428506
208	0xbd6f2019	-0.05838022
209	0xbdbce4ee	-0.092233524
210	0xbdc68e29	-0.09695084
211	0x3de29bd1	0.11064876
212	0x3dbe2071	0.092835315
213	0x3d5455e2	0.051839717
214	0x3c22e738	0.009942822
215	0xbca886ec	-0.020572148
216	0x3d18a1da	0.03726373
217	0xbdd002bc	-0.101567715
218	0xbc1ae660	-0.00945434
219	0x3d5a7476	0.053333722
220	0x3da548a1	0.080704935
221	0xbdcbb929	-0.09947426
222	0x3d6fa512	0.058507033
223	0x3d38194a	0.044945993
224	0x3d629742	0.055320032
225	0xbcaf7b30	-0.021421045
226	0xbdc805a5	-0.097667016
227	0xbdb9f6fc	-0.09080312
228	0x3d39e83e	0.0453875
229	0xbd1c6852	-0.038185425
230	0x3c62ad70	0.013835296
231	0x3d898461	0.067147024
232	0xbb70b980	-0.003673166
233	0xbbf010b0	-0.007326208
234	0xbddedfc7	-0.10882526
235	0x3ce67cc4	0.028135665
236	0xbcff402c	-0.03115853
237	0xbda4f8bc	-0.08055255
238	0xbd60e835	-0.05490895
239	0xbcd329c0	-0.025776744
240	0x3d7488de	0.05970084
241	0x3d9f4e0f	0.0777856
242	0x3d20bb92	0.03924138
243	0xbd3fca4a	-0.046823777
244	0xbc87cb94	-0.016576566
245	0x3d29813e	0.04138302
246	0xbdb36106	-0.0875874
247	0x3dc949d7	0.09828537
248	0xbcf5b830	-0.029995054
249	0xbcc6836c	-0.024232589
250	0xbd83fbae	-0.064444885
251	0xbd15e0ea	-0.036591448
252	0x3d0164fe	0.031590454
253	0xbdd43a42	-0.10362674
254	0x3d9b6019	0.075866885
255	0xbda616be	-0.081098065

fc2.weight f4 [1, 256]
0	0x3c97d298	0.018533036
1	0x3cc9aca4	0.024618454
2	0x3b752180	0.0037404
3	0x3d7b0f30	0.06129378
4	0xbd3509c4	-0.044198766
5	0xbb7afd20	-0.0038297847
6	0xbd1f0f86	-0.038833164
7	0xbcdcd4e0	-0.026956975
8	0x3ce329d8	0.027729914
9	0xbc922a6c	-0.017842494
10	0xbd694dba	-0.05695889
11	0x3cd140e0	0.02554363
12	0x3bac83a0	0.0052647144
13	0x3cceaf9c	0.025230221
14	0xbcddd930	-0.027081102
15	0x3d15237e	0.0364108
16	0x3d6efbda	0.058345653
17	0x3c1033c0	0.008801401
18	0x3d64e9de	0.055887096
19	0xbcd1e3a8	-0.02562125
20	0xbcafa15c	-0.021439247
21	0x3d3f8b5a	0.046763755
22	0x3d2fd2b2	0.042925544
23	0x3c833158	0.01601474
24	0xbcefe330	-0.029283136
25	0xbd3ab330	-0.045581043
26	0xbc6826c8	-0.014169402
27	0x3bb838a0	0.0056219846
28	0xbd0ff6f6	-0.03514763
29	0x3d4bdc84	0.049770847
30	0x3d1c4984	0.038156047
31	0xbd192b72	-0.03739495
32	0x3d72c310	0.059268057
33	0xbd0b6670	-0.03403324
34	0x3d52f824	0.051506177
35	0x3c80f508	0.01574184
36	0x3d61ff8e	0.055175357
37	0x3ce2edfc	0.02770137
38	0xbc68dfc8	-0.01421351
39	0xbd1bb704	-0.038016334
40	0xbc6dda58	-0.014517389
41	0x3c0d25d8	0.00861498
42	0xbd1ed47c	-0.03877686
43	0x3c5efd40	0.013610184
44	0xbd4e74e4	-0.050404444
45	0x3d127666	0.035757445
46	0xbc9c6088	-0.019088998
47	0xbd59b026	-0.053146504
48	0x3d4259a4	0.04744877
49	0x3cb74b04	0.022374637
50	0x3d30b048	0.043136865
51	0xbcb32f6c	-0.021873198
52	0x3cc8fd88	0.024534956
53	0x3d4adb8c	0.049525782
54	0xbc462a88	-0.012095101
55	0xbd3883ce	-0.045047574
56	0x3c637830	0.013883635
57	0xbce424e4	-0.027849622
58	0x3c6f5030	0.0146065205
59	0x3ca41ec4	0.020034201
60	0x3aff4100	0.0019474328
61	0x3c4c3888	0.01246465
62	0xbd17fe84	-0.03710796
63	0xbd218776	-0.039435826
64	0xbc8d2284	-0.017228372
65	0x3d07f32e	0.0331909
66	0xbd7b5b8e	-0.06136661
67	0x3d736b26	0.059428357
68	0xbd0b6926	-0.034035824
69	0xbd17636a	-0.036960043
70	0x3d3c0462	0.045902617
71	0x3d00547a	0.031330563
72	0xbca86794	-0.020557202
73	0xbc9ae474	-0.018907763
74	0xbd50cd6e	-0.050977163
75	0x3d450c1c	0.04810725
76	0xbccb29b4	-0.024800159
77	0xbcb970f4	-0.022636868
78	0x3c500298	0.012695931
79	0xbd5a65ea	-0.05331985
80	0xbd78d99e	-0.06075441
81	0xbd6c786c	-0.05773203
82	0xbd544dae	-0.051831894
83	0xbd44206c	-0.047882482
84	0x3cf1b914	0.029507197
85	0xbd4dc372	-0.05023522
86	0x3d78307a	0.060593106
87	0x3c3d7378	0.011563174
88	0xbc17fe50	-0.009276941
89	0xbd6e4abc	-0.05817674
90	0xbd3aae98	-0.04557666
91	0xbbacaea0	-0.0052698404
92	0xbd17f1b2	-0.037095733
93	0xbcd3c264	-0.025849529
94	0x3cbf1c04	0.023328789
95	0xbcb76ac4	-0.022389777
96	0xbc9be680	-0.01903081
97	0x3cf6ad40	0.030111909
98	0xbc81f85c	-0.015865497
99	0x3b8450a0	0.0040379316
100	0xbd2017ec	-0.039085314
101	0xbc4e2b10	-0.012583509
102	0xbd6fc52a	-0.05853764
103	0xbcbeabfc	-0.023275368
104	0x3d1f7480	0.038929462
105	0xbd16b54c	-0.036793992
106	0x3cf7db44	0.030255921
107	0xbd7a3438	-0.061084956
108	0xbbbf9d70	-0.0058476254
109	0x3d61fae4	0.05517091
110	0x3d6e52c2	0.058184393
111	0xbd248f7c	-0.0401759
112	0x3cc04f70	0.023475379
113	0xbd3b8398	-0.045779794
114	0x3b9638f0	0.004584424
115	0x3cf264e4	0.029589124
116	0x3cbf8520	0.023378909
117	0x3c9ca7b4	0.019122936
118	0xbc1b3160	-0.009472221
119	0x3cb5a048	0.022171155
120	0x3d177c94	0.03698404
121	0xbcc899f0	-0.024487466
122	0xbd0ea9cc	-0.0348299
123	0xbc15b128	-0.009136476
124	0x3c9b0134	0.018921472
125	0xbcfcb4e0	-0.030847967
126	0xbb17bb20	-0.0023152307
127	0x3bac1b10	0.0052522495
128	0xbd2c39f6	-0.042047463
129	0xbc7bdbb0	-0.015372202
130	0x3d2665c2	0.040624388
131	0xbc679070	-0.014133558
132	0x3d14a6d0	0.036291897
133	0xbce26f00	-0.02764082
134	0xbd24f23c	-0.040270075
135	0xbca1970c	-0.019725345
136	0xbcae1f80	-0.021255255
137	0xbd7fe332	-0.06247253
138	0x3c95db14	0.018292941
139	0xbcb6539c	-0.022256665
140	0x3d468d08	0.04847434
141	0xbd1cfb1a	-0.038325407
142	0x3cdb0b20	0.026738703
143	0xbd5ea7ba	-0.054359175
144	0xbbe988d0	-0.007126905
145	0x3d7de7f6	0.061988793
146	0x3d5ff4b6	0.054676734
147	0x3d3b158a	0.045674838
148	0x3d61b7c2	0.055106886
149	0xbc054660	-0.0081344545
150	0x3cb718f0	0.022350758
151	0x3ca84738	0.020541772
152	0xbb615760	-0.0034384355
153	0xbd27a10c	-0.04092507
154	0xbd4fd89c	-0.050743684
155	0xbc442aa0	-0.011973053
156	0xbd72590a	-0.059166946
157	0x3c590f10	0.01324822
158	0xbca2c8f8	-0.01987122
159	0xbd5f663c	-0.054540858
160	0x3bc1f8e0	0.005919561
161	0xbce85c44	-0.028364308
162	0xbc849544	-0.016184457
163	0x3d30411c	0.043030843
164	0xbd3fc6be	-0.046820395
165	0x3cc43b14	0.023953952
166	0xbceda9e8	-0.029011682
167	0xbbd26f10	-0.006421931
168	0xbd204e84	-0.03913738
169	0x3bbcb8c0	0.0057593286
170	0x3ce74fe0	0.02823633
171	0x3c9b0e7c	0.018927805
172	0xbd72b160	-0.05925119
173	0x3c56d1e8	0.013111569
174	0x3d7ac8fa	0.061226822
175	0x3d3fc44c	0.046818063
176	0x3d430d1c	0.047619924
177	0x3cbcc420	0.023042738
178	0x3c7daf60	0.015483707
179	0x3ca91730	0.02064094
180	0xbc8dd9e0	-0.017315805
181	0xbd771e9c	-0.060331926
182	0xbd0caf28	-0.03434673
183	0xbce05664	-0.027384944
184	0x3cd81acc	0.026379965
185	0xbd516e74	-0.051130727
186	0xbd50ca38	-0.0509741
187	0x3d74b472	0.0597424
188	0x3d045b24	0.03231348
189	0x3b073ce0	0.002063565
190	0x3cb9c31c	0.022676043
191	0xbcf55988	-0.029949918
192	0xbd016564	-0.031590834
193	0xbd43b680	-0.047781467
194	0xbcf975ec	-0.030451737
195	0x3c5d38a0	0.01350227
196	0xbc6abd58	-0.01432737
197	0xbd6676ca	-0.05626563
198	0x3d6c0112	0.05761821
199	0x3d4a734c	0.049426362
200	0xbc7bb260	-0.015362352
201	0xbb7f42c0	-0.0038949698
202	0xbd2d4344	-0.042300478
203	0xbccebe6c	-0.025237285
204	0x3d404b82	0.04694701
205	0xbceebe7c	-0.029143564
206	0x3d7bd3e0	0.061481357
207	0xbc642bf8	-0.013926499
208	0xbc60dce8	-0.013724543
209	0xbc766718	-0.015039228
210	0xbd097434	-0.033558086
211	0xbcaa2164	-0.020767875
212	0x3b412ea0	0.0029477254
213	0xbc587a90	-0.013212815
214	0x3d7e8d0a	0.062146224
215	0xbc8213b0	-0.015878528
216	0x3c75f718	0.015012525
217	0xbd3d371c	-0.046195135
218	0xbd263d3e	-0.04058575
219	0x3d3cc466	0.046085738
220	0xbc2435f8	-0.010022633
221	0x3d10ccf6	0.035351716
222	0x3d17c926	0.037057064
223	0xbd33f63e	-0.043936007
224	0xbd6e5542	-0.058186777
225	0xbbe329f0	-0.0069324896
226	0xbc03d2a0	-0.008045822
227	0x3d76cad4	0.060252026
228	0xbc348f00	-0.011020422
229	0x3d449b78	0.04799983
230	0xbd4393b8	-0.047748297
231	0x3d1397ae	0.036033325
232	0x3bdeac20	0.0067954212
233	0x3c9589c0	0.01825416
234	0x3d5be8d8	0.053688854
235	0x3b3b59a0	0.0028587356
236	0x3bdc8c80	0.006730616
237	0x3d35f696	0.044424616
238	0x3cb72e4c	0.022360943
239	0x3c3a3d78	0.011367194
240	0xbce6956c	-0.028147422
241	0xbb77ade0	-0.0037792847
242	0x3cd028ec	0.025410138
243	0xbc767808	-0.015043266
244	0xbcfabad0	-0.030606657
245	0x3c831900	0.016003132
246	0x3bf51170	0.0074788854
247	0x3d571b9c	0.052516565
248	0xbd0f17d6	-0.03493484
249	0xbcd2fc60	-0.025755107
250	0x3d02dda2	0.031949647
251	0xbcbe64b4	-0.023241378
252	0x3caa7a9c	0.020810418
253	0xbd17d6f8	-0.037070245
254	0x3c20b518	0.009808801
255	0xbcba747c	-0.022760622
