SuperGo-master/saved_models/1584187381/1-extractor.pth.tar (torch_old, 151399 bytes, 155 tensors)

conv1.weight f4 [10, 17, 3, 3]
00000000: fd2a 05bd 460a 2a3d 864a 9e3d d0ee ee3b
00000010: d60c a13d 0078 ba39 c8df 3a3c 02bb 99bd
00000020: 56af 973d 802b 91bb 0cb1 9d3c 3d80 50bd
00000030: 42b8 81bd 2097 99bd 35e4 0abd 78f3 a0bd
00000040: f43a 993d 28e8 3d3c a600 4abd c7a3 81bd
00000050: 2433 733d e0d1 813c f8bd 543d 1854 a2bd
00000060: 30a0 6c3c 38a9 18bc 2668 69bd 0090 e43c
00000070: 646e 87bd 20a1 c53c 60b0 983d b879 873d
00000080: 6017 86bd 907e 44bc 2511 59bd c006 3bbc
00000090: c015 673c 046b 6d3d 8053 c43a 7231 9ebc
000000a0: f82e 7fbc 001a ad3b 18a8 133c 54c9 1d3d
000000b0: d8f9 fb3c 60d0 c43c a86d 083d 9412 c23c
000000c0: e3b4 40bd 0003 1c3a 1e3a 8abd a43f f63c
000000d0: a47c 943d c081 edba d442 883d 9c26 1cbd
000000e0: b80c 703d a0e0 06bc 6a4c 56bd 5e29 78bd
000000f0: 602f e43b 3160 85bd 56d8 913d 0062 debc
00000100: a026 6c3d 8a5c 173d fcc5 61bd 1088 643d
00000110: 7861 cf3c 3442 3a3d b293 97bd f40e a13d
00000120: 5497 3a3d 8850 0d3d bf8c 03bd 7dcd 82bd
00000130: d9a7 4fbd 6022 47bb c2e4 813d 79c7 42bd
00000140: 9012 b9bc 4024 953b 7098 c5bb e2de 2a3d
00000150: 1018 1bbc 04d5 453d 00d4 62bd 6475 6c3d
00000160: 1864 523d 7255 263d 50b1 b7bc 35d7 37bd
00000170: d39b 98bd 4ce5 6d3d da16 a2bc b889 9a3c
00000180: 86e7 33bd c665 3cbd e6fb a33d 8849 65bd
00000190: e201 38bd a152 03bd e084 953c e03a 50bd
000001a0: ac7d c93c f89b f5bc c0e2 033b 262f 75bd
000001b0: 7bbf 7fbd 08aa 923d caed 9ebd ec10 653d
000001c0: 7aa3 66bd 209c aa3c 00c0 5db9 16fe f6bc
000001d0: c499 863d a495 443d 109a 593d 3db0 7abd
000001e0: c0e1 d53a 3211 273d f30e 2dbd d853 523d
000001f0: b56e 23bd 10e9 e23c b504 a2bd 2728 28bd
00000200: fc3c 95bd 085d 223c 5c3c 423d 9075 713d
00000210: 6637 2b3d 9020 54bd 2028 293d b850 40bc
00000220: 58de 603c 3408 27bd d8ab 1b3d 578f 3fbd
00000230: 8c58 923d 38c4 753d 147e 833d ac9e 88bd
00000240: 80fd 8a3a 98fc 03bc 7218 5abd 90d9 92bb
00000250: c1f5 8cbd 5694 4bbd 84e6 e6bc f811 86bc
00000260: f06e 0dbc 40e5 3d3d 7e24 99bd ec8c 80bd
00000270: 6dcd 13bd fcb0 81bc 84fb 523d e009 8c3d
00000280: 86d5 87bd fc30 8b3d f84f 763d e21c 9c3d
00000290: e014 9cbb 5802 703d 4230 873d 8fff 9abd
000002a0: 206a 393b 6c9c 0b3d f018 b8bc 4d35 22bd
000002b0: 5000 053c fe9f efbc d66f babc f22e 983d
000002c0: 94e0 943c 702f 96bc 6393 5cbd ac8d db3c
000002d0: c038 993a 2603 fbbc de87 883d 3edd a8bc
000002e0: 3097 6fbc ec1e 61bd 50ad 8b3d f68e babc
000002f0: 9021 88bd 6c2b 8d3d cc8c 33bd b8bd 2abd
00000300: 10ab 2bbc 2089 5fbd 409a bd3a de73 89bd
00000310: 63d2 3dbd 32ac 8dbd 3afe 52bd f359 94bd
00000320: 4032 803d 3233 a1bc 2eb8 823d 4aaf 91bd
00000330: d858 1fbd 482b 353d b807 193c 7c56 c13c
00000340: fcce 633d ee25 0abd 1cac 983c 7aed e0bc
00000350: 7486 843d f590 36bd b09d 783d 03ff 85bd
00000360: 98d3 06bc d132 06bd 9481 843c 94c2 8a3c
00000370: 00eb c03a d89d 85bc f0a2 25bd c00f e93b
00000380: 30d9 45bc 46b1 8b3d 7e36 edbc c014 e23a
00000390: 7c92 753d f007 263c 44e6 903d 8a41 09bd
000003a0: 3a83 2abd f872 883d 328f 883d fa5e 4cbd
000003b0: 60a9 9c3d b690 273d 005c c53b 083d 893d
000003c0: 4862 6f3d 589a 0dbd e093 9bbb c450 b23c
000003d0: 60e7 e4bc 1eca a43d f834 613c ecc0 853c
000003e0: ba57 45bd c0b4 34bc e37a 04bd 3649 64bd
000003f0: b038 533d f6e2 98bc 1a24 49bd 16fe 9bbd
-0.0325117 0.041513704 0.07729058 0.0072916523 0.078637764 0.00035566092 0.011405893 -0.07506372
0.074064896 -0.0044302344 0.019249462 -0.050903548 -0.063339725 -0.07499528 -0.03390904 -0.07858938
0.074819475 0.011590995 -0.049317025 -0.06330066 0.059374943 0.015847147 0.05193898 -0.07926196
0.014442489 -0.009317689 -0.05698409 0.027900696 -0.06612852 0.024124682 0.07455516 0.06615013
-0.06547427 -0.0119930655 -0.052994866 -0.011415184 0.014104307 0.057963386 0.0014978498 -0.019310687
-0.015575163 0.0052826405 0.009012245 0.03852208 0.030758783 0.024025142 0.0333077 0.0236905
-0.047047507 0.0005951375 -0.06749366 0.030059643 0.07250336 -0.0018120334 0.066533715 -0.03812276
0.05860588 -0.008232266 -0.052318968 -0.060586326 0.0069636554 -0.06512488 0.07121341 -0.02714634
0.057654023 0.036953487 -0.055120453 0.05579382 0.025315031 0.045473292 -0.074012175 0.0786418
0.045554474 0.03450063 -0.032116648 -0.0638685 -0.05069718 -0.003038548 0.0634246 -0.047553513
-0.02259186 0.0045514405 -0.006030135 0.041716464 -0.009466186 0.04829885 -0.05537796 0.05772914
0.051364988 0.04060883 -0.022423416 -0.04488297 -0.07451596 0.058080003 -0.019786287 0.018864498
-0.04392197 -0.045995496 0.0800703 -0.055978328 -0.04492367 -0.032061223 0.018251836 -0.050837398
0.024596058 -0.029981598 0.0020124167 -0.059859417 -0.06243847 0.07161337 -0.077601984 0.05592434
-0.056308247 0.0208264 -0.00021147728 -0.030150454 0.06572297 0.04799427 0.05312544 -0.06120323
0.0016317889 0.040787883 -0.042250585 0.05134949 -0.0399005 0.027699023 -0.07911054 -0.041053917
-0.072870225 0.009909876 0.047420844 0.058950007 0.04180088 -0.051788867 0.04129803 -0.011737995
0.013724886 -0.040779307 0.03800568 -0.04676756 0.07145795 0.060001582 0.06420532 -0.06670889
0.0010604113 -0.0080558285 -0.05324597 -0.004481502 -0.06882811 -0.04970201 -0.02818609 -0.01636599
-0.008632407 0.046361208 -0.074776635 -0.06276879 -0.03608458 -0.015831463 0.051509395 0.06837821
-0.06632523 0.067964524 0.060134858 0.076226965 -0.0047632307 0.058595985 0.06601001 -0.07568275
0.0028292015 0.034084722 -0.022472829 -0.039601613 0.00811775 -0.029251095 -0.022758406 0.07430829
0.018173493 -0.018333167 -0.053851496 0.026800953 0.0011689886 -0.03064115 0.066665396 -0.020613309
-0.014623448 -0.05496113 0.06820166 -0.022773247 -0.066470265 0.06893048 -0.043835446 -0.041684836
-0.010477796 -0.054574132 0.0014465526 -0.06711553 -0.04634322 -0.06917609 -0.05151198 -0.07243719
0.062595844 -0.019677732 0.06382786 -0.07113512 -0.038903087 0.04423073 0.009340219 0.02360081
0.055617318 -0.03372758 0.018636756 -0.027456988 0.064709574 -0.044571836 0.060697258 -0.0654278
-0.008229159 -0.032763306 0.016175069 0.016938485 0.0014718473 -0.016310617 -0.040438592 0.0071124732
-0.012075707 0.068209216 -0.028956648 0.0017248616 0.05995415 0.010133728 0.0707517 -0.03350977
-0.041629054 0.066625535 0.06667937 -0.049895264 0.07649493 0.04090949 0.00602293 0.06701094
0.058443338 -0.03457102 -0.0047478527 0.021767028 -0.02794236 0.08046363 0.013745539 0.016327344
-0.048179366 -0.011029422 -0.032343756 -0.055733882 0.051567733 -0.01866291 -0.049106695 -0.076168224

bn1.weight f4 [10]
00000000: 0000 803f 0000 803f 0000 803f 0000 803f
00000010: 0000 803f 0000 803f 0000 803f 0000 803f
00000020: 0000 803f 0000 803f
1.0 1.0 1.0 1.0 1.0 1.0 1.0 1.0
1.0 1.0

bn1.bias f4 [10]
00000000: 0000 0000 0000 0000 0000 0000 0000 0000
00000010: 0000 0000 0000 0000 0000 0000 0000 0000
00000020: 0000 0000 0000 0000
0.0 0.0 0.0 0.0 0.0 0.0 0.0 0.0
0.0 0.0

bn1.running_mean f4 [10]
00000000: 0000 0000 0000 0000 0000 0000 0000 0000
00000010: 0000 0000 0000 0000 0000 0000 0000 0000
00000020: 0000 0000 0000 0000
0.0 0.0 0.0 0.0 0.0 0.0 0.0 0.0
0.0 0.0

bn1.running_var f4 [10]
00000000: 0000 803f 0000 803f 0000 803f 0000 803f
00000010: 0000 803f 0000 803f 0000 803f 0000 803f
00000020: 0000 803f 0000 803f
1.0 1.0 1.0 1.0 1.0 1.0 1.0 1.0
1.0 1.0

res0.conv1.weight f4 [10, 10, 3, 3]
00000000: 81e5 c43d 1295 58bd 7e95 793d ec21 e0bc
00000010: 6e18 223d c376 be3d 4953 c6bd e56c d73d
00000020: 5102 3bbd 064a 6e3d e959 b03d e8a8 bbbc
00000030: ec32 9abc 3c08 c1bc 12cd 5f3d a391 33bd
00000040: caec 603d 8a3f 4c3d a0a4 9e3b 9261 7f3d
00000050: fe43 3c3d 5a73 90bd 601d 06bd 21ff d43d
00000060: 0e9b 223d c293 2c3d 551a bfbd 2964 8d3d
00000070: 1170 813d c06f f3ba 9ba2 c2bd 7195 b03d
00000080: 133e 67bd f2db 94bd 14bb eebc 2c00 30bd
00000090: 1218 703d 9f58 d23d 6ec1 5d3d 7aee 50bd
000000a0: 287c 14bc 28c8 5b3c de37 043d 1e0e 4d3d
000000b0: bb28 b03d 4354 ac3d 0cbf 42bd 1334 66bd
000000c0: 7a0a 443d 571f 40bd d4c7 fb3c 43ec 9c3d
000000d0: 9a03 713d d221 54bd 66c7 413d 923f 423d
000000e0: de78 4a3d 4eed 5d3d b320 883d ec31 b33c
000000f0: 2a98 1e3d cebc 6e3d e036 5f3c 5cad c63c
00000100: 7704 c93d 8697 73bd 1628 673d 2dc0 b93d
00000110: 6075 72bb a8e8 60bc 9583 b7bd 6055 91bb
00000120: 7799 b63d f000 d0bd 5872 6abd 3a45 223d
00000130: 0480 fc3c e4e6 863c 7749 b53d 51c8 9d3d
00000140: 026d 203d 7492 f9bc 0690 aebd b13c bebd
00000150: 48d4 4d3c 6493 abbd d01f 9e3c 44e2 ec3c
00000160: 7b38 863d 3a3b 423d 2096 5cbc a8f2 9ebc
00000170: 0d70 d2bd c440 a9bc f216 0abd bc34 cdbc
00000180: 0fc2 33bd c7dc bf3d a0d3 89bb 3060 703c
00000190: 0054 10bb 57c8 9b3d 2410 bf3c 18e2 98bc
000001a0: e0fc 0fbc c428 a5bc 0d83 6cbd 9bc8 6fbd
000001b0: 56a1 703d 4913 9dbd df4e 813d fca2 f43c
000001c0: cbf6 d53d 1e74 593d 3dbd d23d 2863 f1bc
000001d0: a64f 97bd cc1a ba3c 444b f73c 6a13 aabd
000001e0: 60cb 0dbd 1d4c b03d 4d84 87bd 27f3 cb3d
000001f0: 7c61 bdbd ea30 7e3d d561 d03d e67c 6a3d
00000200: 801c 4c3a 7070 57bc ac5d e83c 8ac5 383d
00000210: 08a8 7abc b017 823c 9212 713d 9e0b 17bd
00000220: 7457 83bd 8d03 c23d 72ff 5a3d 14f3 c9bc
00000230: 8acc cebd 48b0 36bd beae 253d bba9 a0bd
00000240: 3b17 8d3d 9082 19bd 88db 47bd f074 35bd
00000250: d45f 20bd 60c3 903b 80a3 ed3b 1e55 56bd
00000260: e682 a8bd a668 8abd acc5 95bc 4317 803d
00000270: 40ca 4e3b 82c2 143d b272 02bd 0021 50bc
00000280: 7e84 c0bd f195 d73d 8006 8a3c 33f1 a23d
00000290: b235 1f3d b0c8 90bd 40e1 08bc 5a5c 7d3d
000002a0: 9e3c 6e3d 8ea2 443d e4b7 f6bc d126 af3d
000002b0: 8a55 91bd 934a 57bd b51f 873d 4bb6 9a3d
000002c0: f07d afbb 0604 c4bd 06e1 663d d62a 5f3d
000002d0: a465 ffbc a070 95bb 6c85 d1bc d286 513d
000002e0: c718 d23d ca03 acbd 80b2 c0bc 0aa1 7d3d
000002f0: 613a bc3d f750 a93d 45a6 6fbd 2b98 78bd
00000300: 0033 893c 548d c33c b8eb 6abc b2bf b8bd
00000310: b8a9 ccbc c130 a43d c31c b73d bcd6 2bbd
00000320: f27d 783d 24a9 8abd dee4 91bd 80f9 73bb
00000330: cc07 8b3c 4f3f ba3d c4ee ce3c 5b4f d33d
00000340: e889 10bc 28d4 66bc b890 b2bd da4f 0abd
00000350: acff 853c 9026 39bd a71c 82bd c80e 88bd
00000360: 93bb 72bd ffb3 ca3d 0eae 323d ac25 a4bd
00000370: 543d a23c ba65 61bd 2467 b9bd befb 533d
00000380: 2740 72bd 0022 a4bc 72df aabd 5e21 1b3d
00000390: d73a ac3d ce3c 573d 52dc a9bd 9851 7cbc
000003a0: bce5 a3bc a29b 383d 7641 593d 7654 313d
000003b0: ada3 8e3d 7985 cf3d 6f44 8fbd 6532 853d
000003c0: c06b 9d3b e4af 16bd b8a3 96bc d3ab 983d
000003d0: a014 113c c854 633c 893c 67bd 2ef2 313d
000003e0: 00b9 043a 0403 b1bc 9e8a acbd 5a6c 583d
000003f0: 47cf d4bd 9afb 243d d444 cebd 46ab 3f3d
0.09614087 -0.05287654 0.060933582 -0.027359925 0.03957408 0.09299996 -0.09683854 0.10518817
-0.045656506 0.058176063 0.08610899 -0.02290769 -0.01882311 -0.023563497 0.05463893 -0.043840062
0.05491332 0.049865283 0.004841402 0.06234891 0.04596328 -0.070532516 -0.032742858 0.104002245
0.039698653 0.0421331 -0.09331194 0.0690387 0.06320203 -0.0018572733 -0.09503671 0.08622254
-0.056455683 -0.07268514 -0.02914194 -0.042968914 0.058616705 0.102708094 0.054139547 -0.05100868
-0.009062804 0.01341442 0.03227984 0.05006229 0.08601519 0.08414509 -0.047545478 -0.056202006
0.047861554 -0.046904888 0.030734934 0.07662251 0.058841325 -0.051790066 0.0473093 0.047423907
0.049431674 0.05418139 0.06646862 0.02187439 0.038719334 0.058285527 0.013623923 0.024252586
0.09815305 -0.059470676 0.056434713 0.09069858 -0.003699623 -0.013727345 -0.08960644 -0.0044352263
0.0891599 -0.10156429 -0.057237953 0.0396168 0.030822761 0.01646752 0.08851903 0.07704223
0.039166458 -0.030465342 -0.08523564 -0.0928892 0.012562819 -0.08377722 0.019302279 0.028916486
0.065537415 0.047419764 -0.013463527 -0.019402817 -0.10275278 -0.020660765 -0.03371329 -0.02504956
-0.04388624 0.09368282 -0.004206136 0.01467137 -0.0022022724 0.07606571 0.023323126 -0.018662497
-0.008788317 -0.02016104 -0.057742167 -0.05854092 0.058747612 -0.07669694 0.063138716 0.029862873
0.10447463 0.053089254 0.102900006 -0.029466227 -0.073882386 0.022717856 0.030187257 -0.08304484
-0.03461778 0.086082675 -0.06617031 0.09958487 -0.09247109 0.062058367 0.1017491 0.05724802
0.0007786229 -0.013149366 0.028364979 0.045110263 -0.015298851 0.015880436 0.0588556 -0.036876313
-0.06413165 0.094733335 0.053466268 -0.024652041 -0.100976065 -0.04460171 0.04044985 -0.078448735
0.068891965 -0.03747803 -0.048793346 -0.044300973 -0.03915389 0.0044178218 0.0072521567 -0.052327268
-0.08228092 -0.06758241 -0.018282734 0.06254437 0.0031553656 0.03631831 -0.031847663 -0.01270318
-0.09400271 0.10526646 0.016848803 0.07956161 0.038869567 -0.07069528 -0.008354485 0.06185565
0.058163278 0.048006587 -0.030116983 0.085523255 -0.070963934 -0.052561354 0.065978445 0.07554301
-0.005355589 -0.0957108 0.056366943 0.05448421 -0.031176396 -0.004560545 -0.025576316 0.051153965
0.10258632 -0.0839916 -0.023522615 0.061921157 0.091908224 0.08267396 -0.058508176 -0.060691994
0.016747952 0.023871101 -0.014338426 -0.09020938 -0.024983272 0.080171116 0.08941033 -0.041952834
0.060666986 -0.06770542 -0.07123731 -0.003722757 0.016971491 0.090941064 0.025260337 0.1031787
-0.008821942 -0.014088668 -0.08719009 -0.03376756 0.016357265 -0.04520279 -0.06353121 -0.06643444
-0.059260916 0.09897613 0.043623023 -0.08014998 0.019804634 -0.055028655 -0.09052876 0.051753752
-0.05914321 -0.020035744 -0.083434 0.03787362 0.0840966 0.052548222 -0.08293976 -0.015400313
-0.020007007 0.045070298 0.053040944 0.04329344 0.069648124 0.1013288 -0.069954745 0.065037526
0.0048041046 -0.036788836 -0.018388614 0.07454648 0.008855015 0.013875194 -0.056454215 0.04344385
0.00050629675 -0.021607883 -0.08424877 0.052837707 -0.103910975 0.04027901 -0.10071722 0.0467942

res0.bn1.weight f4 [10]
00000000: 0000 803f 0000 803f 0000 803f 0000 803f
00000010: 0000 803f 0000 803f 0000 803f 0000 803f
00000020: 0000 803f 0000 803f
1.0 1.0 1.0 1.0 1.0 1.0 1.0 1.0
1.0 1.0

res0.bn1.bias f4 [10]
00000000: 0000 0000 0000 0000 0000 0000 0000 0000
00000010: 0000 0000 0000 0000 0000 0000 0000 0000
00000020: 0000 0000 0000 0000
0.0 0.0 0.0 0.0 0.0 0.0 0.0 0.0
0.0 0.0

res0.bn1.running_mean f4 [10]
00000000: 0000 0000 0000 0000 0000 0000 0000 0000
00000010: 0000 0000 0000 0000 0000 0000 0000 0000
00000020: 0000 0000 0000 0000
0.0 0.0 0.0 0.0 0.0 0.0 0.0 0.0
0.0 0.0

res0.bn1.running_var f4 [10]
00000000: 0000 803f 0000 803f 0000 803f 0000 803f
00000010: 0000 803f 0000 803f 0000 803f 0000 803f
00000020: 0000 803f 0000 803f
1.0 1.0 1.0 1.0 1.0 1.0 1.0 1.0
1.0 1.0

res0.conv2.weight f4 [10, 10, 3, 3]
00000000: 80f1 c1ba 5856 85bd 0872 2abd 6816 1f3c
00000010: d4a8 cf3c fc4a 92bc 8870 b2bc 4b2e b8bd
00000020: ca8f 183d 8a07 253d 8e9f 5f3d 5026 333c
00000030: f52b bb3d 9f89 b93d 6a83 223d d90d a03d
00000040: 71e8 d63d 94c4 a9bc e5f6 8f3d 6c81 f43c
00000050: 0c5a 1bbd 9c6c 8abc 4d44 b93d e23f 223d
00000060: facf 3d3d d369 88bd e2c6 10bd 3977 b8bd
00000070: 9c2c 80bc 6cd8 8dbd f845 cabd 9897 5bbc
00000080: 041d f73c aa45 bdbd c7d5 973d 2469 e63c
00000090: 504c 203c a2c3 b6bd 64a1 e8bc 6b9e 30bd
000000a0: 8943 b03d b09a d1bd 398a bd3d 825c c8bd
000000b0: 4e5c d6bd 92f6 653d 0401 cabd 7d90 36bd
000000c0: f6a0 263d d448 24bd bfbe cfbd 54c3 f43c
000000d0: 439b c83d 202c 073c f0d1 bbbd 54e2 cabc
000000e0: ba7c 86bd dc8c a03c a627 90bd 97ea 8f3d
000000f0: e0aa 213c d1c6 923d 3cc5 84bc 3672 c3bd
00000100: 7828 01bc 34ac eb3c d04f 98bb e6ab 2bbd
00000110: f366 b03d 8038 c3bd 8e96 d6bd 2073 b2bb
00000120: 0993 883d 2805 98bd 4ee0 273d e65f 1e3d
00000130: cb99 843d f4e0 5bbd f9bf 3cbd 0dde 9d3d
00000140: ff85 a03d 68e6 c1bc 7a74 443d be9a babd
00000150: e13d ccbd 4083 f8bb 7341 aebd 5a05 81bd
00000160: 1d0a be3d 5e35 12bd cc3c ff3c bc32 06bd
00000170: d832 833c eb0c b6bd 0366 893d 159a cd3d
00000180: fe13 0dbd 6685 9abd c2d0 abbd f66e 403d
00000190: 1a68 75bd d5b4 c23d 00a5 bdbb 8c59 ec3c
000001a0: a7e4 7bbd dbfe bb3d 5fbf ad3d 14a0 6bbd
000001b0: 93b5 bf3d 8751 95bd ddd3 c73d f923 4dbd
000001c0: 100a c4bc ce64 5f3d 31ac a03d ca75 773d
000001d0: 5348 903d b255 6f3d a1f3 b73d 4cde 2ebd
000001e0: b2a0 4fbd 142a cd3c d264 373d 424a 303d
000001f0: adf6 c3bd b914 37bd 6e8d 0f3d 644e a2bd
00000200: fd8c 873d 7058 99bb 40b6 2bbc b5a2 8b3d
00000210: 6abf 2ebd f2be 273d 2864 92bc 892b be3d
00000220: ca3e 483d 8be9 cdbd f7f7 a9bd 9050 1dbc
00000230: e19e b53d 19c1 a83d 67a3 a03d bf20 d7bd
00000240: d058 04bc 3491 d63c 4e1c 11bd 0071 aab9
00000250: 8b74 b33d 9061 583c f8e8 69bd 8b72 953d
00000260: 7851 16bd 3509 38bd 44e3 ca3c c481 ffbc
00000270: cef9 503d 9bc8 58bd c4e2 ec3c a0da 38bb
00000280: fc46 c5bd 41aa ca3d 46b6 123d 8a2c 0dbd
00000290: 00be 353a e80b 90bc c294 7e3d d5b0 813d
000002a0: 5f14 c0bd 4060 143b fa1f 3c3d 80d8 81bb
000002b0: 7603 253d e088 debc 003e f2b9 3f9e ce3d
000002c0: ac0d f33c 071a 9bbd 248f e03c 5fc0 51bd
000002d0: 465f 59bd 6abe c3bd 817c 8f3d 38c5 1fbd
000002e0: 00be 9f39 f908 b13d 6409 d53c f44e ab3c
000002f0: bb25 b2bd 0e04 77bd 46a0 5b3d b894 dcbc
00000300: e0b4 7f3c 2c70 9ebd 637c 69bd 0e8a 303d
00000310: 4809 9cbc b452 cdbd 9a09 6c3d 8475 a8bc
00000320: 8cce 52bd 4a2a c0bd 6451 bcbd ee3a 4a3d
00000330: 4392 cf3d e90f 98bd a0a9 e0bb 817f 953d
00000340: d16d 95bd 4e48 703d b946 5ebd 40c5 4b3c
00000350: 025d 9cbd eca4 1dbd c96f a8bd 24cf 87bc
00000360: 7b2d 8e3d 48a8 ecbc 11b9 d2bd 1dd8 a33d
00000370: 3167 a43d 2596 b43d 2202 c6bd 85d7 853d
00000380: 86e4 653d 9731 b2bd 40a3 e5bc 1be6 77bd
00000390: f11c 5dbd 3c4d 8cbc 527f 96bd 7d70 4cbd
000003a0: a7de 50bd 8c11 d43c f0af 9bbd 1976 af3d
000003b0: 700f f73b 54c9 d33c f53e a83d 8007 113a
000003c0: 0ca9 9abd b003 81bd 36bc c0bd e2d9 773d
000003d0: a7f6 bbbd b8fb 1abc 7b48 953d 38e6 26bc
000003e0: fa3a 453d d5d7 d2bd 2800 143c 549a ad3c
000003f0: 92dd 81bd d923 b43d 5e0d 04bd bc88 eebc
-0.0014796704 -0.065106094 -0.041612655 0.009709932 0.025349058 -0.017858021 -0.021782175 -0.08993205
0.037246503 0.040290393 0.054595523 0.010934427 0.091392435 0.09059452 0.039676107 0.07815141
0.104935534 -0.020723619 0.07029513 0.02984687 -0.037927672 -0.016897492 0.090462305 0.039611705
0.04634092 -0.06660809 -0.03534592 -0.09007115 -0.015646271 -0.06926045 -0.09876627 -0.013402842
0.030165203 -0.09241803 0.07413822 0.028126307 0.009783819 -0.08924033 -0.02839727 -0.04311983
0.08606631 -0.102345824 0.092548795 -0.097832695 -0.104668245 0.05614335 -0.09863475 -0.04457139
0.040680848 -0.040108517 -0.10143804 0.029878296 0.09795239 0.008250266 -0.09170902 -0.024766125
-0.065667585 0.019598417 -0.07038812 0.07027166 0.0098674 0.071668275 -0.01620733 -0.095432684
-0.007883184 0.028768636 -0.0046481863 -0.041911982 0.08613386 -0.09532261 -0.10477935 -0.005445853
0.0666867 -0.074228585 0.040985398 0.038665675 0.06474646 -0.05368133 -0.046081517 0.077083685
0.07838058 -0.023669437 0.047962643 -0.09111546 -0.0997274 -0.0075840056 -0.08508577 -0.06299849
0.09279273 -0.035695426 0.03115692 -0.032763228 0.016015455 -0.08889183 0.0670891 0.100391544
-0.034442894 -0.07544975 -0.08389427 0.04698082 -0.059913732 0.09507147 -0.005787492 0.028851293
-0.061497357 0.09179469 0.08483767 -0.05752571 0.093608044 -0.07290941 0.097572066 -0.050083134
-0.02393058 0.054539494 0.07845343 0.060415067 0.07045045 0.058431335 0.089820154 -0.042692468
-0.05069036 0.025044478 0.044773884 0.043039568 -0.09568534 -0.044697497 0.035046987 -0.07925108
0.06618688 -0.004679732 -0.0104804635 0.06818143 -0.042663015 0.040953584 -0.017870024 0.092856474
0.048888005 -0.100543104 -0.08299249 -0.009601727 0.08868194 0.082399555 0.078436665 -0.10504293
-0.008077815 0.026192285 -0.035427384 -0.00032509118 0.08762463 0.013206854 -0.057106942 0.07297238
-0.03669879 -0.044930656 0.024766572 -0.031189807 0.051019482 -0.052925687 0.028916724 -0.0028206483
-0.0963268 0.098957546 0.03581836 -0.034466304 0.0006932914 -0.017583802 0.062153585 0.06332556
-0.093788855 0.0022640377 0.045928933 -0.0039625764 0.040286504 -0.027164876 -0.0004620403 0.10088777
0.029669605 -0.07573324 0.027412005 -0.05120885 -0.053069375 -0.09557803 0.07006169 -0.03900644
0.00030468404 0.086442895 0.026005454 0.020911671 -0.08698603 -0.0603066 0.053619646 -0.026926383
0.015607089 -0.07736239 -0.05700339 0.04310041 -0.019047394 -0.1002554 0.057626344 -0.020563848
-0.05146651 -0.09383066 -0.091952115 0.049372606 0.10135319 -0.074249096 -0.0068561584 0.0729971
-0.072963364 0.058662705 -0.054266665 0.012437165 -0.07634927 -0.03848736 -0.08224446 -0.016578265
0.069422685 -0.028888837 -0.10289205 0.08000205 0.08027495 0.088177 -0.096683756 0.06535248
0.05612614 -0.08700865 -0.028031945 -0.06052218 -0.05398268 -0.017126672 -0.07348503 -0.049911965
-0.050993588 0.025887273 -0.07601917 0.08567447 0.007539682 0.025852837 0.08215133 0.00055324286
-0.075517744 -0.062995315 -0.094108984 0.060510524 -0.091779046 -0.0094594285 0.07289215 -0.010186724
0.048151948 -0.10295073 0.00903324 0.021191753 -0.06341089 0.087959 -0.03223931 -0.029117934

res0.bn2.weight f4 [10]
00000000: 0000 803f 0000 803f 0000 803f 0000 803f
00000010: 0000 803f 0000 803f 0000 803f 0000 803f
00000020: 0000 803f 0000 803f
1.0 1.0 1.0 1.0 1.0 1.0 1.0 1.0
1.0 1.0

res0.bn2.bias f4 [10]
00000000: 0000 0000 0000 0000 0000 0000 0000 0000
00000010: 0000 0000 0000 0000 0000 0000 0000 0000
00000020: 0000 0000 0000 0000
0.0 0.0 0.0 0.0 0.0 0.0 0.0 0.0
0.0 0.0

res0.bn2.running_mean f4 [10]
00000000: 0000 0000 0000 0000 0000 0000 0000 0000
00000010: 0000 0000 0000 0000 0000 0000 0000 0000
00000020: 0000 0000 0000 0000
0.0 0.0 0.0 0.0 0.0 0.0 0.0 0.0
0.0 0.0

res0.bn2.running_var f4 [10]
00000000: 0000 803f 0000 803f 0000 803f 0000 803f
00000010: 0000 803f 0000 803f 0000 803f 0000 803f
00000020: 0000 803f 0000 803f
1.0 1.0 1.0 1.0 1.0 1.0 1.0 1.0
1.0 1.0

res1.conv1.weight f4 [10, 10, 3, 3]
00000000: 6bde babd 903b 963c 460b 2f3d 9a18 68bd
00000010: 2dab 933d c224 c7bd 0aa4 d5bd beb9 14bd
00000020: 4310 cd3d d0d1 a1bc af82 c7bd 80c4 8c3a
00000030: 9ed9 413d 70aa b7bb c081 0a3b 9898 0ebd
00000040: f671 29bd 12f2 9bbd 260e 9cbd c200 523d
00000050: 5429 c03c e221 80bd 2bbe 843d 3f46 44bd
00000060: 0452 afbc 752f 833d 5918 8d3d c787 9bbd
00000070: 6892 26bd 9c47 dd3c 02c9 96bd 00cc a1bd
00000080: ca21 273d 5e58 42bd e212 783d d7be ad3d
00000090: 1503 c53d 0002 0ab9 8ccc f6bc 3139 ba3d
000000a0: 02d9 693d 1a69 1abd 7f84 ac3d 14cf eb3c
000000b0: db63 3ebd a670 a5bd 1e36 bcbd 2348 bd3d
000000c0: d321 68bd 52f6 5f3d e7cb c2bd 3a65 adbd
000000d0: d101 be3d af80 b7bd d407 f0bc 0011 16ba
000000e0: b098 973c 3ec7 c5bd 36d0 86bd 5853 b8bc
000000f0: d07e 293c 180d d4bd 8d48 a33d 6c43 983c
00000100: 3c7c acbd b7de aa3d 7ade 303d 400b a93b
00000110: 7539 963d 4299 c6bd be9e 5e3d be82 013d
00000120: bb1b d33d e804 04bc 6c19 a6bd 7456 f63c
00000130: 5013 bdbd 3b3f bb3d 3bd7 a5bd c25d 173d
00000140: 93d0 843d 4c32 b8bc 8c1e 96bd a8c6 d4bd
00000150: 8db8 cb3d 4951 a13d 3236 6b3d a0d3 523b
00000160: 84af f9bc 1821 65bc c059 3dbd e5ac 813d
00000170: e6e8 1abd 3e5f 573d db98 c6bd 0f1b c03d
00000180: ac7a a0bc ca92 20bd 9ce3 27bd d8aa 0a3c
00000190: 603d b03b 4437 e4bc 8880 3b3c 6723 b93d
000001a0: e855 043c 8f2b aabd 86a9 463d be19 693d
000001b0: b8fc 8dbc da40 633d 001d 39bb f22f 0d3d
000001c0: 6b7f a03d 4cd2 ed3c 9ee1 32bd 0394 d63d
000001d0: 6ab0 783d b547 a13d c8db cebd 9453 adbc
000001e0: 621d 443d 34b5 dc3c 91a5 883d 0b62 cfbd
000001f0: 618d c4bd 1288 413d 7004 a53b 381c b3bd
00000200: 9441 a1bc 31b7 c13d 8a44 19bd 40d1 c6bd
00000210: fc45 b2bc 667a b1bd 0322 c4bd c7e3 a33d
00000220: bebd 783d 96f2 253d b566 d5bd 80cf 313c
00000230: 51d7 833d 6cd7 88bd f2f4 b2bd 72b0 343d
00000240: 3cfd 813c ebbf 79bd 6740 d3bd 44cb e7bc
00000250: 6113 d63d 7f77 b23d 13b1 ca3d ef32 943d
00000260: 8c80 1bbd 5a49 1b3d 2a69 5a3d f08e 89bb
00000270: 1420 b43c f928 a93d 410a 9d3d e7cd cc3d
00000280: 5b55 b93d 7050 d0bb 663b 4c3d 777c bcbd
00000290: 36d4 5d3d 7d9a 8a3d 00e8 62b8 b6f4 173d
000002a0: 82e3 bcbd 8aee 083d e3c3 983d 61d2 b13d
000002b0: 4083 c4ba 7293 27bd 5032 82bd ebb9 47bd
000002c0: d51a a73d 50db a2bd dfde 813d 3030 84bd
000002d0: 9657 6f3d 0196 933d fcea a2bd 6d12 8e3d
000002e0: 362e 5d3d 2a62 423d 5ff5 cc3d d077 493c
000002f0: dad0 4e3d 9c97 e4bc 9888 2b3c be6c 113d
00000300: c28d 493d 4bcf a5bd 550d d73d f56a 41bd
00000310: 4052 4e3b abfc 8c3d b2ef 653d 86a2 8bbd
00000320: fe59 84bd 37b2 8b3d 1a1a d5bd 1ad9 613d
00000330: 3e58 7d3d 004f 36bc ca3a 633d 106e babd
00000340: aff3 cf3d f610 673d b0f4 93bc 0740 47bd
00000350: 1d69 b0bd dc8c 7bbd 7910 823d 7cb4 20bd
00000360: f0f3 ee3b 5528 a33d b089 15bd a745 b83d
00000370: d0e6 89bd 1e2e a0bd b051 d7bc c86c acbc
00000380: 46c1 7c3d 8074 d8bb 8076 b3bb 8088 263a
00000390: 6742 993d f016 ab3b 87ff 813d cc99 983c
000003a0: cf9f 953d 9cdb 82bd 7f16 b6bd aa34 9abd
000003b0: 8452 dcbc 0645 c6bd 225b c6bd ec7c ac3c
000003c0: 1d7a 9dbd 1adc 41bd 84c2 38bd c6f2 afbd
000003d0: 1782 d53d 96c7 733d 7731 b53d 2015 debb
000003e0: 210a c23d fcde ca3c 485a 89bc 95ff a23d
000003f0: c878 aabd e4d7 d03c 4054 baba e071 4fbc
-0.09124454 0.018338948 0.04273536 -0.056664087 0.072103836 -0.09723808 -0.104316786 -0.03630995
0.10012867 -0.019753367 -0.09741723 0.0010739714 0.047326677 -0.0056050345 0.0021134466 -0.034813493
-0.041368447 -0.076145306 -0.07619886 0.051270254 0.023457207 -0.06256463 0.06481584 -0.047918554
-0.021401413 0.06405536 0.068894096 -0.07594257 -0.040666968 0.027011685 -0.07362558 -0.07900238
0.040803708 -0.047447555 0.060564883 0.084836654 0.096197285 -0.0001316145 -0.030126832 0.0909294
0.05709172 -0.03769789 0.08423709 0.028785266 -0.04648195 -0.080781266 -0.091900095 0.092422746
-0.056672882 0.05467827 -0.095115475 -0.08466573 0.0927769 -0.08960091 -0.029300608 -0.0005724579
0.018505424 -0.09657143 -0.06582682 -0.022500679 0.010345176 -0.1035406 0.07972822 0.018586837
-0.08422133 0.08343261 0.04318092 0.005158812 0.07335178 -0.096972 0.054350607 0.031618826
0.103080235 -0.00805781 -0.081103176 0.030070521 -0.09232199 0.0914292 -0.080976926 0.03695465
0.06485095 -0.02248492 -0.07330045 -0.10389453 0.0994731 0.07876832 0.05742473 0.0032169595
-0.0304792 -0.013984941 -0.04622817 0.06331805 -0.037819766 0.052581064 -0.096971236 0.09380161
-0.019589745 -0.03920249 -0.04098855 0.008463584 0.00537841 -0.027858384 0.011444218 0.090399556
0.008077122 -0.083090894 0.048501514 0.056909315 -0.01733242 0.05548177 -0.0028246045 0.034469552
0.07836803 0.029030941 -0.043672197 0.1047745 0.060715117 0.07875005 -0.10100514 -0.021158017
0.047879584 0.026941873 0.06672204 -0.10126122 -0.095972784 0.047248907 0.0050359294 -0.08745617
-0.01968459 0.09458769 -0.03741888 -0.0970788 -0.021761887 -0.08665924 -0.095768 0.080024295
0.060727827 0.04051455 -0.104199804 0.0108526945 0.06437553 -0.066817135 -0.08738126 0.044113584
0.015867822 -0.060974043 -0.10315018 -0.028295167 0.10452915 0.08714198 0.098970555 0.07236277
-0.03796439 0.03791175 0.05332295 -0.0041979477 0.021987952 0.08259768 0.076679714 0.1000021
0.090494834 -0.006357245 0.049861334 -0.09203427 0.05415746 0.067677476 -5.4098666e-05 0.03709861
-0.09223081 0.033430614 0.074592374 0.08682705 -0.0014992729 -0.0409121 -0.063572526 -0.04876129
0.08159415 -0.07951987 0.063413374 -0.064545035 0.058433138 0.07206345 -0.07954976 0.06937108
0.05399915 0.047456898 0.10007738 0.012296632 0.050492145 -0.027904324 0.010469578 0.035504095
0.049207456 -0.080961786 0.1050059 -0.047221143 0.003148213 0.0688413 0.056136794 -0.06818108
-0.06462477 0.06821101 -0.10405369 0.055138685 0.061851732 -0.0111272335 0.055475987 -0.09103024
0.10153901 0.05641266 -0.018061012 -0.048645046 -0.08613799 -0.06141363 0.06350798 -0.039234623
0.007292263 0.07966677 -0.036508262 0.0899766 -0.06733477 -0.07821296 -0.026284069 -0.021047965
0.061707757 -0.0066056848 -0.005476773 0.00063527375 0.07483368 0.00522124 0.06347566 0.018628024
0.07305872 -0.063895434 -0.088910095 -0.07529576 -0.026894815 -0.09681134 -0.09685351 0.021055661
-0.07689307 -0.047329046 -0.04510738 -0.08591227 0.10425203 0.05951651 0.08847325 -0.0067774206
0.09474588 0.02476453 -0.016766682 0.07958905 -0.083238184 0.02549357 -0.0014215782 -0.012661427

res1.bn1.weight f4 [10]
00000000: 0000 803f 0000 803f 0000 803f 0000 803f
00000010: 0000 803f 0000 803f 0000 803f 0000 803f
00000020: 0000 803f 0000 803f
1.0 1.0 1.0 1.0 1.0 1.0 1.0 1.0
1.0 1.0

res1.bn1.bias f4 [10]
00000000: 0000 0000 0000 0000 0000 0000 0000 0000
00000010: 0000 0000 0000 0000 0000 0000 0000 0000
00000020: 0000 0000 0000 0000
0.0 0.0 0.0 0.0 0.0 0.0 0.0 0.0
0.0 0.0

res1.bn1.running_mean f4 [10]
00000000: 0000 0000 0000 0000 0000 0000 0000 0000
00000010: 0000 0000 0000 0000 0000 0000 0000 0000
00000020: 0000 0000 0000 0000
0.0 0.0 0.0 0.0 0.0 0.0 0.0 0.0
0.0 0.0

res1.bn1.running_var f4 [10]
00000000: 0000 803f 0000 803f 0000 803f 0000 803f
00000010: 0000 803f 0000 803f 0000 803f 0000 803f
00000020: 0000 803f 0000 803f
1.0 1.0 1.0 1.0 1.0 1.0 1.0 1.0
1.0 1.0

res1.conv2.weight f4 [10, 10, 3, 3]
00000000: bbbf c73d ba42 0e3d 4362 a5bd 84b1 d2bc
00000010: 003f 04bd 68f3 09bc d943 c93d e8f0 9fbd
00000020: 8f46 913d 4a4c 11bd 9142 9b3d 56df 243d
00000030: b68e 8cbd a2da 713d 83c5 a2bd 2c90 ffbc
00000040: 5ea9 543d d58d b13d 5692 29bd 12f5 093d
00000050: 4af4 1d3d 0e4a 463d cec9 263d 91c2 953d
00000060: 8a35 353d c0d0 92bb 4596 b53d b4f3 d83c
00000070: 1999 a93d a483 b4bd 2011 c0bb 2918 a43d
00000080: b0ac 2fbc 7eb9 763d 7890 293c 39cf a63d
00000090: f260 18bd 64ad e9bc 3d5c 5ebd 7a2c 353d
000000a0: 5f72 c33d 3c38 86bd 6085 66bc faad 8cbd
000000b0: 84b6 93bd bad4 213d 91bc 873d de1c 433d
000000c0: 246a 43bd 48b1 71bc 20b0 86bc 7241 b8bd
000000d0: c643 c1bd 14e1 99bc a524 a1bd be46 073d
000000e0: 2e38 0c3d b051 06bd 1d7c 9a3d 7cf5 9e3c
000000f0: 280f 9c3c bea1 7b3d 350e d43d b7db bd3d
00000100: d0dd e1bb da0b c4bd 9b1c ac3d ea47 3a3d
00000110: c8f1 7d3c 6806 a4bc 7070 943c 7aad d0bd
00000120: 54a8 4abd c010 82bc fa69 c1bd 4cd1 7cbd
00000130: 1e57 713d b883 5bbc 78c9 0bbd 1461 e33c
00000140: e9ee b93d 9abc 773d d1eb 6abd 8ede aabd
00000150: a191 bd3d 315b d2bd f256 0b3d 4f53 973d
00000160: 821e 25bd ab66 903d cafd 5f3d 3544 8c3d
00000170: 72a9 1abd 0e47 123d a0e7 3c3b ab29 a53d
00000180: b18e 8d3d 1239 97bd 0720 cbbd d2b9 05bd
00000190: 69d3 c03d 5dbc b53d 0022 7eba a542 cebd
000001a0: 184b 94bd 6720 b13d 0c83 00bd 339c bc3d
000001b0: d4e8 95bc 0d55 c2bd 6851 83bc 2a0f 80bd
000001c0: df24 8cbd 2680 1a3d a452 e83c 9675 80bd
000001d0: 8904 9e3d 1ada 25bd 541c a53c a61f 8bbd
000001e0: 9232 113d 2485 c0bd 5ce7 c23c 98f8 b0bd
000001f0: 5e8b 4dbd 427b 5a3d 249d 893c 7435 bdbc
00000200: 748c 1ebd c0d9 2bbd f1dc 8b3d 26ec 2d3d
00000210: 8098 4e3c ebef b13d ebd5 b23d a01c 91bc
00000220: 0a79 0e3d 9a0c 5e3d bbfd 833d 9439 8dbd
00000230: 1bd3 c93d d618 7b3d 48d0 97bd d28c 473d
00000240: 10f7 7abd 1d91 b53d 8f6e 99bd 148a b7bc
00000250: 2bc9 aebd 1cdc 84bc 1409 d3bd c013 8abb
00000260: 9966 aebd 1079 e6bc 2a5b a5bd f0b1 e8bb
00000270: 4100 c8bd 08fd 453c 2c62 74bd c074 cbba
00000280: 246a 7bbd c33b 9ebd 90f0 a1bd 7ee7 cdbd
00000290: 599d cf3d 74a5 b1bc 3314 bf3d 2e3b 7bbd
000002a0: 8a14 16bd 8845 57bc 1afe 5e3d e80b 60bc
000002b0: 0613 0c3d 62c2 773d e281 753d f632 03bd
000002c0: 7ef3 82bd f496 c5bc ff73 3fbd 845e 90bc
000002d0: f150 b03d 50a5 0dbc 04bc 02bd 61b1 d43d
000002e0: 9d37 c63d 3ec9 013d c4d4 56bd 80c7 51bd
000002f0: de10 86bd 40c6 e8bb 906c 61bd 66bd 42bd
00000300: 07ea d0bd 7505 8d3d 7eb4 86bd d0ae 47bc
00000310: e0e2 a4bd 4047 1b3b 3ee9 1c3d 30a5 4dbc
00000320: c6b5 41bd 5ae3 9abd a2c6 c0bd 8614 cbbd
00000330: 4ebb b6bd dcca f83c 6d0d d0bd 404d 87bd
00000340: b1cc 903d d4d4 25bd e0e3 07bd 1fca bf3d
00000350: 204b 90bc bfc0 89bd 0a50 723d 3cbc d5bc
00000360: 8435 b23c 6909 d53d 9639 543d f895 15bd
00000370: b8c3 693c 60e8 6d3c 3452 8cbc 405a e43a
00000380: 6a8c 533d dafa 203d 686c 863c b581 70bd
00000390: be16 2a3d e834 b7bd 4439 ee3c 3083 8f3c
000003a0: 1809 b0bc 42b8 9abd 1f9e 5cbd 5038 aebc
000003b0: 61ec 36bd 115a b33d e16c d4bd 2080 59bb
000003c0: a3c9 4ebd f1f4 943d 7d7f 843d 60f6 07bd
000003d0: a0f5 2dbc c43b f13c 38e3 94bd 00b1 a2b9
000003e0: 2b52 cd3d c09c 013b d1c7 b03d e964 a03d
000003f0: e20b 253d c0ce c2bc cb01 a3bd 7bf4 bb3d
0.097533666 0.034731604 -0.080753826 -0.025719412 -0.032286644 -0.008419849 0.09827394 -0.07809621
0.07093536 -0.035473146 0.07581056 0.040252052 -0.068631575 0.059046395 -0.079478286 -0.031196676
0.051919334 0.086696304 -0.041399322 0.033680983 0.03856305 0.048410468 0.0407198 0.07312501
0.044240512 -0.0044804513 0.08866552 0.026483394 0.08281154 -0.08814171 -0.0058614165 0.08012421
-0.010722324 0.060235493 0.010349385 0.08144993 -0.03720183 -0.028525062 -0.054287184 0.04423187
0.09543299 -0.065536946 -0.014069885 -0.06869121 -0.072125465 0.039509512 0.06627763 0.04763495
-0.047708645 -0.01475174 -0.016441405 -0.08996858 -0.09436755 -0.018784083 -0.078683175 0.03302645
0.034233265 -0.032792747 0.07543204 0.019404165 0.019050196 0.061433546 0.10354272 0.09270423
-0.006892897 -0.09572573 0.084038936 0.04547874 0.01549954 -0.020022586 0.01812002 -0.10189338
-0.049476936 -0.015877128 -0.094440416 -0.06172304 0.058920972 -0.013398103 -0.034127682 0.027756251
0.090787716 0.0604826 -0.0573538 -0.0834323 0.09256292 -0.102713 0.034018464 0.07388937
-0.040312298 0.07050832 0.05468539 0.06848947 -0.037759252 0.035712294 0.0028824583 0.08064588
0.06911982 -0.07383932 -0.09918218 -0.032647915 0.09415323 0.08873818 -0.00096943974 -0.10071305
-0.072408855 0.086487584 -0.031374976 0.0920948 -0.018299498 -0.094888784 -0.016030028 -0.06252892
-0.0684297 0.037719868 0.028359719 -0.06272428 0.07715709 -0.0404912 0.02015511 -0.06793146
0.03544862 -0.094003946 0.023791961 -0.086411655 -0.05018174 0.053340204 0.016798563 -0.023096777
-0.038708165 -0.04195571 0.068292506 0.042461537 0.012609601 0.08688339 0.08732208 -0.017713845
0.0347834 0.054211237 0.064448796 -0.06895748 0.09854718 0.061302982 -0.07412773 0.04871828
-0.061270773 0.08865569 -0.074917905 -0.022404708 -0.085344635 -0.016218238 -0.10304466 -0.00421378
-0.08515663 -0.028133899 -0.08074029 -0.00710129 -0.097656734 0.012084253 -0.059663936 -0.0015522465
-0.06138052 -0.077262424 -0.07907212 -0.10053919 0.101374336 -0.02168534 0.093300246 -0.061335735
-0.03664068 -0.013139136 0.05444155 -0.013674714 0.03419783 0.060488112 0.05993832 -0.032031022
-0.06394099 -0.024119832 -0.046741482 -0.017623194 0.08609188 -0.008645371 -0.031917587 0.10385395
0.09678576 0.03168606 -0.052449003 -0.05121565 -0.06546186 -0.0071037114 -0.055035174 -0.047543906
-0.10200887 0.068858065 -0.06577395 -0.012187675 -0.080510855 0.0023693591 0.038308375 -0.012551591
-0.047292493 -0.07562895 -0.09412886 -0.09916024 -0.08922444 0.030370168 -0.10158811 -0.06606531
0.07070292 -0.04048617 -0.033176303 0.093647234 -0.017613947 -0.067262165 0.059158362 -0.026090734
0.021754034 0.104021855 0.05181273 -0.036519974 0.014267854 0.014520735 -0.017129041 0.0017421916
0.05164758 0.03930173 0.016409114 -0.05871745 0.041525595 -0.08945638 0.02908004 0.01751861
-0.021488711 -0.07554676 -0.053861734 -0.021267086 -0.044659022 0.08757413 -0.103723295 -0.003318794
-0.050485265 0.07273281 0.06469629 -0.033193946 -0.010617644 0.029447444 -0.07269901 -0.00031030923
0.10025438 0.0019777268 0.08631862 0.07831747 0.040294535 -0.023780227 -0.07959326 0.0917749

res1.bn2.weight f4 [10]
00000000: 0000 803f 0000 803f 0000 803f 0000 803f
00000010: 0000 803f 0000 803f 0000 803f 0000 803f
00000020: 0000 803f 0000 803f
1.0 1.0 1.0 1.0 1.0 1.0 1.0 1.0
1.0 1.0

res1.bn2.bias f4 [10]
00000000: 0000 0000 0000 0000 0000 0000 0000 0000
00000010: 0000 0000 0000 0000 0000 0000 0000 0000
00000020: 0000 0000 0000 0000
0.0 0.0 0.0 0.0 0.0 0.0 0.0 0.0
0.0 0.0

res1.bn2.running_mean f4 [10]
00000000: 0000 0000 0000 0000 0000 0000 0000 0000
00000010: 0000 0000 0000 0000 0000 0000 0000 0000
00000020: 0000 0000 0000 0000
0.0 0.0 0.0 0.0 0.0 0.0 0.0 0.0
0.0 0.0

res1.bn2.running_var f4 [10]
00000000: 0000 803f 0000 803f 0000 803f 0000 803f
00000010: 0000 803f 0000 803f 0000 803f 0000 803f
00000020: 0000 803f 0000 803f
1.0 1.0 1.0 1.0 1.0 1.0 1.0 1.0
1.0 1.0

res2.conv1.weight f4 [10, 10, 3, 3]
00000000: f89c e7bc 1181 c33d f81a 78bc ccba 883c
00000010: 606d febc 9e7c 093d 7437 00bd 1cf4 f43c
00000020: 0c76 2cbd 200a 12bb 14a5 a1bd c020 a0bd
00000030: ebdd b8bd de5a 293d 46e7 1d3d daae 9abd
00000040: 2e7c 593d 338b 88bd d3f6 c93d c054 bbbd
00000050: 88e6 6fbc 906b 25bd fadd 18bd efc0 a33d
00000060: a899 03bc 5dd0 863d e58b aebd 0794 993d
00000070: 838e 3abd 0018 a9bc 2a8e 503d 45e4 87bd
00000080: 81b3 cc3d 4d2a a03d e09b afbb 5546 a8bd
00000090: dd6d ba3d 5b20 a0bd 38f8 bebd 4077 9b3a
000000a0: 6fd9 a53d 2222 593d 58df 7e3c fade 3c3d
000000b0: c7e4 ac3d 28bd b4bd 146c 28bd 061e 3abd
000000c0: c491 c7bc fa54 68bd 06e4 a6bd 2fbf 863d
000000d0: 586c acbc 1664 203d f0a5 a9bc 823c 93bd
000000e0: aed1 cbbd a48a 9bbc 9dcd 88bd d11f c73d
000000f0: 802c 473a e01e 8e3c 9826 c6bc 018b 843d
00000100: e517 c73d 2624 23bd 9890 343c 7003 c1bb
00000110: b29e bebd edba cabd 4e90 91bd 8fa5 4dbd
00000120: 53a2 c3bd 1bbc bf3d a8ca 04bd 09a1 963d
00000130: 84a3 cdbd b497 dfbc 9ec1 143d 2cd9 953c
00000140: 4f35 d13d 30ba 923b ecac d03c 9a88 3a3d
00000150: 0cf5 aabd 85ff d1bd f525 9dbd 8eca 2f3d
00000160: c4d5 aabd 8234 50bd dfd5 b9bd eb30 9f3d
00000170: de6c 1c3d 40d5 7a3c 20b3 3abd 6688 b4bd
00000180: 7a2f 7c3d 9022 fcbc 4ce4 95bd 7057 e8bc
00000190: d212 073d c4e6 933c ca92 723d 4524 aa3d
000001a0: 42e9 773d ddd4 91bd e80d 0cbd 3508 71bd
000001b0: 7016 08bc 986c 4cbc 5cc2 fa3c f23c 633d
000001c0: a383 ccbd e94d 9b3d 40b2 7f3b 8609 c3bd
000001d0: dc08 babd 3508 823d 8037 68bd c8cc 9b3c
000001e0: 8032 c2ba 77c9 2fbd 0fe5 d63d 4a47 663d
000001f0: fb13 ba3d ee65 d7bd aeb2 c4bd 0333 823d
00000200: c1e1 a63d 1d16 8d3d 9934 c33d 9e52 623d
00000210: 24ec acbd 5e34 3e3d 1121 b13d c742 d13d
00000220: 50be 2fbc 579a aa3d 540d 85bd a931 cb3d
00000230: c052 74bc 34cd c5bd 653b bb3d 0876 aebc
00000240: c4e2 cb3c d41a cdbd c16b c3bd 2f2a 7abd
00000250: 8626 81bd 7ac8 033d 98d9 85bc b9ac c33d
00000260: 86c2 97bd 1792 d43d 52df 723d 91b5 843d
00000270: 814c ca3d 1d22 8f3d 2905 bdbd 2097 93bc
00000280: 4a97 31bd 078d 9c3d 46fa 85bd eaa5 0f3d
00000290: 4a9d a5bd 33b1 c0bd 7e69 1a3d 4790 58bd
000002a0: 0603 0e3d 1f96 883d 0814 8fbd 3722 d5bd
000002b0: d475 3fbd 70c0 32bc 63e1 b33d 2e45 d0bd
000002c0: 9213 0f3d 432d b43d 54e9 8cbd bf65 b13d
000002d0: 236a c33d 7a2b 5bbd c3b6 c9bd 7850 13bd
000002e0: da49 72bd 887e 9abc 92a0 bfbd af30 c3bd
000002f0: ea72 3e3d e715 b33d 9cb6 ba3c 98e9 12bc
00000300: 74e6 91bc b414 c0bc e5be aa3d b4c0 2abd
00000310: 4a12 363d 6de3 cd3d 40b7 81ba 05af c2bd
00000320: 68a8 6f3c 54f6 cebd a2d0 7e3d cea0 c8bd
00000330: 4d30 bdbd 4a3e 3f3d f026 e7bc 5815 c4bc
00000340: 39d0 9d3d a3c4 a43d 6579 69bd 384e 083c
00000350: eddd 9d3d ad07 94bd 7229 7ebd 3586 bcbd
00000360: 9911 c83d 8226 3c3d 14de a1bd 2c7c a6bc
00000370: c0bc 6dbd 50bf ddbb e064 80bd d019 283c
00000380: 9a68 89bd 8035 93ba 72b5 acbd 7c44 8a3c
00000390: 8ef6 2ebd 7c86 9a3c 7aad 10bd 7aea 7abd
000003a0: 7297 703d 0b30 68bd b4d9 2abd 98f5 0cbc
000003b0: 825e 643d f7e9 73bd 62c3 583d f5e3 38bd
000003c0: a674 263d 80f7 55ba d939 ce3d 2687 82bd
000003d0: 14a5 c33c da7d b1bd 13ac 873d 3213 473d
000003e0: 3c4f efbc 2713 cb3d 4db6 5cbd cfcc b03d
000003f0: 5583 60bd 04d2 bf3c f8fe 8abd 74be 85bd
-0.02827309 0.09546102 -0.015143149 0.016690634 -0.031058013 0.03356611 -0.031302884 0.029901557
-0.042104766 -0.0022283867 -0.07892814 -0.078187466 -0.090267025 0.041346423 0.038550638 -0.075528815
0.053096943 -0.06667175 0.09861531 -0.09147024 -0.014642365 -0.040385783 -0.03732107 0.079957835
-0.00803224 0.06582711 -0.085227765 0.07498937 -0.045546066 -0.020641327 0.05091683 -0.06635336
0.09995175 0.07820568 -0.005359158 -0.0821654 0.09102986 -0.07818671 -0.09324688 0.0011861101
0.08098113 0.053011067 0.015556179 0.046111085 0.08442073 -0.08825141 -0.041118696 -0.04543879
-0.024361499 -0.056721665 -0.08148961 0.06579434 -0.021047756 0.03915795 -0.020709008 -0.07189275
-0.099521026 -0.018987007 -0.066798426 0.097228654 0.00075978786 0.017348707 -0.024188325 0.064718254
0.097213544 -0.039829396 0.011020802 -0.0058903024 -0.093076125 -0.098989345 -0.07107602 -0.050206717
-0.09552445 0.0936205 -0.03241983 0.07354934 -0.10040954 -0.027294017 0.03631746 0.018292032
0.10215246 0.0044777617 0.02547308 0.04554043 -0.0834752 -0.102538146 -0.07673255 0.04291778
-0.08341554 -0.050831325 -0.09073996 0.07773002 0.03818976 0.015309632 -0.045580983 -0.088150784
0.061568715 -0.0307782 -0.07318935 -0.028362006 0.032976933 0.018054374 0.05922202 0.08307699
0.060525186 -0.071206786 -0.03419295 -0.058845717 -0.008306131 -0.012477063 0.030610256 0.055478044
-0.09986045 0.075832196 0.0039016157 -0.09523301 -0.09083721 0.063492216 -0.056693554 0.019018546
-0.0014816076 -0.04291674 0.10492908 0.05622033 0.09085842 -0.105174884 -0.09604393 0.06357386
0.08148528 0.068889834 0.095315166 0.05525457 -0.08443478 0.04643666 0.08648885 0.10217815
-0.010726526 0.08330219 -0.06496683 0.09921581 -0.014912307 -0.0965828 0.09142188 -0.021296516
0.024888404 -0.10014883 -0.09542037 -0.061075386 -0.06306176 0.03217361 -0.016339108 0.095544286
-0.07410149 0.10379427 0.059295006 0.064799435 0.09877873 0.069889285 -0.092295 -0.018016398
-0.04335717 0.07644086 -0.065418765 0.035070337 -0.08086641 -0.09408798 0.03769826 -0.05287197
0.034670852 0.06669258 -0.069862425 -0.104069166 -0.04674323 -0.0109101385 0.087832235 -0.10169445
0.034930773 0.087976955 -0.06880441 0.08661985 0.09541728 -0.05350826 -0.09849312 -0.035965413
-0.05915246 -0.018859163 -0.09356798 -0.0953077 0.04649631 0.08744412 0.022792153 -0.008966826
-0.017810084 -0.023447372 0.083371915 -0.041687682 0.044451036 0.10053144 -0.0009896532 -0.095060386
0.0146275535 -0.10105577 0.062210687 -0.09796296 -0.09237728 0.046690263 -0.028216809 -0.023935959
0.07705731 0.08045318 -0.057000536 0.00831943 0.077083446 -0.072280265 -0.062051244 -0.092052855
0.097689815 0.04593516 -0.07903686 -0.020322882 -0.058041334 -0.006767191 -0.062692404 0.01026006
-0.06709404 -0.0011231154 -0.084330454 0.016878359 -0.0427156 0.018862955 -0.03532169 -0.06125877
0.05873818 -0.056686442 -0.041711524 -0.008603476 0.055754192 -0.0595493 0.052920707 -0.04513927
0.04063859 -0.00081621855 0.10069627 -0.06373434 0.023882426 -0.086665824 0.066246174 0.04860229
-0.029212587 0.099157624 -0.053884793 0.08632814 -0.054812748 0.023415573 -0.06786913 -0.06530467

res2.bn1.weight f4 [10]
00000000: 0000 803f 0000 803f 0000 803f 0000 803f
00000010: 0000 803f 0000 803f 0000 803f 0000 803f
00000020: 0000 803f 0000 803f
1.0 1.0 1.0 1.0 1.0 1.0 1.0 1.0
1.0 1.0

res2.bn1.bias f4 [10]
00000000: 0000 0000 0000 0000 0000 0000 0000 0000
00000010: 0000 0000 0000 0000 0000 0000 0000 0000
00000020: 0000 0000 0000 0000
0.0 0.0 0.0 0.0 0.0 0.0 0.0 0.0
0.0 0.0

res2.bn1.running_mean f4 [10]
00000000: 0000 0000 0000 0000 0000 0000 0000 0000
00000010: 0000 0000 0000 0000 0000 0000 0000 0000
00000020: 0000 0000 0000 0000
0.0 0.0 0.0 0.0 0.0 0.0 0.0 0.0
0.0 0.0

res2.bn1.running_var f4 [10]
00000000: 0000 803f 0000 803f 0000 803f 0000 803f
00000010: 0000 803f 0000 803f 0000 803f 0000 803f
00000020: 0000 803f 0000 803f
1.0 1.0 1.0 1.0 1.0 1.0 1.0 1.0
1.0 1.0

res2.conv2.weight f4 [10, 10, 3, 3]
00000000: 7fa9 973d 5612 033d 3936 8e3d 73cb c53d
00000010: d82b f4bc 9296 313d 48ce 86bd 0073 c8bd
00000020: 50f0 9abd de7e 06bd 2399 883d 3775 97bd
00000030: dc3c 17bd 5ed5 43bd 749d a4bd 28d7 03bc
00000040: 1a8f 4e3d 146c f53c c679 c5bd a015 803c
00000050: 0e0c 0f3d b212 003d 4131 b93d 46ab ccbd
00000060: 3eb7 0bbd 92bb 4a3d 54ca b3bd 29ee 873d
00000070: 727d b1bd 3c38 913c 9209 063d 4043 48bb
00000080: 409f 733b 28b2 dabc c27f 0e3d 345e f23c
00000090: 80d3 753c c6ca abbd f840 a0bd 3852 a8bd
000000a0: 6527 a9bd e8ad 44bd 2684 543d 16e1 203d
000000b0: 10f9 dcbb 32ed 393d 8d66 a13d 032a 8c3d
000000c0: f596 cd3d 5009 d33b a71c 9b3d 4da6 8e3d
000000d0: 50be b8bb 4480 bdbc c8f5 4fbc dfc1 76bd
000000e0: 66c8 3c3d 804e 94bb 0829 f0bc 8afe 513d
000000f0: 7f89 953d 76f6 7d3d 9eff d0bd 187b ffbc
00000100: d057 31bc 3e7e 1f3d 42eb a5bd 92ea 7e3d
00000110: d89c 41bc 6ded 933d 6474 abbc 2484 a13c
00000120: 72a9 223d 244c 79bd 9b88 92bd 5170 913d
00000130: 913b bf3d 2a8c 5abd c868 cabd 2fb3 d53d
00000140: ba92 74bd 128b b2bd 1889 1a3c 0d5f a13d
00000150: 8671 1ebd 1f72 4ebd 37c4 abbd 5dd0 5dbd
00000160: 2a1e a8bd 105e cb3b c2b2 573d ea54 cbbd
00000170: a051 4f3c 9c38 a93c f8d1 5a3c 7a16 8fbd
00000180: 288d 6ebd a03b 193b a6eb a0bd 1333 d43d
00000190: 9cf4 9dbd 0cf4 883c 4c23 ac3c c023 e53b
000001a0: 388c 13bd e2c5 153d 5e8a 45bd a9e5 6ebd
000001b0: 20ba 0c3b 3a20 00bd f442 b93c 7838 663c
000001c0: 88cd 113c 4ecc 143d 94c1 b4bc fefd b0bd
000001d0: 82ae 6f3d 7ec0 a3bd 786a 89bd 726d 8bbd
000001e0: e530 d73d 069f 31bd a19a 813d cc85 9bbd
000001f0: ef4c 8a3d 35ca 873d 004e c5bd b9b0 a8bd
00000200: 38b4 91bc 9180 9b3d ace2 b0bd e820 733c
00000210: cb65 ba3d 5ea3 3ebd 8010 cbbd 1ff3 b83d
00000220: 98eb 1bbc 6038 88bd 14d0 d4bd 9a00 cfbd
00000230: b050 e9bb 3ab2 563d fe17 4a3d 12a0 0e3d
00000240: b718 893d a8b8 253c d4fe b8bc 315f d3bd
00000250: 9264 92bd 74aa 963c 8466 9ebc 1abd 283d
00000260: 0a4b 7a3d 851e a03d 2dc9 6bbd e03e 45bb
00000270: a8bb 13bd f19e d7bd 6c87 71bd cb71 b03d
00000280: 3c65 b8bd 2af8 0c3d f419 8abc 762b 223d
00000290: a31e 91bd ccd0 9ebc c4a0 c6bc c528 d03d
000002a0: b079 d2bd 3088 463c f90d 86bd 622f 4bbd
000002b0: 2aa5 673d 50d9 acbb b25c 1b3d 12a6 6f3d
000002c0: f0c6 923b 3410 de3c 50f3 8fbc 0ebb 2cbd
000002d0: e881 85bd 7d40 b53d a8f0 29bc 3400 abbd
000002e0: 914c cb3d 6e34 11bd bd2d d03d 7c45 95bd
000002f0: 728d 713d bec2 14bd 6dcb 9c3d 3106 b7bd
00000300: b72a ce3d 107a eebb 6e76 433d 09e9 9c3d
00000310: 1c1e f73c 8060 75bd e0b7 c93b 1b20 d53d
00000320: e3dd 8e3d 980c 953c f818 a6bc 0672 81bd
00000330: 7da1 83bd d26e 84bd e5c2 d4bd d839 663c
00000340: 6fc6 973d 28f9 8f3c 3a5e 703d 5c88 e2bc
00000350: 2e97 293d 6e8b 0b3d c69b 2a3d f059 23bd
00000360: 5e9a 4c3d 1195 933d 405a 71bb 23d3 c8bd
00000370: 680f 5cbc d4e4 a8bc 7011 e7bc 41da b5bd
00000380: bde8 9f3d e299 263d 20e6 67bd a259 4f3d
00000390: ac2b c83c 0552 d7bd a05a 18bd 1adb 613d
000003a0: 5de2 933d faab 5d3d 3b0f c53d a13b a2bd
000003b0: 3293 383d 5619 c9bd 48d6 47bc bcc9 3fbd
000003c0: 9d90 c9bd e02d 1cbc c1e2 c6bd 332a 80bd
000003d0: 60db 23bd c8e6 80bd e87d 8f3c bfc4 993d
000003e0: a095 183c 62a3 51bd 099d 853d 167f 523d
000003f0: c081 013b 936d b73d c9b2 39bd 2a8e 463d
0.07405376 0.03199991 0.06943936 0.096579455 -0.029806063 0.043356486 -0.06582314 -0.097875595
-0.07565367 -0.032835834 0.066698335 -0.07395404 -0.036923274 -0.047810905 -0.08037844 -0.008046903
0.05042944 0.029958762 -0.09642367 0.015635312 0.034923606 0.03126783 0.090425976 -0.09993605
-0.0341103 0.049495287 -0.087788254 0.06637222 -0.08666505 0.01772701 0.03272397 -0.0030557662
0.0037173778 -0.02669628 0.034789808 0.029585935 0.015004039 -0.08388285 -0.07824892 -0.08218807
-0.08259467 -0.048017412 0.05188384 0.03927716 -0.0067435578 0.045392223 0.07880888 0.068439506
0.100385584 0.006440319 0.075738244 0.06965313 -0.0056379214 -0.02313245 -0.012692876 -0.060243484
0.046089552 -0.0045259595 -0.02931644 0.051268138 0.07301616 0.06200262 -0.10205005 -0.031186625
-0.010824159 0.038938753 -0.081015125 0.062235422 -0.01181718 0.0722302 -0.020929523 0.01971633
0.039712377 -0.06086363 -0.07154962 0.07101501 0.09337533 -0.053356327 -0.09883267 0.10434567
-0.05971024 -0.08717932 0.0094321 0.078794576 -0.038682483 -0.050401803 -0.083870344 -0.05415379
-0.08208878 0.0062062815 0.05266071 -0.099283054 0.012653738 0.020656876 0.0133557245 -0.06986709
-0.058240086 0.0023381487 -0.07857446 0.10361304 -0.07712671 0.016717933 0.021012925 0.006992787
-0.036022395 0.03656567 -0.04822766 -0.05832449 0.0021473244 -0.031280734 0.022614934 0.014051549
0.0088991 0.036327653 -0.022064961 -0.08642195 0.058516033 -0.07995699 -0.067097604 -0.068079844
0.10507373 -0.043364547 0.06328321 -0.07593879 0.06752955 0.06630365 -0.09634018 -0.08236832
-0.01778613 0.075928815 -0.08636984 0.014839388 0.09101447 -0.046542518 -0.099152565 0.09030747
-0.009516619 -0.06651378 -0.1039125 -0.101075366 -0.0071202144 0.052416064 0.049339287 0.034820624
0.06694167 0.010114826 -0.022582449 -0.10320891 -0.071480885 0.018391825 -0.019335993 0.041195966
0.06110672 0.07818321 -0.057564903 -0.003009729 -0.036067635 -0.105283625 -0.05896704 0.08615454
-0.09003684 0.034416355 -0.016858079 0.03959223 -0.070859216 -0.019386671 -0.02424658 0.10164026
-0.10277116 0.012117431 -0.06545634 -0.049605735 0.056553997 -0.005274929 0.037930198 0.058507986
0.0044792816 0.027107336 -0.017572075 -0.042170577 -0.06518918 0.08850191 -0.010372318 -0.08349648
0.09926713 -0.03545039 0.10164974 -0.07288644 0.058972783 -0.036318533 0.07655988 -0.08936728
0.10066741 -0.0072777346 0.047720365 0.076616354 0.030165724 -0.059906483 0.006155953 0.10406514
0.06975915 0.018194482 -0.020275578 -0.06320576 -0.06427286 -0.0646645 -0.10388736 0.014051877
0.07410895 0.017574862 0.05868361 -0.027652912 0.04140394 0.034068517 0.041652463 -0.039880693
0.049951904 0.072061665 -0.0036827475 -0.09805896 -0.0134314075 -0.020616926 -0.028206557 -0.08879519
0.07808063 0.040674098 -0.05661595 0.05062259 0.024434887 -0.10513691 -0.0371958 0.055140592
0.0722091 0.054119088 0.096220456 -0.079215296 0.04506225 -0.098192856 -0.012197085 -0.04682325
-0.09842036 -0.009532422 -0.097112186 -0.06258049 -0.040004134 -0.06294018 0.017516091 0.075082295
0.009313017 -0.051181205 0.06524093 0.05139073 0.0019761175 0.089564465 -0.04533652 0.048475422

res2.bn2.weight f4 [10]
00000000: 0000 803f 0000 803f 0000 803f 0000 803f
00000010: 0000 803f 0000 803f 0000 803f 0000 803f
00000020: 0000 803f 0000 803f
1.0 1.0 1.0 1.0 1.0 1.0 1.0 1.0
1.0 1.0

res2.bn2.bias f4 [10]
00000000: 0000 0000 0000 0000 0000 0000 0000 0000
00000010: 0000 0000 0000 0000 0000 0000 0000 0000
00000020: 0000 0000 0000 0000
0.0 0.0 0.0 0.0 0.0 0.0 0.0 0.0
0.0 0.0

res2.bn2.running_mean f4 [10]
00000000: 0000 0000 0000 0000 0000 0000 0000 0000
00000010: 0000 0000 0000 0000 0000 0000 0000 0000
00000020: 0000 0000 0000 0000
0.0 0.0 0.0 0.0 0.0 0.0 0.0 0.0
0.0 0.0

res2.bn2.running_var f4 [10]
00000000: 0000 803f 0000 803f 0000 803f 0000 803f
00000010: 0000 803f 0000 803f 0000 803f 0000 803f
00000020: 0000 803f 0000 803f
1.0 1.0 1.0 1.0 1.0 1.0 1.0 1.0
1.0 1.0
