SuperGo-master/saved_models/1584187381/1-policy_net.pth.tar (torch_old, 29568 bytes, 3 tensors)

conv.weight f4 [1, 10, 1, 1]
0	0xbe6eb6d9	-0.23311938
1	0xbddef2b0	-0.10886133
2	0xbe8e0707	-0.27739736
3	0x3b804740	0.0039147437
4	0xbae24d00	-0.001726538
5	0x3dc087c4	0.09400895
6	0x3e7b4f6e	0.24542019
7	0x3d857f8c	0.06518468
8	0x3e7a3c5a	0.24437085
9	0x3e78f3d6	0.24311766

fc.weight f4 [82, 81]
0	0x3d29419e	0.041322343
1	0x3c60d1f0	0.013721928
2	0x3bd53e00	0.006507635
3	0xbc0d3b10	-0.008620039
4	0x3d2b27be	0.041785948
5	0xbdbd46b7	-0.092420034
6	0x3bf92f70	0.007604532
7	0x3de2546f	0.11051261
8	0x3dcc17bd	0.09965465
9	0xbd86ad64	-0.065760404
10	0xbc8f9f90	-0.01753214
11	0xbc8c7300	-0.01714468
12	0xbd6a0d24	-0.057141438
13	0xbd90a417	-0.07062548
14	0xbda0e3a7	-0.07855921
15	0xbdd20547	-0.10254913
16	0xbd96b2a4	-0.07358292
17	0x3d304e82	0.04304362
18	0x3adb85c0	0.0016748235
19	0xbce6bc10	-0.028165847
20	0xbd889b62	-0.06670262
21	0x3d05b536	0.03264352
22	0x3c825f3c	0.015914552
23	0x3dbc393d	0.09190605
24	0xbb708080	-0.0036697686
25	0xbccc5100	-0.024940968
26	0x3d386f42	0.04502798
27	0xbbc4d320	-0.0060066134
28	0xbd951b07	-0.07280546
29	0x3da2bddf	0.07946371
30	0xbd97fefa	-0.0742168
31	0xbd614f64	-0.055007353
32	0xbd149896	-0.03627833
33	0xbc8e9f9c	-0.017410092
34	0x3d81d9ed	0.06340394
35	0xbdd3c7d5	-0.10340849
36	0xbc6aaa58	-0.01432284
37	0xbdbcb7fc	-0.0921478
38	0x3cf30ec4	0.029670127
39	0xbd9f58ce	-0.0778061
40	0xbb5e05c0	-0.003387794
41	0x3d8e19f7	0.06938546
42	0x3d83891f	0.06422638
43	0x3d2ac13e	0.041688196
44	0x3da96103	0.08270457
45	0xbdd7fbe0	-0.10546088
46	0x3bcb1a70	0.00619822
47	0x3cf3c704	0.029757984
48	0xbda38a70	-0.07985389
49	0x3d891e33	0.06695213
50	0x3cbc93b4	0.02301965
51	0x3dd1f96d	0.10252652
52	0xbd84b5e4	-0.064800054
53	0x3dbbbedd	0.09167264
54	0xbd392ff8	-0.045211762
55	0xbd35962e	-0.044332676
56	0xbc30db00	-0.010794401
57	0x3cef56ac	0.029216133
58	0x3d8d3b85	0.06896118
59	0xbdcd3649	-0.1002012
60	0x3d1f9c22	0.03896726
61	0x3b0c9400	0.002145052
62	0xbd4f2067	-0.05056801
63	0xbdc82c1b	-0.097740375
64	0xbabf26c0	-0.0014583692
65	0x3c11e910	0.008905664
66	0xbddbaba5	-0.10726098
67	0x3da07181	0.07834149
68	0xbd4af6b2	-0.049551673
69	0x3d617cca	0.05505065
70	0xbdbcbfbe	-0.092162594
71	0x3d2864b6	0.04111167
72	0xbdb9cc2e	-0.09072147
73	0xbd659a27	-0.056055214
74	0x3ca33eec	0.019927464
75	0xbb1cb2e0	-0.0023910329
76	0x3d37120e	0.044694953
77	0x3d423e2e	0.04742258
78	0x3cf604ec	0.030031644
79	0x3d7e6ca2	0.06211532
80	0x3dde4bcf	0.10854303
81	0xbcc801a4	-0.024414845
82	0x3d129602	0.03578759
83	0x3cd09ab4	0.025464393
84	0x3cc1ed14	0.023672618
85	0x3d81819d	0.0632355
86	0xbd8198aa	-0.063279465
87	0xbdcb2384	-0.099188834
88	0x3d367cc6	0.044552587
89	0xbca29c70	-0.019849986
90	0x3dbb1f15	0.09136788
91	0x3dbe766b	0.0929993
92	0xbdb6db79	-0.0892858
93	0xbda14ab2	-0.07875575
94	0x3d87edcb	0.06637152
95	0x3dbb4c5f	0.09145426
96	0x3d33c412	0.04388816
97	0x3dd138ab	0.10215887
98	0xbd8e2d2e	-0.06942211
99	0xbdb2c020	-0.08728051
100	0xbd3aa624	-0.0455686
101	0xbd933754	-0.071882874
102	0x3dc13661	0.094342
103	0xbae69ac0	-0.0017593727
104	0xbd6cf18e	-0.057847552
105	0x3d3bbfb6	0.045837127
106	0x3ddf9487	0.10917001
107	0x3da7b057	0.08187931
108	0x3d6add82	0.057340153
109	0xbdd1160b	-0.102092825
110	0x3d5de6f2	0.054175325
111	0xbd2a54aa	-0.04158465
112	0x3d573802	0.052543648
113	0x3b8b3950	0.0042487755
114	0xbd7d2e67	-0.06181183
115	0xbc54e220	-0.0129933655
116	0xbd71cf2b	-0.05903546
117	0x3db7b88f	0.08970749
118	0xbc8b7e40	-0.017027974
119	0x3dc070ed	0.09396539
120	0xbd4b66d2	-0.049658604
121	0xbdac383b	-0.084091626
122	0xbd28857c	-0.041142926
123	0x3dd698b3	0.10478344
124	0xbc062670	-0.008187875
125	0xbd23483c	-0.03986381
126	0x3dac09ad	0.08400283
127	0xbdaee00c	-0.08538827
128	0xbd0f43ce	-0.034976773
129	0xbc8d8fc0	-0.01728046
130	0xbdbe7c39	-0.09301037
131	0xbd1f99c4	-0.038965
132	0xbdcea79b	-0.10090562
133	0xbda6971e	-0.08134292
134	0x3dc88739	0.09791417
135	0xbd716827	-0.058937218
136	0xbdd643ab	-0.104621254
137	0xbda46d9b	-0.08028718
138	0x3cff7b24	0.031186648
139	0xbcfa7724	-0.030574389
140	0x3d7b7c2e	0.061397724
141	0xbd679832	-0.05654163
142	0x3ac9fac0	0.0015409812
143	0x3dc656e1	0.096845396
144	0xbdb4354c	-0.08799228
145	0x3ddba305	0.10724453
146	0xbc8fa6a4	-0.017535515
147	0xbd02b548	-0.031911165
148	0x3d633ad2	0.055476017
149	0xbdb26004	-0.0870972
150	0xbdba0f7b	-0.09084984
151	0x3db3a5e1	0.08771873
152	0x3c29e360	0.010369152
153	0x3c4169e0	0.011805028
154	0xbd876bd9	-0.06612367
155	0x3d3afb8e	0.045650057
156	0xbd3cf6e8	-0.046133906
157	0xbd6b01a4	-0.05737461
158	0xbc8959f0	-0.016766518
159	0x3d57a14e	0.052644067
160	0x3c887444	0.016657002
161	0xba9f19c0	-0.0012138411
162	0x3dc59781	0.09648038
163	0xbc6e1e10	-0.014533535
164	0x3ca0d7c4	0.019634135
165	0x3d518ea6	0.05116143
166	0x3da5c5b3	0.08094349
167	0x3d472fe6	0.048629664
168	0x3d92041d	0.07129691
169	0xbdbc01d0	-0.09180033
170	0x3d294b62	0.041331656
171	0x3d3c0f1a	0.04591284
172	0x3dd089af	0.10182511
173	0xbd90319c	-0.07040712
174	0xbc06c300	-0.008225203
175	0xbcf158e4	-0.029461332
176	0xbd88ae02	-0.06673814
177	0x3d2874aa	0.041126885
178	0xbcb8e110	-0.022568256
179	0xbda28eb0	-0.07937372
180	0x3dd598a5	0.10429505
181	0xbd4022c0	-0.04690814
182	0x3ce06a5c	0.027394466
183	0xbc1910b8	-0.009342365
184	0xbd270f8a	-0.040786304
185	0xbcf6c410	-0.030122787
186	0x3d6e4352	0.05816967
187	0xbd234658	-0.039862007
188	0x3d7c2e82	0.06156779
189	0xbdb50736	-0.08839266
190	0xbc361d10	-0.0111153275
191	0x3ddea189	0.10870654
192	0x3d47af52	0.048751183
193	0xbd89156c	-0.06693539
194	0xbd92e3b4	-0.07172337
195	0xbd0dff0a	-0.034667052
196	0x3dd0ede3	0.10201623
197	0xbc93fac0	-0.018063903
198	0xbd0c66d8	-0.034277767
199	0xbcbf9938	-0.02338849
200	0x3d914015	0.07092301
201	0xbbbe1c40	-0.0058017075
202	0xbcfc0ec0	-0.030768752
203	0x3d170206	0.036867164
204	0x3d6fd7f2	0.05855555
205	0xbd5cf5f5	-0.0539455
206	0x3de33a29	0.110950775
207	0x3dd1dba3	0.102469705
208	0xbdd6b122	-0.10483004
209	0x3ccb2bd4	0.024801172
210	0xbba97700	-0.0051716566
211	0x3d95e1e7	0.07318478
212	0x3c3bc8f0	0.011461481
213	0xbd1e4bdc	-0.038646564
214	0x3d8c7a91	0.06859315
215	0x3ce9bb64	0.028531738
216	0xbd875c2e	-0.06609379
217	0x3cfcab04	0.030843265
218	0xbdcfe5ae	-0.1015123
219	0x3d45b0c6	0.048264287
220	0x3d09be5e	0.033628814
221	0xbda853b4	-0.0821909
222	0xbc926d48	-0.017874375
223	0x3c909dc4	0.017653354
224	0xbd4de395	-0.050265867
225	0xb9c71500	-0.00037971884
226	0xbb1def20	-0.0024098828
227	0xbcea0914	-0.028568782
228	0x3c15f000	0.009151459
229	0xbdbc4812	-0.09193434
230	0xbd48d884	-0.04903461
231	0x3d83dbf3	0.06438436
232	0x3cc337fc	0.023830406
233	0x3cd5da84	0.026105173
234	0xbc86ddd0	-0.01646319
235	0x3dd88827	0.10572844
236	0xbd5bbfb9	-0.053649638
237	0x3d76adba	0.060224272
238	0xbce28ad4	-0.027654089
239	0x3d356812	0.044288702
240	0xbd291f44	-0.041289583
241	0x3cd11494	0.025522508
242	0x3dae0c0f	0.08498394
243	0xbd8060bc	-0.062684506
244	0x3da8959b	0.0823166
245	0x3ce23a94	0.027615823
246	0xbd086d32	-0.03330726
247	0xbd9b7b59	-0.07591886
248	0x3da5bd81	0.080927856
249	0x3d109782	0.03530074
250	0xbc9c6b24	-0.019094057
251	0x3da0a7b9	0.078444906
252	0xbdb09636	-0.086224005
253	0x3b56e840	0.003279224
254	0xbda23ac7	-0.07921367
255	0x3da30841	0.07960559

fc.bias f4 [82]
0	0xbd3209e8	-0.04346648
1	0x3d967db3	0.07348194
2	0x3d18fa3e	0.037348025
3	0xbd93e922	-0.07222201
4	0x3dcda415	0.10041062
5	0xbd782807	-0.060585048
6	0x3c4ebc10	0.01261808
7	0x3c3cb960	0.011518806
8	0x3d8f5517	0.069986515
9	0x3d4f38ea	0.050591387
10	0x3d8c231d	0.06842635
11	0xbd59ef44	-0.053206697
12	0xbd359aee	-0.044337206
13	0xbc81ebf8	-0.015859589
14	0x3ceffcf4	0.029295422
15	0xbdd05965	-0.10173301
16	0x3dcd718b	0.10031422
17	0xbdd82722	-0.10554339
18	0x3d3aed4a	0.045636453
19	0xbbb8de50	-0.005641736
20	0x3caa60ec	0.02079817
21	0x3c40a9b8	0.011759214
22	0xbcd37ef0	-0.025817364
23	0xbbef0240	-0.0072939694
24	0x3ddb5e51	0.10711349
25	0xbd51b33d	-0.051196326
26	0xbcd318f8	-0.025768742
27	0xbcd5d8ec	-0.026104413
28	0xbd8862e7	-0.06659489
29	0x3cef2b44	0.029195435
30	0xbd93d646	-0.07218604
31	0x3cf2e604	0.029650696
32	0xbd91104c	-0.070831865
33	0x3d2ca802	0.042152412
34	0xbd96d21c	-0.07364294
35	0xbc2b52b8	-0.010456733
36	0x3d836efb	0.06417652
37	0xbdbce556	-0.0922343
38	0xbd49a167	-0.04922619
39	0xbdb039e9	-0.086047955
40	0x3d4a573a	0.049399592
41	0x3cb79204	0.022408493
42	0x3d808255	0.06274859
43	0xbd99499e	-0.074847445
44	0xbda7636b	-0.08173259
45	0xbd3edbfc	-0.046596512
46	0xbcf2b71c	-0.029628329
47	0x3dad964d	0.08475933
48	0x3d89c239	0.06726498
49	0xbd7b2799	-0.06131706
50	0x3bd38800	0.0064554214
51	0x3c885b84	0.0166452
52	0xbdc03962	-0.09385945
53	0xbd9a6084	-0.0753794
54	0xbdcc1665	-0.09965209
55	0x3d15e18e	0.03659206
56	0xbd908997	-0.07057493
57	0xbdb133d2	-0.08652462
58	0x3d93ee09	0.07223136
59	0x3dde4399	0.10852737
60	0xbc2afe10	-0.01043655
61	0xbd818ca4	-0.06325653
62	0xbd624884	-0.055244938
63	0xbd295780	-0.041343212
64	0x3dd34761	0.10316349
65	0xbcf46bc0	-0.029836535
66	0xbd6dbeb5	-0.0580432
67	0xbd0d00b6	-0.034424506
68	0xbdbe1916	-0.092821285
69	0x3dbe6f99	0.09298629
70	0x3c2cb020	0.010540038
71	0x3c844d24	0.016150065
72	0xbddf8454	-0.109139115
73	0xbd652f60	-0.055953383
74	0x3d094ee6	0.03352251
75	0x3da00f21	0.078153856
76	0xbd75094b	-0.059823316
77	0xbd3f078a	-0.04663805
78	0xbbe8aee0	-0.007100925
79	0xbbc3f450	-0.005980052
80	0xbdd668b2	-0.10469188
81	0x3d864fdf	0.06558203
