SuperGo-master/saved_models/1584187381/2-extractor.pth.tar (torch_old, 640043 bytes, 355 tensors)

exp_avg_sq f4 [10, 10, 3, 3]
00000000: a96e b634 54ba d734 1d75 ea34 3b61 8834
00000010: 2e16 5a34 6abd 2734 9ea8 7834 bb36 9834
00000020: 2a67 0035 a801 8b34 97ba bd34 a80c 3e35
00000030: 34c9 2334 b661 2934 264c e934 929f 2f34
00000040: 6952 0934 201a a433 1d71 1635 8552 4035
00000050: 4dcc 8735 6925 4234 7b4f 0334 d596 9a34
00000060: f3fe 9534 608e 6f34 8852 f933 a68a 8f34
00000070: 39d1 3b34 ab6e c034 f1eb 7234 9944 0734
00000080: b787 a734 6d42 8434 4163 d334 e092 8833
00000090: 6597 fc34 c17b 5a34 cc4d 4734 0348 7134
000000a0: 1a70 4f33 e511 2f34 9e28 e033 e8f8 0c34
000000b0: 897c 5d34 e6db 2735 6153 8434 714e b934
000000c0: 2181 0334 c778 c733 8b96 0634 6053 ac34
000000d0: 7010 3834 5668 4e34 63c1 1035 49ec 9734
000000e0: 84a7 a534 19ce 3834 e61a 6034 9805 2334
000000f0: 5f49 9634 1628 2335 96b9 9834 a8aa 0b34
00000100: 1f2e b333 21d7 cc33 31c4 1434 bbdb 8733
00000110: 8e02 9f33 3c00 8e34 decf 4c34 3d85 4734
00000120: 0089 1a34 65c7 9b33 9892 b533 ced2 d833
00000130: 5529 6833 6f1e ed33 3b54 a933 1f08 df32
00000140: b825 0634 4fb6 7634 b0ed 4634 bf55 0034
00000150: bf78 a434 7c3b 0434 7987 0234 8665 0035
00000160: e5ad d634 326c de34 977b ca34 23ce 1c35
00000170: ab88 3035 2b7d df34 2739 0b35 429b 3435
00000180: b52b 3035 ca22 4e35 09b2 2535 8f7f fe34
00000190: 1a22 5635 e8c8 d034 3426 ae34 c4fc 9634
000001a0: 36b0 0035 d918 9934 ccf3 a334 f38c 1734
000001b0: facc e835 9f6b d735 a04d f235 93dd 9a35
000001c0: e02d 4335 3ebc ad35 fdd0 1235 e208 b934
000001d0: cb2f bf34 48b4 9e35 69ae f434 52ef 3835
000001e0: 3439 2935 9887 ac34 330c c834 4e36 4234
000001f0: 45f7 fc33 25e1 a734 b4f9 9834 d3a8 a934
00000200: 84e4 3e34 d7ff 1635 b1b0 1035 bb1c cf34
00000210: 01c5 ce34 7279 0a35 3616 3134 2f88 d935
00000220: fbcf e635 f5b0 a135 3b58 3235 a3f8 4335
00000230: fd4f 4235 7154 9c35 667f ac35 2d37 1a35
00000240: 75d0 6f34 3018 c635 4ca4 9f34 41cf 3335
00000250: 87d2 4435 94f1 5835 5040 ac34 a7b7 0f35
00000260: d408 ac34 148c 6134 7a0a 3c34 c0e7 6f34
00000270: 6668 0d35 ab8f 8634 4f13 a334 1ed7 2234
00000280: 563e 5f34 0fa0 5734 a52e 4d34 0a6e cd34
00000290: 0b1c 2835 917c 7734 9940 c934 0cc2 0f35
000002a0: 38f6 9334 3c82 0635 0bf8 0635 a233 4f35
000002b0: 54f6 9035 f8dc 0735 3bdf 5935 e78f 2835
000002c0: 8877 ed34 b457 8335 1c26 4835 753b 2e35
000002d0: db21 2c35 db45 8635 8496 9e35 ff4a 6d35
000002e0: e20c cb35 37a9 d035 51e1 7c35 1db9 8135
000002f0: 52bd b735 e5a3 9d34 880b d634 3e26 9034
00000300: c6f5 a834 24af b034 8445 1d35 d4d7 cc34
00000310: bb97 e034 b883 6835 6419 8c35 4635 da35
00000320: 3c8a 8f35 f539 8535 4538 e634 4b50 4835
00000330: 30db f235 9a87 a735 06d7 8d35 7b59 ad34
00000340: 9b06 7a34 39bc 8634 50e2 8234 ec24 5934
00000350: 26c3 5334 45a7 4a34 769e 6534 39cd 2d34
00000360: 6471 9e33 a2f3 3234 f2b7 b234 70de 9034
00000370: 07da 9334 3cb2 7834 cada d834 70ee 8334
00000380: 8f96 0235 6811 a235 0d95 a935 0063 8935
00000390: 827b 3235 9879 6f35 f45d aa35 6270 aa35
000003a0: 3905 6d35 fbe2 c935 cc2c ee34 fc78 4a34
000003b0: 1a69 1b34 0049 ad34 19e6 0035 c443 db34
000003c0: 0562 0a34 75ed 5e34 54ce 2534 41bc 6a34
000003d0: 88bf a334 01b4 8e34 fcfb aa34 910a 2f35
000003e0: d4e2 1f35 d97d bc34 8903 8935 feae 5835
000003f0: 6f4a e434 1f6e f934 0755 f234 63d6 d034
3.3980658e-07 4.0182442e-07 4.3671108e-07 2.5402719e-07 2.0310901e-07 1.5621995e-07 2.3158142e-07 2.8352028e-07
4.783384e-07 2.5891973e-07 3.5339755e-07 7.0798933e-07 1.5253755e-07 1.5774899e-07 4.3455037e-07 1.6356196e-07
1.27891e-07 7.641597e-08 5.6043956e-07 7.1645655e-07 1.0117743e-06 1.8081268e-07 1.222924e-07 2.879448e-07
2.7938913e-07 2.2310405e-07 1.16099784e-07 2.6736706e-07 1.7491847e-07 3.5843308e-07 2.2623841e-07 1.259781e-07
3.120492e-07 2.4635247e-07 3.937403e-07 6.35971e-08 4.7048812e-07 2.0347854e-07 1.8561622e-07 2.2471072e-07
4.82979e-08 1.6304655e-07 1.0438201e-07 1.3129068e-07 2.0627535e-07 6.253234e-07 2.4647582e-07 3.451601e-07
1.2247303e-07 9.288629e-08 1.253449e-07 3.209816e-07 1.7142315e-07 1.9223202e-07 5.3925595e-07 2.8297862e-07
3.085553e-07 1.7211313e-07 2.0871411e-07 1.5182593e-07 2.7993062e-07 6.0780565e-07 2.8447238e-07 1.3007468e-07
8.3437264e-08 9.538622e-08 1.3854948e-07 6.326396e-08 7.404479e-08 2.6449732e-07 1.9074602e-07 1.8581791e-07
1.4392208e-07 7.2540196e-08 8.4551345e-08 1.0096629e-07 5.40543e-08 1.1041708e-07 7.884997e-08 2.596431e-08
1.2493445e-07 2.2976859e-07 1.8526657e-07 1.1952123e-07 3.0635235e-07 1.2315098e-07 1.2156478e-07 4.783145e-07
3.998713e-07 4.1429445e-07 3.7715355e-07 5.8414497e-07 6.576399e-07 4.1628059e-07 5.18647e-07 6.7281155e-07
6.562871e-07 7.6791605e-07 6.1726365e-07 4.7403998e-07 7.9770837e-07 3.8889198e-07 3.2437822e-07 2.8123588e-07
4.7940136e-07 2.851655e-07 3.0538502e-07 1.4114248e-07 1.7345003e-06 1.605007e-06 1.8052997e-06 1.1538381e-06
7.270992e-07 1.294429e-06 5.4693356e-07 3.4465398e-07 3.5611296e-07 1.1824386e-06 4.5575442e-07 6.88936e-07
6.304065e-07 3.2136154e-07 3.726178e-07 1.8087414e-07 1.17796425e-07 3.1269988e-07 2.849389e-07 3.160154e-07
1.7778262e-07 5.625165e-07 5.39013e-07 3.857766e-07 3.851383e-07 5.158573e-07 1.649249e-07 1.6207395e-06
1.7196866e-06 1.2046936e-06 6.643856e-07 7.3004975e-07 7.238703e-07 1.1647481e-06 1.2852076e-06 5.744976e-07
2.2334446e-07 1.4759189e-06 2.97356e-07 6.698429e-07 7.332205e-07 8.0817813e-07 3.208429e-07 5.35389e-07
3.204392e-07 2.1005718e-07 1.7512676e-07 2.234292e-07 5.2678513e-07 2.5063977e-07 3.0375165e-07 1.5165685e-07
2.0791171e-07 2.0081664e-07 1.9109082e-07 3.826429e-07 6.2625685e-07 2.3048985e-07 3.7486168e-07 5.3554027e-07
2.756003e-07 5.0108406e-07 5.027984e-07 7.7188645e-07 1.0800527e-06 5.061297e-07 8.116364e-07 6.279428e-07
4.423166e-07 9.785786e-07 7.456126e-07 6.490657e-07 6.412426e-07 1.0004109e-06 1.1815723e-06 8.8398514e-07
1.5128428e-06 1.5546456e-06 9.4205194e-07 9.665124e-07 1.3689662e-06 2.9362778e-07 3.9868996e-07 2.6849915e-07
3.1471262e-07 3.2909986e-07 5.8588216e-07 3.8154997e-07 4.183365e-07 8.661841e-07 1.0438202e-06 1.625777e-06
1.0694562e-06 9.92614e-07 4.288178e-07 7.462265e-07 1.8094197e-06 1.2481935e-06 1.0567899e-06 3.2288867e-07
2.3285467e-07 2.5096395e-07 2.437905e-07 2.0223132e-07 1.9721901e-07 1.8873568e-07 2.1384935e-07 1.618654e-07
7.378074e-08 1.6666175e-07 3.3288921e-07 2.6983935e-07 2.753952e-07 2.3161641e-07 4.0392325e-07 2.4574138e-07
4.8647865e-07 1.2075006e-06 1.2634861e-06 1.0236108e-06 6.6489895e-07 8.921138e-07 1.2693331e-06 1.2698695e-06
8.829698e-07 1.5041727e-06 4.4363549e-07 1.885673e-07 1.4473736e-07 3.2276876e-07 4.801855e-07 4.0841235e-07
1.2887911e-07 2.0761748e-07 1.5441884e-07 2.1861435e-07 3.0500473e-07 2.658053e-07 3.184831e-07 6.5207956e-07
5.9562194e-07 3.5109295e-07 1.0208324e-06 8.072092e-07 4.2522467e-07 4.6459988e-07 4.5137878e-07 3.8899006e-07

exp_avg f4 [10, 10, 3, 3]
00000000: 9a7f 38b9 146c 9ab9 d8fa c0b9 46ec 4638
00000010: b7e5 9cb8 9413 16b9 8165 2b38 60ac 0bb6
00000020: fe47 cfb8 0d6e 25b7 cdb1 6a37 e892 bf38
00000030: ca5f 5bb7 af42 3a36 c178 9238 a8d9 9fb7
00000040: 481a 6537 85d5 7337 3fee ee37 630a 0d37
00000050: 04ab 3737 6f99 ae37 e683 6d37 0264 a537
00000060: 50e6 9237 b19b a337 8226 6837 9424 03b8
00000070: d7c2 3838 0f2c 0139 0027 40b7 9f55 8137
00000080: 02ba a938 8ded abb7 075d 2137 02d8 b337
00000090: 14c8 5f37 df9d 66b5 2353 49b7 ba73 3337
000000a0: 0f96 2d37 9c11 2037 151e 3737 3507 4d37
000000b0: 83ba b337 6dca e5b8 5bf2 5db9 41cb 43b9
000000c0: a9a7 7338 1ff8 f8b7 23de e3b7 cf87 8a38
000000d0: 2771 9db7 3a79 3db8 8e09 8eb5 68ba 3d36
000000e0: 7921 4d36 4ace c3b7 244c 1b36 41b0 6d37
000000f0: 5f9d 9a35 6dd9 7537 1736 b737 d20d 6d38
00000100: cad4 e537 d225 44b8 f747 c0b7 e500 6cb7
00000110: d966 88b8 28ef dbb8 646c 9bb8 2be6 91b8
00000120: 1417 8eb8 3aa0 9d37 3f24 b938 c60d 02b8
00000130: 9ded ca37 f1c3 8638 8689 2d37 40a4 7338
00000140: 8d90 6338 81d3 d138 6a60 0b38 5b82 69b6
00000150: 8963 c038 9642 4538 e644 8a37 4a28 5938
00000160: b5b5 f237 9a1f 9837 a290 ddb8 1c2a 28b8
00000170: a12d 02b9 a9cb e638 d9c0 9339 69bd 1638
00000180: 9add 7837 8b93 1a39 0a77 9438 16ba 0b37
00000190: 2cb5 9cb8 355e 80b8 e2df ee35 6352 88b8
000001a0: 07c5 a2b8 69f2 5f37 2644 e4b7 2b0b 7eb7
000001b0: f955 84b8 038f 24b8 e50a 28b7 2149 9ab7
000001c0: 4287 3735 65a8 3638 6eb6 6037 894b c037
000001d0: 0e33 5938 02a1 7ab8 f85a 93b8 f176 89b8
000001e0: 9f94 a5b8 8659 ddb8 b2f8 98b8 89e0 94b8
000001f0: 74c1 92b8 76ef b8b8 9c84 4eb6 7521 2db7
00000200: e517 14b6 47af 8d36 5c02 fb37 067e b836
00000210: 4157 3335 b133 7836 fc1b 2537 1a99 cbb8
00000220: 2542 dab7 c040 c6b8 d282 0838 9a2d 1039
00000230: 9d00 3938 3020 7535 e92c ea38 1957 1838
00000240: eab3 33b7 d700 49b8 7301 83b8 6a36 01b8
00000250: ef14 41b8 149a 83b8 fc30 d5b5 5d89 8db6
00000260: c726 0836 ff04 21b8 6a89 1938 fcbc 4d38
00000270: 8d71 02b9 2fcf 24b7 7807 fbb7 49fa 66b8
00000280: de59 28b8 6629 04b8 825f adb7 2877 d1b8
00000290: 8fff 04b9 2e5b 2838 ea7c aab7 d466 93b8
000002a0: 9fb1 f538 e18d b738 4749 6338 2778 08b9
000002b0: ae02 57b8 600c c335 43b9 11b9 5cb5 d2b7
000002c0: e1b6 5237 f8a9 5db8 230c 0eb7 a656 ee37
000002d0: 526d bcb8 ff3e e9b7 c38d 9d38 706a 04b9
000002e0: 1c53 b1b8 26f2 7e38 044b fab7 3a18 b0b5
000002f0: c3b3 3ab8 b5f0 37b8 0361 73b7 eea4 36b8
00000300: 1f5e 83b8 63bd aab8 3382 8cb8 6da0 84b8
00000310: 392a 18b8 a11e 54b8 0d89 bfb7 3f3b 87b8
00000320: de4e 94b8 f992 2938 7407 5e37 1649 e437
00000330: 584f bb38 7f90 8c38 eba5 8038 e0ce 33b8
00000340: dce0 75b7 834f 09b7 a04d c2b8 e21f a0b8
00000350: b137 99b8 54eb d8b8 7115 87b8 86b0 9bb8
00000360: cec6 30b7 15b9 77b7 2532 1a36 79e0 5334
00000370: 1fa6 db36 f06b 8837 2f10 bf37 576a 9037
00000380: 8c30 25b7 4bb9 04b9 9779 fdb8 7abc ebb8
00000390: 86fd 0fb9 7229 e5b8 0900 4ab8 f710 30b7
000003a0: 9488 15b7 edee 9037 900b 05b8 2ac2 f9b7
000003b0: 8ed0 48b8 85bf 6fb7 f556 42b8 4445 a5b8
000003c0: bca2 1b38 9561 a437 f265 8ab6 b54a 20b6
000003d0: 5f9b aab8 e4a7 02b8 713c 4538 4d31 f1b6
000003e0: 9e04 02b8 5967 7238 dbc5 4638 e5ed 95b6
000003f0: 9d73 f5b8 6726 b3b8 e114 9ab7 586b 00b9
-0.00017595143 -0.00029453693 -0.00036807987 4.7426925e-05 -7.4814474e-05 -0.00014312408 4.086411e-05 -2.081295e-06
-9.883939e-05 -9.86039e-06 1.3988884e-05 9.134953e-05 -1.307572e-05 2.7754975e-06 6.984315e-05 -1.9055631e-05
1.3655583e-05 1.4533643e-05 2.8482753e-05 8.406673e-06 1.0947468e-05 2.0813864e-05 1.4157011e-05 1.9716103e-05
1.7511804e-05 1.9503614e-05 1.3837243e-05 -3.12669e-05 4.4050477e-05 0.00012318812 -1.1453172e-05 1.5417869e-05
8.0931946e-05 -2.0495407e-05 9.618007e-06 2.143905e-05 1.333842e-05 -8.591141e-07 -1.199989e-05 1.0696176e-05
1.0346542e-05 9.540843e-06 1.0914654e-05 1.222063e-05 2.1425314e-05 -0.00010957276 -0.00021166487 -0.00018672367
5.809186e-05 -2.9679444e-05 -2.716395e-05 6.605649e-05 -1.876855e-05 -4.5174012e-05 -1.0582605e-06 2.8271697e-06
3.0566864e-06 -2.3341872e-05 2.314112e-06 1.4167338e-05 1.1519695e-06 1.4653761e-05 2.1840488e-05 5.6518074e-05
2.7398015e-05 -4.6765264e-05 -2.2921695e-05 -1.4066904e-05 -6.504142e-05 -0.0001048728 -7.411165e-05 -6.957011e-05
-6.775386e-05 1.879047e-05 8.828239e-05 -3.1007243e-05 2.4190924e-05 6.426115e-05 1.0343623e-05 5.8088684e-05
5.425564e-05 0.00010005292 3.3229975e-05 -3.4795582e-06 9.173813e-05 4.7030473e-05 1.6482965e-05 5.1774354e-05
2.8933262e-05 1.8134528e-05 -0.00010565041 -4.009354e-05 -0.00012414764 0.00011005189 0.00028181708 3.593919e-05
1.48335475e-05 0.00014741549 7.079363e-05 8.328372e-06 -7.4724056e-05 -6.121063e-05 1.779754e-06 -6.500331e-05
-7.761461e-05 1.3348276e-05 -2.7211452e-05 -1.514218e-05 -6.310264e-05 -3.9233837e-05 -1.0016117e-05 -1.8392284e-05
6.836964e-07 4.354901e-05 1.3393916e-05 2.2923357e-05 5.178438e-05 -5.9754595e-05 -7.0264505e-05 -6.5548236e-05
-7.895496e-05 -0.00010554776 -7.294248e-05 -7.099013e-05 -6.997856e-05 -8.818407e-05 -3.077358e-06 -1.0319393e-05
-2.2067627e-06 4.2225324e-06 2.992263e-05 5.4982984e-06 6.680967e-07 3.6984968e-06 9.841282e-06 -9.708312e-05
-2.6018426e-05 -9.453436e-05 3.2546763e-05 0.00013749898 4.410801e-05 9.131645e-07 0.00011166355 3.632074e-05
-1.0711121e-05 -4.7922917e-05 -6.246837e-05 -3.0806674e-05 -4.603428e-05 -6.275266e-05 -1.5883993e-06 -4.2181186e-06
2.028815e-06 -3.8390044e-05 3.660602e-05 4.9051814e-05 -0.00012440067 -9.8234e-06 -2.992501e-05 -5.506937e-05
-4.0138017e-05 -3.1509808e-05 -2.0667681e-05 -9.988091e-05 -0.00012683704 4.013924e-05 -2.0323747e-05 -7.0286595e-05
0.00011715595 8.752547e-05 5.4189262e-05 -0.00013014731 -5.126249e-05 1.4532234e-06 -0.00013897293 -2.5118403e-05
1.2559555e-05 -5.28488e-05 -8.466685e-06 2.841216e-05 -8.984901e-05 -2.78051e-05 7.5127486e-05 -0.00012628152
-8.455498e-05 6.0783837e-05 -2.9837254e-05 -1.3120073e-06 -4.4513272e-05 -4.3854776e-05 -1.4506516e-05 -4.3545784e-05
-6.264098e-05 -8.141508e-05 -6.699972e-05 -6.324132e-05 -3.6278947e-05 -5.0573264e-05 -2.2832794e-05 -6.448337e-05
-7.07188e-05 4.042962e-05 1.32339665e-05 2.7213751e-05 8.931634e-05 6.702635e-05 6.13442e-05 -4.2869593e-05
-1.4655492e-05 -8.184349e-06 -9.2651e-05 -7.635333e-05 -7.305982e-05 -0.00010343516 -6.4412954e-05 -7.423856e-05
-1.0536705e-05 -1.476544e-05 2.2976976e-06 1.9732569e-07 6.5460476e-06 1.6262726e-05 2.277651e-05 1.7215656e-05
-9.84607e-06 -0.00012657528 -0.00012086628 -0.0001124078 -0.00013731988 -0.00010927291 -4.8160586e-05 -1.0494367e-05
-8.912892e-06 1.7277396e-05 -3.172044e-05 -2.9773528e-05 -4.7877948e-05 -1.4290102e-05 -4.633419e-05 -7.880715e-05
3.7106438e-05 1.9595764e-05 -4.1245885e-06 -2.3885343e-06 -8.135172e-05 -3.1150776e-05 4.702475e-05 -7.188099e-06
-3.0998715e-05 5.7793546e-05 4.7391146e-05 -4.4682406e-06 -0.00011704045 -8.542538e-05 -1.8367953e-05 -0.0001224702

exp_avg_sq f4 [10]
00000000: 2917 2838 937f e536 f54f b836 ac36 0238
00000010: 912f 4636 7138 7437 04d3 2836 f496 f937
00000020: 273f 7836 2e98 4838
4.007589e-05 6.8395834e-06 5.4929355e-06 3.1045332e-05 2.9531986e-06 1.4556675e-05 2.5156778e-06 2.9753406e-05
3.699164e-06 4.7825444e-05

exp_avg f4 [10]
00000000: 0b6e 6e39 7f7a 273a b36a 08ba 1375 8bba
00000010: 297e 1a39 cfe6 553a 6e00 adb9 884a 33ba
00000020: 6d53 813a a345 62ba
0.00022738443 0.0006388798 -0.00052038877 -0.0010639749 0.00014733583 0.00081596983 -0.00032997451 -0.0006839414
0.0009866782 -0.00086315925

exp_avg_sq f4 [10]
00000000: 6256 f637 2efe a136 6e76 4436 6476 1f37
00000010: 1dba a034 efe9 1037 ac16 fa35 0e9a fe36
00000020: d465 0136 ad4e 0937
2.936571e-05 4.8277643e-06 2.927521e-06 9.5047035e-06 2.9937738e-07 8.637536e-06 1.863305e-06 7.587724e-06
1.928177e-06 8.1841545e-06

exp_avg f4 [10]
00000000: 5e4c 0a39 21a4 6eb9 f803 dbb9 6b33 18ba
00000010: bc5e abb8 836a 1b3a 1c6c 2639 b9b5 1239
00000020: 18dd 31b9 ac63 4fb9
0.00013189155 -0.00022758592 -0.00041773892 -0.0005806002 -8.171561e-05 0.0005928652 0.00015871268 0.00013991342
-0.00016962399 -0.00019778189

exp_avg_sq f4 [10]
00000000: faff 8138 9664 ae36 12eb 3537 33b7 1a37
00000010: 6f2c 2f35 8388 2a37 c469 af36 91ec 8936
00000020: c58d 8f36 6172 0637
6.198879e-05 5.197314e-06 1.0843172e-05 9.22177e-06 6.525724e-07 1.0164574e-05 5.227719e-06 4.110458e-06
4.2782362e-06 8.013653e-06

exp_avg f4 [10]
00000000: 3056 b5b9 470c 3f3a 9d69 57ba a01c e339
00000010: 901a ab38 1537 083a 8038 2a3a b928 e7b7
00000020: ca1d 843a 871a 0b3a
-0.00034587225 0.0007287901 -0.0008217337 0.0004331814 8.158863e-05 0.0005196196 0.00064934045 -2.7556309e-05
0.0010079679 0.0005306382

exp_avg_sq f4 [10]
00000000: 4c22 4138 eff6 0e37 7cde 5337 19d6 9e36
00000010: e3ba 3735 91ce 4d37 fc09 fa35 974d 8836
00000020: ee72 0c36 3f5f 0a37
4.6046727e-05 8.521353e-06 1.2628381e-05 4.733691e-06 6.844477e-07 1.2267047e-05 1.8629357e-06 4.0621485e-06
2.0928524e-06 8.247617e-06

exp_avg f4 [10]
00000000: 4535 06ba 47fa 3b3a cfed 81ba 41fc 85b9
00000010: 81b7 6e38 4fa5 343a 3fd5 fbb8 ba12 b639
00000020: 3bc1 5f38 d113 afb9
-0.0005119632 0.0007170778 -0.0009912791 -0.0002555568 5.6914523e-05 0.0006891088 -0.00012008333 0.00034727697
5.3347303e-05 -0.00033393365

exp_avg_sq f4 [10, 10, 3, 3]
00000000: e6c3 a237 0644 a137 d719 9337 bde8 b037
00000010: e701 b337 a744 a637 4587 9837 8968 8f37
00000020: 13d6 7e37 a54e f836 e8b2 a236 ff21 e036
00000030: a648 ba36 4ff0 db36 edc2 6836 e6fe 5037
00000040: 54af 8037 16b3 2037 68f3 aa35 73ef ed35
00000050: e74e f935 0ede d735 b232 0336 3532 9435
00000060: 2169 d135 63db e635 6276 ef35 91fe df37
00000070: d882 b637 92d4 4737 cdac ff37 fde0 c737
00000080: 9309 8c37 5b6f d637 01e3 a337 2cc9 6d37
00000090: 934c b236 b471 8f36 4aa8 a836 17eb 5b36
000000a0: a3f8 5836 c731 4236 3872 d836 01eb a136
000000b0: 5c91 ad36 a0f4 3937 6825 8437 cf6e 2738
000000c0: c495 1e37 82d8 fc36 1031 2b37 0079 2737
000000d0: 5936 eb36 81b7 0637 d8b3 af37 776a 6a37
000000e0: c148 ef36 b858 ff37 7002 bc37 4a63 3537
000000f0: eba6 ff37 a39c b737 1db5 5d37 b007 a836
00000100: 5127 4437 d1e8 3b37 5dcf b236 f144 7137
00000110: 27d7 2237 ac9e b736 d4c6 e336 e674 dc36
00000120: 80b9 7337 b00e 9e37 f6e3 5338 e34e 8337
00000130: e60a 6a37 35a7 cc37 3118 9737 428e 9337
00000140: 1868 b937 9b07 1e37 543d e836 0f32 9337
00000150: 280e 4c37 cf4b 3337 3a48 cf36 57b0 8237
00000160: 8c42 8737 ba8e 4d37 3d9f 9735 26e3 4c35
00000170: b991 c935 131b 9735 0e4d c335 afaf 8835
00000180: 0801 8a35 64bd 9635 6b95 0f35 eb6c 3635
00000190: 65f5 2a35 fb98 4935 d2ed 1b35 24d3 7a35
000001a0: 451a 7435 457b 0d36 d720 0a36 4ea0 4d35
000001b0: 3ee1 7b35 ae50 6835 eb38 5a35 dc6b d934
000001c0: a6f9 0435 c87e ce34 4464 0635 5d84 3035
000001d0: 07d2 d134 5822 7435 1250 a835 675a 9535
000001e0: 6ba3 2e36 c087 8d35 3171 4236 b50b 1f36
000001f0: 0a6d 3136 17bd 1836 d003 6d35 7da8 3a35
00000200: c375 2535 9880 c835 1dbc 9b35 7e2b 5035
00000210: a387 e535 9214 8c35 6492 4b35 d8e4 2535
00000220: 72e2 e935 dad9 af35 3d9e 6735 ba6d c934
00000230: cda1 2f35 ff34 7635 1278 2d35 773a 9935
00000240: 1780 3b35 3aa0 4336 918b a235 01bc 1236
00000250: e17c a635 6cd7 e235 d365 8d35 e153 3e36
00000260: 3c3b 7c35 f92e 7635 fe78 f634 fad7 5235
00000270: c25d 1536 e4d0 3135 f903 2335 d5dc 8535
00000280: b7ff 9535 6070 1635 7367 d535 99b4 3336
00000290: cdce 6e35 92ad 0536 5955 e435 4217 3e36
000002a0: 50e3 0236 2ca1 fd35 fbd6 7a35 d185 ac35
000002b0: 736a 8035 0176 7a35 d238 4a35 a57a c735
000002c0: f668 8135 e030 8b35 f54a fd34 a93a 4135
000002d0: e574 0c36 69f9 4e36 59aa 7636 61c8 5f36
000002e0: e896 1436 1df7 1c36 72f1 a936 5fc9 4936
000002f0: fa0f 3a36 9375 3d36 f9c2 3936 b354 1236
00000300: cc0d 4d36 710a 1a36 4c56 2036 4a5f e735
00000310: d6e6 eb35 45c6 0b36 c79a c235 ae0f 0836
00000320: c2a0 aa35 b13c 9735 02f4 b935 0a15 7435
00000330: 2d02 6f35 51a5 d035 7927 8135 a739 9f36
00000340: 9e52 bd36 387d bb36 2408 6736 19a3 5936
00000350: 1ef6 3736 35e5 5336 5188 1136 1e84 2d36
00000360: d1dd 4736 8fff 4736 0d44 3436 c20d 6436
00000370: b6ed 8d36 3e36 7736 67a8 7036 82c0 8936
00000380: 2020 5c36 2f22 ea35 b8d8 1136 5532 d335
00000390: 4550 e935 0c48 3a36 7456 6b35 473c a435
000003a0: b0b3 c135 7d43 7235 2f34 b836 062d 8d36
000003b0: 7ad4 7e36 fc0f d936 370a d536 63d1 9836
000003c0: 844b 5236 d758 0437 fb0b 7936 44c4 4936
000003d0: c080 3c36 2035 4336 ddfa 3c36 9b11 5e36
000003e0: b938 6b36 98b4 1036 4948 1136 6e02 4736
000003f0: 4529 6e36 6d99 ca36 6327 7d36 7ab6 a136
1.9403127e-05 1.9224371e-05 1.7535798e-05 2.1089212e-05 2.1339349e-05 1.982071e-05 1.8182802e-05 1.7095606e-05
1.5189423e-05 7.4001314e-06 4.8488037e-06 6.679678e-06 5.5516894e-06 6.554684e-06 3.4684156e-06 1.2457114e-05
1.5340433e-05 9.57844e-06 1.2736828e-06 1.7727565e-06 1.8574909e-06 1.6083375e-06 1.955003e-06 1.1041471e-06
1.560231e-06 1.7200185e-06 1.7841342e-06 2.6702213e-05 2.175702e-05 1.1910817e-05 3.0478835e-05 2.3827417e-05
1.6693759e-05 2.5562642e-05 1.9536821e-05 1.417314e-05 5.313728e-06 4.274969e-06 5.0263816e-06 3.2770383e-06
3.2331234e-06 2.8937227e-06 6.4505984e-06 4.825532e-06 5.172724e-06 1.10838155e-05 1.5753045e-05 3.99191e-05
9.452404e-06 7.53539e-06 1.02038175e-05 9.982148e-06 7.0098727e-06 8.029748e-06 2.0945372e-05 1.3972275e-05
7.1312247e-06 3.0439682e-05 2.2412481e-05 1.0811558e-05 3.0476096e-05 2.188824e-05 1.3214795e-05 5.007685e-06
1.1691664e-05 1.1200275e-05 5.3289536e-06 1.4380771e-05 9.7060465e-06 5.472297e-06 6.788274e-06 6.5701197e-06
1.4527119e-05 1.8841907e-05 5.0518625e-05 1.5653151e-05 1.3950024e-05 2.4396557e-05 1.8011868e-05 1.759001e-05
2.2102191e-05 9.419305e-06 6.9212783e-06 1.7547076e-05 1.21626435e-05 1.0686882e-05 6.177489e-06 1.5579322e-05
1.6124242e-05 1.2252183e-05 1.1296721e-06 7.6326467e-07 1.5018078e-06 1.1258256e-06 1.4551058e-06 1.018392e-06
1.0282101e-06 1.1230991e-06 5.3489083e-07 6.795878e-07 6.368703e-07 7.510095e-07 5.8088074e-07 9.343951e-07
9.093531e-07 2.108239e-06 2.0582718e-06 7.6601725e-07 9.3832557e-07 8.654414e-07 8.1294155e-07 4.0497878e-07
4.953712e-07 3.8462736e-07 5.0064796e-07 6.5757723e-07 3.90821e-07 9.094706e-07 1.2540279e-06 1.1127676e-06
2.6023142e-06 1.0544827e-06 2.8974139e-06 2.369966e-06 2.6438524e-06 2.275983e-06 8.829493e-07 6.953558e-07
6.1638656e-07 1.4938587e-06 1.1603148e-06 7.754933e-07 1.7101305e-06 1.04368e-06 7.583642e-07 6.18003e-07
1.7425757e-06 1.3101919e-06 8.6284473e-07 3.7519004e-07 6.542803e-07 9.171926e-07 6.462225e-07 1.1416404e-06
6.9849324e-07 2.9150528e-06 1.211056e-06 2.1865128e-06 1.2404308e-06 1.6901008e-06 1.0534953e-06 2.836103e-06
9.3963513e-07 9.1710496e-07 4.5909104e-07 7.8545384e-07 2.2257304e-06 6.6241614e-07 6.072801e-07 9.973543e-07
1.1175788e-06 5.604288e-07 1.5899844e-06 2.67782e-06 8.8962844e-07 1.9919576e-06 1.7012163e-06 2.8325744e-06
1.9503823e-06 1.8896876e-06 9.3445095e-07 1.2853944e-06 9.567724e-07 9.3303976e-07 7.533355e-07 1.486235e-06
9.641797e-07 1.0370532e-06 4.717946e-07 7.1983465e-07 2.0929667e-06 3.0841568e-06 3.6756012e-06 3.3346225e-06
2.2141558e-06 2.338965e-06 5.0647004e-06 3.0068547e-06 2.772546e-06 2.8231632e-06 2.7680637e-06 2.1804997e-06
3.0555411e-06 2.2953866e-06 2.389209e-06 1.7238574e-06 1.7576047e-06 2.0828022e-06 1.4499172e-06 2.0274706e-06
1.2712774e-06 1.126804e-06 1.385459e-06 9.09277e-07 8.9037604e-07 1.5545321e-06 9.622737e-07 4.745281e-06
5.642257e-06 5.5876117e-06 3.442642e-06 3.2430455e-06 2.7412384e-06 3.1574866e-06 2.168603e-06 2.5855911e-06
2.9782425e-06 2.9802065e-06 2.68617e-06 3.3982656e-06 4.2298007e-06 3.6837441e-06 3.586081e-06 4.105329e-06
3.2801254e-06 1.7444307e-06 2.173283e-06 1.5735374e-06 1.7383214e-06 2.7758097e-06 8.767013e-07 1.2236495e-06
1.4431916e-06 9.0250234e-07 5.4897023e-06 4.207369e-06 3.7972627e-06 6.468965e-06 6.349084e-06 4.554329e-06
3.1336394e-06 7.888498e-06 3.7110865e-06 3.0065576e-06 2.8089125e-06 2.9088187e-06 2.8160205e-06 3.3090826e-06
3.5050746e-06 2.1562792e-06 2.164876e-06 2.9654725e-06 3.5488786e-06 6.0379302e-06 3.7722864e-06 4.819417e-06

exp_avg f4 [10, 10, 3, 3]
00000000: 7268 133a fd7c d239 6181 e339 eaf8 f139
00000010: a3a9 ca39 2756 c039 091a 0539 7330 3439
00000020: 8e6a 7739 5384 2eba 54b4 22ba 44ba d2b9
00000030: adb4 5439 18d8 12b8 6ac2 5db9 bf46 e2b8
00000040: 38fe c0b8 2b60 84b9 7d72 6db8 5a9f afb7
00000050: 8aea 86b9 1408 3b39 5aaf 8838 83dc e9b8
00000060: 71c1 d839 f85a f439 a08b 2639 ddd8 043a
00000070: 0c14 493a a991 ad39 238b 4139 8b57 053a
00000080: 80c5 c639 3b99 34b9 ab31 1038 4436 1f39
00000090: 8fba 1eb9 ecec d436 4386 90b8 ef79 1b39
000000a0: 570f eab8 e933 4bb9 8042 e839 892d 6939
000000b0: 98fe 4e39 3b8b 01b9 3df4 50b9 a6a9 7fba
000000c0: 2438 04ba 02e2 8039 c2b2 8eb8 e256 b7b9
000000d0: b717 6439 5d43 3d39 3f98 a639 57f2 353a
000000e0: a6af 3739 0b95 9b38 79ef 283a 14a6 8939
000000f0: d9a8 c8b5 fabc 4639 f924 ab39 61b6 94b9
00000100: 83e7 05ba 71d3 96ba 976e 553a 57d6 003a
00000110: fe05 27b7 f07e 49b9 c17d 023a 2e43 fb39
00000120: 1fb8 3d3a 9e3f 133a cbd1 21ba 8ef7 3ab9
00000130: 3321 65b9 fe14 02b9 c47e 9238 7e4b 87b9
00000140: a26b cbb9 355e 82ba 5419 b1ba 3901 f2ba
00000150: b2e6 ae3a de9b 393a f0f9 12ba 6889 9736
00000160: 3b4d 1f3a 9863 bbb8 a8b1 0ab8 177a 38b9
00000170: 72b8 93b8 1925 9eb8 a19b 5ab9 d585 13b9
00000180: 5cbc 7738 0764 37b9 2cc5 03b9 e6ad a139
00000190: 476c 0738 81c5 ae39 5687 9539 315e 7a39
000001a0: 912e 0b39 bf02 a8b8 ec43 0d39 ff51 89b7
000001b0: ec67 6bb8 750c 3438 a371 8a38 c846 2f38
000001c0: 7cf8 c836 5e18 7d39 c65c 0739 99f3 61b7
000001d0: cbe8 4937 3e7d 86b8 2933 f9b8 8f11 26b9
000001e0: 5f3c 77b9 d7cc 6cb9 ffc8 87b9 aeee ffb8
000001f0: 507b 3eb9 8a46 3bb9 0cbd e8b7 9d99 0839
00000200: 722f 8f39 1f93 0439 2506 ad39 6849 ff39
00000210: bd0c 7a39 2052 8439 f654 ec39 98cd 00b7
00000220: 4cb7 32b8 529e b6b8 d387 c8b8 38f6 bab8
00000230: e156 3bb9 c448 db38 c180 e338 9d8a 70b8
00000240: 2b17 f238 a840 ccb7 3a97 64b8 3808 29b9
00000250: c75b 05b9 f38e 90b9 eebb 2db9 a6f4 1cb9
00000260: 0683 15b9 f167 c438 e8be f4b8 60f6 80b6
00000270: b331 0c39 923d 1bb9 a35a 70b9 b7a8 9fb7
00000280: 120b 21b8 81d1 ddb9 5e11 10b8 3c57 62b7
00000290: 964e 32b8 cfbd 82b8 c8ff 21b9 4f2f ad37
000002a0: fb7c 2e39 1115 6738 a280 6039 c7c0 7ab8
000002b0: 17fb deb6 eb96 2f39 f8f3 c6b8 5f51 d5b9
000002c0: 620a 9538 c97d e5b8 8448 91b8 5d87 bcb9
000002d0: bb5f 0bba 740a 28ba 3a5e 40ba 4d8e a8b9
000002e0: d1b0 c4b9 e09b c3b9 a012 c834 22a7 6ab8
000002f0: 74cc 79b8 cbe6 1738 91db 1537 34fa 4eb7
00000300: f694 22b8 9461 0db8 4d2f 27b8 9522 13b8
00000310: 1376 ccb6 bf8e 2eb8 284b 6c38 fb56 0738
00000320: fd61 8a37 5a8a 0fb8 cc7f 4eb8 c579 53b8
00000330: 72df 05b9 86f7 1fb9 30c3 0bb9 8dba abb9
00000340: bcde b4b9 c7f8 79b9 2bd0 07b9 2591 d135
00000350: 2172 8c39 1fc1 5d39 a704 a639 c237 ef39
00000360: 8391 af38 2cd4 a037 929e b2b6 cfa4 8eb8
00000370: 005d aeb8 a901 e5b8 512e 57b9 19ec 69b9
00000380: b6a9 6cb9 6587 f8b8 dc22 9eb6 830a b338
00000390: ed39 a439 03dd b339 b74b aa39 100b 093a
000003a0: 59b1 0c3a 9881 bc39 2de7 5db9 05f7 a8b9
000003b0: 001d 87b9 1446 63b9 8488 29b9 0749 2038
000003c0: cc58 f7b7 398f 4138 6ae4 9d39 6f52 d8b6
000003d0: a464 d1b6 2dbd 0cb9 3e13 6fb6 a340 0db8
000003e0: 314e 0db9 872c 45b8 f179 d5b8 d13b ddb8
000003f0: 1b25 54b7 2307 f634 07a6 ca38 4d39 a738
0.00056231685 0.00040147445 0.0004339321 0.00046152557 0.00038654832 0.00036685282 0.00012693567 0.00017184186
0.0002359545 -0.0006657291 -0.00062066806 -0.000401931 0.00020285202 -3.5010366e-05 -0.00021148627 -0.00010789697
-9.2026254e-05 -0.00025248653 -5.661183e-05 -2.093583e-05 -0.00025733217 0.00017836719 6.517647e-05 -0.00011151379
0.00041342856 0.00046607084 0.00015883008 0.00050677155 0.0007670529 0.00033105657 0.00018457747 0.0005086592
0.00037912652 -0.0001722322 3.4378532e-05 0.00015183637 -0.00015137553 6.3456737e-06 -6.891463e-05 0.00014827376
-0.00011160847 -0.00019378927 0.00044300035 0.00022237575 0.00019740534 -0.00012354266 -0.00019927412 -0.00097527576
-0.0005043766 0.0002458245 -6.804384e-05 -0.00034969213 0.00021752609 0.0001804954 0.0003177542 0.00069407135
0.00017517674 7.4187374e-05 0.00064443756 0.00026254414 -1.4950302e-06 0.0001895315 0.00032643208 -0.00028364643
-0.00051080453 -0.0011507106 0.00081417843 0.00049147516 -9.955371e-06 -0.00019216142 0.0004977845 0.00047924503
0.0007237214 0.00056170847 -0.0006172924 -0.00017830564 -0.0002185151 -0.00012405586 6.9854344e-05 -0.00025805453
-0.0003879937 -0.0009946289 -0.0013511577 -0.0018463499 0.0013343899 0.0007080416 -0.00056067016 4.516147e-06
0.0006076877 -8.935406e-05 -3.306722e-05 -0.0001759309 -7.043862e-05 -7.540937e-05 -0.00020848076 -0.00014068869
5.9064812e-05 -0.00017489503 -0.00012566586 0.00030837877 3.228735e-05 0.00033335018 0.00028520328 0.00023876947
0.0001327342 -8.011376e-05 0.00013472111 -1.6369855e-05 -5.612515e-05 4.2926946e-05 6.601519e-05 4.178917e-05
5.989392e-06 0.00024137038 0.00012909164 -1.3467762e-05 1.2034735e-05 -6.412946e-05 -0.000118827746 -0.00015837535
-0.00023578246 -0.00022583023 -0.0002589896 -0.00012203805 -0.0001816575 -0.00017859988 -2.7744587e-05 0.00013027196
0.00027310435 0.00012643308 0.0003300171 0.00048692082 0.00023846603 0.0002523819 0.0004507673 -7.677263e-06
-4.2609216e-05 -8.707926e-05 -9.5620424e-05 -8.915033e-05 -0.00017866075 0.000104562874 0.00010848186 -5.7349553e-05
0.000115437746 -2.4348803e-05 -5.4500277e-05 -0.00016120158 -0.00012718058 -0.00027572326 -0.00016568575 -0.00014968458
-0.00014258557 9.365369e-05 -0.00011670386 -3.843379e-06 0.00013369955 -0.00014804889 -0.00022921948 -1.9032841e-05
-3.83957e-05 -0.00042308497 -3.434845e-05 -1.3490961e-05 -4.2511696e-05 -6.234238e-05 -0.00015449442 2.0645237e-05
0.00016640492 5.509431e-05 0.00021410224 -5.9784183e-05 -6.6453463e-06 0.00016745522 -9.4868185e-05 -0.00040687152
7.1068076e-05 -0.00010943 -6.927646e-05 -0.00035959008 -0.0005316694 -0.0006410249 -0.00073382596 -0.0003214948
-0.00037515772 -0.00037309434 3.7266454e-07 -5.5945602e-05 -5.9556638e-05 3.6216148e-05 8.932214e-06 -1.2336812e-05
-3.876254e-05 -3.3707896e-05 -3.9859955e-05 -3.5079738e-05 -6.0934194e-06 -4.1617775e-05 5.633678e-05 3.2267515e-05
1.6496511e-05 -3.4222707e-05 -4.9233247e-05 -5.0419727e-05 -0.00012767108 -0.00015255631 -0.00013328786 -0.00032754653
-0.00034498225 -0.00023839167 -0.00012952152 1.5613956e-06 0.00026787914 0.00021148146 0.00031665454 0.00045627175
8.371754e-05 1.9172287e-05 -5.3232734e-06 -6.801786e-05 -8.314289e-05 -0.0001091988 -0.00020521252 -0.00022308565
-0.00022569936 -0.00011850781 -4.712825e-06 8.537343e-05 0.00031323676 0.00034306207 0.0003248134 0.00052277837
0.0005367003 0.0003595471 -0.00021162322 -0.000322275 -0.00025770813 -0.00021674513 -0.00016167952 3.8214985e-05
-2.9486044e-05 4.6148172e-05 0.00030115555 -6.446898e-06 -6.2404015e-06 -0.00013421914 -3.5624976e-06 -3.3677217e-05
-0.00013475936 -4.700993e-05 -0.00010179345 -0.00010549243 -1.2644824e-05 4.5826263e-07 9.6630356e-05 7.973854e-05

exp_avg_sq f4 [10]
00000000: 2846 fa34 d28b ad35 c2b6 b335 43b7 7235
00000010: 9f1a 5635 923f ed34 8e64 cd35 8dfd 2335
00000020: 1802 cb35 cf9a e535
4.6617174e-07 1.2930197e-06 1.3389729e-06 9.0418706e-07 7.975995e-07 4.4190944e-07 1.5302955e-06 6.1091197e-07
1.5125288e-06 1.7106885e-06

exp_avg f4 [10]
00000000: 7505 0439 ceea 1e39 8570 d738 47b8 1e39
00000010: 6ed1 0639 8250 b038 516d 8e39 0eb7 9238
00000020: 5260 8039 541c f6b8
0.00012590534 0.00015155526 0.00010272957 0.00015136703 0.00012857254 8.40733e-05 0.00027165798 6.995919e-05
0.00024485827 -0.000117354706

exp_avg_sq f4 [10, 10, 3, 3]
00000000: c258 3436 867c 7a36 ece6 0437 875e 3536
00000010: 888d 5336 0afd b136 1d5c 3136 98a4 5636
00000020: 94f9 9f36 e6c5 9d35 32ee 9135 332e 9035
00000030: b55f 2936 837e 3f36 830d 6b36 9079 0a36
00000040: 66f6 3036 771a f535 2406 4d36 71a4 6036
00000050: dd57 3437 ff0a 4836 e344 7636 c916 a836
00000060: 2e9e 2d36 e405 6436 d1fd 8036 202a a736
00000070: 06e2 0936 6e1c 4e36 49c3 fd36 3499 8936
00000080: 759c 1236 c854 1037 e24f f636 b24f 9936
00000090: e254 8836 dea3 6f36 2e65 5c36 86cc a136
000000a0: 425e 5436 a664 3236 4e0f 8936 869f 5536
000000b0: 76df 4036 4e81 a835 4d1e 3b35 aa2c 3035
000000c0: 47ca 0d36 1a46 b735 c909 6235 51e7 6235
000000d0: d71e aa34 627e 0734 54d0 2a35 b875 4035
000000e0: a6cf 2f35 a494 7835 4507 9a35 29fa 5e36
000000f0: e4f1 a835 4ee1 9d35 e129 9635 c9a8 fb35
00000100: 6656 c935 1b5d 1836 d99b fe35 37e9 4c36
00000110: 57c9 1e36 adcc 4236 5154 5c36 9b60 cb36
00000120: 1ddf af36 1e96 9936 6f15 8836 5d5e ad36
00000130: 4e49 8d36 34d6 7c36 778b b436 214f 9c36
00000140: fd88 8f36 88c4 8034 4a4c 8434 b3eb 6f35
00000150: 03c7 7634 a168 c834 5c9c 8935 110f b234
00000160: e48f f534 b096 7035 6b6c 6034 e7c8 8e34
00000170: dc43 e134 e1af 1434 a1d4 4f34 2a74 aa34
00000180: c695 8b34 3896 6934 1324 ad34 8a3d 8335
00000190: a1b4 9635 491e 6a35 b648 5135 647c a435
000001a0: 3966 7435 4d31 5035 6a4b c235 ac3e 4235
000001b0: 371e 2d35 9af2 2c35 86fd 2535 00e3 0535
000001c0: 4669 1835 dcc8 0535 6920 c834 efa4 cb34
000001d0: 77fc da34 72d2 0535 86f4 1f35 a7ee 8935
000001e0: 2a32 b834 6787 8f34 7125 ec34 77d4 bb34
000001f0: 376d 9834 d4e9 df34 0533 2035 a06c 5a35
00000200: 9836 7935 df5e 9d34 1348 a334 47e5 f034
00000210: cecf aa34 231a b334 c6d4 8034 c12f ca33
00000220: 8491 bd34 bd38 7034 6281 7f34 968c 5334
00000230: af76 2234 f9a1 0f34 4da7 6534 ebe1 3b34
00000240: 62e6 b534 c81a 0e35 2c8a ec34 e234 8134
00000250: 05e8 2934 1cb1 4e34 cacb 3d34 8ac4 fd33
00000260: 67ae 6a34 215a 8134 70ec 6734 97c2 6f34
00000270: 04b6 a534 27c6 bf34 3682 ae34 bb07 9734
00000280: e63d 0335 1037 a434 388a a235 9b2d f135
00000290: d928 9c35 e3e9 2335 a8d9 1035 16c0 1135
000002a0: 7136 2335 46f2 b034 5b70 a034 c629 d833
000002b0: 78b3 1134 2fed b633 9dee d433 3da5 f533
000002c0: f59e 4b34 7934 8933 2738 2134 828e 8433
000002d0: 7ded 9334 aa6e 8834 ebfe bb34 9b3e 9734
000002e0: 483f 9534 f53f ad34 b9db a234 d178 c334
000002f0: a83e c534 5493 3834 26f5 8834 1ff6 b034
00000300: 63d8 5034 0878 8534 2dcc 8734 6c0b 4734
00000310: 3e56 8434 4a59 5034 7a8f 2235 250e eb34
00000320: 6f2c b434 681f 0235 5008 d034 7276 8234
00000330: 2400 a834 67f0 b834 3004 9034 edcc 1f35
00000340: 1245 1e35 c453 2d35 b43f 1d35 ba43 9d34
00000350: bb70 7834 8010 7735 55ea 0735 b16e b534
00000360: 9be4 ff34 02c4 ef34 1795 2435 d76b 9a34
00000370: 538b 8e34 2814 ba34 45f5 0335 df73 b034
00000380: 53a8 8634 f74c fd32 2e17 2734 a99c 0c34
00000390: 1c85 2133 bb56 0134 9110 1e34 2929 c933
000003a0: ded3 fd33 c287 9033 a1f2 e633 324e ce33
000003b0: d33a 2234 b5ae 8633 9556 3433 4c53 1134
000003c0: 1425 6a33 3e72 e033 926e 5c34 3ebe ba34
000003d0: 82d2 e333 dd52 7234 6b1f 7e34 6070 2934
000003e0: 581a 8d33 e878 3034 d297 6834 f4ea f033
000003f0: e3b3 ff34 c06c 2f35 10ee 3935 58fc d834
2.6873754e-06 3.7325385e-06 7.921579e-06 2.7026124e-06 3.1523832e-06 5.3044687e-06 2.6428672e-06 3.198429e-06
4.767624e-06 1.1755008e-06 1.0872666e-06 1.0742282e-06 2.5238671e-06 2.8534857e-06 3.5025594e-06 2.063436e-06
2.6369466e-06 1.8261625e-06 3.0550955e-06 3.3474319e-06 1.0749293e-05 2.9808723e-06 3.6696954e-06 5.0094427e-06
2.5871082e-06 3.3978076e-06 3.8442454e-06 4.981892e-06 2.0546154e-06 3.071294e-06 7.5627217e-06 4.1007534e-06
2.1846765e-06 8.6028085e-06 7.340671e-06 4.569033e-06 4.0629975e-06 3.5709159e-06 3.284145e-06 4.8219836e-06
3.1645327e-06 2.6582652e-06 4.0847e-06 3.1832328e-06 2.87403e-06 1.2554608e-06 6.970702e-07 6.5630104e-07
2.1128378e-06 1.3654965e-06 8.42058e-07 8.452817e-07 3.1687406e-07 1.2618833e-07 6.363309e-07 7.1696877e-07
6.549475e-07 9.26035e-07 1.147601e-06 3.322619e-06 1.2587375e-06 1.1762984e-06 1.1188059e-06 1.875008e-06
1.5000812e-06 2.270396e-06 1.8969832e-06 3.0534118e-06 2.366103e-06 2.902739e-06 3.2831633e-06 6.061118e-06
5.24138e-06 4.5772313e-06 4.055611e-06 5.166787e-06 4.2106612e-06 3.7675609e-06 5.380654e-06 4.658374e-06
4.2776796e-06 2.3984853e-07 2.4642424e-07 8.9377426e-07 2.2982935e-07 3.732903e-07 1.0252802e-06 3.3166046e-07
4.57395e-07 8.9626246e-07 2.0901068e-07 2.6595737e-07 4.195889e-07 1.3847558e-07 1.9355731e-07 3.1749488e-07
2.5999742e-07 2.1754465e-07 3.2250009e-07 9.778171e-07 1.1228441e-06 8.7215864e-07 7.7964376e-07 1.2255155e-06
9.1045837e-07 7.755778e-07 1.4476075e-06 7.236183e-07 6.449149e-07 6.4428025e-07 6.1836215e-07 4.987669e-07
5.6777606e-07 4.983865e-07 3.7276484e-07 3.7931702e-07 4.0789357e-07 4.98526e-07 5.9587944e-07 1.0276752e-06
3.430917e-07 2.6734344e-07 4.3985668e-07 3.4986053e-07 2.839167e-07 4.170712e-07 5.967889e-07 8.13694e-07
9.283917e-07 2.9312557e-07 3.0413557e-07 4.4870305e-07 3.1816165e-07 3.3360365e-07 2.399667e-07 9.4150444e-08
3.530987e-07 2.2372383e-07 2.3795795e-07 1.9702051e-07 1.5130603e-07 1.3376838e-07 2.138815e-07 1.749792e-07
3.3881503e-07 5.2938094e-07 4.405896e-07 2.40666e-07 1.582376e-07 1.9249677e-07 1.7676135e-07 1.1816981e-07
2.1856395e-07 2.40937e-07 2.1599567e-07 2.2329401e-07 3.086608e-07 3.5720697e-07 3.2504767e-07 2.8131566e-07
4.8891377e-07 3.0587444e-07 1.2110168e-06 1.7969172e-06 1.1634794e-06 6.106258e-07 5.396091e-07 5.429623e-07
6.0801455e-07 3.2958832e-07 2.9884072e-07 1.0065882e-07 1.3569468e-07 8.518179e-08 9.915423e-08 1.1438758e-07
1.8963676e-07 6.3891044e-08 1.5014722e-07 6.172651e-08 2.755368e-07 2.5412493e-07 3.5016942e-07 2.8171493e-07
2.7799456e-07 3.2270296e-07 3.033472e-07 3.6409486e-07 3.6739698e-07 1.7189933e-07 2.5510343e-07 3.296163e-07
1.945023e-07 2.4860515e-07 2.5294267e-07 1.8537474e-07 2.4649665e-07 1.9403993e-07 6.055849e-07 4.3782453e-07
3.3559942e-07 4.8474476e-07 3.8749067e-07 2.4300567e-07 3.129254e-07 3.4447586e-07 2.6825137e-07 5.953032e-07
5.89601e-07 6.456942e-07 5.857976e-07 2.9292806e-07 2.3137811e-07 9.203868e-07 5.0632417e-07 3.3794416e-07
4.7663784e-07 4.4659834e-07 6.1311715e-07 2.87632e-07 2.6550933e-07 3.4659865e-07 4.9158217e-07 3.2866862e-07
2.5081917e-07 2.9488076e-08 1.556152e-07 1.3095509e-07 3.7606796e-08 1.2045614e-07 1.4720924e-07 9.367279e-08
1.1819769e-07 6.730217e-08 1.07543435e-07 9.606846e-08 1.5108826e-07 6.27164e-08 4.198826e-08 1.353448e-07
5.4516093e-08 1.04515934e-07 2.0529322e-07 3.478362e-07 1.06088024e-07 2.2568152e-07 2.3667023e-07 1.5780233e-07
6.570616e-08 1.6435263e-07 2.1661916e-07 1.12186086e-07 4.7628336e-07 6.535083e-07 6.9264297e-07 4.041674e-07

exp_avg f4 [10, 10, 3, 3]
00000000: 41f6 7c37 03be 7c39 8f9a 66b9 cb44 d2b8
00000010: fb11 8238 64e6 8db7 cca5 8cb7 03d2 9838
00000020: c11a a5b8 96c4 c4b8 dcfe 9a39 e91a 8937
00000030: bdab 7639 1917 d438 ba6c 0eb9 3545 1538
00000040: 123a c8b8 efd0 88b9 af1c 56b8 0259 0239
00000050: 844c b7b9 510b 35b9 9de4 59b8 fdf8 f1b8
00000060: ae01 4c39 5769 0a39 f3f9 bdb7 9c4f a7b8
00000070: a126 2bb8 d097 35b9 ac42 66b9 b402 34b9
00000080: a828 15b8 11c4 1439 5bf8 df38 223d 3338
00000090: 6c43 8438 c52c c438 2922 d237 492a 9138
000000a0: 8573 6a38 fb9d 0e38 87bf fc38 86ca 0039
000000b0: deb5 7038 0e02 edb8 f19c 36b8 0f5f 81b8
000000c0: 2983 2538 94a9 f837 ebf3 3c36 2d32 e137
000000d0: b216 5738 5f30 cbb7 6c31 03b9 5e4c 5bb8
000000e0: dde2 d4b8 d644 2bb8 8cce 9638 b82a 8b38
000000f0: 9550 0538 f881 6d37 4774 46b8 67fe 7db9
00000100: a19b 1fb8 3df2 8cb9 5215 b339 0ee0 013a
00000110: 4d16 3038 4ad3 efb8 ed8a 9c37 8bc7 50b9
00000120: a4ba 0339 6128 5338 c729 2038 eeec 0538
00000130: d2bc 5539 d91a 2e39 9d35 7d39 39b4 3939
00000140: f3f2 3d39 2d62 b7b7 aea2 fd38 83ee 90b8
00000150: 5547 1a38 8376 8c38 72bf 5138 1ae1 ef37
00000160: 1b4b 5e38 192b 8337 71dd 1cb9 2743 bdb9
00000170: cbfa 27b9 0827 8f38 b6fe cdb8 60d2 9738
00000180: 653f 84b8 bbf9 ceb7 a5bb c538 400c 3739
00000190: fb82 7339 d247 12b9 d26b e5b9 f279 6139
000001a0: 21e0 5839 387c d339 a5b2 b539 c4e0 323a
000001b0: c360 a5b9 3785 9bb9 7154 c6b9 8f2d b0b8
000001c0: a448 9038 673c 72b8 a906 00b9 63c7 53b7
000001d0: b87b 4638 fc78 64b8 3de6 dcb8 61d9 0eb9
000001e0: d8a3 c638 24b8 0339 020d 0cb8 32d1 6035
000001f0: 3e20 a438 d42a c338 ba0b 0239 584a 9338
00000200: 3a57 2c39 8780 0039 8081 1d39 c774 e138
00000210: f633 e638 7aa5 c338 b4c3 bc38 37ce 9cb7
00000220: 55e3 24b9 3f04 fbb8 0827 0ab9 d45a dc36
00000230: e80a 33b7 7fa2 3db8 e19e bc38 7ae1 7338
00000240: 0daf 0838 9b44 5bb8 3f3c 84b8 8c3b 8d38
00000250: 03e3 6838 dad4 ba37 9486 5237 8c0c 9236
00000260: f174 af38 5622 a738 efb7 b2b8 3176 dab8
00000270: b1e1 ffb7 baee 5bb9 8d76 49b9 51ed 6238
00000280: 495c 6db8 b8a5 9fb7 c72b 3539 d14d f238
00000290: 7e13 b239 0e68 ab39 ed35 9639 23a9 35b9
000002a0: 2326 5339 2b9c 5039 9684 f437 8bcf 98b8
000002b0: 368b ffb8 f0c4 74b8 e5ea d637 fd38 3db8
000002c0: 38b2 2036 7f1e 5538 4507 09b7 0bd6 26b8
000002d0: 11e8 0038 3406 1c38 f3ef 5238 c844 19b6
000002e0: 323f 50b6 4652 9537 ec06 4635 5a3f cab6
000002f0: 9ad2 a737 844d 95b7 97e3 21b8 53b2 9ab7
00000300: e4f8 1cb7 5ede b0b8 2b9a 30b8 575b 8cb8
00000310: d006 bab8 4fb2 f8b7 b3cc 9138 1dc6 3c38
00000320: 5829 1239 f172 7938 a63e 1c38 05f0 9e38
00000330: c011 ca37 f79d e537 45f9 1f38 c12a b8b8
00000340: 6847 bab8 ddaf 83b8 a315 a537 fccf 9436
00000350: 9abb 3f38 b543 a938 5612 fa37 7857 2d37
00000360: 7ccb 94b8 e962 dcb8 0c3d 17b9 2294 1db8
00000370: 9c15 90b8 cb12 c7b8 776c 1a38 0feb c936
00000380: 05ae 31b7 2490 a136 277b 1237 9a94 0837
00000390: 0966 3b36 2fa3 81b6 141e 97b6 740d 44b6
000003a0: d3d0 32b6 8c4c eab5 a03b f734 8c87 ab36
000003b0: 04ed 8636 9080 c636 24e2 5935 02a7 0cb7
000003c0: a04d b736 545a b3b6 0fec fdb6 4c42 ad35
000003d0: 413a de37 dad4 2838 35c7 e3b5 43b0 3f37
000003e0: ea79 1b38 43ed 4038 bc7e 2038 8b19 0d38
000003f0: a42f 5cb8 59df a1b8 b60b d1b8 bb8c e537
1.5077706e-05 0.00024103378 -0.00021992087 -0.00010026394 6.202232e-05 -1.6915794e-05 -1.6766506e-05 7.2870425e-05
-7.8727964e-05 -9.382625e-05 0.00029563054 1.6344204e-05 0.00023524366 0.0001011325 -0.00013582679 3.5588822e-05
-9.5475596e-05 -0.0002609561 -5.104829e-05 0.00012430924 -0.0003496149 -0.00017265721 -5.1949744e-05 -0.00011538153
0.00019455582 0.00013199948 -2.2646947e-05 -7.978009e-05 -4.0805553e-05 -0.0001731806 -0.00021959346 -0.00017167145
-3.5562232e-05 0.0001418742 0.000106797284 4.273386e-05 6.306809e-05 9.354347e-05 2.5049858e-05 6.922015e-05
5.5897533e-05 3.400257e-05 0.00012051971 0.00012282477 5.7389836e-05 -0.000113014234 -4.3538344e-05 -6.1689054e-05
3.9461218e-05 2.964287e-05 2.8156162e-06 2.6845455e-05 5.128113e-05 -2.422201e-05 -0.00012511545 -5.228479e-05
-0.00010151204 -4.0833685e-05 7.19103e-05 6.6359935e-05 3.178472e-05 1.41565615e-05 -4.731517e-05 -0.00024222732
-3.8053495e-05 -0.00026883362 0.00034157425 0.0004954346 4.198244e-05 -0.00011435764 1.8661342e-05 -0.00019910761
0.00012562663 5.0343926e-05 3.818588e-05 3.193033e-05 0.00020383604 0.00016603935 0.00024147933 0.00017710113
0.0001811495 -2.1861017e-05 0.000120942816 -6.910881e-05 3.6782894e-05 6.697795e-05 5.000778e-05 2.8595841e-05
5.2998872e-05 1.5636486e-05 -0.00014959813 -0.00036098922 -0.00016019789 6.8260415e-05 -9.822605e-05 7.2394265e-05
-6.306059e-05 -2.4673403e-05 9.4286435e-05 0.00017456803 0.0002322308 -0.000139504 -0.00043758616 0.000215031
0.0002068286 0.00040337606 0.0003465611 0.0006823654 -0.00031543346 -0.00029663157 -0.00037828417 -8.40082e-05
6.8799854e-05 -5.775355e-05 -0.00012209512 -1.2623003e-05 4.73221e-05 -5.447211e-05 -0.00010533303 -0.00013623155
9.471894e-05 0.00012561731 -3.3390716e-05 8.375092e-07 7.826135e-05 9.306302e-05 0.00012402135 7.023354e-05
0.00016435693 0.00012254911 0.0001502093 0.000107505875 0.00010976933 9.329147e-05 9.000991e-05 -1.8692675e-05
-0.00015724947 -0.000119694036 -0.00013175246 6.5670847e-06 -1.0671771e-05 -4.5212448e-05 8.994132e-05 5.8145706e-05
3.2587956e-05 -5.2277563e-05 -6.305472e-05 6.7344954e-05 5.552453e-05 2.2272045e-05 1.2548309e-05 4.3525997e-06
8.366432e-05 7.969576e-05 -8.521962e-05 -0.00010417065 -3.0503465e-05 -0.000209744 -0.00019213017 5.4103617e-05
-5.659115e-05 -1.9031446e-05 0.00017277813 0.00011553954 0.00033965328 0.00032693188 0.00028650407 -0.00017324513
0.00020136735 0.00019894603 2.9148807e-05 -7.286583e-05 -0.000121852776 -5.8357546e-05 2.562017e-05 -4.5114186e-05
2.3945595e-06 5.081156e-05 -8.167529e-06 -3.9776827e-05 3.0733707e-05 3.7199075e-05 5.029137e-05 -2.2838813e-06
-3.10312e-06 1.7800496e-05 7.377082e-07 -6.027444e-06 2.000602e-05 -1.779828e-05 -3.859735e-05 -1.844127e-05
-9.356274e-06 -8.433753e-05 -4.210525e-05 -6.6927336e-05 -8.87044e-05 -2.9646935e-05 6.952267e-05 4.50072e-05
0.00013939047 5.9473274e-05 3.7251644e-05 7.578734e-05 2.4088542e-05 2.7372485e-05 3.8140704e-05 -8.781767e-05
-8.8824716e-05 -6.279324e-05 1.9679608e-05 4.4349563e-06 4.5712666e-05 8.0711594e-05 2.981086e-05 1.0331969e-05
-7.095092e-05 -0.00010508841 -0.00014423224 -3.7569676e-05 -6.87048e-05 -9.49256e-05 3.6817477e-05 6.017631e-06
-1.0590539e-05 4.814954e-06 8.730952e-06 8.140831e-06 2.7924564e-06 -3.8634967e-06 -4.5036522e-06 -2.9214107e-06
-2.6645619e-06 -1.7456637e-06 4.6050718e-07 5.111977e-06 4.0211035e-06 5.9158265e-06 8.116788e-07 -8.383535e-06
5.4628617e-06 -5.3451313e-06 -7.5674684e-06 1.2908799e-06 2.6491589e-05 4.0252555e-05 -1.6970795e-06 1.1425526e-05
3.706842e-05 4.5997334e-05 3.8265003e-05 3.364081e-05 -5.2496456e-05 -7.71868e-05 -9.968078e-05 2.736446e-05

exp_avg_sq f4 [10]
00000000: 543a e836 f497 2d37 647f 8536 515b 8336
00000010: 23ea 2836 adf1 b337 f5bb d436 509d b037
00000020: 228f 0f36 8aa0 b336
6.920929e-06 1.0346983e-05 3.978539e-06 3.914735e-06 2.5170236e-06 2.1451002e-05 6.3399734e-06 2.105409e-05
2.1391975e-06 5.353305e-06

exp_avg f4 [10]
00000000: adcb 003a 2594 e139 b739 853a 91e7 b8b9
00000010: 3feb 18ba c281 c338 a9f8 aeb8 f682 7aba
00000020: e393 0839 16ed b139
0.00049131626 0.0004302572 0.0010164295 -0.00035267745 -0.0005833394 9.322494e-05 -8.343283e-05 -0.0009556258
0.00013025063 0.00033936714
