SuperGo-master/saved_models/1586432165/1-extractor.pth.tar (torch_old, 103299 bytes, 105 tensors)

conv1.weight f4 [10, 17, 3, 3]
0	0xbd60154e	-0.054707818
1	0x3c2cd318	0.010548376
2	0x3d17e986	0.03708794
3	0x3d8bdfee	0.068298206
4	0xbd5a02d2	-0.053225346
5	0x3ce1b79c	0.027553372
6	0xbbc68430	-0.0060582384
7	0x3d526eb0	0.05137509
8	0xbcde07b2	-0.027103279
9	0xbd18cd42	-0.037305124
10	0x3cb35638	0.021891698
11	0xbd980164	-0.0742214
12	0xbd896ea4	-0.06710556
13	0x3d127304	0.03575422
14	0x3cbd5b9c	0.023114972
15	0xbb0530c0	-0.0020323247
16	0xbd94be71	-0.07262886
17	0xbd8761ed	-0.06610475
18	0x3d8534ba	0.065041974
19	0xbd768ec1	-0.060194734
20	0x3d447548	0.04796341
21	0x3d7dc1d4	0.061952427
22	0xbd02f9e2	-0.031976588
23	0xbd0e701c	-0.034774885
24	0x3cb3587c	0.021892779
25	0xbcc33462	-0.023828689
26	0x3d3d1710	0.046164572
27	0xbc1f8090	-0.0097352415
28	0xbba8d210	-0.0051519945
29	0x3d10a992	0.035317965
30	0xbd9a1cca	-0.07525022
31	0xbd181a5b	-0.03713451
32	0x3d5c5560	0.053792357
33	0xbc0fdbf8	-0.008780472
34	0xbd4f5ecb	-0.05062751
35	0x3ca918b4	0.020641662
36	0x3d75d468	0.06001702
37	0xbd932e96	-0.0718662
38	0x3c8e60e0	0.017380178
39	0xbd11ccf0	-0.035595834
40	0xbd221f39	-0.039580557
41	0xbd4836f9	-0.04888055
42	0xbcde0984	-0.027104147
43	0x3cbe2f30	0.02321586
44	0x3c56bf98	0.013107203
45	0xbd99e791	-0.07514871
46	0xbd6c3086	-0.057663463
47	0xbd19b0ed	-0.037522245
48	0x3bf98150	0.007614292
49	0xbd3eb680	-0.046560764
50	0x3d46071c	0.048346624
51	0xbc8fca28	-0.01755245
52	0xbd0aa786	-0.03385117
53	0x3c8201b4	0.015869953
54	0x3d52f5d4	0.05150397
55	0x3d1fadac	0.038983986
56	0x3cfd1bb0	0.030896991
57	0xbc991902	-0.018688682
58	0x3cda50b8	0.026649818
59	0x3d1985b4	0.037481025
60	0xbc808818	-0.015689895
61	0x3d7de5e4	0.06198682
62	0x3d5a2fdc	0.0532683
63	0xbd64d187	-0.055863883
64	0xbd7e56cc	-0.062094495
65	0x3d12d670	0.035849035
66	0x3d949b10	0.07256138
67	0x3cc5eedc	0.024161749
68	0x39e32400	0.00043323636
69	0xbd37c950	-0.04486972
70	0x3d3ee8a0	0.046608567
71	0x3d9783ce	0.073981866
72	0xbda2c0aa	-0.07946904
73	0x3d8f6dc2	0.070033565
74	0xbc46af58	-0.012126766
75	0xbca6185a	-0.020275284
76	0xbd7ab198	-0.061204523
77	0xbd0625dd	-0.032750953
78	0xbd6e08a2	-0.0581137
79	0xbd961836	-0.073288366
80	0x3d28348a	0.04106573
81	0x3ce97b54	0.02850119
82	0x3d2501e0	0.04028499
83	0x3aa47980	0.0012548417
84	0xbc173450	-0.009228781
85	0x3c10fa80	0.008848786
86	0xbd61a93f	-0.055093046
87	0xbcdd0a0c	-0.02698233
88	0xbd8663e6	-0.06562023
89	0x3d6602e4	0.0561551
90	0xbd47c45d	-0.04877125
91	0x3d84bacc	0.06480941
92	0x3cf620bc	0.030044906
93	0x3d741104	0.05958654
94	0x3d292c18	0.041301817
95	0xbd77c2e8	-0.06048861
96	0x3d437fd0	0.047729313
97	0x3d3e2e58	0.046430916
98	0x3d57201c	0.052520856
99	0xbcfb9f0a	-0.030715484
100	0xbd449708	-0.047995597
101	0x3d900074	0.070313364
102	0x3ced34ac	0.02895578
103	0xbd812132	-0.0630516
104	0x3d41446c	0.047184393
105	0x3d99045e	0.07471536
106	0xbd057904	-0.032586113
107	0x3d651fd4	0.055938557
108	0xbd12d19d	-0.035844434
109	0xbcd36174	-0.025803305
110	0xbc459810	-0.01206018
111	0x3d07afa6	0.033126496
112	0x3d2211be	0.0395677
113	0xbd1af2b9	-0.037829135
114	0x3d9d3f20	0.07678056
115	0xbd25ca47	-0.04047611
116	0xbd3f018e	-0.046632342
117	0xbc83d024	-0.01609046
118	0xbd6dbd90	-0.05804211
119	0x3c1075a8	0.008817114
120	0xbceab2e2	-0.028649751
121	0x3da21818	0.07914752
122	0xbab636c0	-0.0013901815
123	0x3c252f38	0.010082059
124	0x3d30c2ec	0.043154642
125	0xbd19d1ab	-0.03755347
126	0x3d9beabe	0.07613133
127	0x3d3e6db4	0.04649134
128	0x3c99d304	0.018777378
129	0xbc5684f8	-0.013093226
130	0xbc0ad180	-0.0084728
131	0xbd43357c	-0.04765843
132	0xbc0cca48	-0.0085931495
133	0x3cf46be8	0.02983661
134	0xbd1c42cb	-0.038149636
135	0x3c1f00f8	0.009704821
136	0x3cc9167c	0.024546854
137	0xbd86d750	-0.06584036
138	0x3d4a1e88	0.049345523
139	0xbd86a699	-0.06574745
140	0xbcb72954	-0.022358574
141	0x3d3870dc	0.045029506
142	0x3c990f68	0.018684104
143	0xbcb89f14	-0.022536792
144	0x3d9a3f24	0.07531574
145	0xbcd66b98	-0.026174352
146	0xbcd266bc	-0.025683753
147	0xbced3566	-0.028956126
148	0xbcfc56a2	-0.030803028
149	0x3da013fe	0.07816313
150	0x3d46c4a0	0.04852736
151	0x3d760ddc	0.06007181
152	0xbd82e550	-0.06391394
153	0x3d87512e	0.06607281
154	0x3d9c7514	0.076395184
155	0x3d9e1778	0.0771932
156	0x378e5000	1.6964972e-05
157	0x3d88125e	0.06644128
158	0x3d6a2c3c	0.05717109
159	0xbd9ffd69	-0.07812006
160	0x38cd2400	9.781867e-05
161	0xbd9bb916	-0.07603662
162	0xbcc064c2	-0.023485545
163	0xbaa9ee80	-0.0012964755
164	0x3d6ffc6c	0.058590338
165	0x3d25e68c	0.04050307
166	0xbd59aed8	-0.05314526
167	0xbc3adce0	-0.0114052
168	0x3d9f586c	0.07780537
169	0x3d169fa6	0.036773346
170	0xbd90f7c1	-0.07078505
171	0xbd726da2	-0.059186585
172	0x3bac84a0	0.0052648336
173	0x3bc7afa0	0.006093934
174	0x3d0a1f88	0.033721477
175	0x3bbc1c20	0.0057406574
176	0x3d87f5f0	0.06638706
177	0x3c863560	0.016382873
178	0x3c10c858	0.008836828
179	0x3d8c3af4	0.06847182
180	0xbd4693c8	-0.04848078
181	0x3d876aa2	0.066121355
182	0x3d896022	0.06707789
183	0xbc9a8802	-0.018863682
184	0xbd380831	-0.044929687
185	0xbd2f2b26	-0.04276576
186	0xbd395b25	-0.045252938
187	0x3d8bbba8	0.06822902
188	0xbc5595c8	-0.013036199
189	0x3d8f3642	0.06992771
190	0xbd8552c5	-0.06509928
191	0xbc556280	-0.0130239725
192	0x3d455378	0.048175305
193	0x3d217420	0.039417386
194	0x3d10c430	0.03534335
195	0xbd7528ca	-0.059853353
196	0xbd633d21	-0.05547822
197	0x3d987c50	0.07445586
198	0xbd3599c1	-0.044336084
199	0xbc588070	-0.013214216
200	0xbd8ee085	-0.069764175
201	0xbcbe3374	-0.023217894
202	0xbc6ce820	-0.01445964
203	0xbcfd23c2	-0.03090084
204	0x3d742d4c	0.05961351
205	0xbd95b077	-0.073090486
206	0xbd75e142	-0.060029276
207	0xbceb6d64	-0.028738685
208	0x3d851532	0.06498183
209	0xbd61c192	-0.055116244
210	0xbd4df3a6	-0.05028119
211	0x3d6a2e00	0.057172775
212	0x3d4fd768	0.050742537
213	0xbc0e3b08	-0.008681066
214	0xbd3f945c	-0.046772346
215	0x3d465b84	0.04842712
216	0x3b9a98c0	0.0047179163
217	0xbc143ba8	-0.009047426
218	0xbd319e82	-0.043364055
219	0x3d4cb040	0.049972773
220	0xbbddc790	-0.0067681745
221	0x3d2bbf04	0.041930214
222	0x3d8f3cf0	0.06994045
223	0x3d96108e	0.07327376
224	0xbd31520f	-0.043291148
225	0xbc563e70	-0.01307641
226	0xbb0dd3c0	-0.0021641105
227	0x3d1e2886	0.038612865
228	0x3d07d63e	0.0331633
229	0xbd4bc369	-0.049746905
230	0x3d1a017a	0.037599064
231	0x3ce1b2a8	0.02755101
232	0x3cbe71f8	0.023247704
233	0x3d2f0b24	0.042735234
234	0xbd0940f2	-0.033509202
235	0x3d2a0dde	0.04151713
236	0xbd308aa7	-0.04310098
237	0xbd7c4ebe	-0.061598532
238	0x3d2b3dc0	0.041806936
239	0x3b95eb80	0.004575193
240	0xbd95d9e1	-0.07316948
241	0x3d3080e0	0.043091655
242	0x3d1b93f0	0.03798288
243	0x3d8c5d02	0.06853677
244	0xbda1e13d	-0.07904289
245	0x3c423e78	0.011855714
246	0x3d922d30	0.07137525
247	0xbd777322	-0.060412534
248	0xbd39db6a	-0.045375265
249	0x3bed6c10	0.007245548
250	0x3d6fa314	0.058505133
251	0x3c578c18	0.01315596
252	0xbceb77de	-0.02874368
253	0xbd5c6a28	-0.053812176
254	0x3d53de70	0.051725805
255	0xbceaa352	-0.02864233

bn1.weight f4 [10]
0	0x3f800000	1.0
1	0x3f800000	1.0
2	0x3f800000	1.0
3	0x3f800000	1.0
4	0x3f800000	1.0
5	0x3f800000	1.0
6	0x3f800000	1.0
7	0x3f800000	1.0
8	0x3f800000	1.0
9	0x3f800000	1.0

bn1.bias f4 [10]
0	0x00000000	0.0
1	0x00000000	0.0
2	0x00000000	0.0
3	0x00000000	0.0
4	0x00000000	0.0
5	0x00000000	0.0
6	0x00000000	0.0
7	0x00000000	0.0
8	0x00000000	0.0
9	0x00000000	0.0

bn1.running_mean f4 [10]
0	0x00000000	0.0
1	0x00000000	0.0
2	0x00000000	0.0
3	0x00000000	0.0
4	0x00000000	0.0
5	0x00000000	0.0
6	0x00000000	0.0
7	0x00000000	0.0
8	0x00000000	0.0
9	0x00000000	0.0

bn1.running_var f4 [10]
0	0x3f800000	1.0
1	0x3f800000	1.0
2	0x3f800000	1.0
3	0x3f800000	1.0
4	0x3f800000	1.0
5	0x3f800000	1.0
6	0x3f800000	1.0
7	0x3f800000	1.0
8	0x3f800000	1.0
9	0x3f800000	1.0

res0.conv1.weight f4 [10, 10, 3, 3]
0	0x3cb009b4	0.021489002
1	0xbcd75ea0	-0.026290238
2	0xbd37341f	-0.04472744
3	0x3cbddc04	0.0231762
4	0x3d33f546	0.043935083
5	0x3d1bc41e	0.03802883
6	0xbcd615e4	-0.026133485
7	0xbceb9bd4	-0.028760828
8	0x3dc30449	0.09522302
9	0xbd319234	-0.04335232
10	0xbdc9b1e7	-0.09848385
11	0xbc268e18	-0.010165714
12	0xbcf55cb8	-0.029951438
13	0x3d6099be	0.05483412
14	0xbd1b13de	-0.037860744
15	0xbc908084	-0.017639406
16	0x3dc77819	0.09739704
17	0xbc4891b0	-0.012241766
18	0x3c405cb0	0.011740848
19	0x3da2c99d	0.07948611
20	0xbd93c316	-0.07214944
21	0x3d993e43	0.074825786
22	0xbb7dd000	-0.0038728714
23	0x3d5773ca	0.05260066
24	0x3db14567	0.086558156
25	0xbd78d1a1	-0.060746793
26	0xbd26375c	-0.04058014
27	0x3dd5c13f	0.104372494
28	0x3c85ae70	0.01631853
29	0xbc946ae8	-0.018117383
30	0xbdc367d2	-0.095412865
31	0x3d7ffe4a	0.06249837
32	0xbd5134b8	-0.051075667
33	0x3d165be2	0.03670872
34	0x3d759c5a	0.05996356
35	0x3ca810dc	0.020515852
36	0xbdb7e185	-0.08978561
37	0x3b4f98e0	0.0031676814
38	0xbc8093a4	-0.0156954
39	0xbd8dd3f6	-0.06925194
40	0xbce6383c	-0.028102987
41	0xbdc82cc2	-0.09774162
42	0xbd5a8c20	-0.05335629
43	0x3c9a0124	0.018799372
44	0xbcc23d58	-0.023710892
45	0xbd299cbc	-0.04140924
46	0x3d55151a	0.052022077
47	0x3c763ac8	0.015028663
48	0xbcd572a8	-0.026055649
49	0x3d720a52	0.059091873
50	0xbd64ce25	-0.055860657
51	0xbd62dae7	-0.055384543
52	0x3d20b026	0.03923049
53	0x3dacf305	0.0844479
54	0xbd900230	-0.07031667
55	0x3d10c09e	0.035339944
56	0x3daf4ab1	0.08559168
57	0x3d174436	0.036930285
58	0xbc5a01a8	-0.013306059
59	0xbc7aad68	-0.015300132
60	0x3c8e0f7c	0.017341368
61	0xbcb11ecc	-0.02162113
62	0x3d3434ce	0.04399567
63	0x3dc5923b	0.09647032
64	0xbdd6e068	-0.10492021
65	0x3d31b94e	0.04338961
66	0x3dc9c05b	0.09851142
67	0xbdaaafab	-0.08334287
68	0x3ca3e6dc	0.020007543
69	0xbcce03b4	-0.02514825
70	0x3be003b0	0.006836377
71	0xbda50477	-0.08057492
72	0xbdcdfaec	-0.10057625
73	0x3dd68605	0.10474781
74	0x3dcca2e5	0.09992007
75	0xbd93bff5	-0.07214347
76	0x3da11f33	0.07867279
77	0x3d288bc2	0.04114891
78	0x3cd941cc	0.026520632
79	0xbd627cbe	-0.055294745
80	0xbd57c039	-0.052673552
81	0x3dc5500f	0.096344106
82	0x3d9d3dcb	0.07677802
83	0x3dd411ff	0.10354995
84	0xbd418ebb	-0.04725526
85	0x3dac61c3	0.08417084
86	0xbb9a9110	-0.004717
87	0xbcc41118	-0.023933932
88	0x3c3f5cc8	0.011679836
89	0x3dc94ec5	0.09829477
90	0x3d8cc743	0.06873944
91	0x3dae5a93	0.085133694
92	0x3cd8a834	0.026447393
93	0xbd72ebc2	-0.059306867
94	0x3d522b66	0.05131092
95	0x3d6ec052	0.05828888
96	0xbd55bb09	-0.052180324
97	0xbc5e3288	-0.013561852
98	0x3d50c382	0.0509677
99	0xbc8da958	-0.017292663
100	0x3dd529e3	0.1040838
101	0x3d20f65a	0.03929744
102	0xbc2dc0c0	-0.010605037
103	0xbd848776	-0.064711496
104	0x3d754f4a	0.05989007
105	0xbd50819d	-0.05090486
106	0x3d989463	0.074501775
107	0x3d9eadf3	0.07748022
108	0xbc14ce78	-0.009082429
109	0x3d9d81fd	0.07690809
110	0x3dccef05	0.10006527
111	0x3da14165	0.07873801
112	0x3dae7843	0.08519032
113	0x3ac0a840	0.001469858
114	0xbd3453ab	-0.044025104
115	0xbc8360f4	-0.016037442
116	0x3d18155a	0.037129737
117	0x3da59625	0.080852784
118	0xbd4dfb82	-0.050288685
119	0x3db7ac01	0.08968354
120	0x3d1363be	0.035983793
121	0xbdbaf100	-0.09127998
122	0xbbdff8a0	-0.0068350583
123	0x3c5c9d98	0.013465308
124	0xbd9e6bc8	-0.077354014
125	0xbc012678	-0.007882707
126	0xbd99a1dc	-0.07501575
127	0xbd56e1cc	-0.05246143
128	0xbbf52ed0	-0.007482387
129	0x3db3f2bf	0.087865345
130	0xbd8de7fe	-0.069290146
131	0xbd790aa1	-0.060801152
132	0xbc2ef5b8	-0.010678701
133	0xbdbc95bb	-0.09208246
134	0x3caf4bf4	0.021398522
135	0xbc547d98	-0.012969397
136	0x3dc8aae5	0.097982205
137	0x3c9baf9c	0.019004636
138	0x3d78e5be	0.060765974
139	0xbd9b1b1f	-0.07573532
140	0xbd87e75c	-0.06635925
141	0xbd1cf052	-0.038315125
142	0x3ca2e5a4	0.019884892
143	0xbda6ec2b	-0.08150514
144	0xbd91fcab	-0.07128271
145	0xbd5ac828	-0.05341354
146	0xbd645f12	-0.05575473
147	0xbbd5e390	-0.0065273717
148	0x3b97f620	0.0046374947
149	0xbdc817eb	-0.09770187
150	0xbda96c42	-0.08272602
151	0xbd8e277a	-0.06941123
152	0xbdb9e624	-0.09077099
153	0xbdac20c0	-0.08404684
154	0x3d77699a	0.060403444
155	0x3da6545d	0.0812156
156	0x3d8f3b9d	0.06993792
157	0x3d45ae16	0.048261724
158	0xbc777698	-0.015103959
159	0x3dab7d33	0.08373489
160	0x3dbc30e7	0.09189015
161	0x3dcf296f	0.10115325
162	0x3d93b94d	0.07213078
163	0x3db56337	0.08856814
164	0x3da90bbb	0.082541905
165	0x3d2d5c52	0.04232437
166	0x3cde48cc	0.027134322
167	0xbdd0b0d0	-0.10189974
168	0xbd6bf892	-0.057610102
169	0x3dbcad5f	0.092127554
170	0x3d9a9f39	0.075499006
171	0xbdd1971c	-0.102339
172	0xbdaa7531	-0.08323134
173	0xbce8343c	-0.02834522
174	0xbdc2d0a7	-0.095124535
175	0xbcf77784	-0.030208357
176	0x3dd0a521	0.10187746
177	0x3d7bc4d2	0.061467
178	0xbcef428c	-0.029206537
179	0xbc4b2038	-0.012397818
180	0x3d8cfb71	0.06883896
181	0xbc771f98	-0.015083216
182	0x3d20ff36	0.039305888
183	0x3d0a62a6	0.033785485
184	0xbdd62878	-0.104569376
185	0xbd0e7550	-0.034779847
186	0xbd6c2fc7	-0.05766275
187	0x3dbc88e3	0.092057966
188	0xbccfa720	-0.025348246
189	0x3c9fc808	0.019504562
190	0xbdb5e3d4	-0.088813454
191	0x3d92ccaf	0.071679465
192	0xbd78a8c5	-0.060707826
193	0x3d1322c2	0.03592182
194	0xbd09bcd8	-0.03362736
195	0x3cbd22d4	0.023087896
196	0xbd397cc0	-0.045284986
197	0xbdd1a659	-0.102368064
198	0xbcfa7738	-0.030574426
199	0xbd56b647	-0.052419927
200	0xbdaf0d02	-0.08547403
201	0xbd997a3f	-0.0749402
202	0xbd56b7fa	-0.052421547
203	0xbd3bebff	-0.04587936
204	0xbda69412	-0.08133711
205	0xbcd0a450	-0.025468975
206	0x3b5b85e0	0.0033496544
207	0xbd99f7b8	-0.07517952
208	0x3d8e31d5	0.069430985
209	0xbd60adda	-0.054853298
210	0x3c36ae48	0.01114995
211	0xbdc5f5d2	-0.09666027
212	0xbdd643fb	-0.10462185
213	0xbdc7d203	-0.097568534
214	0x3db35681	0.08756734
215	0x3dc987b1	0.09840334
216	0xbdad2ef5	-0.08456222
217	0xbc5dcc88	-0.013537534
218	0x3d4b3c62	0.049618132
219	0xbcd426b4	-0.025897361
220	0xbda6852c	-0.08130869
221	0xbd2865d4	-0.041112736
222	0xbdc304c5	-0.09522394
223	0xbd69d09f	-0.057083722
224	0xbdc2a050	-0.095032334
225	0x3d0d7186	0.034532093
226	0xbd10bb5a	-0.035334922
227	0xbbd987a0	-0.006638482
228	0x3d20d7c6	0.039268278
229	0x3d233dee	0.039853983
230	0xbd9d5805	-0.07682804
231	0xbd74f8a5	-0.05980744
232	0x3d8ecd61	0.06972767
233	0xbdb4b262	-0.08823086
234	0xbdab2f4b	-0.0835863
235	0xbd24b266	-0.040209197
236	0x3d9cf599	0.076640315
237	0x3dbeb103	0.09311106
238	0xbdcf3f50	-0.10119498
239	0xbda98f0d	-0.08279238
240	0x3c19c0c0	0.009384334
241	0x3d6916d6	0.056906544
242	0x3d5a58aa	0.053307213
243	0xbd969a09	-0.073535986
244	0xbd38cc41	-0.045116667
245	0x3ba9be20	0.0051801354
246	0xbdb9d606	-0.09074025
247	0x3c5c5f78	0.013450496
248	0xbbcc2420	-0.0062298924
249	0xbd57600d	-0.052581836
250	0xbd1c004c	-0.03808622
251	0xbd0bc0e4	-0.0341195
252	0x3c005bf8	0.007834427
253	0x3d246e5a	0.040144302
254	0x3d95c6ff	0.07313346
255	0xbd890a80	-0.06691456

res0.bn1.weight f4 [10]
0	0x3f800000	1.0
1	0x3f800000	1.0
2	0x3f800000	1.0
3	0x3f800000	1.0
4	0x3f800000	1.0
5	0x3f800000	1.0
6	0x3f800000	1.0
7	0x3f800000	1.0
8	0x3f800000	1.0
9	0x3f800000	1.0

res0.bn1.bias f4 [10]
0	0x00000000	0.0
1	0x00000000	0.0
2	0x00000000	0.0
3	0x00000000	0.0
4	0x00000000	0.0
5	0x00000000	0.0
6	0x00000000	0.0
7	0x00000000	0.0
8	0x00000000	0.0
9	0x00000000	0.0

res0.bn1.running_mean f4 [10]
0	0x00000000	0.0
1	0x00000000	0.0
2	0x00000000	0.0
3	0x00000000	0.0
4	0x00000000	0.0
5	0x00000000	0.0
6	0x00000000	0.0
7	0x00000000	0.0
8	0x00000000	0.0
9	0x00000000	0.0

res0.bn1.running_var f4 [10]
0	0x3f800000	1.0
1	0x3f800000	1.0
2	0x3f800000	1.0
3	0x3f800000	1.0
4	0x3f800000	1.0
5	0x3f800000	1.0
6	0x3f800000	1.0
7	0x3f800000	1.0
8	0x3f800000	1.0
9	0x3f800000	1.0

res0.conv2.weight f4 [10, 10, 3, 3]
0	0xbd3720f0	-0.044709146
1	0x3dc47e6f	0.09594428
2	0xbcefd018	-0.029274032
3	0xbdb38bd5	-0.08766905
4	0xbdc4d944	-0.09611753
5	0x3dc73e87	0.09728723
6	0xbd8ca59e	-0.068675265
7	0xbd9ef272	-0.077610865
8	0x3ca1f7fc	0.019771568
9	0x3c5966c8	0.013269134
10	0xbd468f26	-0.04847636
11	0x3d969d1f	0.07354187
12	0x3db495f7	0.08817666
13	0x3dc77271	0.09738625
14	0xbd92f26a	-0.07175143
15	0x3d2ec116	0.04266461
16	0x3c8a870c	0.016910098
17	0x3cad4c44	0.02115453
18	0xbd6cbec4	-0.057799116
19	0x3d5ca19e	0.053865068
20	0xbdd4cbb4	-0.10390416
21	0x3d17bdc6	0.037046216
22	0x3ccc6d74	0.024954535
23	0x3c0da188	0.008644469
24	0xbcaa37f8	-0.020778641
25	0x3dc0575d	0.09391663
26	0xbd857dbc	-0.065181226
27	0xbdc9b455	-0.09848849
28	0xbd0a9132	-0.033829875
29	0xbc8f2824	-0.017475195
30	0x3dd33d7f	0.10314464
31	0xbd3f8cbe	-0.04676508
32	0x3d2b082a	0.041755833
33	0xbd5989a6	-0.053109787
34	0xbdc89b53	-0.09795251
35	0xbd9305f6	-0.07178871
36	0xbc0c5a88	-0.008566506
37	0x3cf59664	0.029978938
38	0x3dd1d911	0.1024648
39	0xbd6fd4b4	-0.05855246
40	0xbd3a4b64	-0.045482054
41	0xbd2105f4	-0.039312318
42	0xbcb38d74	-0.021918036
43	0x3caaf76c	0.020869933
44	0xbd9bec64	-0.07613447
45	0x3cb0223c	0.0215007
46	0x3da1bf39	0.07897801
47	0xbdcda09b	-0.10040399
48	0x3cf8a6dc	0.030353002
49	0x3dbeb619	0.09312076
50	0x3d9b9081	0.07595921
51	0xbd594d17	-0.053052034
52	0x3d84fb09	0.06493194
53	0x3d722432	0.05911655
54	0xbd500bad	-0.050792385
55	0x3da6524d	0.081211664
56	0xbd806438	-0.06269115
57	0x3cc9c81c	0.024631552
58	0x3d79d186	0.060990833
59	0xbdcd3188	-0.10019213
60	0x3d3522e2	0.04422272
61	0x3dbae05d	0.09124825
62	0x3bb1d640	0.005427152
63	0xbd1dbeca	-0.03851203
64	0xbb417de0	-0.002952449
65	0xbd34d9e5	-0.044153113
66	0xbda34933	-0.07972946
67	0xbdac7fd8	-0.08422822
68	0x3d9d9fef	0.076965205
69	0xbdb510c6	-0.0884109
70	0xbd3df07d	-0.046371926
71	0x3c421270	0.011845216
72	0xbd958689	-0.07301051
73	0xbd865c4b	-0.06560572
74	0xbd0ddd1a	-0.034634687
75	0xbc91e43c	-0.017809026
76	0x3dc3ce9b	0.09560891
77	0x3dac12c5	0.084020175
78	0x3c6a3400	0.014294624
79	0xbdbe487c	-0.09291169
80	0xbd155a8c	-0.036463305
81	0xbc08b080	-0.008342862
82	0x3c909560	0.017649353
83	0x3d2bdaa6	0.041956566
84	0xbdcc58b6	-0.09977858
85	0xbcc91e68	-0.024550632
86	0xbda0533a	-0.07828374
87	0xbcee9010	-0.029121429
88	0xbda892fa	-0.082311586
89	0x3b131380	0.0022442043
90	0x3c9459e8	0.018109277
91	0xbd2a3116	-0.04155072
92	0xbdd5297a	-0.10408302
93	0x3d17b0ba	0.037033774
94	0xbc81fbe4	-0.015867181
95	0xbd968370	-0.073492885
96	0x3d4eaaea	0.050455965
97	0x3d4bd96a	0.04976789
98	0xbdd2f665	-0.10300902
99	0xbd6c4ad1	-0.057688538
100	0xbc8e8750	-0.017398506
101	0xbdb2a04c	-0.087219805
102	0x3dac2f63	0.08407476
103	0x3dcc527d	0.09976671
104	0xbd010372	-0.031497426
105	0xbda423ff	-0.08014678
106	0x3d34e1f6	0.044160806
107	0xbdb7d541	-0.08976222
108	0x3dcfbde3	0.1014364
109	0x3dc5b887	0.096543364
110	0xbdc6ca16	-0.097065136
111	0x3d9723d1	0.07379878
112	0x3d8c40e1	0.06848312
113	0x3d89b4c3	0.06723931
114	0x3db64943	0.08900692
115	0x3dc1f7db	0.09471103
116	0xbdc0533e	-0.09390877
117	0xbd09c394	-0.033633783
118	0xbd4aa7ca	-0.049476422
119	0xbca1dbe0	-0.019758165
120	0xbdc445ff	-0.09583663
121	0xbd781454	-0.06056626
122	0xbd0a65a6	-0.033788346
123	0x3d7cccfe	0.061718933
124	0xbdd1e841	-0.10249377
125	0xbdd1c650	-0.10242903
126	0xbcc81eb8	-0.02442871
127	0x3d9e73a5	0.07736901
128	0x3cb5385c	0.0221216
129	0x3d2822d6	0.041048847
130	0x3dbbb4ff	0.09165382
131	0x3dd15659	0.10221548
132	0x3d8743f7	0.0660476
133	0xbcb08710	-0.021548778
134	0x3d806d9b	0.062709056
135	0xbc562ac8	-0.013071723
136	0x3ca1a6a4	0.01973278
137	0x3d88f065	0.066864766
138	0x3d96d32b	0.07364496
139	0x3dcb3f3f	0.099241726
140	0x3d1b49c6	0.037912153
141	0x3daa12eb	0.083043896
142	0xbc92bb30	-0.017911524
143	0x3cce1aec	0.025159322
144	0xbd8cbc9d	-0.06871913
145	0xbd01cae6	-0.03168764
146	0x3d9e1f2b	0.077207886
147	0xbdb4724f	-0.08810865
148	0xbdce5115	-0.10074059
149	0x38abb800	8.188188e-05
150	0x3d897fcf	0.06713831
151	0x3d7eec56	0.062237106
152	0x3dbf660d	0.093456365
153	0x3d577596	0.052602373
154	0x3d0c2e46	0.034223817
155	0xbd3f3f0e	-0.046690993
156	0x3d9b27c9	0.07575948
157	0xbd8501b2	-0.06494464
158	0xbd1399b4	-0.036035255
159	0xbd1a2e2a	-0.03764168
160	0x3cf3c25c	0.029755764
161	0x3dd0f7a5	0.102034844
162	0x3dcbc20f	0.09949123
163	0xbd4ef844	-0.050529733
164	0xbd63ccf6	-0.055615388
165	0xbd90f1f4	-0.07077399
166	0x3cb5070c	0.022098087
167	0x3b49bb00	0.0030781627
168	0x3cd046c4	0.025424369
169	0x3d7f42a2	0.062319405
170	0xbdbaf42f	-0.091286056
171	0xbc291778	-0.010320537
172	0xbd0d104e	-0.034439377
173	0xbd8c232c	-0.06842646
174	0x3d2b229a	0.041781045
175	0x3c37a820	0.011209518
176	0xbd1adc2c	-0.03780763
177	0xbc45e038	-0.012077384
178	0x3db87e1b	0.09008428
179	0x3dcd27bb	0.100173436
180	0xbd58c5f8	-0.052923173
181	0x3dd34efb	0.10317799
182	0xbd609bcd	-0.054836083
183	0xbcb95a00	-0.022625923
184	0x3daefdcf	0.08544504
185	0x3d19b3a6	0.03752484
186	0xbd9c1e5c	-0.07622978
187	0x3d009d16	0.03139981
188	0x3cca02cc	0.024659537
189	0xbda4c8fa	-0.08046146
190	0x3daddb15	0.08489052
191	0x3cfce244	0.03086961
192	0xbd090998	-0.033456415
193	0x3d6f0dca	0.05836276
194	0x3d9c636f	0.07636153
195	0x3da5dfc7	0.08099323
196	0xbcaab914	-0.020840205
197	0x3d58e73e	0.052954905
198	0x3d89279f	0.0669701
199	0xbba73ef0	-0.0051039383
200	0xbcecc2ac	-0.02890142
201	0x3cea7614	0.028620757
202	0xb9857300	-0.00025453418
203	0xbd90fff6	-0.07080071
204	0xbd1b4b76	-0.037913762
205	0xbd8a5c70	-0.06755912
206	0x3d266876	0.040626965
207	0x3d18db7e	0.0373187
208	0x3c813ec0	0.015776992
209	0x3c9a41dc	0.018830232
210	0xbd0c6224	-0.03427328
211	0xbd134a80	-0.03595972
212	0x3da5210b	0.08062943
213	0x3cf485ac	0.029848896
214	0xbd114638	-0.035467356
215	0x3db5c9e9	0.08876402
216	0xbd9eccbe	-0.07753895
217	0x3d37098a	0.04468683
218	0x3da03545	0.0782266
219	0x3dc950d1	0.09829868
220	0xbcf73630	-0.030177206
221	0xbd32fe39	-0.043699477
222	0x3d9daec7	0.07699352
223	0x3d93e713	0.07221808
224	0xbd987ce4	-0.07445696
225	0xbda063ca	-0.07831533
226	0xbdcde719	-0.10053844
227	0x3db376b1	0.08762873
228	0xbda4cec4	-0.0804725
229	0xbd3f3b39	-0.04668734
230	0xbd2b238e	-0.041781954
231	0xbdb7faf0	-0.089834094
232	0x3c4b4360	0.0124062
233	0x3cf881b4	0.030335285
234	0x3dc2000b	0.094726644
235	0xbdceb907	-0.10093885
236	0xbdce94f8	-0.10087007
237	0x3c832380	0.016008139
238	0x3dc56885	0.09639076
239	0x3d276c8e	0.04087501
240	0x3dbb44ff	0.09144019
241	0xbc057fe8	-0.008148171
242	0x3d49a916	0.04923352
243	0x3cec0d54	0.02881495
244	0x3d71b08e	0.059006266
245	0x3d09181a	0.03347025
246	0x3db83c11	0.08995832
247	0x3c3d44e8	0.011552073
248	0x3d695406	0.056964897
249	0xbd01f0b0	-0.031723678
250	0x3d3c0142	0.045899637
251	0x3dce3079	0.10067839
252	0xbdab3a54	-0.083607346
253	0xbd2e633c	-0.042575106
254	0xbd859fa0	-0.06524587
255	0xbd9ae1db	-0.0756261

res0.bn2.weight f4 [10]
0	0x3f800000	1.0
1	0x3f800000	1.0
2	0x3f800000	1.0
3	0x3f800000	1.0
4	0x3f800000	1.0
5	0x3f800000	1.0
6	0x3f800000	1.0
7	0x3f800000	1.0
8	0x3f800000	1.0
9	0x3f800000	1.0

res0.bn2.bias f4 [10]
0	0x00000000	0.0
1	0x00000000	0.0
2	0x00000000	0.0
3	0x00000000	0.0
4	0x00000000	0.0
5	0x00000000	0.0
6	0x00000000	0.0
7	0x00000000	0.0
8	0x00000000	0.0
9	0x00000000	0.0

res0.bn2.running_mean f4 [10]
0	0x00000000	0.0
1	0x00000000	0.0
2	0x00000000	0.0
3	0x00000000	0.0
4	0x00000000	0.0
5	0x00000000	0.0
6	0x00000000	0.0
7	0x00000000	0.0
8	0x00000000	0.0
9	0x00000000	0.0

res0.bn2.running_var f4 [10]
0	0x3f800000	1.0
1	0x3f800000	1.0
2	0x3f800000	1.0
3	0x3f800000	1.0
4	0x3f800000	1.0
5	0x3f800000	1.0
6	0x3f800000	1.0
7	0x3f800000	1.0
8	0x3f800000	1.0
9	0x3f800000	1.0

res1.conv1.weight f4 [10, 10, 3, 3]
0	0xbd1ef99e	-0.038812272
1	0xbdcc78b5	-0.099839605
2	0xbc81734c	-0.015802048
3	0x3c9b7278	0.018975481
4	0xbdb351f3	-0.08755865
5	0xbd8236f8	-0.06358141
6	0xbdd547c0	-0.10414076
7	0xbdcffc30	-0.10155523
8	0xbc99988c	-0.018749498
9	0x3dd2dc4d	0.10295925
10	0xbb4612c0	-0.0030223578
11	0xbd8467ae	-0.06465088
12	0x3cc4b76c	0.024013244
13	0xbd0084c2	-0.031376608
14	0xbd76f8ec	-0.060295984
15	0xbd818316	-0.06323831
16	0xbd0d2892	-0.03446252
17	0x3b85f430	0.0040879473
18	0xbd6c4b47	-0.057688978
19	0x3cd5f224	0.026116438
20	0x3da89c59	0.08232946
21	0x3db10921	0.08644319
22	0xbd7daa34	-0.061929896
23	0x3db09d59	0.08623762
24	0xbd988f6c	-0.074492306
25	0x3db8cb43	0.09023144
26	0x3db12dcf	0.086513154
27	0x3d0f35e2	0.034963496
28	0x3b50b420	0.0031845644
29	0x3dc97665	0.09837035
30	0xbd455e59	-0.04818568
31	0x3db28235	0.08716241
32	0x3d91e97b	0.07124611
33	0xbc962188	-0.018326536
34	0xbc6c7118	-0.0144312605
35	0x3c5a99a0	0.013342291
36	0xb894a800	-7.0884824e-05
37	0x3d958585	0.073008575
38	0x3d90aeeb	0.07064613
39	0xbd76dd0a	-0.060269393
40	0x3da90069	0.08252031
41	0x3dc54e5d	0.09634087
42	0x3cbc9ddc	0.023024492
43	0x3dba7911	0.09105123
44	0xbd68e785	-0.05686142
45	0xbd93c4bc	-0.072152585
46	0x3d933f43	0.071898006
47	0xbc5918d0	-0.013250545
48	0xbd8a6fee	-0.0675963
49	0xbd2b381e	-0.041801564
50	0x3c479020	0.012180358
51	0xbd73d882	-0.05953265
52	0x3d999345	0.074987926
53	0x3b5f1800	0.0034041405
54	0xbd6c59b4	-0.057702735
55	0x3dc2b76b	0.095076405
56	0xbd788ea7	-0.06068292
57	0xbd406110	-0.046967566
58	0x3dac9325	0.08426503
59	0x3c8a5a7c	0.01688885
60	0x3d3bac52	0.045818634
61	0x3da868d3	0.08223119
62	0xbdb8b227	-0.09018355
63	0xbd683b1c	-0.056696996
64	0x3da4a793	0.08039775
65	0xbc098b98	-0.008395098
66	0xbb3698a0	-0.0027861968
67	0x3daeaaa3	0.0852864
68	0xbd80cad2	-0.06288685
69	0xbc8a3d0c	-0.016874813
70	0x3dc12c2b	0.094322525
71	0xbc922ad0	-0.01784268
72	0xbdb08f22	-0.086210504
73	0xbc0893a0	-0.008335978
74	0x3d31375e	0.043265693
75	0xbd951e28	-0.072811425
76	0x3d00430e	0.03131395
77	0x3c6ffbc8	0.014647432
78	0xbd15be04	-0.036558166
79	0xbd3fdf2f	-0.046843704
80	0xbd15ae5c	-0.036543235
81	0x3cc8ae94	0.024497308
82	0xbdbd481f	-0.09242272
83	0x3d18cece	0.0373066
84	0x3d0eb4b2	0.034840293
85	0x3acb0580	0.001548931
86	0x3d3a2052	0.04544098
87	0xbc84ef7c	-0.016227476
88	0xbd25a400	-0.040439606
89	0x3d5dcb3a	0.05414889
90	0x3db2fbb3	0.08739414
91	0xbc014690	-0.007890359
92	0xbd985a68	-0.074391186
93	0x3d7564be	0.05991053
94	0x3d5716f6	0.05251213
95	0xbd1c63a0	-0.038180947
96	0x3dac88b9	0.08424515
97	0xbdb6f737	-0.08933871
98	0x3db5761d	0.08860419
99	0xbcaf2c44	-0.021383412
100	0x3da398b5	0.07988111
101	0xbd0ec4ce	-0.034855656
102	0x3d759c0e	0.05996328
103	0xbd838093	-0.06421008
104	0xbdb707d2	-0.089370385
105	0x3d0e6b76	0.03477045
106	0xbd8e1188	-0.069369376
107	0xbd897d84	-0.06713393
108	0x3dae17fb	0.08500668
109	0x3d031d9e	0.032010667
110	0x3d305eae	0.043059044
111	0x3c4096e8	0.011754729
112	0x3dd72c13	0.10506453
113	0xbd2de3f0	-0.042453706
114	0x3d560eaa	0.05226008
115	0x3c82b07c	0.015953295
116	0xbd693e61	-0.056944255
117	0xbdc95b59	-0.09831876
118	0xbc8ae960	-0.016956985
119	0x3d9021c5	0.07037691
120	0x3becf3e0	0.0072312206
121	0xbbea7dc0	-0.007156104
122	0xbd050782	-0.032477863
123	0x3c3cd4b0	0.011525318
124	0xbc315cb8	-0.0108253285
125	0xbda72a79	-0.08162398
126	0xbb7c6fe0	-0.003851883
127	0xbd789917	-0.060692873
128	0xbd941d2c	-0.072321266
129	0x3c16a148	0.009193726
130	0xbdc2fb91	-0.09520639
131	0x3c7c0088	0.015380986
132	0xbc14f7f8	-0.0090923235
133	0x3bfc4220	0.0076983124
134	0x3d830493	0.06397357
135	0x3ce77d14	0.028257884
136	0xbd9eb846	-0.07749991
137	0xbd88155d	-0.066447
138	0x3b3fc5c0	0.0029262155
139	0x3d8db2e1	0.06918884
140	0xbca68ed0	-0.02033177
141	0x3ce90ff4	0.02844999
142	0xbdb762bf	-0.08954381
143	0x3cc70ad4	0.024297155
144	0xbd8d8bef	-0.06911456
145	0x3da21797	0.07914656
146	0xbd8ea97b	-0.069659196
147	0xbd72e726	-0.05930247
148	0xbd7c7680	-0.061636448
149	0x3d7684fa	0.06018541
150	0xbca2f03c	-0.019889943
151	0x3da5ea0d	0.08101282
152	0x3d97a989	0.07405383
153	0x3db843b9	0.08997292
154	0x3d0caca6	0.034344338
155	0xbd9397e2	-0.07206704
156	0x3be5a220	0.007007852
157	0x3d6acdd2	0.05732519
158	0x3d82323d	0.063572384
159	0xbd398d78	-0.04530093
160	0xbdb58a8e	-0.08864318
161	0x3c51c078	0.012802236
162	0xbc393b18	-0.011305593
163	0x3d9bcf87	0.07607942
164	0xbb52b940	-0.0032153875
165	0x3dbc8ad1	0.09206165
166	0xbdc9caaa	-0.09853108
167	0x3c870cc4	0.01648558
168	0xbd81da8a	-0.06340511
169	0x3dc93a29	0.09825546
170	0x3c66bc68	0.0140830055
171	0xbcf49dc4	-0.029860385
172	0x3d3e5a7a	0.046473004
173	0xbcdcbf9c	-0.026946835
174	0x3d57e16e	0.05270522
175	0xbce14484	-0.027498491
176	0x3d71e6b6	0.059057914
177	0xbc9a1a3c	-0.018811338
178	0x3d589f36	0.05288621
179	0x3d8ab789	0.06773288
180	0xbdd50dba	-0.10403009
181	0xbdd5bc38	-0.104362905
182	0xbab2cc80	-0.0013641268
183	0x3dad72ad	0.08469138
184	0x3d13d80e	0.036094718
185	0xbd8ef82e	-0.0698093
186	0xbdb60d3f	-0.08889245
187	0x3b94b950	0.0045386925
188	0x3d5d81fe	0.05407905
189	0x3b4cbe60	0.0031241402
190	0x3d0a9d32	0.03384132
191	0x3da16fa3	0.07882621
192	0x3d85af61	0.065275915
193	0x3d0bb8ba	0.034111716
194	0x3d95e745	0.07319502
195	0xbd5f49cb	-0.054513734
196	0xbcb83ad0	-0.022488981
197	0xbdcf3800	-0.10118103
198	0x3cc5d98c	0.024151586
199	0xbb5c04a0	-0.0033572093
200	0x3d5fec6a	0.05466882
201	0x3c195b00	0.009360075
202	0xbd422786	-0.047400974
203	0xbcde3988	-0.027127042
204	0x3cb1bfac	0.021697842
205	0x3d50b316	0.05095204
206	0xbd17db72	-0.037074514
207	0xbc40c6a0	-0.011766106
208	0x3db74eb1	0.08950556
209	0x3c86cfd4	0.016456522
210	0x3dd7a50d	0.10529528
211	0xbca7890c	-0.020451091
212	0x3db0d665	0.086346425
213	0x3dd242c9	0.102666445
214	0xbd9983ac	-0.074958175
215	0x3c6ebd70	0.014571533
216	0x3d92a2eb	0.071599804
217	0xbd2986fe	-0.041388504
218	0xbd98e5df	-0.074657194
219	0x3dd6fe99	0.104977794
220	0xbd9127f8	-0.070877016
221	0xbce16aa4	-0.02751667
222	0xbd851e2c	-0.064998955
223	0xbd05d3b8	-0.032672614
224	0x3c7586d0	0.014985755
225	0x3d166d06	0.036725067
226	0xbdcc6543	-0.09980252
227	0xbd910d2e	-0.07082592
228	0xbd23772c	-0.039908573
229	0xbda93935	-0.082628645
230	0xbd7dce55	-0.06196435
231	0x3da132d1	0.078710206
232	0xbdc34cf1	-0.0953616
233	0xbdbd165d	-0.09232781
234	0x3d20853a	0.039189555
235	0x3dadff05	0.08495907
236	0xbc818b54	-0.015813507
237	0xbc9b0c40	-0.01892674
238	0x3cbed09c	0.023292832
239	0xbd3215f0	-0.043477952
240	0xbdc5f8e9	-0.096666165
241	0xbd3a14ef	-0.04543012
242	0xbca8b7d0	-0.020595461
243	0xbd73998d	-0.05947261
244	0xbd9cb2ff	-0.07651328
245	0xbd61ab1c	-0.055094823
246	0x3d800b73	0.06252184
247	0xbd370e0f	-0.04469114
248	0xbd913f6b	-0.07092174
249	0xbd2f5436	-0.04280492
250	0x3a457000	0.0007531643
251	0xbce22e24	-0.027609892
252	0xbd9cfe67	-0.07665711
253	0x3d7f1fd6	0.06228622
254	0x3d9ccadf	0.07655882
255	0x3da92a91	0.08260072

res1.bn1.weight f4 [10]
0	0x3f800000	1.0
1	0x3f800000	1.0
2	0x3f800000	1.0
3	0x3f800000	1.0
4	0x3f800000	1.0
5	0x3f800000	1.0
6	0x3f800000	1.0
7	0x3f800000	1.0
8	0x3f800000	1.0
9	0x3f800000	1.0

res1.bn1.bias f4 [10]
0	0x00000000	0.0
1	0x00000000	0.0
2	0x00000000	0.0
3	0x00000000	0.0
4	0x00000000	0.0
5	0x00000000	0.0
6	0x00000000	0.0
7	0x00000000	0.0
8	0x00000000	0.0
9	0x00000000	0.0

res1.bn1.running_mean f4 [10]
0	0x00000000	0.0
1	0x00000000	0.0
2	0x00000000	0.0
3	0x00000000	0.0
4	0x00000000	0.0
5	0x00000000	0.0
6	0x00000000	0.0
7	0x00000000	0.0
8	0x00000000	0.0
9	0x00000000	0.0

res1.bn1.running_var f4 [10]
0	0x3f800000	1.0
1	0x3f800000	1.0
2	0x3f800000	1.0
3	0x3f800000	1.0
4	0x3f800000	1.0
5	0x3f800000	1.0
6	0x3f800000	1.0
7	0x3f800000	1.0
8	0x3f800000	1.0
9	0x3f800000	1.0

res1.conv2.weight f4 [10, 10, 3, 3]
0	0xbd36f8ac	-0.044670746
1	0xbbac46f0	-0.00525748
2	0x3d3e077e	0.046393864
3	0xbda5fa01	-0.08104325
4	0xbd248590	-0.040166438
5	0x3d4c0252	0.0498069
6	0x3d8c8003	0.06860354
7	0xbd540d08	-0.05177024
8	0x3d08df8e	0.033416323
9	0x3c93d87c	0.018047564
10	0xbd01a626	-0.031652592
11	0x3d3c2a22	0.04593862
12	0x3d8c1691	0.06840242
13	0xbaa0c480	-0.0012265593
14	0x3d91526b	0.07095798
15	0xbc4e8a08	-0.012606151
16	0x3d5c4062	0.053772338
17	0xbc892990	-0.016743451
18	0xbd1d66f4	-0.038428262
19	0xbbd44f50	-0.0064791813
20	0x3cfcf65c	0.030879192
21	0xbc478b70	-0.012179241
22	0xbdb6e2c8	-0.08929974
23	0xbd1a5cc2	-0.037686117
24	0x3dae12cd	0.0849968
25	0x3d9e7cbd	0.07738636
26	0xbd93fa34	-0.07225457
27	0x3dcbf6cb	0.099591814
28	0x3d08a716	0.03336247
29	0x3d09f95a	0.033685066
30	0x3d67f1e6	0.056627177
31	0xbcd2eef4	-0.025748707
32	0xbdbc46b0	-0.0919317
33	0x3d7bf77e	0.061515324
34	0xbd733835	-0.059379775
35	0xbdb6f0f4	-0.08932677
36	0xbd46a148	-0.048493654
37	0xbd45b079	-0.048264
38	0x3dd1b8c1	0.10240317
39	0x3d498016	0.049194418
40	0xbdc10396	-0.09424512
41	0x3d718fce	0.058975033
42	0xbdd19daf	-0.10235154
43	0x3c67a140	0.014137566
44	0x3d8626fd	0.06550405
45	0x3d8d0a3d	0.068867184
46	0x3dc909c3	0.09816315
47	0xbd50136f	-0.050799783
48	0xbca182f0	-0.019715756
49	0xbdc13eda	-0.09435816
50	0xbd3b22d9	-0.04568753
51	0xbd6d8085	-0.057983894
52	0x3cadecf4	0.021231152
53	0x3d1ab18a	0.03776697
54	0xbd98601b	-0.07440206
55	0xbc687e88	-0.014190324
56	0xbce9ae70	-0.028525561
57	0xbb4687e0	-0.003029339
58	0xbcf81758	-0.030284569
59	0x3c7c9618	0.0154166445
60	0x3c24a0d8	0.010048114
61	0xbd1f2c8c	-0.038860843
62	0xbc3b21c8	-0.011421628
63	0x3d7ee432	0.062229343
64	0xbda3db62	-0.08000828
65	0xbc8884ac	-0.016664825
66	0xbc955470	-0.01822874
67	0x3d9251e9	0.07144529
68	0x3b202900	0.00244385
69	0x3c91be58	0.017790958
70	0xbd01ba30	-0.031671703
71	0xbd181c98	-0.037136644
72	0xbdb3d226	-0.08780317
73	0x3d04594a	0.032311715
74	0x3d9a5bb7	0.075370245
75	0x3d9c1671	0.07621468
76	0x3cfa7c04	0.030576713
77	0xbdc5cd05	-0.09658245
78	0x3c555ed0	0.013023093
79	0x3cf9f0d4	0.030510344
80	0x3da4f813	0.08055129
81	0xbdba9329	-0.091101
82	0xbd776b07	-0.060404804
83	0xbd9e50f2	-0.07730283
84	0x3da7c609	0.08192069
85	0xbd654a95	-0.05597933
86	0xbdcbf895	-0.09959523
87	0xbc01a628	-0.00791315
88	0x3cd1d404	0.025613792
89	0x3d04105a	0.032242157
90	0x3c41ac68	0.01182089
91	0x3b91fea0	0.0044554025
92	0xbba98f90	-0.0051745847
93	0x3d195abe	0.037440054
94	0x3d538a5e	0.05164563
95	0xbb20bda0	-0.0024527088
96	0x3d3018e6	0.042992495
97	0xbcf07f8c	-0.029357694
98	0x3d9b5407	0.07584386
99	0xbcf9044c	-0.030397557
100	0x3d535cfa	0.05160234
101	0xbdcdb1c6	-0.10043673
102	0xbc1998f8	-0.0093748495
103	0x3d1b6522	0.037938245
104	0xbcda13c4	-0.026620753
105	0x3d91722d	0.071018554
106	0xbdb709f0	-0.08937442
107	0xbd97b9bb	-0.07408472
108	0x3c1cf920	0.00958088
109	0xbdd634f6	-0.1045932
110	0xbd7f5906	-0.06234076
111	0xbdb45f12	-0.08807196
112	0xbdc322ec	-0.09528145
113	0x3db39c83	0.087700866
114	0xbd927f08	-0.071531355
115	0xbdb90552	-0.09034218
116	0x3da55e3f	0.08074617
117	0x3dd0a59f	0.1018784
118	0xbdd201db	-0.1025426
119	0xbdca055f	-0.09864306
120	0xbdb5b441	-0.08872271
121	0xbd95d0fb	-0.073152505
122	0xbd86d7a6	-0.065841004
123	0x3c2c75f8	0.010526173
124	0xbd8af826	-0.06785612
125	0xbc70efc0	-0.014705598
126	0x3d88033b	0.06641241
127	0x3dc3e931	0.09565962
128	0x3d985c35	0.07439462
129	0xbd6087ff	-0.054817196
130	0xbdc99f60	-0.098448515
131	0xbd9627aa	-0.07331784
132	0xbcd369a4	-0.02580721
133	0xbc61bbf0	-0.013777718
134	0x3d09bac6	0.033625387
135	0xbdadf5d8	-0.084941566
136	0x3dc2e30f	0.09515964
137	0xbd97b66e	-0.074078426
138	0x3cc15ff4	0.023605324
139	0x3d004446	0.03131511
140	0xbd9ac69a	-0.075574115
141	0xbd91b152	-0.07113899
142	0xbd9d6a76	-0.076863214
143	0x3ce663dc	0.028123789
144	0x3d4d3b4a	0.05010537
145	0xbd5b029b	-0.05346928
146	0xbd0c9826	-0.034324788
147	0xbcf2fac4	-0.02966059
148	0x3d0d1952	0.034447975
149	0xbdd3cd28	-0.10341865
150	0xbda11a46	-0.078663394
151	0x3cba5a24	0.02274806
152	0xbdc8616f	-0.09784209
153	0x3c5400c0	0.012939632
154	0x3d422392	0.047397204
155	0x3dad6a57	0.08467548
156	0x3c851adc	0.01624816
157	0xbcc46d08	-0.023977771
158	0x3d42a0de	0.047516696
159	0x3d91ff0b	0.07128724
160	0xbc11a168	-0.00888858
161	0xbd0b8200	-0.034059525
162	0x3da7164d	0.081585504
163	0x3dd5886f	0.10426413
164	0xbae89140	-0.0017743483
165	0xbd36963c	-0.04457687
166	0xbda7cf22	-0.08193804
167	0x3daa758f	0.08323204
168	0x3d365216	0.044511877
169	0x3db69f33	0.089170836
170	0x3d11fe7e	0.035643093
171	0x3d1e86fa	0.038702942
172	0x3d2a863e	0.04163193
173	0xbd8e9b34	-0.069631964
174	0xbd93d61e	-0.07218574
175	0xbc12e708	-0.008966215
176	0x3ce2ce94	0.027686395
177	0xbcbb9510	-0.022898227
178	0xbcbbe45c	-0.022936039
179	0xbd096b6e	-0.03354972
180	0x3dc58a31	0.096454985
181	0x3d3cc976	0.046090566
182	0xbdc2c670	-0.09510505
183	0x3c604c98	0.013690136
184	0xbdcf0801	-0.101089485
185	0x3c9c0324	0.019044466
186	0xbdb3d920	-0.08781648
187	0xbd42546d	-0.047443796
188	0x3d970b39	0.073751874
189	0xbd1895c8	-0.037252218
190	0x3d2a267e	0.041540615
191	0xba94f900	-0.0011365712
192	0xbdc8f0e9	-0.09811575
193	0x3d9c52e9	0.07633001
194	0xbdcf6c9d	-0.10128138
195	0x3ba80d20	0.0051285177
196	0x3d61d296	0.05513247
197	0xbdb7e945	-0.089800395
198	0x3dbe2893	0.09285083
199	0xbda4bf10	-0.08044255
200	0x3d92a55f	0.07160448
201	0x3b8a2ed0	0.0042170063
202	0x3cfa23a4	0.030534573
203	0x3c7c4490	0.015397206
204	0x3ce60644	0.02807916
205	0xbdb28589	-0.08716876
206	0x3bd2ef30	0.006437205
207	0xbdce0891	-0.10060228
208	0xbd19d86a	-0.037559904
209	0xbdb12091	-0.0864879
210	0x3d9ed535	0.0775551
211	0xbd543c7a	-0.051815487
212	0xbdb33dc5	-0.08752016
213	0x3c5d6ab8	0.013514213
214	0x3dbd4725	0.09242085
215	0x3daf442d	0.085579254
216	0xbd28d212	-0.041215964
217	0xbdd73ec3	-0.10510018
218	0xbd64ce29	-0.055860672
219	0x3b991250	0.0046713725
220	0x3c8364e8	0.016039327
221	0x3dbf92ed	0.09354196
222	0xbdd38f74	-0.10330096
223	0xbd8583e0	-0.06519294
224	0x3d95ebdb	0.073203765
225	0xbd9ba146	-0.0759912
226	0xbd8ccf6e	-0.068755016
227	0x3d23da2a	0.04000298
228	0xbd8e7a9f	-0.06956982
229	0x3c996c7c	0.018728487
230	0xbd279354	-0.040911987
231	0x3d1736e6	0.03691759
232	0xbdc76f34	-0.09738007
233	0xbcad1c00	-0.021131516
234	0xbda89e5b	-0.08233329
235	0xba2dc480	-0.0006628707
236	0xbd894c6f	-0.06704032
237	0x3c203088	0.009777196
238	0x3d936df7	0.071987085
239	0x3dc1077d	0.094252564
240	0x3db99507	0.09061628
241	0x3d4c3fc6	0.049865507
242	0xbd805478	-0.06266111
243	0xbdb47691	-0.08811677
244	0xbc96446c	-0.018343173
245	0xbd61fb2b	-0.055171173
246	0xbd836246	-0.064152285
247	0xbdac0a0d	-0.084003545
248	0xbd7003fa	-0.058597542
249	0x3bf981e0	0.0076143593
250	0xbdbeef0d	-0.09322939
251	0xbced2a48	-0.028950825
252	0xbd17659e	-0.036962144
253	0xbd5de590	-0.054174006
254	0xbd9ea380	-0.07746029
255	0xbd7479fb	-0.059686642

res1.bn2.weight f4 [10]
0	0x3f800000	1.0
1	0x3f800000	1.0
2	0x3f800000	1.0
3	0x3f800000	1.0
4	0x3f800000	1.0
5	0x3f800000	1.0
6	0x3f800000	1.0
7	0x3f800000	1.0
8	0x3f800000	1.0
9	0x3f800000	1.0

res1.bn2.bias f4 [10]
0	0x00000000	0.0
1	0x00000000	0.0
2	0x00000000	0.0
3	0x00000000	0.0
4	0x00000000	0.0
5	0x00000000	0.0
6	0x00000000	0.0
7	0x00000000	0.0
8	0x00000000	0.0
9	0x00000000	0.0

res1.bn2.running_mean f4 [10]
0	0x00000000	0.0
1	0x00000000	0.0
2	0x00000000	0.0
3	0x00000000	0.0
4	0x00000000	0.0
5	0x00000000	0.0
6	0x00000000	0.0
7	0x00000000	0.0
8	0x00000000	0.0
9	0x00000000	0.0

res1.bn2.running_var f4 [10]
0	0x3f800000	1.0
1	0x3f800000	1.0
2	0x3f800000	1.0
3	0x3f800000	1.0
4	0x3f800000	1.0
5	0x3f800000	1.0
6	0x3f800000	1.0
7	0x3f800000	1.0
8	0x3f800000	1.0
9	0x3f800000	1.0

res2.conv1.weight f4 [10, 10, 3, 3]
0	0xbdaf9160	-0.0857265
1	0xbd45ef24	-0.048323765
2	0x3dc441ad	0.09582839
3	0xbd9c904a	-0.076447085
4	0xbd8d3b7c	-0.06896111
5	0x3d3495ba	0.044088103
6	0xbd835ed6	-0.06414573
7	0xbdb183ea	-0.08667739
8	0xbd28373a	-0.041068293
9	0x3cbd45d4	0.023104586
10	0x3d13f59e	0.03612291
11	0x3c6cee38	0.014461093
12	0x3d82086b	0.06349262
13	0xbd837416	-0.06418626
14	0xbd405d48	-0.04696396
15	0x3d1e1d2a	0.03860203
16	0xbc86cb70	-0.016454428
17	0xbb799f20	-0.003808923
18	0x3dd5cc3b	0.104393445
19	0xbd532517	-0.051549044
20	0x3c8462b4	0.016160347
21	0xbd6ffbbb	-0.05858968
22	0x3dd5382d	0.10411105
23	0x3dd477d5	0.10374419
24	0xbd68f644	-0.056875482
25	0x3da60ba5	0.0810769
26	0xbc956ea8	-0.018241242
27	0x3b65ba20	0.0035053566
28	0x3d7a1b7e	0.061061375
29	0xbdac7968	-0.08421594
30	0xb98a9100	-0.00026429445
31	0xbdc0ddc6	-0.094173
32	0x3dba92d5	0.09110037
33	0xbdc29186	-0.09500413
34	0xbd9d4c3a	-0.07680555
35	0x3d801537	0.062540464
36	0xbc289c30	-0.010291144
37	0x3c8b8e70	0.017035693
38	0xbd48b58f	-0.049001273
39	0x3c2c9898	0.010534428
40	0xbd97b025	-0.07406644
41	0xbd9b4bf4	-0.07582846
42	0xbd4db44e	-0.05022078
43	0xbd994a20	-0.07484841
44	0xbdd125d9	-0.10212297
45	0x3dc7cd5f	0.09755968
46	0x3c548f28	0.012973584
47	0x3d187dfe	0.03722953
48	0xbdb2e150	-0.08734381
49	0x3d291ada	0.041285373
50	0x3cf66484	0.030077226
51	0xbc5013e0	-0.012700051
52	0xbdb2a2dd	-0.0872247
53	0x3d7c844a	0.0616496
54	0x3d5d15ea	0.053975977
55	0x3dadbfc9	0.08483846
56	0xbda56845	-0.080765285
57	0xbd417205	-0.047227878
58	0x3d25da02	0.04049111
59	0x3cc0fdf4	0.023558594
60	0x3d603086	0.054733776
61	0xbca22c50	-0.01979652
62	0x3cd6fd44	0.026243813
63	0x3dc69c79	0.096978135
64	0xbd89a0e1	-0.06720138
65	0x3c925f68	0.017867759
66	0x3c426758	0.011865459
67	0xbdd60968	-0.10451013
68	0x3d2fceaa	0.0429217
69	0xbd63d148	-0.055619508
70	0x3daf0b47	0.08547073
71	0x3d139172	0.03602738
72	0x3c7a5bc8	0.015280671
73	0xbd73a194	-0.059480265
74	0xbd153416	-0.036426626
75	0x3dd55b5b	0.10417815
76	0xbc169a00	-0.00919199
77	0x3d5c25f6	0.05374714
78	0xbd8520ce	-0.065003976
79	0x3d94e4dd	0.07270215
80	0xbcfe6f34	-0.031058885
81	0xbd8ea3b6	-0.06964819
82	0xbd34fcbf	-0.04418635
83	0x3dd650c7	0.10464626
84	0xbd2ab560	-0.04167688
85	0xbd030ada	-0.03199277
86	0xbd14005e	-0.036133163
87	0xbd8c119f	-0.068392985
88	0x3d687a16	0.056757055
89	0xbd295d9c	-0.04134904
90	0x3d140f1e	0.03614723
91	0xbcc34fd4	-0.023841776
92	0x3db38b5b	0.08766814
93	0x3db0ec09	0.0863877
94	0xbc2f7158	-0.010708176
95	0x3d2a0b72	0.04151482
96	0xbc053be8	-0.008131959
97	0xbda0299b	-0.078204356
98	0x3c1a4f80	0.009418368
99	0xbdb87279	-0.09006209
100	0xbdcd9b72	-0.100394145
101	0x3db7b097	0.08969229
102	0x3d6bf116	0.057602964
103	0xbc07a238	-0.008278422
104	0xbd6db98c	-0.05803828
105	0x3d5858ae	0.052818947
106	0x3bd301d0	0.006439425
107	0xbd028918	-0.031869024
108	0x3db56401	0.08856965
109	0x3d38c4d2	0.045109577
110	0x3d9a0905	0.075212516
111	0x3d112d7e	0.035443775
112	0xbd553ad1	-0.052058045
113	0xbc8e71c8	-0.01738824
114	0x3d45d7ee	0.04830163
115	0xbda819c5	-0.0820804
116	0xbc4c8500	-0.012482882
117	0x3d38eac2	0.045145757
118	0xbbed7c60	-0.0072474927
119	0x3d917a49	0.07103402
120	0x3bfc08d0	0.00769148
121	0x3d86b94f	0.065783136
122	0xbdae6d1f	-0.08516907
123	0xbcd2cf5c	-0.025733642
124	0x3da26db3	0.0793108
125	0x3d57c522	0.052678235
126	0x3ccfbab4	0.025357582
127	0x3d080c36	0.03321477
128	0x3d2b59fa	0.041833855
129	0x3dc88eb1	0.09792841
130	0x3dc5b93d	0.09654472
131	0x3d3d7d1e	0.0462619
132	0x3dad1b95	0.084525265
133	0xbd155bb4	-0.036464408
134	0x3d92155d	0.07132981
135	0xbdc78c25	-0.09743527
136	0x3b322740	0.002718404
137	0x3cfa415c	0.030548744
138	0xbc5e9820	-0.013586074
139	0x3dc4dbd1	0.09612239
140	0xbdd0eeae	-0.102017745
141	0x3dd578e3	0.10423448
142	0x3d93c105	0.0721455
143	0x3d778a72	0.060434766
144	0xbd3f9bf3	-0.046779584
145	0x3c07f830	0.008298919
146	0x3d45f30a	0.048327483
147	0x3cbaf114	0.022820033
148	0xbd311492	-0.043232508
149	0x3da5f217	0.081028156
150	0xbd8eeb44	-0.06978467
151	0x3d915917	0.07097071
152	0xbdd1a4b2	-0.10236491
153	0x3da5f515	0.08103386
154	0x3cef4a94	0.029210366
155	0xbdb5ddab	-0.088801704
156	0x3dcbe623	0.099560045
157	0xbbdc1450	-0.0067162886
158	0xbb01e5a0	-0.0019820705
159	0x3d3ef8b6	0.046623908
160	0x3dc026a9	0.09382374
161	0xbc93f314	-0.018060245
162	0xbc073b68	-0.00825391
163	0x3dd36057	0.1032111
164	0x3da31ed3	0.07964864
165	0xba96a5c0	-0.0011493489
166	0x3d1b3d8e	0.0379005
167	0x3db3c38d	0.08777533
168	0x3bf03f60	0.0073317736
169	0xb9d40100	-0.00040436536
170	0xbdcbe588	-0.09955889
171	0x3a63bf00	0.0008687824
172	0x3dbd31e9	0.09238035
173	0x3d4e6caa	0.0503966
174	0x3d618e9a	0.055067636
175	0xbdd1305a	-0.102143005
176	0x3cdfdd34	0.027327158
177	0x3d052736	0.032508098
178	0x3d29c142	0.04144407
179	0x3d024376	0.031802617
180	0x3db6459d	0.088999964
181	0xbd932b9a	-0.07186051
182	0x3d830815	0.06398026
183	0xbbf1b660	-0.007376477
184	0xbcf80a9c	-0.030278496
185	0x3b03a4e0	0.0020087287
186	0x3d1fb4b2	0.038990684
187	0xbd547a35	-0.05187436
188	0xbdc0a333	-0.09406128
189	0x3c21ab38	0.009867482
190	0xbd801d04	-0.06255534
191	0xbcdb75d8	-0.02678959
192	0x3d076eda	0.0330647
193	0xbcbd2d04	-0.023092754
194	0xbd13735c	-0.035998687
195	0x3d8395e7	0.06425076
196	0x3d8f3fa9	0.06994564
197	0x3c530d00	0.012881517
198	0x3dad4181	0.084597595
199	0x3dbfb11f	0.09359955
200	0x3d7b91fe	0.061418526
201	0xbdb510a7	-0.08841067
202	0xbd2ae00e	-0.04171758
203	0x3c5e33a0	0.013562113
204	0x3d941c4b	0.07231959
205	0xbd0ae986	-0.03391411
206	0x3d65a792	0.05606801
207	0x3d33787a	0.043816067
208	0xbd8cb37a	-0.0687017
209	0xbd74807a	-0.059692837
210	0xbdc5d37f	-0.0965948
211	0xbd5f9b75	-0.054591615
212	0xbcfb31dc	-0.030663423
213	0xbdb51838	-0.0884251
214	0xbdb0e0ba	-0.08636613
215	0xbc278160	-0.0102237165
216	0x3dd649f1	0.10463322
217	0x3ce1896c	0.027531348
218	0xbd65c06e	-0.05609172
219	0x3da399a1	0.07988287
220	0x3c1ab928	0.009443559
221	0x3ce223fc	0.02760505
222	0x3cf6635c	0.030076675
223	0xbd8bb21b	-0.0682108
224	0xbd859e29	-0.06524307
225	0xbd3267b6	-0.043555938
226	0x3c81722c	0.015801512
227	0xbd10f0d6	-0.03538593
228	0x3da8a679	0.08234877
229	0x3d9591a7	0.073031716
230	0x3d8cb505	0.06870464
231	0xbcd03460	-0.0254156
232	0xbd9c04bc	-0.076180905
233	0xbd72f58d	-0.059316207
234	0x3d79aa1e	0.060953252
235	0xbda36f08	-0.07980162
236	0xbc79c0a8	-0.015243687
237	0xbc8df5a4	-0.017329045
238	0xbdc376e0	-0.09544158
239	0xbcdb7400	-0.026788712
240	0xb8d9e800	-0.0001039058
241	0xbda81aa2	-0.08208205
242	0x3d4c24f6	0.049839936
243	0x3d175322	0.036944516
244	0xbd9a20b0	-0.07525766
245	0xbd29470c	-0.04132752
246	0x3dc0c8af	0.09413277
247	0x3db56cdf	0.08858656
248	0x3da3a7a3	0.079909585
249	0x3d4e9f32	0.05044479
250	0x3dd37115	0.10324303
251	0xbcf9e584	-0.03050495
252	0xbc861d08	-0.016371265
253	0xbd6f266c	-0.05838625
254	0xbdba14c0	-0.09085989
255	0xbd81f810	-0.06346142

res2.bn1.weight f4 [10]
0	0x3f800000	1.0
1	0x3f800000	1.0
2	0x3f800000	1.0
3	0x3f800000	1.0
4	0x3f800000	1.0
5	0x3f800000	1.0
6	0x3f800000	1.0
7	0x3f800000	1.0
8	0x3f800000	1.0
9	0x3f800000	1.0

res2.bn1.bias f4 [10]
0	0x00000000	0.0
1	0x00000000	0.0
2	0x00000000	0.0
3	0x00000000	0.0
4	0x00000000	0.0
5	0x00000000	0.0
6	0x00000000	0.0
7	0x00000000	0.0
8	0x00000000	0.0
9	0x00000000	0.0

res2.bn1.running_mean f4 [10]
0	0x00000000	0.0
1	0x00000000	0.0
2	0x00000000	0.0
3	0x00000000	0.0
4	0x00000000	0.0
5	0x00000000	0.0
6	0x00000000	0.0
7	0x00000000	0.0
8	0x00000000	0.0
9	0x00000000	0.0

res2.bn1.running_var f4 [10]
0	0x3f800000	1.0
1	0x3f800000	1.0
2	0x3f800000	1.0
3	0x3f800000	1.0
4	0x3f800000	1.0
5	0x3f800000	1.0
6	0x3f800000	1.0
7	0x3f800000	1.0
8	0x3f800000	1.0
9	0x3f800000	1.0
