SuperGo-master/saved_models/1586432165/1-policy_net.pth.tar (torch_old, 7908 bytes, 3 tensors)

conv.weight f4 [1, 10, 1, 1]
00000000: d04a 0f3d 48f6 27bd 803b 783c da2e 85be
00000010: f606 f8bd b048 5a3d c0a3 7ebd c038 75bd
00000020: 8e76 6bbe 84b1 a13d
0.034983456 -0.041006356 0.015150905 -0.26012307 -0.12110703 0.053291976 -0.062167883 -0.059868574
-0.22994444 0.078951865

fc.weight f4 [37, 36]
00000000: 8032 e7ba 79ce 223e a2f9 db3d 6625 88bd
00000010: 5440 723d b4b9 05bd d613 f2bd 967d 0dbe
00000020: 32cc d43d 202b 56bd e6c0 9b3d 54bd 733d
00000030: e87d 17be 5b45 c0bd e301 013e 0012 453b
00000040: 5892 a83d 484a 84bc f388 1f3e c047 a3bc
00000050: 20ec cc3b eab3 ad3d 327c c03d b351 f2bd
00000060: 20d0 143d c003 553c 7300 1d3e 48d1 e6bd
00000070: d7d2 19be f80f 903c 68a1 e2bc f030 6cbc
00000080: ba13 ee3d d33a 113e 32b4 953d 901a 87bd
00000090: 3814 89bd 5a9a 0abe 58e7 d3bc fc8c 44bd
000000a0: cc43 35bd ce03 94bd d673 fcbd 46fb 87bd
000000b0: 885c e23c 0049 36bb 10bf 6f3c ecf9 02be
000000c0: fcb2 263d a40c 523d b76a 223e e039 f53b
000000d0: b0d9 423d 0eb0 0ebe 4ffd 0fbe 0082 e2bb
000000e0: 50ad 6c3c 70be 3cbc f9f9 063e 3b2b 073e
000000f0: 5e54 f5bd 8445 25be 5041 083c 929e c13d
00000100: ee4c b03d 0b85 0b3e 9f8e 1bbe e1d2 0f3e
00000110: 329e c63d 9871 f03c 0abd 24be 8e18 b13d
00000120: fbad fabd 90c1 ffbd 9b08 b7bd 6357 9fbd
00000130: 43b2 f2bd f669 33bd e879 b8bc b477 533d
00000140: 435d a6bd 6081 d4bb a066 63bd 2ee4 05be
00000150: f8ef 923c 535d 86bd fbed 01be d799 063e
00000160: 64d4 093d 6e2b 23be 46b3 dbbd 3efb ba3d
00000170: 7ad2 df3d 6a62 d93d d661 ea3d 3873 fbbd
00000180: 54ea 413d 1e80 cf3d a006 1bbd a0e0 c2bb
00000190: 7362 09be e489 03be 668d abbd 0814 cbbc
000001a0: 4ce2 753d 0683 b0bd d33b 153e 263a 11be
000001b0: 685e 883c 85ae 0b3e 6818 b73c 0289 d23d
000001c0: 52a3 ed3d db38 8fbd 1029 09bd 8450 1abd
000001d0: 3001 c8bd c1ec 193e a0b8 eb3b 0d28 1f3e
000001e0: f0b3 463d 06c7 cabd 2855 803d 436a 91bd
000001f0: c097 bd3c 3055 26bc 26d1 b9bd 1ebb 9ebd
00000200: 18ab 843d 7615 ccbd d05d a73d 58aa a0bc
00000210: 0c91 083d 003b 4abb 9332 e4bd 6060 423d
00000220: 681d b53c 8383 1e3e ffd2 143e 8613 77bd
00000230: 49bc 163e 3b0d f5bd 33a8 e9bd 1207 b73d
00000240: b741 15be fcbb 7dbd d035 0abe e35a f2bd
00000250: 65dc 0b3e 0057 24be c63d ec3d c019 453c
00000260: e2e5 03be 53d4 81bd 0d20 1d3e ec2f 6e3d
00000270: 70af 07be 3e85 c1bd 3783 00be 851b 263e
00000280: e11a 113e 80d3 06bc fcee 26bd 5ddb 073e
00000290: 0098 56ba 93d7 293e c4c1 753d fb0c 8bbd
000002a0: 009e db39 92c7 d53d a34a c3bd 0416 01be
000002b0: 6640 b5bd bc9e 71bd 0eb9 8f3d b05a 0bbc
000002c0: 60b7 ccbc 8e68 fcbd 5620 26be 5721 02be
000002d0: 9029 7dbd e6f0 b8bd 2056 07bd 8a20 b63d
000002e0: a41b 19bd f071 693d eb66 f6bd e2d3 b33d
000002f0: f2b9 0abe 7823 a4bd 90d1 39bc 8b7f d1bd
00000300: e894 f4bc 55dc 103e 1f66 133e 0b85 0e3e
00000310: 3034 9d3d 90ee 653d 40d0 fc3c dbd9 07be
00000320: fba6 05be 7a94 10be e6df f0bd aff2 1b3e
00000330: aede d83d c8bb fbbc ba7f e33d 7ed4 18be
00000340: f86a 9cbc d857 913c a737 183e e01d 5bbd
00000350: df5a 0e3e 645b 02be 66a9 ff3d b1c2 033e
00000360: b8a3 ec3c cd44 283e 63f6 06be 10ad 49bd
00000370: 8001 25be 6640 60bd f6f1 8b3d 0001 f53b
00000380: b00e 3d3c 825d 1dbe 2e5d f53d 6c5d 64bd
00000390: f862 823d c23a c43d 3c1a 2b3d 98f0 9e3c
000003a0: f8b0 cdbc 918c 213e 96f0 cdbd 6210 b13d
000003b0: 4645 b13d 0664 debd b633 4abd 05cf 263e
000003c0: a05d 0dbd db36 efbd d420 6c3d c053 b03c
000003d0: 5a2b 803d b057 423c 5004 473c de1f fdbd
000003e0: 46c2 98bd 901c 41bc 7ccb 24bd b3c8 013e
000003f0: d30a 9fbd 4cfa 7cbd 6096 813d 8328 ddbd
-0.0017638952 0.15899076 0.10740973 -0.06647758 0.05914338 -0.032647803 -0.1182019 -0.13817438
0.1039051 -0.05228722 0.07605152 0.05950673 -0.14794123 -0.093882285 0.12598376 0.0030070543
0.08231038 -0.016148701 0.15579586 -0.019931674 0.006253734 0.084815815 0.093986884 -0.11831989
0.036331296 0.013001382 0.15332203 -0.11270386 -0.15021835 0.01758574 -0.027664855 -0.0144159645
0.11624856 0.14182596 0.0730976 -0.06596863 -0.066933095 -0.13535443 -0.02586715 -0.047986016
-0.04425411 -0.07227288 -0.123267815 -0.066397235 0.027632013 -0.0027814507 0.014632955 -0.1279065
0.040698037 0.051281586 0.15861021 0.007483706 0.047570884 -0.13934347 -0.14061473 -0.00691247
0.014445618 -0.011520013 0.13181295 0.13200085 -0.119789824 -0.161398 0.008316353 0.09454073
0.08608423 0.1362497 -0.15191124 0.14045288 0.09698142 0.02935104 -0.16087738 0.086472616
-0.122402154 -0.12488091 -0.08937188 -0.077803396 -0.11850407 -0.043802224 -0.022519067 0.05162783
-0.08123257 -0.0064851493 -0.055517793 -0.13075325 0.017936692 -0.06560769 -0.12688439 0.13144623
0.033649817 -0.15934536 -0.10727553 0.09129952 0.10928817 0.10614474 0.11444442 -0.122778356
0.047342613 0.10131858 -0.037848115 -0.0059471875 -0.13416462 -0.1284557 -0.08376579 -0.024789825
0.060030267 -0.08618741 0.14573602 -0.14182338 0.016646579 0.13640793 0.022350505 0.102800384
0.116034165 -0.06993266 -0.033486426 -0.037674442 -0.097658515 0.1503172 0.00719364 0.15542622
0.048511446 -0.09901242 0.06266242 -0.07100346 0.02314365 -0.010152146 -0.09073095 -0.077505335
0.06477946 -0.09965031 0.0817219 -0.019612476 0.033341452 -0.003085792 -0.11142459 0.04745519
0.022108749 0.15479855 0.14533614 -0.060321353 0.14720263 -0.11965414 -0.114090346 0.089368954
-0.1457585 -0.061946854 -0.1349709 -0.118337415 0.13658293 -0.16048813 0.1153522 0.012030065
-0.12880662 -0.06339326 0.15344258 0.05815117 -0.13250518 -0.09449242 -0.12550054 0.16221435
0.1417041 -0.0082291365 -0.040755257 0.13267274 -0.0008186102 0.16586141 0.059999242 -0.06789585
0.00041888654 0.10438456 -0.0953572 -0.12606055 -0.08850174 -0.05898927 0.07017718 -0.008505508
-0.024989784 -0.1232463 -0.16223273 -0.1270803 -0.061807215 -0.09030323 -0.03304112 0.08892925
-0.037379876 0.056993425 -0.12031349 0.08780648 -0.13547495 -0.080145776 -0.0113414675 -0.10229405
-0.02985616 0.1414655 0.14394425 0.1391794 0.076759696 0.056135714 0.03086102 -0.13266699
-0.13051979 -0.1411914 -0.11761455 0.15229295 0.10589348 -0.03072919 0.11108346 -0.1492481
-0.019093975 0.017742082 0.1486498 -0.053495288 0.13901852 -0.12730175 0.12483482 0.12867238
0.028886661 0.16432495 -0.13179927 -0.04923731 -0.16113853 -0.054748915 0.0683326 0.007476926
0.011539146 -0.15367702 0.11980663 -0.055753157 0.06366533 0.0958152 0.041773066 0.019401833
-0.0251088 0.15776278 -0.10055654 0.08645703 0.08655791 -0.10858922 -0.04936572 0.16289909
-0.034513116 -0.11680385 0.057648495 0.02152431 0.06258269 0.011861727 0.012147024 -0.12359594
-0.0745893 -0.011786595 -0.04023312 0.12674217 -0.077657364 -0.06176214 0.0632751 -0.107987426

fc.bias f4 [37]
00000000: 3938 0f3e 060a 79bd 7434 4d3d 3eb9 dd3d
00000010: c137 253e 8681 d33d 0bd6 16be 2a3a bd3d
00000020: a4bd 723d 3cb3 7f3d 721f e03d 96c1 aebd
00000030: 7c3a 6c3d dec1 853d 7e74 d7bd cace 09be
00000040: 3c1c 043d c0fc 113c cb8d 08be 1ad2 933d
00000050: e07a 7ebd 6601 26be 90bd 573d 445a 1bbd
00000060: e801 843d 80b8 7d3d e857 b4bc e311 19be
00000070: 1654 cc3d 6e32 92bd bbde 243e 025d f33d
00000080: 70f3 54bd 9432 513d 80ce 09bd b802 27be
00000090: 334a a1bd
0.13986291 -0.060800575 0.05009885 0.10826348 0.1613455 0.10327439 -0.14730088 0.092396095
0.059262887 0.06242679 0.10943498 -0.08533017 0.057672963 0.06531118 -0.10520266 -0.1345779
0.03225349 0.008910358 -0.1333534 0.07217808 -0.0621289 -0.16211471 0.052671015 -0.03792788
0.06445676 0.06194353 -0.022014573 -0.1494823 0.099769756 -0.07138525 0.1610059 0.11882974
-0.051989973 0.051073626 -0.0336442 -0.16309631 -0.078754805
