SuperGo-master/saved_models/1586432165/1-value_net.pth.tar (torch_old, 41592 bytes, 4 tensors)

conv.weight f4 [1, 10, 1, 1]
0	0xbdd47ba0	-0.10375142
1	0xbe3c7cc2	-0.18406966
2	0x3e91df9f	0.28490922
3	0x3e8e393d	0.27778044
4	0x3e876c97	0.26450035
5	0xbe17f506	-0.14839563
6	0xbea1a2e4	-0.31569588
7	0x3e4f8242	0.20264533
8	0x3ddd9184	0.108187705
9	0xbe0555b9	-0.13020982

fc1.weight f4 [256, 36]
0	0x3dd694d2	0.10477604
1	0xbdd2762b	-0.10276445
2	0x3e21f8e9	0.15817608
3	0x3d849098	0.064728916
4	0xbe2798f4	-0.1636694
5	0x3d084374	0.033267453
6	0x3df7eec6	0.12106089
7	0xbd071d30	-0.03298682
8	0x3e124f5d	0.14288087
9	0xbdc77c40	-0.09740496
10	0xbd184dec	-0.037183687
11	0x3e0bff2f	0.13671564
12	0x3df362c2	0.11884071
13	0xbc0229b0	-0.007944509
14	0x3d7d3de0	0.061826587
15	0xbddbe4b8	-0.10736984
16	0xbd982078	-0.07428068
17	0xbdaa3a93	-0.083119534
18	0xbde7e31b	-0.11322614
19	0xbdbfb51e	-0.09360717
20	0x3e0c2241	0.13684942
21	0xbd3606a6	-0.044439934
22	0xbe0dad33	-0.13835602
23	0x3d8a73fa	0.06760402
24	0x3d06cfdc	0.032913074
25	0xbe1ee964	-0.15518719
26	0x3d23ce24	0.039991513
27	0x3e2952bd	0.16535468
28	0x3de76ec2	0.11300422
29	0x3c1f58f0	0.009725794
30	0x3ca4fc98	0.020139977
31	0x3e2a3831	0.16622998
32	0xbdbefa96	-0.09325139
33	0x3e160de5	0.14653738
34	0x3d36cf00	0.044631004
35	0x3d73c58c	0.059514567
36	0x3dc7d1c2	0.09756805
37	0x3d039a90	0.032129824
38	0x3e0b43b1	0.13600041
39	0x3e1ce91d	0.153233
40	0x3df71ae2	0.12065674
41	0x3cb69998	0.022290036
42	0xbe0d33c2	-0.13789275
43	0x3dde2312	0.10846533
44	0x3e20fc2d	0.15721197
45	0xbd8e32b0	-0.069432616
46	0xbd7f6370	-0.06235069
47	0xbddbdcf8	-0.10735506
48	0x3e016c25	0.1263891
49	0xbe05386b	-0.13009803
50	0x3e0825a5	0.1329561
51	0xbdf679a8	-0.12034923
52	0x3bd91860	0.00662522
53	0xbd13fb9c	-0.036128625
54	0x3e1a4911	0.15066935
55	0xbdff25fb	-0.12458416
56	0xbddb5c7b	-0.107109986
57	0xbc95dcf8	-0.018293843
58	0x3e1b7d61	0.15184547
59	0xbe1bb774	-0.152067
60	0x3d187824	0.03722395
61	0x3dd83f7a	0.10558982
62	0xbc2c9d70	-0.010535583
63	0x3d1b65bc	0.03793882
64	0x3d4670c0	0.04844737
65	0xbdd47fc6	-0.10375933
66	0xbcdfe848	-0.02733244
67	0x3d599d20	0.05312836
68	0x3dc82a4a	0.09773691
69	0x3e0cbf87	0.13744937
70	0xbccc2800	-0.024921417
71	0xbe20cf7c	-0.15704149
72	0xbda3aab6	-0.07991545
73	0x3e0381a3	0.12842421
74	0x3d846598	0.0646469
75	0xbdc2ee20	-0.09518075
76	0x3e1128d9	0.14175738
77	0x3e12506b	0.1428849
78	0x3dea9bee	0.114555225
79	0xbd20d1fc	-0.039262757
80	0xbdb87de0	-0.09008384
81	0xbc834cc0	-0.016027808
82	0x3c7d3b50	0.015456036
83	0xbdf4acae	-0.119469985
84	0x3b35bac0	0.002772972
85	0xbd40d59c	-0.047078714
86	0x3cecf128	0.028923586
87	0x3cf61b58	0.030042335
88	0x3def1aca	0.116750315
89	0x3c89cbc8	0.016820803
90	0xbca508b8	-0.020145759
91	0x3dd7c562	0.10535695
92	0xbe099583	-0.1343594
93	0x3e11403d	0.14184661
94	0xbe1086ec	-0.14113969
95	0xbdfeca56	-0.12440936
96	0x3e2672c7	0.16254722
97	0x3db352b6	0.0875601
98	0xbd954348	-0.072882235
99	0xbd9a3dce	-0.075313196
100	0xb9714000	-0.00023007393
101	0xbdd3a436	-0.10334055
102	0x3e08f33d	0.13374038
103	0x3e02d7fb	0.12777703
104	0x3d3ee954	0.046609238
105	0xbd866e5e	-0.065640196
106	0x3ddee23e	0.10882996
107	0xbd859f08	-0.065244734
108	0xbdf72916	-0.120683834
109	0xbdadf176	-0.08493321
110	0x3d4b8200	0.049684525
111	0x3deba78a	0.11506565
112	0xbd9619a0	-0.07329106
113	0xbdd9c733	-0.10633697
114	0xbda3bff6	-0.07995598
115	0x3c0b6a70	0.008509263
116	0xbdae8610	-0.08521664
117	0xbddc67ae	-0.10761963
118	0xbdd7aef8	-0.105314195
119	0x3dea330a	0.11435516
120	0x3d9d7e10	0.0769006
121	0x3dd412ea	0.1035517
122	0xbdce2653	-0.100659035
123	0xbdd883fb	-0.10572048
124	0xbe0d9adf	-0.1382861
125	0xbd82d8bb	-0.06388994
126	0x3d75c1e0	0.059999347
127	0xbc87da60	-0.016583622
128	0xbe11872e	-0.14211723
129	0x3de62dea	0.11239226
130	0xbe0e0526	-0.13869151
131	0xbdf974ce	-0.12180482
132	0xbcd12898	-0.025532052
133	0xbe2608f3	-0.16214351
134	0x3dd02a3a	0.10164304
135	0xbbe0ea00	-0.0068638325
136	0xbe14ee66	-0.14544067
137	0x3dfc2622	0.12311961
138	0x3e1e2c75	0.15446647
139	0xbdfc091b	-0.12306424
140	0x3e2a9607	0.16658793
141	0x3ca61898	0.0202754
142	0xbd181260	-0.0371269
143	0xbd9f9208	-0.07791525
144	0xbdcc479e	-0.099745974
145	0x3dff588a	0.12468059
146	0xbc1a5990	-0.009420767
147	0xbd80b7d8	-0.062850654
148	0xbe2121f8	-0.15735614
149	0x3da05c48	0.07830101
150	0xbdb0c976	-0.086321756
151	0xbde81966	-0.11332969
152	0x3d0a0850	0.033699334
153	0xbdcafb0e	-0.09911166
154	0x3d2e574c	0.04256372
155	0x3d261f54	0.04055722
156	0x3e075c45	0.13218792
157	0xbdf253d6	-0.11832397
158	0xbe2a6888	-0.16641438
159	0xbcdf91e8	-0.027291253
160	0xbccd8ba0	-0.025090992
161	0xbe1f2a16	-0.15543398
162	0x3d6d09bc	0.05787061
163	0xbe0d0147	-0.13770019
164	0x3dcb26f2	0.099195376
165	0x3e1d49a5	0.15360124
166	0x3db13526	0.086527154
167	0xbd7f29d6	-0.062295757
168	0xbd955e13	-0.07293334
169	0xbd588580	-0.05286169
170	0xbd27640c	-0.040866897
171	0x3db0858e	0.086192235
172	0xbde2c37e	-0.110724434
173	0xbdb1628e	-0.08661376
174	0xbd980fae	-0.07424866
175	0x3c1a1a90	0.009405747
176	0x3ddd2ab2	0.10799159
177	0xbccaace8	-0.024740651
178	0xbe09c9ef	-0.13455938
179	0xbdd9fa38	-0.106434286
180	0x3df53dd6	0.11974685
181	0xbdf5d410	-0.12003338
182	0x3e057981	0.13034631
183	0x3d36e8d4	0.044655636
184	0x3e20e929	0.15713944
185	0xbd0f16fc	-0.03493403
186	0x3cb93618	0.022608802
187	0x3db3147e	0.08744143
188	0x3e201cab	0.15635936
189	0xbdd9c960	-0.10634112
190	0x3e27dc9d	0.16392751
191	0x3ddf7b2e	0.109121665
192	0xbcdadb58	-0.02671592
193	0xbdeeed26	-0.11666326
194	0xbdc08856	-0.09401004
195	0xbd9f2623	-0.07770946
196	0x3d2170cc	0.039414212
197	0xbe0c5860	-0.13705587
198	0xbd821d33	-0.063532256
199	0x3da0c038	0.07849163
200	0x3db65972	0.08903779
201	0x3e0b7f01	0.13622667
202	0xbcaff948	-0.021481171
203	0xbce49dc0	-0.027907252
204	0x3d2af1e4	0.04173459
205	0xbd00435c	-0.03131424
206	0xbd7e8646	-0.062139772
207	0xbe0b4864	-0.13601834
208	0xbd9dd04b	-0.07705744
209	0xbaeeda80	-0.0018223077
210	0xbd85061e	-0.064953074
211	0x3d0ae564	0.03391017
212	0xbd9356f0	-0.071943164
213	0x3d2ee43c	0.04269813
214	0xbe02590e	-0.12729284
215	0xbdc3bd96	-0.09557645
216	0xbe114523	-0.1418653
217	0x3d87fc58	0.066399276
218	0xbd4b5ad0	-0.049647152
219	0xbce1cd28	-0.027563646
220	0xbc0f8f10	-0.008762136
221	0xbe1f40f3	-0.1555212
222	0xbda510a6	-0.08059816
223	0x3e102679	0.14077176
224	0xbc260510	-0.010133043
225	0x3da39d46	0.07988982
226	0x3db5e63e	0.08881806
227	0xbd38f076	-0.045151196
228	0x3d0d9354	0.03456433
229	0x3c3b29b0	0.011423513
230	0x3de6d82a	0.11271699
231	0xbcfc0400	-0.030763626
232	0xbe09b42e	-0.1344764
233	0x3d81747e	0.06321047
234	0xbde9fdce	-0.114253625
235	0xbe06662c	-0.13124913
236	0xbe21f13b	-0.15814678
237	0x3d44b0bc	0.04802011
238	0x3e27b323	0.16376929
239	0xbd80cdee	-0.06289278
240	0xbdb1fcb8	-0.086907804
241	0xbe0b246b	-0.13588111
242	0xbc59d440	-0.013295233
243	0x3ce0e0f8	0.027451023
244	0xbdcbbe70	-0.099484324
245	0xbcb2e278	-0.021836504
246	0x3d9d58d6	0.0768296
247	0xbbd854a0	-0.006601885
248	0xbc9f3900	-0.01943636
249	0x3cc8c318	0.02450709
250	0xbd2d1c60	-0.04226339
251	0x3da03a72	0.078236476
252	0xbd16f6a0	-0.036856294
253	0x39b36200	0.00034214556
254	0xbd3ae490	-0.04562813
255	0xbd6c7e60	-0.057737708

fc1.bias f4 [256]
0	0xb9b18200	-0.00033856928
1	0xbd6902ec	-0.056887552
2	0xbdfa431b	-0.122198306
3	0x3c3b7ab0	0.011442825
4	0x3d1f658c	0.038915202
5	0xbe1f3330	-0.1554687
6	0x3cb800e0	0.022461355
7	0xbdcbe900	-0.099565506
8	0x3ceeb520	0.029139102
9	0xbdd90368	-0.10596353
10	0x3d8e3826	0.06944303
11	0x3db9cfe6	0.090728566
12	0xbddaf343	-0.1069093
13	0x3da8f83e	0.082504734
14	0xbdf107bb	-0.117690526
15	0x3e039313	0.12849073
16	0xbe14c610	-0.1452868
17	0xbd7c0710	-0.061530173
18	0x3e187683	0.14888959
19	0xbddaa37e	-0.10675715
20	0xbdec4f26	-0.11538534
21	0x3d03ba80	0.032160282
22	0xbdded748	-0.108809054
23	0x3e0a6abb	0.13517277
24	0x3d689224	0.056779996
25	0xbe130380	-0.14356804
26	0xbd0f8c44	-0.035045877
27	0x3e0a70c1	0.13519575
28	0xbce53d28	-0.027983263
29	0xbdedb093	-0.116059445
30	0x3e0a3547	0.13496886
31	0xbe1e882b	-0.15481631
32	0xbde7f56e	-0.11326109
33	0xbcf140b8	-0.029449806
34	0x3c6f2550	0.014596298
35	0xbd92f6e6	-0.071759984
36	0xbcd7f9e0	-0.026364267
37	0x3e0ff375	0.14057715
38	0xbd2430a0	-0.040085435
39	0xbd9506ae	-0.07276665
40	0x3dacff0e	0.08447085
41	0x3cb55f58	0.02214019
42	0xbe1da232	-0.15393904
43	0x3d6da4d0	0.058018506
44	0xbc9ca0d8	-0.019119665
45	0xbe27706e	-0.16351482
46	0x3d977ace	0.0739647
47	0x3cdfab00	0.027303219
48	0x3d5291e0	0.05140865
49	0x3e237093	0.15960912
50	0x3ce54cf8	0.027990803
51	0x3d69722c	0.05699365
52	0xbb03a040	-0.002008453
53	0xbe176abb	-0.14786808
54	0x3e1d10b1	0.15338399
55	0xbe1d0ae4	-0.15336186
56	0x3e143399	0.14472808
57	0xbd9ef0d0	-0.07760775
58	0xbe1b0b48	-0.15141022
59	0x3c30b630	0.010785624
60	0x3e06168f	0.13094543
61	0xbdef05e0	-0.116710424
62	0x3d2cbd80	0.04217291
63	0x3deb7d9a	0.11498566
64	0xbd66ac66	-0.056316756
65	0xbdf90d3e	-0.12160729
66	0xbc0e83b0	-0.008698389
67	0xbbf45c20	-0.007457271
68	0x3e27318d	0.16327496
69	0xbd95d956	-0.07316844
70	0xbdc74890	-0.09730637
71	0x3d808e86	0.06277184
72	0xbdf9f32b	-0.12204584
73	0xbd861930	-0.06547773
74	0x3e07f023	0.13275199
75	0xbe03fd82	-0.12889674
76	0xbcadcb78	-0.021215186
77	0x3d294730	0.041327655
78	0x3e229ec1	0.15880872
79	0xbe150718	-0.14553487
80	0x3deec62a	0.116588905
81	0xbde5fd30	-0.11229932
82	0xbe0fbc30	-0.14036632
83	0xbd9feaae	-0.078084335
84	0xbdd84276	-0.105595514
85	0x3d202a00	0.039102554
86	0xbd77a996	-0.060464464
87	0xbda14a56	-0.078755066
88	0xbe119bfe	-0.14219663
89	0xbd350970	-0.044198453
90	0x3df96f8e	0.121794805
91	0xbd34b4b6	-0.044117652
92	0xbe261e46	-0.16222486
93	0xbdd6a7ab	-0.10481199
94	0x3e1e22bb	0.15442936
95	0xbe058774	-0.13039953
96	0xbb70f440	-0.0036766678
97	0xbdd2cf43	-0.10293438
98	0x3e01fe4d	0.12694664
99	0xbda39c73	-0.07988825
100	0xbd5cc690	-0.0539003
101	0xbd3a0e3c	-0.04542373
102	0xbded5430	-0.11588323
103	0x3c861660	0.016368091
104	0x3d92f220	0.07175088
105	0xbd16616c	-0.036714002
106	0x3bace2a0	0.0052760392
107	0x3def3bca	0.11681326
108	0x3df7a44a	0.120918825
109	0x3c87a938	0.016560182
110	0x3e05fa89	0.13083853
111	0x3dbc818a	0.09204395
112	0xbdd7aa00	-0.10530472
113	0x3e27ec95	0.16398843
114	0x3d416d74	0.047223523
115	0xbd63f1f6	-0.055650674
116	0x3c96a780	0.018390417
117	0x3e168b75	0.14701636
118	0xbd9cca00	-0.07655716
119	0xbcd16d18	-0.025564715
120	0xbdd1f406	-0.10251622
121	0x3d80ee82	0.06295492
122	0x3dcfaeaa	0.101407364
123	0xbe19e526	-0.1502882
124	0x3c66ff40	0.014098942
125	0x3dd70baa	0.105002716
126	0x3e22fc97	0.15916668
127	0xbdf7adbb	-0.12093683
128	0x3db20712	0.08692755
129	0xbe126a57	-0.14298378
130	0x3daf6192	0.08563532
131	0xbe14aafc	-0.1451835
132	0xbc956348	-0.018235818
133	0x3e011799	0.12606658
134	0xbdef4a5b	-0.11684104
135	0xbe087cb7	-0.13328825
136	0x3da102e0	0.078618765
137	0x3d117994	0.035516337
138	0x3de45a7a	0.111500695
139	0x3dfbd95a	0.12297316
140	0x3e0c5943	0.13705926
141	0x3c8d7b78	0.017270789
142	0xbe03d3c4	-0.12873751
143	0x3d022594	0.03177412
144	0x3e0ac361	0.13551094
145	0xbdbd38be	-0.09239338
146	0x3d23dca4	0.04000534
147	0xbdde86ab	-0.108655296
148	0xbdd4d9f3	-0.10393133
149	0xbcafb598	-0.021448895
150	0x3d98f8b6	0.07469313
151	0x3d6875bc	0.056752905
152	0x3e0f8bb5	0.14018138
153	0x3d392370	0.04519981
154	0x3d91cd3a	0.07119222
155	0xbd9a3de0	-0.07531333
156	0x3dcb8b82	0.099387184
157	0x3cf31818	0.029674575
158	0x3def65f2	0.116893664
159	0xbd3bef26	-0.045882367
160	0x3da54040	0.08068895
161	0xbd91ebd3	-0.07125058
162	0x3da6dd42	0.0814767
163	0xbdade33b	-0.084906064
164	0xbc5bc210	-0.013412967
165	0x3dfc68ee	0.12324701
166	0x3ca3b8b8	0.019985542
167	0x3dfdf9fa	0.12401195
168	0xbdae7fc6	-0.085204646
169	0x3ce3a368	0.02778788
170	0x3d333d54	0.04375966
171	0x3db16f6e	0.08663832
172	0x3cebcf28	0.028785303
173	0x3dc783da	0.097419456
174	0x3df1242a	0.11774476
175	0xbd2c4076	-0.042053662
176	0xbd6c382c	-0.057670757
177	0x3e08aa39	0.13346185
178	0xbcf30598	-0.029665753
179	0xbdfc2620	-0.12311959
180	0x3da07030	0.07833898
181	0xbde27558	-0.11057538
182	0xbd3ddde6	-0.046354197
183	0xbd613cb6	-0.05498954
184	0xbe2967f0	-0.16543555
185	0xbd05709c	-0.032578096
186	0xbd1b9c24	-0.037990704
187	0xbdcb75b3	-0.09934559
188	0xbde5eafb	-0.112264596
189	0xbc4ed370	-0.012623653
190	0x3ccd82e8	0.025086835
191	0x3deade5a	0.114681914
192	0x3d5706e0	0.05249679
193	0x3df447ea	0.11927779
194	0xbc6b0280	-0.014343858
195	0x3da040d8	0.07824868
196	0x3d14b3c4	0.03630425
197	0x3d8dc1d2	0.06921734
198	0x3de7fd0e	0.11327563
199	0xbc953928	-0.01821573
200	0xbdcf3c16	-0.10118882
201	0xbdc40688	-0.09571558
202	0x3dbade22	0.091244
203	0x3c8b5d88	0.017012373
204	0xbdc7b9f0	-0.09752262
205	0x3e29fa93	0.16599493
206	0x3c5f1e30	0.013618037
207	0x3dbbbe3a	0.09167142
208	0x3d919e60	0.07110286
209	0xbd82e493	-0.06391253
210	0xbc722970	-0.014780387
211	0x3e0234ff	0.12715529
212	0xbe133453	-0.14375429
213	0xbcaab478	-0.020838007
214	0xbdedcd26	-0.116113946
215	0xbd4374e0	-0.047718883
216	0x3d937238	0.0719952
217	0xbdd9e208	-0.10638815
218	0x3d05a1d0	0.03262502
219	0x3dacdde2	0.08440758
220	0x3e0659a9	0.1312014
221	0x3d1bb830	0.03801745
222	0x3e100a41	0.14066412
223	0x3db085ba	0.08619256
224	0x3e15d53d	0.14632125
225	0xbc284a40	-0.010271609
226	0xbdacbbe0	-0.08434272
227	0xbe1ce8c8	-0.15323174
228	0x3d7b4710	0.061347067
229	0xbdeadaf8	-0.11467546
230	0xbd8d0893	-0.06886401
231	0x3d4603ac	0.048343346
232	0x3cb18998	0.021672055
233	0xbd658ee6	-0.05604448
234	0xbe0f8c4c	-0.14018363
235	0xbcdad168	-0.02671118
236	0x3d32958c	0.04359965
237	0x3e1ea275	0.1549166
238	0x3d75a8c4	0.0599754
239	0xbd3eec26	-0.046611927
240	0xbbc3baa0	-0.005973175
241	0xbc3ac1f0	-0.011398777
242	0x3de67bbe	0.11254071
243	0x3df7a8e2	0.12092759
244	0xbe28ce07	-0.16484843
245	0xbe085b02	-0.13315967
246	0x3cf01b18	0.029309794
247	0xbbe202e0	-0.0068973154
248	0x3de1fb4a	0.11034258
249	0x3d1c89b0	0.038217247
250	0xbd913b0b	-0.0709134
251	0x3da2f166	0.07956199
252	0xbc6d5c00	-0.014487267
253	0xbd7570b6	-0.059921943
254	0xbcfdb220	-0.030968726
255	0xbd9e1c86	-0.07720284

fc2.weight f4 [1, 256]
0	0xbcde16dc	-0.02711051
1	0x3c152930	0.009104058
2	0xbd40a400	-0.047031403
3	0x3c162428	0.009163894
4	0xbc65cfd8	-0.014026605
5	0xbd2ee118	-0.042695135
6	0x3cd1b9b8	0.025601253
7	0xbc849e44	-0.016188748
8	0x3c849f38	0.016189203
9	0xbd7e9d3c	-0.06216167
10	0xbcc501e4	-0.024048753
11	0x3c6309f0	0.01385735
12	0x3d571fa4	0.05252041
13	0x3d152dec	0.036420748
14	0x3d09c14a	0.0336316
15	0x3d407406	0.04698565
16	0xbd064d02	-0.032788284
17	0xbd668bce	-0.056285672
18	0xbc191108	-0.0093424395
19	0x3d1495f2	0.03627581
20	0x3d51c0da	0.05120931
21	0x3d33fda8	0.043943077
22	0x3d3ee766	0.046607397
23	0x3cb25154	0.021767296
24	0xbcc01138	-0.02344571
25	0x3b255a80	0.0025230944
26	0x3c43f640	0.011960566
27	0x3d35a848	0.04434994
28	0xbd7bd390	-0.06148106
29	0x3c115b90	0.008871928
30	0x3cd1b87c	0.025600664
31	0xbd42fce8	-0.04760447
32	0xbaef3180	-0.0018249005
33	0xbd24941c	-0.04018031
34	0xbc9f6f34	-0.019462205
35	0xbd0b6e22	-0.034040578
36	0xbbddc9d0	-0.0067684427
37	0x3d27c21e	0.04095661
38	0x3d2e2212	0.04251296
39	0x3d62b700	0.055350304
40	0xbcf43d84	-0.02981449
41	0xbcc3fbf0	-0.023923844
42	0x3d4c907a	0.04994247
43	0x3d146972	0.036233373
44	0xbd0baa1c	-0.034097776
45	0x3c8e7a98	0.017392442
46	0xbd0916aa	-0.03346888
47	0xbd14ffa6	-0.036376618
48	0x3cadad80	0.021200895
49	0x3d5c3952	0.053765602
50	0xbd3d9f34	-0.046294406
51	0xbd3e4ba0	-0.04645884
52	0xbc9e7114	-0.01934103
53	0x3ccbc73c	0.024875276
54	0xbd289012	-0.04115302
55	0x3d0b566c	0.034017965
56	0x3d4da8a6	0.050209664
57	0x3b48dd20	0.003064938
58	0xbcf94064	-0.030426212
59	0xbd7c0aca	-0.061533727
60	0x3bd11c70	0.006381564
61	0x3d797756	0.060904823
62	0xbbcce120	-0.006252423
63	0x3d2375ea	0.039907373
64	0x3d0ad48c	0.033894107
65	0x3bfe9c30	0.007770084
66	0xbd10f932	-0.0353939
67	0xbcc968d4	-0.024586119
68	0xbd6322de	-0.055453174
69	0xbd526c04	-0.051372543
70	0x3cbe7e7c	0.023253672
71	0x3d4f027a	0.05053947
72	0xbd30673c	-0.043067202
73	0xbc8efdd0	-0.017455012
74	0xbbc97a60	-0.0061486214
75	0xbcdcae24	-0.026938505
76	0xbc03bcc0	-0.008040607
77	0xbd6bc550	-0.05756122
78	0xbd470dc2	-0.048597105
79	0x3c55ddf0	0.013053402
80	0x3b9ac850	0.004723586
81	0xbc048fd0	-0.008090928
82	0x3a4a9f00	0.00077293813
83	0xbd615f0c	-0.055022284
84	0xbd086944	-0.033303514
85	0xbd17f7d2	-0.037101574
86	0x3d7f324e	0.062303834
87	0x3c99a8f4	0.018757321
88	0x3be89790	0.007098146
89	0xbbd2f300	-0.0064376593
90	0x3d166f46	0.036727212
91	0xbca47aa8	-0.020078018
92	0xbcfae104	-0.030624874
93	0xbd1b2fba	-0.037887312
94	0xbc2827a0	-0.010263354
95	0x3cbb4f60	0.022864997
96	0xbcde7630	-0.027155966
97	0x3c9c3aa4	0.01907093
98	0x3b6aaca0	0.003580846
99	0xbce71524	-0.028208323
100	0x3c6ee620	0.014581233
101	0xbcb913ec	-0.022592507
102	0x3d6d09ba	0.057870604
103	0xbd6cef80	-0.057845592
104	0x3cd02d70	0.025412291
105	0x3ba70c50	0.0050979033
106	0xbd73bfbc	-0.059509024
107	0xbcf51ae8	-0.029920056
108	0xbd4c824a	-0.04992894
109	0xbce3a934	-0.027790643
110	0x3c55d670	0.013051614
111	0xbd5d40c0	-0.05401683
112	0x3ca4d21c	0.02011972
113	0x3d6271c4	0.055284277
114	0x3c890634	0.01672659
115	0xb9c29200	-0.00037111342
116	0xbbe41720	-0.0069607645
117	0xbb95b290	-0.0045684054
118	0xbd76546e	-0.060139112
119	0x3c2cadb8	0.010539465
120	0xbd717742	-0.058951624
121	0xbc79e2d0	-0.01525183
122	0x3ced8cb0	0.02899775
123	0xbc82e0b4	-0.015976287
124	0x3c11e090	0.0089036375
125	0x3d4664fc	0.04843615
126	0x3d3dae9c	0.0463091
127	0x3cf5afc8	0.029991046
128	0x3cb6a0a0	0.022293389
129	0xbae0b940	-0.0017145053
130	0xbd2fb2b4	-0.042895034
131	0xbc706640	-0.014672816
132	0xbce7d1cc	-0.028298281
133	0xba1dd480	-0.00060207397
134	0xbcc72164	-0.024307914
135	0x3c2c8418	0.0105295405
136	0xbd2550a6	-0.040360115
137	0x3c260598	0.01013317
138	0x3d28264c	0.041052148
139	0x3c411138	0.01178389
140	0xbcbd0448	-0.02307333
141	0x3cbc4af8	0.022984967
142	0xbc483898	-0.012220524
143	0x3c91d990	0.017803937
144	0x3ccd5978	0.025067076
145	0x3d7ac96a	0.06122724
146	0x3d5deef6	0.05418297
147	0x3d5abe50	0.053404152
148	0xbd3a0964	-0.04541911
149	0x3d0bcc62	0.03413046
150	0xbca030b0	-0.019554466
151	0xbd512dfe	-0.051069252
152	0x3d69b840	0.05706048
153	0xbd3ea248	-0.046541482
154	0xbd19da60	-0.037561774
155	0xbc534608	-0.012895115
156	0x3d31e670	0.043432653
157	0x3b67b6e0	0.0035356805
158	0x3d1106f2	0.035407014
159	0xbcd27db4	-0.025694706
160	0x3caad64c	0.020854138
161	0xbd381f0c	-0.044951484
162	0x3d69a8d0	0.057045758
163	0xbbccc140	-0.006248623
164	0xbd1bb354	-0.038012818
165	0xbd1fde00	-0.039030075
166	0xbd0ab672	-0.0338654
167	0xbcc6ccb8	-0.02426754
168	0x3c328270	0.010895357
169	0x3cf4bd0c	0.0298753
170	0xbc20b8e0	-0.009809703
171	0xbc0208f0	-0.007936701
172	0x3d66fb6c	0.05639212
173	0xbd3f93f4	-0.04677196
174	0xbc80c604	-0.015719421
175	0xbd6bd006	-0.057571433
176	0xbd68f186	-0.05687096
177	0x3aaa7780	0.0013005584
178	0x39058400	0.00012733042
179	0x3d6ac0cc	0.05731277
180	0x3c9a6200	0.018845558
181	0x3ca46b88	0.020070806
182	0xbd06d1c0	-0.032914877
183	0x3d052970	0.03251022
184	0x3d0b26ec	0.033972666
185	0xbc413060	-0.011791319
186	0xbb0041a0	-0.0019570366
187	0x3d499d08	0.049222022
188	0x3bad5f90	0.005290933
189	0x3b9ba5c0	0.0047499835
190	0x3c500470	0.0126963705
191	0x3d6aa040	0.057281733
192	0x3c32d690	0.0109154135
193	0x3d7532f8	0.05986306
194	0xbd27a5e8	-0.040929705
195	0x39626a00	0.00021592528
196	0xbbef5f10	-0.0073050335
197	0x3d4bf916	0.049798094
198	0x3c17f520	0.009274751
199	0x3d2cd970	0.042199552
200	0x3d412994	0.047158793
201	0xbce5b27c	-0.02803921
202	0xbd1cf858	-0.038322777
203	0x3ce10b60	0.027471244
204	0xbae532c0	-0.0017486438
205	0x3d4cbfd0	0.049987614
206	0xbd38f4c8	-0.045155317
207	0x3cf3a3f0	0.029741257
208	0xbc6fc6e8	-0.014634825
209	0x3b790640	0.003799811
210	0x3a46f080	0.0007588938
211	0x3b0fb120	0.0021925643
212	0xbd047ce0	-0.032345653
213	0x3c6c04e0	0.014405459
214	0xbc0219b0	-0.007940695
215	0xbd3ae9b6	-0.04563304
216	0xbd63fd22	-0.055661328
217	0x3d27cdec	0.040967867
218	0x3a179e80	0.0005783811
219	0xbbee1f70	-0.0072669312
220	0xbd13cc22	-0.036083348
221	0x3d2590bc	0.040421233
222	0xbd325c7e	-0.04354524
223	0x3bf91f70	0.0076026246
224	0x3cd0fc00	0.025510788
225	0xbc2b7c38	-0.010466628
226	0xbd49207e	-0.049103253
227	0x3af99c40	0.0019043759
228	0x3a300380	0.0006714389
229	0x3b9a03a0	0.004700139
230	0xbc7786e8	-0.015107848
231	0x3d10848c	0.035282657
232	0x3be460c0	0.0069695413
233	0xbd29f274	-0.041490987
234	0xbd4c50b6	-0.04988166
235	0xbd54b612	-0.05193145
236	0x3d4264a8	0.047459275
237	0xbb258b20	-0.0025259927
238	0x3d1c9716	0.038230024
239	0xbd2fa8bc	-0.042885527
240	0xbd25c7ce	-0.04047375
241	0x3d7e43f8	0.06207654
242	0x3d523f50	0.05132991
243	0xbd5b6f9a	-0.05357323
244	0xbd613766	-0.054984473
245	0xbcc66f8c	-0.024223112
246	0xbd1764ec	-0.03696148
247	0x3d4bd70e	0.04976564
248	0x3d209946	0.039208673
249	0x3d0fd344	0.035113588
250	0xbd0aeec4	-0.03391911
251	0xbc0988f0	-0.008394465
252	0x3c845cf8	0.016157612
253	0x3ca9ce7c	0.020728342
254	0x3ca32318	0.019914195
255	0xbd34392c	-0.043999836
